trained_models/net_2/dense_classifier_net_2_obs_case_1.pt (torch, 901811 bytes, 55 tensors)

weight f4 [20, 20]
00000000: 4cf1 923d 47a6 4bbe 9f57 363e c60f 873c
00000010: 9d9a 23bd ab6d 7e3d 80bc 113d 5e83 153e
00000020: 4814 2c3c af8f aabd 37c4 39bc 376a d5bd
00000030: b0fc 8dbd f130 8b3d 8b8d a0be ac25 59bc
00000040: 2b3c 5fbf 1d08 a73f e2ae 11be 8094 43bd
00000050: edd8 9dbd 7d2f d4bd 414a 84bb 4451 26be
00000060: 6f3f 88be 3e54 24be c34e e93b c79d efbe
00000070: 02e6 fc3c 06c6 a63d 09c8 78be b98b 3bbf
00000080: 911b 8fbd 6769 b03e a7e7 883f 9105 3abd
00000090: 5f9b ab3e 4cd8 933e bf9d c4be 6a45 90be
000000a0: da47 3bbd 2bc2 013e 0c3a 46be ab71 6fbe
000000b0: 9a6a 303d f106 af3a 8c4f c5bd 69e2 51be
000000c0: da0e f3bc 9c3b c73d 748f aabe fc7f 90bf
000000d0: 1134 fa3d 54be 6e3e 8e33 ec3e c384 da3d
000000e0: de08 673e f586 9fbc 6b31 ed3d 9fc8 bdbe
000000f0: 52bf 92bd 0f4a 563d 91c0 83be 8f3f 063e
00000100: fc5d 4cbd 648e 51be 727a 563d 7084 e3bd
00000110: ac5a 8a3d 52de 283e 1357 993d b3bc 623e
00000120: 852a 55be f250 81be 918e 4cbe 9d08 b63d
00000130: b890 2e3e 13aa 4e3d 62c7 0bbe eb5d 523e
00000140: 9b18 383b 83c0 bbbd 1fde b73e 2a62 c8bd
00000150: b45f 133d 06bc 98bc c23e 7a3b cf67 93bd
00000160: d43d be3c aefc a93d 3a0c c2bc 9c09 1e3f
00000170: 3fee acbc bd7c d03d be76 063e ab21 503b
00000180: 17fe 663f 5e33 9bbf e901 81be aca9 1dbe
00000190: 49e2 86bc a67c c7bd 2c7f e43d 7801 54bc
000001a0: d8de 78bd 28d1 adbd 0d4c bb3b 1b3a fcbc
000001b0: 85c1 1b3c 8a64 8fbc e5f4 673c a14f 2a3e
000001c0: 2f1f 333c 144c ccbd 5cf2 e83d 1945 a9bd
000001d0: b729 803e 5e6c 02bf 3589 ed3d a1b8 af3d
000001e0: afb2 963d 9a73 563d a3c7 b53e 82ba 12be
000001f0: 2f19 de3d 27a3 89bd c3ef 3a3d a667 9dbd
00000200: 9d9d 793c 3648 33be d1ee 033e c377 6f3f
00000210: 57ae fcbd f614 093e c073 c13c f357 b7bd
00000220: 7c00 1c3f 6769 2bbf 9e29 22bf e7df 8dbd
00000230: ff82 b93c 4b37 bebc ee33 8a3d 1725 a7bd
00000240: 4302 e83b b128 dbbc 90eb 41bd 4d4c 4d3c
00000250: 0ce5 2c3b 1c46 f6bc 8767 b4bd eac5 2c3e
00000260: 0eea 79bc 5fd9 2e3e 7bd2 89be 96c5 89bc
00000270: d4c6 d73e 8c8d babe d3e4 27be e966 cabe
00000280: bb1a a6bd 359d bd3d 04aa c9be d3de ae39
00000290: 4228 1ebe 6e92 29bc 8ee9 97bc 322e 20be
000002a0: c574 a9bc f516 173d 345e 6cbe bf3a 7ebf
000002b0: a5d3 2ebb 7a52 d23e 15b4 9b3e 6954 013e
000002c0: 7724 9bbe 6d9f 963f 9765 afbe fd60 b6be
000002d0: e100 4bbc 30ed 24be c32a 21bd b167 62bd
000002e0: 666e b8bd 8621 c7bc 622d 4ebc c483 ddbc
000002f0: cbe9 61bc 5cdd bebd 59d2 d3bc 2563 09be
00000300: 9476 c83d d0f2 bc3d f4c1 9c3e d081 bdbd
00000310: 757c acbe dbe8 213c 4acf 7fbe 0cce be3c
00000320: 3e2f d83d 2345 0cbe fdc1 bf3e cd46 153e
00000330: eb29 82bd 4517 13be f4c4 833d 2bd4 d6bd
00000340: e330 e23d 3932 81bd 164b 96bd 25f9 c13e
00000350: eb5e 17be 0188 0c3e e8bd 133d 9e76 843e
00000360: f005 893f b99b abbf 20d7 893e 0c4b 0cbf
00000370: cf5e 07bd 47af 13bd 038a aebc 3804 c43d
00000380: c76c f3bd 6bfc 1abd 861b 68bc 1480 75bd
00000390: 2d76 94bb 395d 40bd 3f62 0b3b fc28 003e
000003a0: 44c5 9abd 1199 573d 8134 78bd 7681 023e
000003b0: 42ca 763e 6719 c1bc 7021 26be 896f 94bb
000003c0: 7717 95bc ea98 93be 70a3 313e 280c dcbd
000003d0: a8ad 4bbe 8b35 45be aa5d a3bc 2dfc a1be
000003e0: f531 a03c ed97 1cbd 353e 21bd 777d 7dbe
000003f0: 2919 da3d 9afe c4bd 80ff 6e3f 40a6 f2bd
0.0717493 -0.19887649 0.17806862 0.016487014 -0.039942373 0.062116306 0.03558016 0.14600894
0.010502882 -0.08328187 -0.011338285 -0.104206495 -0.06932962 0.06796444 -0.3135799 -0.013253611
-0.87201184 1.3049351 -0.14226869 -0.047749043 -0.07707391 -0.1036062 -0.004037172 -0.16241938
-0.26610896 -0.16047761 0.007119985 -0.46800062 0.030871395 0.08143239 -0.24295057 -0.73260075
-0.0698768 0.34455416 1.0695695 -0.045415465 0.33516976 0.2887596 -0.384016 -0.2817796
-0.04572282 0.12671725 -0.1935808 -0.23383205 0.043070413 0.0013353509 -0.09634313 -0.20496525
-0.029670168 0.097281665 -0.3331257 -1.1289058 0.12216962 0.23314792 0.46133083 0.106698535
0.22561976 -0.019473532 0.11581691 -0.37067124 -0.07165398 0.05231672 -0.25732854 0.13110183
-0.049894318 -0.20464474 0.052362867 -0.11109245 0.067555755 0.16491058 0.07487311 0.22142296
-0.20817001 -0.2525707 -0.1997626 0.088883616 0.17047393 0.050455164 -0.13650277 0.2054364
0.0028090838 -0.09167578 0.35911652 -0.09784348 0.03597994 -0.018644344 0.003818438 -0.07197534
0.023222841 0.08300148 -0.02368747 0.6173341 -0.021109698 0.10180042 0.13131234 0.003175835
0.9023146 -1.2125051 -0.2519677 -0.15396756 -0.016465323 -0.09740572 0.111570686 -0.012939803
-0.060759395 -0.08487159 0.005715853 -0.030789426 0.009506588 -0.017503995 0.0141575085 0.16631939
0.010932728 -0.09975448 0.113743514 -0.082651325 0.25031826 -0.50946605 0.11598436 0.08580137
0.073583 0.05235634 0.35503873 -0.1432896 0.10844647 -0.06720572 0.04563881 -0.07685785
0.015235332 -0.17508015 0.1288407 0.93542117 -0.1233794 0.13386902 0.023614764 -0.08952322
0.6093824 -0.66957706 -0.6334475 -0.069274716 0.022645472 -0.023219725 0.06748186 -0.08161371
0.0070803477 -0.026752802 -0.04734379 0.012530399 0.002638164 -0.030062728 -0.08808809 0.16872373
-0.015253557 0.17075108 -0.26918396 -0.01681785 0.4214388 -0.36436117 -0.16395883 -0.3953164
-0.08110567 0.092585005 -0.39387524 0.00033353883 -0.15445045 -0.010349853 -0.018543985 -0.15642622
-0.020685563 0.036887128 -0.2308281 -0.9930839 -0.0026676443 0.4107855 0.3041083 0.12629856
-0.30301258 1.1767403 -0.34257194 -0.3562087 -0.012390346 -0.16106105 -0.03934742 -0.05527467
-0.09005432 -0.024307977 -0.012584062 -0.02704037 -0.013788651 -0.09319565 -0.025857138 -0.13416727
0.09788242 0.09226 0.30616724 -0.092532754 -0.33688703 0.009882177 -0.24981418 0.02329161
0.10555886 -0.13698249 0.3745269 0.1457779 -0.063556515 -0.14364345 0.0643405 -0.104896866
0.11044481 -0.06308407 -0.0733854 0.37885395 -0.14782302 0.13723756 0.03606978 0.25871748
1.0704937 -1.3406898 0.2692194 -0.5480201 -0.0330494 -0.03605583 -0.021306043 0.09571117
-0.11885982 -0.03783838 -0.014166718 -0.059936598 -0.004530689 -0.046963904 0.0021268276 0.12515634
-0.07557157 0.05263621 -0.060596947 0.12744698 0.24100593 -0.023571683 -0.16223693 -0.0045298976
-0.018199665 -0.28827602 0.17347503 -0.10744506 -0.19890463 -0.19258706 -0.019942123 -0.31637707
0.019555071 -0.038230825 -0.039365966 -0.24754892 0.1064933 -0.09618874 0.9335861 -0.11848116

bias f4 [20]
00000000: f27d 3d3d 9f33 103d 7c98 733e f418 12be
00000010: f6e2 cc3d b994 49be 490e 803e 2ff5 1c3e
00000020: fd1e 3ebb 16c4 00be 23da 423e b9c4 a9bd
00000030: 0678 9fbe 24d9 bfbe a205 493e 77e8 143e
00000040: 1470 10be 38cd ae3e 5e01 5b3c a5c1 32be
0.04626269 0.03520548 0.23788637 -0.14267331 0.10004227 -0.1968564 0.250109 0.15327905
-0.002901017 -0.12574801 0.19028525 -0.08289475 -0.31146258 -0.37470353 0.19631055 0.14541803
-0.14105254 0.34140944 0.013367025 -0.17456682

weight f4 [20, 20]
00000000: 601c e6bc 6bf5 eb3e f5a4 0bbd 1bc2 bf3e
00000010: 507c 663e c8a2 ffbc 90c4 9abd 2695 a8be
00000020: e3a8 043c 765a 87bc 23fa a93e f6f0 113f
00000030: 72cf 213e 26d7 64bd 8e31 e0bd aabf 513e
00000040: 3445 1a3e e7b5 333f 84cc fcbe caed 22be
00000050: 59f6 30bf b7ea 843d ca8b 093e 7ee6 f6bd
00000060: b4ae 1dbf 19dc 89be 97eb 8e3e b752 cfbd
00000070: 02b7 1e3e b7ec 34be 231b 72be 5bb6 95bc
00000080: 5e47 37be f4df 97bc 4a83 1bbe d2f9 80bd
00000090: f2f4 a53e 1acf 043f e6a1 bdbc 0001 ab3d
000000a0: 3209 8b3e 2b04 74bd e6e9 86bd 9912 893d
000000b0: 72c1 b03e d93a 03bd a511 8d3e 8649 633d
000000c0: 2b77 12bf 067e 943d 41b0 bb3e 76b7 13bd
000000d0: 37a6 5b3e 9016 113e f89b 29bd 0605 debc
000000e0: a9da 21bd a74b acbe ccce 5fbd eae8 8a3e
000000f0: 73d7 eebd d086 d43c a660 f6bd b892 23bd
00000100: 1b0b 683c c3a2 8abc ca44 82bd 03be 26bf
00000110: 9e97 c43e a162 7e3e 51d0 10bf 9409 55bf
00000120: 8c50 023f c641 adbc 0d2d 843e f19c b3be
00000130: 0be6 d53e d931 dfbe 5879 18be f10f 07bf
00000140: 9a55 99be 83e1 42be ef9b d83e e087 4cbe
00000150: 33d9 adbe e032 55be ad50 903e 854e 21be
00000160: 4cbe f4bd aa10 21be f8b8 a9be 7a48 243d
00000170: ea58 c2be e1d1 28bd 63e7 aa3d ea63 453c
00000180: e585 ff3d c614 603e 4dfe 05bd 1fa1 a3bd
00000190: f21d 433e 4f8d fdbd e8eb 09bd ee54 59be
000001a0: 4f9f 733d 5bbb 033e 57fa 69bd 480c bebe
000001b0: b485 f93c 13b0 2bbe 2f07 4b3d 0ffa b93d
000001c0: 8594 2bbd 1bb0 f3bd 37e4 ed3d 3b12 8e3d
000001d0: 1619 253e 938f 533e bd93 01bf ce99 5d3e
000001e0: 5dc0 e0be 5293 19ba 2a86 bebd 30aa fd3c
000001f0: df56 7cbe b8a4 cdbb af4b 88bb 2836 cc3d
00000200: 73ff bebe 0ba5 79be 2489 84be c6d9 6f3e
00000210: 3f23 ecbd 1ca6 8fbe 3b29 11bf 4b9e 833e
00000220: a887 3a3c 9e4f 023f ce0a 0e3e 01a8 623e
00000230: 08e8 f2be 038a 25bb d9c1 753e f012 f73d
00000240: f7bf 323e 9732 a23d 3d6b 803c 30e4 c73e
00000250: 844a 6dbd 2fca bebd aea0 c8be e093 c3bd
00000260: 4ec0 903d b678 a8be 1549 98be d6f5 d33e
00000270: 27a9 b43d 3462 f93a ffa2 febd 2491 b0be
00000280: dfa1 f63d 58c7 84be f0fd 0dbd 3da8 0abd
00000290: 98ec cfbe 1372 513e ffb0 09be a979 a2be
000002a0: 31f5 343e 94cf 15bd 9fbf 6fbf b242 48be
000002b0: 0543 d43e 320d 753f 56da 4d3e ceb9 88be
000002c0: 01d7 ed3d 1606 6cbf 6f5a 9ebd 5ef9 77be
000002d0: fced 05bf eaf2 76bd 5b7f be3e c2e1 8bba
000002e0: 7abe c0bd 3e53 8dbe 52a0 d8bc 4c58 53be
000002f0: 0f39 8b3e 33f4 cbbc 14dd b23c 47c4 9ebb
00000300: 2f16 0b3f 2195 773d e569 6ebe 95d1 85be
00000310: 6b38 9b3e 848b e0be 1ffe 30be 0e52 0fbe
00000320: f225 65be 63bc 813d 9ea5 ecbc e440 023d
00000330: 3791 243d 26d0 e53d 6281 323b c5dc 56bd
00000340: f835 dcbe 0827 7ebc 2d4d 7cbd 6fff e2bd
00000350: ba53 f43e 4118 bebe 1629 113e 577f 02bd
00000360: fa5c d03d 2b6d abbe e0ea 953e 863d 66bc
00000370: 8595 263d a185 82be d32c 67be d74d 353d
00000380: c95f 953d 7704 0d3c 2f18 9a3d 493d 923c
00000390: baff b0be 2fcf 91bd 76ec 873e 6427 313c
000003a0: f54e 26be 8232 cd3d c2db 7abe d586 cf3c
000003b0: e324 40be a2a7 7b3e a128 aabc 0584 f43c
000003c0: 347d 6abe 3c63 04be 12ce 62bd aaad 343e
000003d0: 527b f33e 8aba 9d3e 7805 15bf a361 083e
000003e0: 2956 60bd 7ec8 21be 2b15 423e 28fc fabe
000003f0: 7e4e fb3e b961 04bf 741b e7be 29be 023f
-0.028089702 0.46085677 -0.034092862 0.37452778 0.22508359 -0.03120555 -0.075570226 -0.3292629
0.008096906 -0.016522627 0.33198652 0.570083 0.1580179 -0.055869244 -0.10946952 0.2048327
0.15065461 0.70199436 -0.49374783 -0.15911022 -0.69125897 0.06490081 0.13432232 -0.12055682
-0.615947 -0.26925734 0.27914116 -0.101231985 0.154995 -0.17668425 -0.23643164 -0.01827543
-0.17898318 -0.018539406 -0.15186802 -0.062976494 0.3241344 0.5187851 -0.023148488 0.083498
0.27155453 -0.059574287 -0.06587581 0.06693 0.34522587 -0.032038543 0.27552524 0.05549004
-0.57213086 0.072505996 0.3665791 -0.036063634 0.21450125 0.14168763 -0.04140851 -0.027102005
-0.03951517 -0.33651468 -0.054640576 0.27130824 -0.116621874 0.02594319 -0.12030153 -0.039934844
0.014162804 -0.016923314 -0.06360777 -0.65133685 0.38396925 0.24842311 -0.56567866 -0.8321774
0.50904155 -0.021149527 0.2581562 -0.35080674 0.4177707 -0.43592718 -0.14890039 -0.527587
-0.2994812 -0.19031338 0.42306468 -0.19973707 -0.33954772 -0.20820189 0.2818655 -0.15752609
-0.11950359 -0.15729013 -0.33148932 0.04010818 -0.3795846 -0.04121578 0.08344915 0.012047747
0.1247671 0.21882924 -0.032713223 -0.07989716 0.19054392 -0.12380468 -0.033672243 -0.21223804
0.0594781 0.12864439 -0.05712351 -0.37118745 0.030459262 -0.16766386 0.049567398 0.09080898
-0.041889686 -0.11898824 0.11615794 0.06937071 0.16122851 0.20660238 -0.50616056 0.21640703
-0.43896762 -0.0005858439 -0.093029335 0.03096494 -0.24642514 -0.0062757395 -0.004159413 0.09971267
-0.37304267 -0.24379365 -0.2588588 0.23422918 -0.1153016 -0.2805642 -0.5670354 0.25706705
0.011384882 0.50902736 0.13871309 0.22134401 -0.4744265 -0.0025259263 0.23999728 0.12064159
0.17456041 0.079198055 0.015676135 0.3904128 -0.05793239 -0.09315907 -0.3918509 -0.09549689
0.07067929 -0.32904595 -0.29743257 0.41398495 0.08821326 0.0019026459 -0.12433433 -0.34485734
0.12042593 -0.25933337 -0.034666 -0.03385185 -0.40610194 0.20453672 -0.13446425 -0.31733444
0.17671658 -0.036574915 -0.93651766 -0.19556692 0.41457382 0.9572326 0.2010282 -0.26704258
0.11613274 -0.92196786 -0.077320926 -0.2421622 -0.5231626 -0.060290255 0.3720654 -0.001067214
-0.094113305 -0.2760257 -0.026443634 -0.20639151 0.2719197 -0.024896717 0.021833934 -0.0048451754
0.54330724 0.060444955 -0.23282583 -0.2613646 0.3031648 -0.43856442 -0.1728444 -0.13996145
-0.22377756 0.0633476 -0.028887566 0.031800166 0.04017755 0.11221342 0.0027237763 -0.052456636
-0.43009925 -0.015512235 -0.061597038 -0.11083876 0.47720128 -0.3712788 0.1417583 -0.031859722
0.10173984 -0.33481726 0.29280758 -0.014052754 0.040669937 -0.25492576 -0.22575693 0.044263687
0.0729366 0.0086070215 0.07524144 0.017851489 -0.34570104 -0.07119595 0.26547593 0.010812614
-0.16241057 0.10019399 -0.24497893 0.025332848 -0.18764071 0.24575666 -0.020771326 0.029848108
-0.22899324 -0.1292848 -0.055372305 0.17644373 0.47555023 0.3080638 -0.5821147 0.13318495
-0.05476967 -0.15799138 0.18953387 -0.49020505 0.49083322 -0.5171161 -0.45138133 0.5107141

bias f4 [20]
00000000: adb8 e8be a7ea 80be 8f72 94bd 5846 3ebf
00000010: 495c 7fbe ceb4 40be a598 c0be 11c8 15bf
00000020: 816c 94be 71aa 7ebe 4469 533e 29d2 96bd
00000030: 947d a2be 66fd 2abf 4dc2 1cbd 041d 4ebd
00000040: 635d 143c f88f da3c 1651 2c3d 13c7 b2be
-0.45453396 -0.25179026 -0.07248413 -0.74326086 -0.24937548 -0.18818972 -0.3761646 -0.585084
-0.28989032 -0.24869706 0.20645624 -0.073643036 -0.31736434 -0.66792905 -0.038271237 -0.05032064
0.009055468 0.026679978 0.042069517 -0.34917507

weight f4 [64, 64]
00000000: a9fd a7be 5f42 723d 6e27 1ebe 1579 88bd
00000010: 47df 14be 4fa5 913e 2c84 b1be 7035 47be
00000020: 04e1 d83e 1aa0 afbd bf57 6d3d 53ad dcbd
00000030: bb26 31be 7925 dfbd 2403 143e cbf4 003e
00000040: fc57 853d d580 e83e 1587 d23d 2e25 523e
00000050: dc3a 4fbd ade8 d03e f2f9 e5be 7a78 763e
00000060: 2413 853c 3edf e13e 509a 68be 23db 473e
00000070: 622a 43be 5b38 513e b9e4 913d 33f2 01be
00000080: 8080 86be 573d 90be 9f57 bfbd 0b77 f4bd
00000090: aa7c 83be 27c6 9bbe 6085 babe acaa f53d
000000a0: f5fb b4be b095 3cbe 1b86 52be 1af8 c7be
000000b0: fb85 1e3e 03f0 6abe fffd 313f 6007 943e
000000c0: 2105 08bf 2146 a5be 072b 903d cf8a 4dbe
000000d0: 092f 193d 5b84 79be c924 64bd 2786 89be
000000e0: fd0b e4bd 4099 9b3e ad04 95be 7c61 5dbe
000000f0: 5992 f23c cbc1 59be 6ee4 ec3d 12e4 f0bd
00000100: a225 d9be 66a4 8a3d a17f 6a3e 310f 223e
00000110: 8ca3 713e a6bf 293f 02fa 1ebf 014c 4f3e
00000120: 04a1 623e c558 653c 487e 663e 2e27 30be
00000130: 0458 aa3e 7168 263e abae c33e cb94 693e
00000140: 871f bfbe 8d98 743e 6568 723e d092 a43e
00000150: 396c 7f3e cc25 b63e 46ce 24be 653f f43e
00000160: d0be a13e 95d6 b43e 7aee a6be 4b9d ac3e
00000170: 0222 f2be 9476 153f 86fb 8d3e 88e3 6f3d
00000180: 6a5f f0bd 5690 8ebe ea87 86be 8554 83bd
00000190: d397 6ebe d913 ed3d 622e 1ebe b57e a43e
000001a0: 4ec7 80be 3827 6fbe c410 9f3c 9cc8 d1be
000001b0: b824 c13e 2d67 88be 3c0a 713e 8063 06be
000001c0: a719 d9be a0da a3be 5e00 2b3d c798 87be
000001d0: 6bf5 7f3d ad2a 02be 3aeb a2bd e187 02be
000001e0: b0c8 16bd 2fd0 803d 423f 28be fc97 aebe
000001f0: 3e57 ab3d 9051 a5be 2ed8 993e 47be a63c
00000200: 1d90 d6be 4274 b83e f7f1 d0bd 47b3 86bd
00000210: 09e6 dfbd 6b98 003f 2388 33bf e126 7abe
00000220: 5e92 f03e 2782 f5bd e959 863d 0b0c 4cbe
00000230: 556c 55be aa22 7ebe a85a 73bd 43f3 6dbe
00000240: cc5e 323d cdf8 1bbe 9166 76be b22f be3d
00000250: 608e 44be c1b3 f73e 65fb eb3a dd2d 5d3e
00000260: 15f0 9b3d 1544 9abd 03a5 41be d4b8 0f3f
00000270: 9eb4 bcbd d58b b13e 7aae bc3d d6b0 c43d
00000280: d10d 12bf e69b 85be 0cb5 c93e 10d5 72bd
00000290: a0d4 b5bd bc80 b4be 9fba aabe fc58 8bbe
000002a0: f5ad 563b d5bf 383e eb1f 45be 64a9 bbbe
000002b0: 472b b0be 9d5a a3be 09f6 84be f449 bb3e
000002c0: b026 abbe d031 a9be 82cc f4bd 1994 a3be
000002d0: 5f4d 043f cee1 e23c 5a0b 31be 2c4c c13e
000002e0: 4db5 babc 83ae c13e f098 dbbc c71d 4e3e
000002f0: 253d fdbd 4449 3f3e 69f3 3e3e 5808 24be
00000300: d8ed 0dbf f106 8bba c23e 12be 0cfe 15bf
00000310: 690b ce3d 6800 363d faec 29bf 908b 283b
00000320: 3e91 cf3d 28fc 53be 8228 0cbd 0494 18be
00000330: e9ce 04be 1d32 ecbd 3fd3 26be 777f 58be
00000340: 9c6f 7abd 9d09 683e e817 c93e 0943 ca3e
00000350: caa7 acbe 7f9c da3e 59e9 49be 9984 99bd
00000360: 2111 673d ec36 213e cfb9 233e b5cd 023f
00000370: 641e b03e 6996 80bc a073 b33e db3f 843c
00000380: 4fe1 48bf b16b 33bf e1c8 78bd 0668 de3d
00000390: b58b 193d c61d 3ebe 0d56 3ebe 33d3 a5bd
000003a0: c46d 033e 9961 1f3e f273 92be f9b8 aebe
000003b0: c219 03bf f16d fcbe 0d49 da3b 9a8a 81bc
000003c0: 4689 acbe 303f dabe f6bf 58bb 6ccd 64be
000003d0: 7182 1d3e 4359 30be 668b 993e a914 763e
000003e0: 9280 473e 7917 14bc 6a7a a6be aa87 39be
000003f0: a6fc 07bd 5a67 a1bc 5eb9 a63e f4ec 073e
-0.32810715 0.059145328 -0.15444729 -0.066637196 -0.14538299 0.28446433 -0.34671152 -0.19453979
0.42359173 -0.08575459 0.05794501 -0.107752465 -0.17299931 -0.10895819 0.14454323 0.12593381
0.06510922 0.4541079 0.10279671 0.20521995 -0.050593242 0.40802518 -0.44917256 0.24069396
0.016244479 0.44115633 -0.22715116 0.19517188 -0.19059137 0.20431654 0.071237035 -0.12690048
-0.26269913 -0.281718 -0.09342884 -0.11936768 -0.2568105 -0.30424616 -0.36429882 0.11995444
-0.35348478 -0.18416476 -0.2055897 -0.39056474 0.15480797 -0.2294312 0.6952819 0.28911877
-0.53132826 -0.32280067 0.07039457 -0.20072483 0.03739837 -0.24366896 -0.055699144 -0.26860163
-0.11135099 0.30390358 -0.2910513 -0.21619219 0.0296108 -0.21265332 0.11567007 -0.11762251
-0.42411524 0.06769638 0.22900249 0.15826108 0.23597544 0.6630806 -0.6210023 0.20243837
0.22131735 0.013998215 0.2250911 -0.17202446 0.33270276 0.16250779 0.382192 0.22810666
-0.3732874 0.23886319 0.23672636 0.3214326 0.24943627 0.35575712 -0.16094312 0.47704616
0.3159089 0.35319963 -0.32603818 0.33713755 -0.4729157 0.5838406 0.2773096 0.0585666
-0.11736949 -0.27844495 -0.2627557 -0.06412605 -0.23300104 0.11576051 -0.15447381 0.3212792
-0.25152057 -0.23354805 0.019417174 -0.40973365 0.37723327 -0.26641217 0.2353906 -0.13123894
-0.42402384 -0.32002735 0.041748397 -0.26483747 0.06248991 -0.12711592 -0.07955022 -0.12747146
-0.036812484 0.06289708 -0.16430381 -0.3410033 0.083662495 -0.3228879 0.30047745 0.020354403
-0.41906825 0.36026198 -0.10202401 -0.06577163 -0.109325476 0.5023257 -0.70129603 -0.24428894
0.4698667 -0.11987715 0.06560118 -0.19926469 -0.20842107 -0.24817911 -0.05941263 -0.23237328
0.043547437 -0.15231629 -0.24062563 0.09286441 -0.19194937 0.4837933 0.0018003999 0.21599527
0.076141514 -0.07532517 -0.18910603 0.561414 -0.092141375 0.34676996 0.09212966 0.09604041
-0.5705233 -0.26095504 0.3939594 -0.059285223 -0.088784456 -0.35254467 -0.33345506 -0.27216327
0.0032757495 0.18041928 -0.19250457 -0.36652672 -0.34408018 -0.3190507 -0.2596896 0.3657986
-0.33427954 -0.33045816 -0.11953069 -0.31948927 0.5168056 0.027695563 -0.17289487 0.37753427
-0.02279153 0.37828454 -0.026806325 0.20128547 -0.12365178 0.18680292 0.18647541 -0.16018808
-0.55441046 -0.0010606927 -0.14281753 -0.5859077 0.1006077 0.04443398 -0.6637722 0.0025717951
0.101351246 -0.20701659 -0.03421832 -0.14900213 -0.12969555 -0.11532996 -0.16291521 -0.21142374
-0.061141595 0.22659917 0.39276052 0.3950427 -0.33721763 0.42697522 -0.19717921 -0.07495994
0.05641282 0.15743607 0.15988849 0.51095134 0.34398186 -0.015696721 0.35049152 0.01614373
-0.78468794 -0.700862 -0.060738448 0.10859685 0.03748675 -0.18566045 -0.18587513 -0.08096924
0.12834841 0.15564574 -0.28604084 -0.34125498 -0.5121118 -0.4930263 0.0066615404 -0.01581316
-0.3369848 -0.42626333 -0.0033073402 -0.22343987 0.1538179 -0.1722155 0.29989165 0.24031319
0.1948264 -0.009038799 -0.3251527 -0.18118158 -0.03319993 -0.019702602 0.325633 0.13273984

bias f4 [64]
00000000: f743 07bf 9fe1 17bf 47ed 0dbf ce3e 73bf
00000010: 3426 95be e47d 36bf 50a4 3fbf d2b4 16bf
00000020: 3c02 01bf db66 08bf a6be e3be f89e 9cbe
00000030: d39a 24bf aa28 ccbe 0bf3 1fbf 4b5b 00bf
00000040: 6850 21bf 77d4 98be 4bcc b5be 794e 35bf
00000050: c603 00bf 221f a3be 14be adbe cfdd 09bf
00000060: 1cb8 ccbe 0110 fabe c11a febe 5df9 84bd
00000070: 0e94 b9be 49c7 3dbf f055 c2be 3b1c 24bf
00000080: 6f06 4ebf 0670 b1be 0f7d b93d 9226 3fbf
00000090: e7b1 dabe 6ae9 96be b561 bebe dc77 6bbe
000000a0: 3a15 29bf c7b2 ebbe 1094 9dbe cb92 3ebf
000000b0: c714 b0be 2775 0cbe 662d 3dbf e907 1fbf
000000c0: 5609 f1be 9dc1 23bf 4b41 84bf f583 d9be
000000d0: 1f5a 75be c8c1 3bbf f6b3 c8be 68bf ddbe
000000e0: adf1 cabe 79f1 03bf d5c3 cfbe 5bfa 24bf
000000f0: dc38 10bf f45c 30bf 538c 07bf bd93 29bf
-0.5283808 -0.59328645 -0.5544018 -0.9501771 -0.2913071 -0.71285844 -0.74860096 -0.5886966
-0.50394034 -0.53281945 -0.4448139 -0.30590034 -0.64298743 -0.39874774 -0.6248023 -0.501393
-0.63013315 -0.29849598 -0.35507426 -0.70822865 -0.5000576 -0.3185969 -0.3393408 -0.5385408
-0.39984214 -0.48840335 -0.49629787 -0.06492875 -0.3624577 -0.7413221 -0.3795619 -0.64105576
-0.80478567 -0.3465578 0.09057056 -0.7466823 -0.42713854 -0.29474956 -0.3718392 -0.22994941
-0.66048014 -0.46034834 -0.30777025 -0.7444274 -0.34390852 -0.13716565 -0.738974 -0.62121445
-0.47077435 -0.63967305 -1.0332426 -0.42483488 -0.2396016 -0.7334256 -0.391998 -0.43310094
-0.3963751 -0.51540333 -0.40579095 -0.6444451 -0.5633676 -0.68891835 -0.5294849 -0.66241056

weight f4 [64, 64]
00000000: 3f2b 08be e719 b33d aeb6 1b3e 34d5 923e
00000010: 28e9 863e f030 843d 82f9 c5be 90da 98bc
00000020: b8d2 4f3e 4ddd fabd e459 f3bd 96b5 003d
00000030: 3c65 41bd 9c86 14be 9b0f 3bbf cdf4 8e3e
00000040: ac4e a9bc b286 ba3d 3e31 54bc d1c9 733e
00000050: 537c 293f a72b 4aba cf04 dabd fcff aabe
00000060: 9646 d93d 6c0a b0bd d511 623d 29e9 203e
00000070: aae6 f83d 29ae 873d 00ba dabe 8577 853b
00000080: 28de 1abe f028 d43d 158f ff3b 80c8 6fbd
00000090: 1271 483e 5ebe 2c3e 4ceb 85bc daa5 683e
000000a0: 69c1 af3d 7b9a d3bd 3769 c73d 4b1e 003e
000000b0: c593 db3c 5114 bb3c 0313 8dbe bd19 a5bd
000000c0: bcab aa3d 96be e83d e171 803e b2f3 a13d
000000d0: 59f4 a33e cd64 4b3d 26e2 fc3c cfc8 3f3e
000000e0: f525 00ba 22ba d33e 125a 6e3e 08c4 813d
000000f0: 7c40 88be 4436 0e3e 91e4 21bd 9458 25be
00000100: 1672 e53c d107 db3d 9b69 86be 4f00 0a3c
00000110: 68e6 6fbe 73a6 a7bd 5682 eb3d 78ce 9f3c
00000120: aaa3 003e 435e daba ce9b 103e 241b 00bf
00000130: 511f 903c b8f1 453d 7e50 883e 5edb 263e
00000140: 03df 3fbe 4a0b 13bd 5e1b b0bd badc f0be
00000150: 50eb 9abc 4748 20bc d6bb 463e f93a f73d
00000160: 9e41 01bd 6c72 42bd d3f1 8d3c 9bdc 5abd
00000170: eddc a8be ab29 25bd dc10 2e3e beb3 2e3c
00000180: 3f64 3d3e 55e7 0b3e 1fe2 033e 435e fd3c
00000190: c646 8b3e bb48 9d3c 8fc3 143d 0db4 44be
000001a0: 31f2 0fbe c89e 263c d268 f93d 15c2 d83d
000001b0: 2bce e0bd 32c8 32be ac38 51bd 2836 70bc
000001c0: 7401 513d fd99 53be b4ff 3cbe d08c 2dbe
000001d0: 3902 15be e1f1 7ebd 21b1 4b3d 22a8 7dbd
000001e0: a45f 7abd a069 23bd b9e3 a8bc 116f a73d
000001f0: be7f 07be bc91 9fbd c78d 92bd 7703 b4bd
00000200: 4927 06bd 9eec c83e c74d 3bbe 88b8 363e
00000210: 7720 e63d 02fb ba3e 533c 0d3e bcdd 1bbe
00000220: e41f f53d 9a81 b23d 30ad 65bd 1388 7d3e
00000230: a2a1 13be 7e82 803d e822 c1bd 0c87 883e
00000240: 1fe7 05be 1b14 663e 8a8f ac3e 52d3 c13e
00000250: 4772 843d 4571 63be 4457 15bf 24d8 fdbe
00000260: e027 213e 2514 df3b 2110 f8bc 5187 3dbf
00000270: 0e10 443e 056c c93d 1fcf 743d 1d4f 163e
00000280: 0414 acbe 8f25 82be 36ae 34bd 9c3c 3cbe
00000290: c30c 243e 4af6 ff3d 6607 e8bd 5b2d 34bf
000002a0: 75ae fc3d c040 35be c19f 113e c36a 323e
000002b0: 5331 a8bd 0feb 943e 927a 74bd bab4 97be
000002c0: 7542 e6bd 1909 b0bd 20f2 d9bd 6b4f 533b
000002d0: 7aea 6fbc afa2 14be c54e 31be dcff c53d
000002e0: e650 16bd 9d72 d9bd 0816 ee3d c146 6ebf
000002f0: 6223 acbd 3439 8e3d c896 debd 9b3b 4cbe
00000300: 16d3 59bd 0276 5e3e cc78 013e 4bd9 bb3d
00000310: 145b 2abf f3f3 cabc 7052 f1be c197 dd3d
00000320: d585 f43d 1c72 0c3e 5556 0dbf ec32 9dbe
00000330: d717 29be bacf 3dbe 466d 743c 500b 313d
00000340: 8117 113e 461d acbd e918 e0be a2f5 193f
00000350: c565 39bf d022 4dbe 11e5 b33d 6bf3 c6bd
00000360: 6c45 f9bc 194b c6bd aae6 02be 8881 c1bd
00000370: 044d 13bf e80a 863e e8aa 38be 008b 57bd
00000380: a0d2 5f3d 4006 b03d 50c6 9ebe 8ac5 8e3e
00000390: bee9 3bbd 810a 9abe bfe8 553d 966e 57be
000003a0: 8201 59be 38a0 0d3e 449b 14be a3d9 f03d
000003b0: 1f41 8dbd a820 45be 0f0f 3b3c 5cde 9cbe
000003c0: f1a9 c43d 178d 9c3e 1dcc ca3d 3bed aa3d
000003d0: ac13 32bd f768 3d3e c390 703b a9eb 6ebe
000003e0: 8a1c 19be 3d8b b73d 44dc a6bd fc76 40bd
000003f0: 7532 433c 89e8 a43e 4711 08be fc5f dfbd
-0.13297747 0.08745175 0.15206406 0.28678286 0.2634976 0.064546466 -0.38666922 -0.018658906
0.20295227 -0.12249241 -0.1188238 0.031423174 -0.047215685 -0.14504474 -0.7307069 0.27921143
-0.020667396 0.09107722 -0.012951193 0.23807456 0.6620533 -0.0007712193 -0.106454484 -0.33398426
0.10609166 -0.08595738 0.055192787 0.15713944 0.12153371 0.06625015 -0.42720032 0.0040730857
-0.15123808 0.10359371 0.007799039 -0.05854082 0.19574383 0.16869494 -0.01634755 0.22719517
0.08581812 -0.10332199 0.09736865 0.12511556 0.02680386 0.022836836 -0.27553567 -0.0806155
0.08333537 0.113644764 0.25086883 0.07907809 0.3202236 0.049656678 0.030869555 0.18728946
-0.00048884685 0.41352946 0.23276547 0.06336218 -0.26611698 0.13887888 -0.03952462 -0.16147071
0.028008502 0.1069485 -0.26252446 0.008422925 -0.23427737 -0.081860445 0.11499469 0.019507632
0.12562433 -0.0016660172 0.14121935 -0.50041413 0.017593058 0.048326224 0.2662391 0.1629462
-0.18737416 -0.035899438 -0.0859897 -0.470434 -0.018911034 -0.009782857 0.19407591 0.12071795
-0.031556718 -0.047472402 0.017327225 -0.053433042 -0.32981053 -0.04032294 0.16998619 0.010662971
0.18495272 0.13662465 0.12879227 0.030928737 0.27202433 0.01919972 0.03631931 -0.19209309
-0.14057232 0.010169692 0.12178196 0.10583893 -0.109768234 -0.17459181 -0.051079437 -0.014661349
0.051026776 -0.2066421 -0.18456918 -0.16948247 -0.14551629 -0.062242392 0.04972947 -0.061927922
-0.061126366 -0.039895654 -0.0206164 0.08175481 -0.13232324 -0.077914685 -0.07155948 -0.08789723
-0.03275231 0.39243025 -0.18291388 0.1784383 0.11236661 0.3651963 0.13792543 -0.15221304
0.11968973 0.08716126 -0.056073368 0.2475894 -0.14417127 0.062748894 -0.09430486 0.26665533
-0.13076447 0.22468607 0.33703262 0.37856537 0.06467109 -0.22211178 -0.5833628 -0.49578965
0.15737867 0.0068078213 -0.030281128 -0.740346 0.1914675 0.09835056 0.05976784 0.14678617
-0.3360902 -0.2541928 -0.044111453 -0.18382496 0.16020493 0.12498148 -0.11329536 -0.70381707
0.123379625 -0.17700481 0.14221098 0.17423539 -0.08212533 0.29085585 -0.059687205 -0.2963007
-0.112431444 -0.08595485 -0.10641885 0.0032243382 -0.014643306 -0.14515184 -0.17315204 0.09667942
-0.036698245 -0.10617564 0.11625296 -0.9307671 -0.08405186 0.069445044 -0.10868603 -0.19944613
-0.053179823 0.21724704 0.12643737 0.09172305 -0.66545224 -0.024774527 -0.47133207 0.108199604
0.11939589 0.13715404 -0.5520986 -0.30702913 -0.16513 -0.18536273 0.014918631 0.04322368
0.14169122 -0.08404021 -0.43769005 0.6014043 -0.72420913 -0.20032811 0.08783925 -0.09714397
-0.03042861 -0.096822925 -0.12783304 -0.09448534 -0.5753939 0.26180196 -0.18033946 -0.052622795
0.054644227 0.08594942 -0.31010675 0.27885085 -0.04587721 -0.3008614 0.052223917 -0.21038279
-0.21191981 0.1383065 -0.14512354 0.11760261 -0.068971865 -0.19250739 0.0114171645 -0.30638397
0.09602726 0.30576393 0.09902213 0.08346029 -0.04347579 0.18497072 0.0036707378 -0.23332085
-0.14952293 0.089621045 -0.08147481 -0.046988472 0.011913885 0.3220866 -0.13287841 -0.109069794

bias f4 [64]
00000000: baae d03d 3883 a03d c3d5 6cbe 6496 09bf
00000010: 0ff2 bd3c e189 c8be 68e7 0cbf 48c4 d83b
00000020: 6f4e b4be 528f 343e 7a07 d0bd 4f73 cdbe
00000030: 14ca 6a3f 4a23 8bbe 9d0a 983e 6c9a 7bbf
00000040: 17ad b53d 1be3 5e3e cd99 19bf 8be4 70bf
00000050: 33d3 97bd 7f01 0dbf 864c 0d3e b5f6 89be
00000060: 50eb d0bc 6a71 f7be fe92 133d a877 85bd
00000070: f32b a33d 587c b63e cec7 55bd 7716 13be
00000080: 08ab 303e ffed 1f3e d302 0e3f c98b 18bf
00000090: 70c4 1dbf 1035 a33e dbc8 e5bd 4604 27bf
000000a0: 0b82 12be f440 9d3e 900d e1be e9f5 443f
000000b0: ff40 34bf c992 bbbe 5e4b c6bc 0a7c df3d
000000c0: 85ac 67be 3684 f93d 7f07 93be b194 9f3e
000000d0: 0077 333b 8f05 a63e 9ad2 d8be 53e4 26bd
000000e0: 9857 023e 65b1 bdbe 10f6 f1be db8b 8ebd
000000f0: c67e 91be 88e8 1bbe 7699 093e 7ce3 17bf
0.101895764 0.07837528 -0.23128419 -0.537451 0.023186712 -0.39167693 -0.550406 0.0066151954
-0.3521609 0.17632797 -0.10157676 -0.40127036 0.91714597 -0.2717536 0.29695597 -0.98282504
0.08870905 0.21766321 -0.60000306 -0.9409873 -0.0741333 -0.5508041 0.13798723 -0.26946035
-0.02550283 -0.48328716 0.036028855 -0.06516963 0.07967367 0.35641742 -0.0521925 -0.14364038
0.17252743 0.15618132 0.5547306 -0.59588295 -0.61627865 0.3187642 -0.11219951 -0.65240896
-0.1430742 0.30713618 -0.4395566 0.7693773 -0.70411676 -0.36635426 -0.02420586 0.109123304
-0.22624405 0.1218342 -0.28716657 0.3116813 0.0027384162 0.32426116 -0.42348176 -0.04074509
0.12728727 -0.37049404 -0.47258043 -0.06960269 -0.28417033 -0.15225422 0.13437447 -0.5933149

weight f4 [128, 128]
00000000: 11ff e43b 1aa7 eb3e d089 c5bd d741 eabe
00000010: 90a2 193e f640 dabe a954 65bd a160 9f3e
00000020: bbbb 283e 5b49 923e e50c 363f 048b c5be
00000030: ddd4 33be 5b39 b03e 6bbc 973e 42ae 18bf
00000040: 20b2 533d e29f adbe 68eb de3b 925c 5dbe
00000050: 1921 77be b20d d5bd 5bdb 99be ebd1 7c3e
00000060: 22b2 9fbd 9334 c13e b7f9 6cbe c1d7 67bb
00000070: a0af 063f 4711 d3be f8ac 093e 31dd 92be
00000080: 075c 68be 8227 53be d813 293e 3b9c ddbd
00000090: a25f 85be 519d a5be bb5a f63c f656 c6bd
000000a0: 7e55 7abd f819 21be f2bf 4b3d c537 c9bd
000000b0: 75f9 a8be 80f5 7ebe 9c9d ae3d a48e 503f
000000c0: cc0d 993d db20 03bd 071c 4d3b 5214 f13d
000000d0: ce88 973d 2ae1 7d3e 2d77 84be bc44 573c
000000e0: 5b8b b33e 98a7 cfbe 11f9 a6bd beec d2be
000000f0: d721 33be 9d0e e33c f5fb 00bf d432 babd
00000100: cccd 733d 2707 9f3e 668d 68be 52e7 6b3e
00000110: 1770 133f 8bea c93d 4841 c4bd a8c4 94be
00000120: 163d d4be 8e7a 91be 407f 13be c854 233e
00000130: 5809 8abe 117e abbe b477 3cbe 9817 ae3e
00000140: 618f 2abe 6001 bc3e c05b 313e 8efe fd3e
00000150: 790b 20bd 38a0 f83d 3f96 14bf 29d0 6a3e
00000160: 280e c5bb 884f 153e 35f2 4a3f b811 eabd
00000170: 4c9b 58be c9b1 e8be c045 a13e 4407 b83c
00000180: d8d8 4dbe daaa 1fbf 92ea f7be ac73 d73e
00000190: cad3 25bf 4063 25be 7a9d e03d c397 a9bf
000001a0: 1a88 223b f78f 69be 21ae 75be ee81 d2bb
000001b0: 0e84 a2bd 8b8b 8cbe 84cc eb3d a2ea 9fbe
000001c0: a676 02ba f704 29be 3681 9fbe 6c6f 193d
000001d0: 7cc8 c83e 0aae 8cbe 2e87 0abd 2d4d 55be
000001e0: 9a95 b23e 58bb 4e3f f003 12be 3ad5 b7be
000001f0: 8b0a 3abd a32c dfbb b776 48be 115e 9d3e
00000200: 932d ef3e cfdb a0bd ed80 41be bd37 b0be
00000210: 9fb0 9e3e e927 783e 9cd0 cdbd c440 c3bd
00000220: 4e3a 1fbe 6f05 e4be 6388 893d 2153 03bd
00000230: de4f 3a3d 5dfc 843e cee0 17be 0a6f 28be
00000240: 70db 95be e6a3 993d f83d 2fbd a692 f43c
00000250: 2e28 fd3e 0543 15bf 72ec d5be 33ac d63d
00000260: b944 4d3d a88a 7a3e ca66 933e 3c63 fbbe
00000270: f750 ae3e addc 743e f763 2a3e e262 853b
00000280: c472 d63e 73c3 24bc db71 d6bc 9276 df3c
00000290: 4850 e2bd 3ee7 2e3d 0e63 6a3e b9f8 dbbd
000002a0: 9e30 febe f90b 7fbd 2bd0 35be 2787 e1be
000002b0: 257b 82bd 249e 493d 8432 043e 64e1 64be
000002c0: 8c20 69be 1009 a0be 98e6 0fbd 7d64 96be
000002d0: feab 23be 8441 883e be33 933c 36fa 773e
000002e0: f289 31be dff1 5fbd 3162 dfbd 09c2 d7be
000002f0: 3dda a43e 3ed0 afbe ad21 5abe 8484 0abe
00000300: f594 89be 68f2 2a3d ca40 3bbf b971 5f3e
00000310: 9731 b7be ffa1 55bd a5df 17be 4cda 1dbf
00000320: a7e4 36bf 640d 84be 27d7 a9bd 3eeb 423e
00000330: 9019 e13e 769e e6be 9673 093f d7c7 a7be
00000340: 1897 1bbd 780a bfbe 33e0 be3d 83b5 40bf
00000350: e3b8 05be 7a22 bd3d c7cc 3cbf 48e6 c33e
00000360: b328 71bd 943c 9d3d bec7 d0bb 86cb 1bbf
00000370: 21b4 fc3e fde6 163d 43db bf3d 6e7a c93e
00000380: 410e bbbe 87e5 c43e 77c2 8cbf 90ac 1f3d
00000390: cd96 9ebe 0f0f 9c3e fe06 c8be 83e8 fcbd
000003a0: 6d19 3d3d 33f7 bdbe d060 49bf b4da 953c
000003b0: 1f61 03bc 0f43 e53d 66b9 0a3d 5ba0 9f3e
000003c0: d775 6a3e 4813 23be 9b1a e8bc f22b cbbd
000003d0: ca9a 86be 8b9c 1a3e 4c20 38be 74eb 423e
000003e0: 8064 7fbe 1f33 88be 9ddb 85bd be50 623d
000003f0: 6c02 853e c977 fb3d 6154 04bf 3ebc 913d
0.006988414 0.46025926 -0.09645426 -0.45753357 0.15003419 -0.42627686 -0.05598894 0.3112841
0.16477863 0.2857159 0.71113425 -0.38582623 -0.1756167 0.3441876 0.2963594 -0.59640896
0.051683545 -0.33911043 0.006802965 -0.21617344 -0.2413372 -0.10403003 -0.30050167 0.24689452
-0.07797648 0.37735423 -0.23142134 -0.0035376402 0.5261173 -0.4122412 0.13444889 -0.2868438
-0.22691356 -0.2062054 0.16511476 -0.10820814 -0.26049525 -0.32346585 0.03007256 -0.09684555
-0.061116688 -0.15732563 0.0497436 -0.0982509 -0.3300282 -0.24898338 0.08526155 0.8146765
0.07473335 -0.032013755 0.0031297223 0.11771454 0.0739914 0.24792925 -0.25872174 0.013138946
0.35067257 -0.4055755 -0.081529744 -0.41196245 -0.17493378 0.02771693 -0.50384456 -0.09091726
0.059522435 0.31060144 -0.22710189 0.2303746 0.5759291 0.09859189 -0.09582764 -0.29056287
-0.41452855 -0.28413814 -0.14404011 0.1595031 -0.26960254 -0.3349462 -0.18405038 0.34002376
-0.16656257 0.367198 0.17320156 0.49608272 -0.03907344 0.12139934 -0.5804176 0.2293097
-0.0060136504 0.1458112 0.7927583 -0.11429161 -0.21152991 -0.4544814 0.31498528 0.022464402
-0.2010225 -0.62370074 -0.4842115 0.42080438 -0.6477629 -0.16151142 0.10967536 -1.3249439
0.002480036 -0.22808824 -0.23992206 -0.00642418 -0.07935344 -0.27450213 0.11513618 -0.31233698
-0.00049767864 -0.165058 -0.31153268 0.037459776 0.39215457 -0.2747653 -0.033820324 -0.20830221
0.34879762 0.80754614 -0.14259315 -0.35904866 -0.04542021 -0.006810741 -0.19576536 0.3073583
0.46714458 -0.07854425 -0.18896838 -0.34417525 0.30994126 0.24233975 -0.10049555 -0.095338374
-0.15549585 -0.44535396 0.06715467 -0.0320617 0.045486324 0.25973788 -0.1483185 -0.16448608
-0.2926898 0.07501964 -0.042783707 0.029855084 0.49444717 -0.5830539 -0.41781956 0.10482063
0.050114367 0.24466956 0.2878936 -0.49099147 0.34046146 0.23912306 0.16639696 0.0040706256
0.41884434 -0.010056364 -0.026177337 0.027278218 -0.11050469 0.042701 0.22889349 -0.107407995
-0.49646467 -0.062267277 -0.17755191 -0.44048426 -0.06371144 0.04922308 0.12909895 -0.22351605
-0.22766322 -0.31256914 -0.03513202 -0.2937354 -0.15983579 0.26612484 0.017969009 0.24216542
-0.17337778 -0.054674026 -0.109074004 -0.42140225 0.32197753 -0.34338564 -0.21301909 -0.13527113
-0.26871458 0.041735083 -0.73145735 0.21820726 -0.35780022 -0.052156445 -0.14831407 -0.6166122
-0.71442646 -0.25791466 -0.0829299 0.1903505 0.43964815 -0.4504277 0.53691995 -0.32769653
-0.03798589 -0.37312675 0.09320106 -0.75276965 -0.1305881 0.092350915 -0.73749965 0.38261628
-0.058876704 0.0767757 -0.0063714674 -0.6085743 0.49356177 0.03684138 0.09367993 0.3935122
-0.36534312 0.38456365 -1.0996846 0.038982928 -0.30974427 0.3048024 -0.39067835 -0.123490356
0.046166826 -0.3710266 -0.7866335 0.018292762 -0.008018761 0.11194431 0.033868216 0.3117703
0.22896515 -0.15925324 -0.028332999 -0.09920491 -0.2628997 0.15098779 -0.1798107 0.1903513
-0.24940681 -0.26601502 -0.065360285 0.055252783 0.2597841 0.122787066 -0.5169125 0.071159825

bias f4 [128]
00000000: 0a42 02bf 315f 13bf 06dc b9be 7e41 d3be
00000010: dab9 a0be 5141 2bbf 8127 97bf e548 2fbf
00000020: 054b 91bf 0f90 8abf 439a 33bf 9324 10bf
00000030: bead 35bf 50e0 3ebf 1dda 60bf c736 e7be
00000040: 7291 7dbf 50ab 6ebf 47a1 e4be 4626 c6be
00000050: ddf5 14bd 6202 5dbf 0a65 78bf 112b 2bbf
00000060: ff92 10bf 2df0 07bf 15c4 2cbf 841a 82bf
00000070: 5b36 13bf 6bb9 5abf 485b 09bf 8698 cd3d
00000080: 8aaa 10bf d40b 56bf 0337 2bbf 2278 0abf
00000090: 14e2 1abf a1dd c0be 0785 27bf 4b63 15bf
000000a0: 2288 f7be 70c4 1ebf 6475 55bf ac34 17bf
000000b0: 0dd1 d9be a1f4 80bd b4ab 4bbf cd1d 10bf
000000c0: 5518 6cbf d37e b3be 8e65 bfbe edf1 89bf
000000d0: 02de 27bf c58f 3bbf 6045 4ebf aac5 18bf
000000e0: 9b80 acbe a94a 8fbf f6a7 2ebf a86a ecbd
000000f0: 7be5 61bf 7f1e 98be 1fa8 f2bd bdf6 35bf
00000100: 80c1 58bf 8cd9 1d3e 14a3 b4be 657d cfbe
00000110: 22a8 55bf a701 34bf 6e5e 5bbf 0aa4 81bf
00000120: 340e 29bf 58ba 31bf 020d 0cbe f8cd 3abf
00000130: 3892 67bf 29f7 29bf 1d6d 5abf e79b 9cbf
00000140: 6a9c 3fbf fc10 82be a008 67bf a10e 44bf
00000150: 5a48 3cbf 4f4a 80be 4e21 10bf bc26 adbe
00000160: 6656 23bf b57a 05bf dd04 8dbf 5f0c 04bf
00000170: f40f 95be ff1a 08bf 8864 55bf 460c 04bf
00000180: 7bf0 37bf ba3a 31bf 2c09 34bf 6090 aebe
00000190: bfa0 13be 0b2d 06bf fc9b 35bf bd76 b7be
000001a0: ab34 0fbf 3ef2 14bf cbd9 70bf 811a 9bbf
000001b0: 1c25 3fbf 1bb4 56bf 6d59 24bf ee08 36bf
000001c0: 16a4 73bf af6d 0dbf bcf9 f0be c06a 79bf
000001d0: 5386 6dbf ad96 d7be c5b1 6cbf b642 59bf
000001e0: f965 41bf 8768 25bf 0719 6cbf ca47 f7be
000001f0: 1c2b 27bf b972 3cbf 2ab1 17bf 8b18 f9be
-0.5088202 -0.57567126 -0.36300677 -0.41260904 -0.31391793 -0.6689654 -1.1808931 -0.68470603
-1.1351019 -1.0825213 -0.7015726 -0.5630581 -0.70968235 -0.74561024 -0.87832814 -0.4515898
-0.99050057 -0.9323015 -0.44654295 -0.38701075 -0.036367286 -0.8633176 -0.97029173 -0.6686259
-0.564743 -0.53100854 -0.674867 -1.0164342 -0.57504815 -0.85439175 -0.5365491 0.10038857
-0.5651022 -0.836118 -0.66880816 -0.5408956 -0.6050122 -0.3766909 -0.6543736 -0.58354634
-0.4834605 -0.6201849 -0.8338225 -0.59064746 -0.42542306 -0.06296659 -0.79558873 -0.5629547
-0.9222463 -0.35057697 -0.37382168 -1.0776955 -0.6557313 -0.7326625 -0.8057461 -0.5967661
-0.33691868 -1.119466 -0.6822504 -0.115437806 -0.88240784 -0.29710767 -0.11848473 -0.7107962
-0.8467026 0.15415019 -0.3528067 -0.40525356 -0.83459675 -0.7031502 -0.85690963 -1.0128186
-0.660373 -0.69424963 -0.13676837 -0.72970533 -0.9045749 -0.6639276 -0.85322744 -1.2235078
-0.74848044 -0.25403583 -0.90247536 -0.7658482 -0.735479 -0.25056693 -0.5630082 -0.33818614
-0.6380371 -0.5214036 -1.1017109 -0.51581377 -0.29113734 -0.5316619 -0.83356524 -0.5158123
-0.7185132 -0.69230235 -0.70326495 -0.34094524 -0.14416789 -0.5241248 -0.7094114 -0.35832778
-0.5593974 -0.5818213 -0.94082326 -1.2117463 -0.74666 -0.8386857 -0.6419895 -0.71107376
-0.9517225 -0.5524549 -0.47065532 -0.9742851 -0.9278309 -0.42107144 -0.92458755 -0.8486742
-0.7554622 -0.6461262 -0.9222569 -0.48296958 -0.65300155 -0.7361255 -0.59254706 -0.48651537

weight f4 [128, 128]
00000000: 39a4 78be ec5f 1dbd 566a f9bd 4d19 9cbe
00000010: 45ff 563d 5662 7ebe 536c adbd 7b0b 3bbe
00000020: c1f6 8abe a2f3 2f3d f90a ba3d 031a 1ebf
00000030: 00f5 47be 3769 bbbd 02a0 12bc 3284 46be
00000040: ec67 87be ee8d 42be b50b e4bc e191 d4be
00000050: f40d d1be 3668 27bf 1d43 0cbd b62c 19be
00000060: 6620 9a3d b1b3 2bbe 495e 763d 83b4 83be
00000070: 6aa4 0c3d b24b 1abe 7df7 e7bd b74d 96be
00000080: 9676 7abe 92ec 5abe 42f8 70be 72d8 aa3d
00000090: 0329 083d 4d3a 42be 5869 8c3c 2bb6 98bd
000000a0: 6d0f 0c3c 7c44 26be 3f5d ca3d 6d96 9eba
000000b0: 60ab 493e 548f 06be 26c9 f7bc 142b 9b3c
000000c0: b83a eb3d e801 45be 4df3 9fbd 87db 36bd
000000d0: 9e37 cebd 4f91 723d 64e0 77be 98e0 693e
000000e0: 876e e8bd 3d90 a13c 22be 0e3e 7fba dbbd
000000f0: 8bd9 923d a0c8 383e 4764 d13c 9fbc 063e
00000100: 308f 2c3d a9ff b9be 7873 35bf 4a72 c9bd
00000110: 63fe 3fbd 1844 5a3d d8d3 a2bd bcce 0dbe
00000120: 73c3 f53a 2715 e1bc 27d9 f73d 3c81 53bf
00000130: 7697 56bd 63b9 26bf acc1 49be 80bb 89be
00000140: 54b2 a7be aa1b 863d b1bd cc3c 7184 983d
00000150: 72c0 b0be 28a6 a7be 8c69 07be c12a 513c
00000160: 62b4 bfbd 3ec1 3a3e e2cf 553d b7f5 fcbd
00000170: 1084 06be d631 5fbd 2d81 a43e 8f5a 59be
00000180: 5153 b83a c255 cfbd 8265 52b8 6497 f6bd
00000190: 434a 86bd 596e 243e 95b5 c9bd 0d1e bdbe
000001a0: 79f2 5c3e a69d c7bd 0eb9 703d 1559 a4bd
000001b0: 2024 02bc 4835 003d fd6c 993d 3c7b 9ebe
000001c0: 5acf 99bd 10a0 273e af76 17bd fbfb eabc
000001d0: 55cb b53d 29bf 22be 7020 42be bd78 2b3e
000001e0: c2e8 57be 7b0d 383e 6c70 893d 5724 10bc
000001f0: 8061 a3be 5939 b9bd af75 033c 1587 93be
00000200: a394 9cbd 4bd9 cfbd 4d0d 18bf bad2 abbe
00000210: 021d 79be abb0 c2bd 8e14 9c3d ccc7 603e
00000220: 988f 6ebd dac2 38be 2657 f9bd 5678 8ebe
00000230: 21a8 0ebe ff12 1abf e317 503e d489 7dbe
00000240: 443c 90be 99d6 aabd c07f 01bd de7e 24bf
00000250: ac4b 6cbe 9a1c 4bbf dd83 04bf 22da 8e3a
00000260: 58cf d8bd 1760 e6be 7b50 863d 436a a7be
00000270: c6c7 fc3d 4438 c33c 9ad3 0cbf eb55 7ebe
00000280: b406 863e a8b6 81be 7523 dabd 295f e9bd
00000290: 0f2e 943d ff45 0fbe 547f dfbd 16bb 853c
000002a0: faf8 e43d 672c bcbe d5b9 00bd a3ae 61be
000002b0: fee5 19be 02ac 30be 3dc7 f63d 6b4d 23bd
000002c0: 875a d1bc 0e39 84bd 04f9 80be 4381 a43e
000002d0: cf48 833d 94cf 803e fce6 7fbe 8d96 3cbe
000002e0: 6263 eb3d 15a8 0a3d c529 783d 9ed2 4fbe
000002f0: b247 91bd a1ba 7c3d 8a78 cbbd 64fa 0fbe
00000300: 7276 923e 1e38 82be 18d3 29be 1119 03be
00000310: 48ed 7b3d 063e f13d 4c83 48bf 6320 95be
00000320: dbbf c53e 393e 5b3e f97d fbbd bf7c 2ebe
00000330: 569c 423d fc71 53bf 6881 db3d d828 c3bd
00000340: ff1c d9bd c63f ebbe de04 18be b1be 373d
00000350: 6b5e c2be 269c 62be 76bc 04bf 84c0 a23d
00000360: cc5c 913d b021 bdbe 07eb c0bd 4e43 13bd
00000370: f875 2cbe 9290 753e 55f9 ae3e 5aed cebc
00000380: d2a3 163e e503 48be 7d55 673d c9ab c6bd
00000390: 66ba 27be 3903 793e 0fe1 9f3e c3ab 8fbc
000003a0: eda1 d6bd 7165 72be 6e05 953e 9445 dcbe
000003b0: 064b d13d f5d3 56bd 36f0 a7be eb1a 5dbd
000003c0: 8588 773e 87e2 f3bd a5fe 153e 110e a93e
000003d0: ed03 1f3e 457c abbe ba9f bcbe 5d5f 353d
000003e0: 2954 7cbe 6350 b1bd 8111 a73e 057f 54bd
000003f0: 69b4 31be b6c1 333b f452 ba3d d1eb a93d
-0.24281396 -0.038421556 -0.12178485 -0.30488053 0.052489538 -0.248422 -0.08467927 -0.18266098
-0.27141383 0.042956956 0.09084124 -0.6175844 -0.19527054 -0.091509275 -0.008949282 -0.19386366
-0.26446474 -0.18999454 -0.027837614 -0.41517547 -0.40830958 -0.6539339 -0.03424369 -0.14958462
0.07525711 -0.16767766 0.06014851 -0.25723657 0.034336485 -0.15067938 -0.113265015 -0.29356167
-0.244593 -0.21379307 -0.23532203 0.08342065 0.033242237 -0.18967552 0.017140076 -0.07456621
0.0085486 -0.16237062 0.098810665 -0.0012099274 0.1969428 -0.13140613 -0.030247282 0.01894144
0.11485809 -0.19239008 -0.07810078 -0.04464295 -0.10069202 0.05922061 -0.24206692 0.22839582
-0.113492064 0.019722098 0.13939717 -0.10728931 0.07170399 0.18045282 0.025560511 0.1315789
0.04212874 -0.36327866 -0.70879316 -0.09836252 -0.04687346 0.053287596 -0.07950562 -0.13848394
0.0018750265 -0.027475907 0.121019654 -0.8261907 -0.05239054 -0.6512663 -0.19702786 -0.26900864
-0.3275324 0.06548245 0.024992796 0.07447136 -0.34521824 -0.32743955 -0.13223857 0.012766541
-0.09360577 0.18237779 0.052200206 -0.12351554 -0.13136315 -0.054490887 0.32129803 -0.21225952
0.0014062916 -0.10123779 -5.0162438e-05 -0.12040594 -0.06557133 0.1605772 -0.09849087 -0.3693699
0.21576871 -0.09746866 0.058770232 -0.080248035 -0.007943183 0.031300813 0.07491491 -0.30953395
-0.07510252 0.16369653 -0.03697842 -0.028684607 0.08876673 -0.15893234 -0.18957686 0.16745277
-0.21084884 0.17973892 0.06710896 -0.008797727 -0.31910324 -0.09044141 0.008023663 -0.28813997
-0.07645538 -0.10148867 -0.59395295 -0.3355921 -0.24327472 -0.09506353 0.07621108 0.21951216
-0.05824241 -0.1804308 -0.12174825 -0.27826184 -0.13931324 -0.60185236 0.20321612 -0.24759609
-0.2817098 -0.083417125 -0.031615973 -0.64256084 -0.23075742 -0.7934052 -0.5176371 0.0010898749
-0.10586423 -0.44995186 0.06558319 -0.3269826 0.12342791 0.02383054 -0.5501038 -0.24837463
0.2617699 -0.25334668 -0.10651294 -0.113951035 0.072353475 -0.13991545 -0.10912958 0.016324561
0.11180301 -0.36752626 -0.031427223 -0.22039275 -0.15029141 -0.17253116 0.120497204 -0.039868753
-0.025555862 -0.06456195 -0.25189984 0.3212987 0.064103715 0.2515837 -0.24990457 -0.18416806
0.11493565 0.0338517 0.06058671 -0.20295188 -0.07093753 0.06170142 -0.099351004 -0.1406036
0.28605992 -0.2543344 -0.16584432 -0.12802531 0.061505586 0.11779408 -0.78325343 -0.29126272
0.38622937 0.21410455 -0.12279887 -0.17039774 0.047512375 -0.825958 0.10718042 -0.09529275
-0.10601234 -0.45947093 -0.14845607 0.044859592 -0.3796266 -0.22129878 -0.5185007 0.07946876
0.07097778 -0.36939764 -0.09419828 -0.03595286 -0.16841877 0.2398093 0.341746 -0.025259662
0.1471093 -0.19532736 0.056478012 -0.09700734 -0.16379699 0.24317636 0.31226394 -0.017537957
-0.10480104 -0.2367151 0.29105705 -0.43021834 0.10219388 -0.05244823 -0.32800454 -0.05398075
0.24173172 -0.11908441 0.1464792 0.33018544 0.15528841 -0.33493248 -0.36840612 0.0442804
-0.2464148 -0.08657911 0.32630542 -0.051878948 -0.17353977 0.0027428693 0.09097853 0.082969315

bias f4 [128]
00000000: 8c8c fbbe 8d24 1ebf 9056 d4be 9be2 40bf
00000010: 5acc 40bf 1921 8bbf 3807 28bf 1abd 86bf
00000020: 8c42 44bf cab0 3cbf 0b0a 05bf 89c3 10bf
00000030: 3589 e2bd d730 6abf 9c54 36bf d18d 3fbf
00000040: d4ef 23bf 36b2 34bf 7d90 4bbf e703 e3be
00000050: 0317 5f3d f0fb 6bbf d2e7 37bf 6c82 09be
00000060: 3c40 09bf f84f 00bf 3ca7 00bf 7a76 c6be
00000070: 93c3 2fbf eacc 9abe 8c5e 28bf 668f 35bf
00000080: cc73 3fbf 972a 8abe ae61 05bf d36e debe
00000090: f7ec d1be fd4c 8abe 2b83 85bf 69a5 f5be
000000a0: 5d5a 4abf 7557 58be 8f12 e3be 0d6a 38bf
000000b0: b1d0 bbbe 5d4e 52be 635c 25bc 7a5e 1cbd
000000c0: c9ce debe 854e 07bf 948c 01bf fbc5 49bf
000000d0: 0a3b 3cbf 57e3 49bf 95cc adbe 8a15 15bf
000000e0: 8850 42be 0d85 ddbe 590d 56bf 3917 a93d
000000f0: 9c3e fc3e 1aac 1dbf 1945 46bf acd4 82be
00000100: 0466 57bf 1107 89bf 3f9f 31bf 5c11 4dbf
00000110: 2baf 27bf ffb0 05bf 6c06 81bf 0a16 33be
00000120: 55f1 72bf f556 79bf e061 2fbf ea41 13bf
00000130: 55b6 4ebf 99d8 12bf 8dfd 74bf ba12 10bf
00000140: f3fa f3be 2724 02bf b09d 2dbf d884 67bf
00000150: 335d e3be b2a4 72bf 6832 0dbf 61c9 44bf
00000160: 5992 41bf 8dbf 21bf 475e 23bf f5f3 3cbf
00000170: 2077 99be 3dc4 4abf 10e6 cdbe f10d 1dbf
00000180: 8367 69bf a664 48bf 06ba 67bf 157a 2cbf
00000190: 0c1e dcbf 0a34 39bf 1500 52bf c408 0dbf
000001a0: a400 57bf 9e4e 9bbe 7460 90be 11d7 20bf
000001b0: 83eb 61bf ee4d 10bf cd00 f0be 80f2 37be
000001c0: 941f 57bf faf5 d1be fdf6 b7be 4be7 35bf
000001d0: a7a3 f7be eb39 38bf 49ae 42bf 7b12 1fbf
000001e0: 9f0c 1cbf 970f 13bf c97d 24bf 6db1 83bf
000001f0: bff8 0bbf 0fad 15bf a27e e6be db03 cfbe
-0.49130666 -0.6177452 -0.41472292 -0.7534577 -0.75311816 -1.0869476 -0.65636015 -1.0526459
-0.7666404 -0.7370726 -0.5196845 -0.5654836 -0.110613264 -0.91480774 -0.71222854 -0.7482577
-0.64037824 -0.7058443 -0.79517347 -0.44338915 0.054465305 -0.921813 -0.71838105 -0.13428658
-0.5361364 -0.5012202 -0.5025518 -0.38762265 -0.686578 -0.30234462 -0.6576927 -0.70921934
-0.74786067 -0.26985618 -0.5210217 -0.43443927 -0.41001102 -0.27011862 -1.0430654 -0.4797776
-0.79044133 -0.21127112 -0.44350097 -0.7203682 -0.36682656 -0.20537706 -0.0100928275 -0.038176037
-0.4351714 -0.52854186 -0.5060513 -0.7881772 -0.73527586 -0.7886252 -0.33945146 -0.5823599
-0.18976033 -0.43265572 -0.83614117 0.082563825 0.49266517 -0.6159073 -0.77449185 -0.2555288
-0.8414004 -1.0705281 -0.69383615 -0.80104613 -0.6550166 -0.522232 -1.0080085 -0.17488876
-0.94899493 -0.9739831 -0.6850872 -0.5752245 -0.80746967 -0.5736175 -0.9569939 -0.56278574
-0.47652397 -0.50836414 -0.6781874 -0.9043708 -0.44407043 -0.94782555 -0.5515504 -0.7686978
-0.75613934 -0.6318291 -0.6381573 -0.7380975 -0.29973698 -0.79205686 -0.40214586 -0.613494
-0.9117357 -0.7827858 -0.90518224 -0.6737378 -1.719667 -0.7234503 -0.82031375 -0.550915
-0.8398535 -0.30333418 -0.28198588 -0.62828165 -0.8824999 -0.5636891 -0.4687561 -0.179636
-0.8403256 -0.41007978 -0.35930625 -0.7105605 -0.48367044 -0.71963376 -0.7604719 -0.62137574
-0.6095676 -0.57445663 -0.6425443 -1.0288521 -0.5467643 -0.5846719 -0.45018488 -0.4043263
