trained_models/net_2/dense_classifier_net_2_obs_case_2.pt (torch, 899637 bytes, 55 tensors)

weight f4 [16, 16]
0	0x3d0810fd	0.033219326
1	0x3cbb2054	0.022842564
2	0xbd6c4374	-0.057681516
3	0x3dc7cba5	0.09755639
4	0x3d125d2c	0.035733387
5	0x3da7155a	0.08158369
6	0x3da89b9d	0.08232806
7	0xbd7486ae	-0.059698753
8	0xbc193f23	-0.009353432
9	0xbec92ad1	-0.3929048
10	0xbde73521	-0.112894304
11	0xbdf87504	-0.12131694
12	0xbf6657cc	-0.8997772
13	0xbe098271	-0.13428666
14	0x3f84f86c	1.0388312
15	0x3e872728	0.2639706
16	0xbddc9eec	-0.107724994
17	0x3e20adf0	0.15691352
18	0xbe010bf1	-0.12602212
19	0xbe56906b	-0.20953529
20	0xbddcc8d6	-0.10780494
21	0x3c73e881	0.014886976
22	0x3c33c7cc	0.010972928
23	0xbd507e28	-0.050901562
24	0x3e163c47	0.14671431
25	0x3ea8ed7d	0.3299369
26	0x3d14a9e2	0.036294825
27	0xbdd6a610	-0.10480893
28	0xbe65d22b	-0.22443454
29	0xbd425d0b	-0.047452014
30	0xbe67c8f1	-0.22635247
31	0xbd0d7ed0	-0.034544766
32	0x3d4e7fd8	0.05041489
33	0xbda7fdb8	-0.0820269
34	0x3e5ee4c6	0.21766958
35	0x3da2d6e9	0.07951147
36	0x3d954837	0.072891645
37	0x3d1980c1	0.037476305
38	0x3c8675cf	0.016413597
39	0xbd0ee64c	-0.034887597
40	0xbe024eb7	-0.1272534
41	0x3f4125eb	0.75448483
42	0xbd4e36ce	-0.050345235
43	0xbe5d206d	-0.215944
44	0xbe64c908	-0.22342312
45	0xbd5de0ab	-0.05416934
46	0xbf067b4b	-0.5253188
47	0x3e4c3f5e	0.19946048
48	0xbd1f0671	-0.038824502
49	0x3d09f7fa	0.033683755
50	0xbe34654e	-0.1761677
51	0xbdbe354f	-0.092875116
52	0xb7cb4247	-2.4230349e-05
53	0xbc1c93fc	-0.009556767
54	0xbde4cc0a	-0.1117173
55	0xbe3d5061	-0.18487693
56	0xbe8552c5	-0.2603971
57	0xbe741bbe	-0.23838708
58	0xbd9edf8a	-0.077574804
59	0xbdae3cbd	-0.08507679
60	0xbecb3de3	-0.39695653
61	0xbbf54e39	-0.0074861315
62	0xbe1e9c53	-0.1548932
63	0xbe3fbbdd	-0.18724008
64	0xbe3f240e	-0.18666098
65	0x3ec57d2d	0.38572064
66	0xbd5d4cd3	-0.054028343
67	0xbeb12186	-0.3459589
68	0xbdfdb1d2	-0.12387432
69	0x3c440a19	0.011965298
70	0x3e13b46a	0.14424291
71	0xbe3932b3	-0.18085746
72	0xbc9fc1d7	-0.01950161
73	0xbe37ff48	-0.17968476
74	0xbd92c363	-0.07166173
75	0xbdafd153	-0.08584847
76	0xbd7eaa7e	-0.062174313
77	0x3da200a4	0.079102784
78	0x3db99ade	0.09062742
79	0xbd091e6b	-0.033476274
80	0x3e2df51f	0.16988038
81	0xbe993f3b	-0.29931054
82	0x3e81fb85	0.25387207
83	0xbd7b26b4	-0.061316207
84	0xbe16f614	-0.14742309
85	0xbd7ed9ef	-0.062219556
86	0xbce0c3ef	-0.027437178
87	0x3d8fbf1d	0.07018874
88	0x3e60dbe9	0.21958889
89	0x3f0fb0c5	0.56129104
90	0xbc748fb8	-0.014926843
91	0xbe209c44	-0.1568461
92	0xbe066d8e	-0.1312773
93	0xbcf1c68c	-0.02951362
94	0xbee7d108	-0.45276666
95	0x3e5ee2e7	0.21766244
96	0x3e4e600b	0.20153825
97	0x3d440c19	0.0478631
98	0x3e0f6d32	0.14006498
99	0xbe525cc1	-0.20543195
100	0xbe9ee129	-0.3103116
101	0x3e082efb	0.13299172
102	0x3d2cc316	0.042178236
103	0xbba1f946	-0.004943046
104	0xbe04eb82	-0.12980464
105	0x3e8efae8	0.279258
106	0x3e2551eb	0.1614453
107	0xbe804264	-0.25050652
108	0xbdbd0baf	-0.09230744
109	0xbe0bfb54	-0.13670093
110	0xbdbdbca4	-0.09264496
111	0x3e8a47db	0.27007946
112	0x3bdb0bcd	0.0066847564
113	0xbe84c1df	-0.25929162
114	0x3e8fd26b	0.28090224
115	0x3bc1118f	0.0058919857
116	0xbcb56ffb	-0.022148123
117	0x3c055571	0.008138047
118	0xbceda12c	-0.029007517
119	0x3d084505	0.033268947
120	0xbdc04fbb	-0.093902074
121	0xbd815f40	-0.063169956
122	0x3de461f1	0.11151493
123	0x3d20c505	0.039250392
124	0x3f3b7cca	0.7323729
125	0xbaff562d	-0.0019480638
126	0xbf3c051b	-0.7344529
127	0x3d03fc13	0.03222282
128	0x3f1e1a09	0.61758476
129	0x3e27aed7	0.1637529
130	0xbe5c6a5c	-0.21524948
131	0x3dbb71f8	0.09152597
132	0x3cb4f210	0.02208808
133	0x3d80abbd	0.062827565
134	0x3c9951bf	0.018715737
135	0xbd8700cd	-0.065919496
136	0x3cf90098	0.030395791
137	0x3db62ebb	0.08895632
138	0x3c3d3413	0.01154806
139	0xbd96876b	-0.07350048
140	0x3e09d343	0.13459496
141	0xbdb80e04	-0.08987048
142	0x3d38772c	0.045035526
143	0x3d47dccf	0.048794564
144	0xbdfefba3	-0.1245034
145	0xbc30c2ea	-0.010788659
146	0xbe5ae86e	-0.21377727
147	0xbebfee24	-0.37486374
148	0xbe72d638	-0.2371453
149	0x3e21f073	0.1581438
150	0xbe289217	-0.16461979
151	0x3d9f3b48	0.07774979
152	0xbe22908e	-0.15875456
153	0xbfd7ad7b	-1.6849817
154	0x3d5a99f3	0.053369474
155	0x3e7f02b2	0.24903372
156	0x3f4a6a36	0.79068315
157	0x3e2420fd	0.16028209
158	0x3f0fa21f	0.5610675
159	0xbc284924	-0.010271344
160	0xbe1d9b4f	-0.15391277
161	0xbda19f92	-0.07891764
162	0x3e26def5	0.16295989
163	0xbd860e5c	-0.065457076
164	0xbd46aa4b	-0.048502248
165	0x3d120959	0.035653446
166	0x3ab732ef	0.0013976971
167	0x3c30c270	0.010788545
168	0x3b23af48	0.0024976302
169	0x3e431988	0.19052708
170	0x3e09f442	0.13472083
171	0xbc5da85a	-0.013528908
172	0x3d5c302d	0.05375688
173	0x3e77c005	0.24194343
174	0x3d850f78	0.06497091
175	0xbcb015c1	-0.021494748
176	0x3d84a038	0.06475872
177	0xbdbcc117	-0.092165165
178	0x3ea0012b	0.3125089
179	0xbe953301	-0.29140475
180	0x3e93d2f6	0.28871888
181	0x3e12e4c7	0.14345084
182	0xbe2b65e9	-0.16738094
183	0xbd3b08c6	-0.045662664
184	0x3e0c96de	0.13729426
185	0xbf4bdab2	-0.7963058
186	0x3d233a28	0.039850384
187	0x3c86e435	0.01646624
188	0x3f3e07c0	0.74230576
189	0xbd32facb	-0.043696206
190	0xbf07cfe2	-0.5305158
191	0x3ded9e71	0.11602486
192	0x3d923178	0.07138342
193	0xbe9336ad	-0.28752652
194	0x3e9ec96a	0.31013042
195	0xbdba6545	-0.09101347
196	0xbd89575f	-0.06706118
197	0x3ce66e1f	0.028128682
198	0xbd611b56	-0.05495771
199	0x3d32a730	0.043616474
200	0xbc05956b	-0.0081533
201	0x3f134917	0.575334
202	0x3cf79fd0	0.030227572
203	0xbdd19734	-0.10233918
204	0x3c0af7ed	0.008481962
205	0x3daefd81	0.08544446
206	0xbf2ec303	-0.68266314
207	0x3e05704c	0.13031119
208	0x3d94094d	0.072283365
209	0x3e2dbdc5	0.16966923
210	0xbe4527a6	-0.19253406
211	0x3d07fb2a	0.033198513
212	0x3cd39ac7	0.02583064
213	0xbd20b5b2	-0.03923578
214	0x3d9db603	0.077007316
215	0x3d0cab99	0.034343336
216	0xbd984ff0	-0.07437122
217	0xbf19df38	-0.6010623
218	0xbb9d5332	-0.0048011774
219	0x3d6f49b7	0.05841991
220	0xbf062428	-0.5239892
221	0xbdd2a21d	-0.10284827
222	0x3f9d3b7e	1.228378
223	0xbdeec67b	-0.11658951
224	0xbdc523ab	-0.09625944
225	0xbd96f6f5	-0.07371322
226	0x3ddc2a8a	0.10750301
227	0x3d8ce385	0.068793334
228	0x3cabec2d	0.02098664
229	0x3ca5511d	0.02018028
230	0xbd03b8c2	-0.03215862
231	0x3b440b7c	0.0029914072
232	0x3e741c20	0.23838854
233	0x3f4e0e2e	0.80490386
234	0xbdd038c4	-0.10167077
235	0xbe3dd61f	-0.18538712
236	0xbefccad1	-0.49373487
237	0x3e1b79bc	0.15183157
238	0xbd12ee0f	-0.03587156
239	0x3e1de672	0.15419939
240	0x3dc39cb4	0.09551373
241	0x3d9173a4	0.07102135
242	0xbcd071fd	-0.025444979
243	0xbe15ae87	-0.14617358
244	0x3d20b921	0.039239053
245	0xbc3fca22	-0.011705907
246	0x3e18e468	0.1493088
247	0xb99b0dbf	-0.00029574145
248	0xb9d1850f	-0.00039962723
249	0xbdfa32fd	-0.122167565
250	0x3e12290e	0.14273474
251	0x3db61c14	0.08892074
252	0x3e3103c3	0.17286591
253	0xbd01ec08	-0.031719238
254	0xbe710709	-0.2353784
255	0xbe6fe2fd	-0.23426433

bias f4 [16]
0	0x3e030bd9	0.12797488
1	0x3df5f2a5	0.120091714
2	0x3cb5a62e	0.022173967
3	0xbe6f4761	-0.23367073
4	0x3d23dcce	0.040005498
5	0x3e1acc29	0.15116943
6	0xbe736a87	-0.23771106
7	0xbd5a7a94	-0.053339556
8	0xbe809ed8	-0.25121188
9	0xbe722730	-0.23647761
10	0xbdf12be3	-0.11775949
11	0xbe9c6d5f	-0.30552194
12	0xbe42fe43	-0.19042306
13	0x3d56675a	0.052344657
14	0x3d8a2fd1	0.067474015
15	0x3d3706ae	0.044684105

weight f4 [16, 16]
0	0x3e0f7f92	0.14013508
1	0xbe959d34	-0.292215
2	0x3e23f09f	0.16009758
3	0x3da88a25	0.08229474
4	0xbe9d7cba	-0.3075922
5	0xbd8dc8fc	-0.069231
6	0xbf59a96b	-0.85024136
7	0xbc24a7c3	-0.010049763
8	0xc0165acc	-2.3492918
9	0xbeb50869	-0.3535798
10	0x3e27dadf	0.16392086
11	0xbe360dfb	-0.1777877
12	0xbe0a1145	-0.1348315
13	0x3d8665c3	0.06562378
14	0x3eb0a83d	0.34503356
15	0xbe1a3462	-0.15059045
16	0x3e86437f	0.2622337
17	0xbc82b29b	-0.015954306
18	0xbe646c86	-0.22307023
19	0x3e40fa98	0.18845594
20	0xbe4150d9	-0.18878497
21	0xbdf2050d	-0.118173696
22	0xbf6eed1b	-0.93330544
23	0x3cd13c63	0.02554149
24	0xbed9cbd9	-0.42538336
25	0xbe931b7e	-0.28731912
26	0xbf06fb80	-0.5272751
27	0x3ecf64e3	0.40506658
28	0xbe9a33cf	-0.30117652
29	0xbe589dd8	-0.21153963
30	0xbe4fdc42	-0.20298865
31	0x3bf28cf2	0.007402056
32	0xbd5feb58	-0.0546678
33	0xbdeb4713	-0.11488166
34	0x3dd7e666	0.10541992
35	0xbdbd9d4c	-0.092585176
36	0xbec4888a	-0.3838542
37	0x3e947a6b	0.28999647
38	0xbcfb68dc	-0.03068965
39	0x3e7ceaf6	0.24699005
40	0x3d25d415	0.04048546
41	0xbe4ea419	-0.20179786
42	0xbe10f670	-0.14156508
43	0x3ed99c20	0.42501926
44	0x3e2ae287	0.16687976
45	0xbeb7c3e0	-0.35891628
46	0x3dc7574b	0.09733447
47	0x3ca7e6e7	0.020495845
48	0xbf44b58d	-0.76839525
49	0xbd907555	-0.07053629
50	0xbec99fd5	-0.39379755
51	0xbe8eaf82	-0.27868277
52	0xbdb9fca1	-0.09081388
53	0xbd0c455e	-0.03424584
54	0x3e0b1193	0.13580923
55	0x3e60d753	0.2195714
56	0x3d2a4ca3	0.041576993
57	0x3e02459a	0.12721863
58	0xbcab3ed9	-0.020903992
59	0xbeaef2bc	-0.34169567
60	0x3e2c1d52	0.1680806
61	0xbe55b0a0	-0.20868158
62	0xbd443ab3	-0.047907542
63	0x3edea3ae	0.43484253
64	0x3dab0181	0.08349896
65	0x3de84177	0.113406114
66	0xbd129b1b	-0.03579245
67	0xbd9207dc	-0.07130405
68	0x3e8ebb5b	0.27877316
69	0xbca3e258	-0.02000539
70	0x3da42953	0.080156945
71	0x3b4edfdf	0.0031566543
72	0x3e02fa88	0.12790883
73	0x3c0dabfb	0.00864696
74	0xbda7d37a	-0.08194633
75	0x3da44033	0.080200575
76	0xbdee0574	-0.11622134
77	0x3e142f3a	0.1447114
78	0xbe141bc0	-0.14463711
79	0x3dddf3a5	0.10837487
80	0x3e3f3511	0.18672587
81	0x3b87bf42	0.0041426728
82	0x3daad2ff	0.083410256
83	0x3bd72514	0.0065656994
84	0x3d7a6251	0.061128918
85	0xbdf77e09	-0.12084586
86	0xbd26d707	-0.04073241
87	0xbe09a0ed	-0.13440295
88	0xbdcb9323	-0.099401735
89	0xbe7923aa	-0.24330011
90	0x3e0f3c60	0.13987875
91	0xbdc57de8	-0.09643155
92	0xbcd7bb7e	-0.02633452
93	0x3d87507e	0.066071495
94	0x3e6d414f	0.23169445
95	0xbdb5d77b	-0.0887899
96	0x3d912706	0.07087521
97	0xbf0a0a06	-0.53921545
98	0x3dd705a8	0.10499126
99	0xbcdb0dc5	-0.026739964
100	0xbf2bb299	-0.67069393
101	0x3eedb39e	0.464261
102	0xbe3e4ff9	-0.18585195
103	0xbda8ddf0	-0.08245456
104	0x3d9ed9b2	0.07756366
105	0xbe140005	-0.14453132
106	0xbed9223b	-0.42408928
107	0x3f31e82f	0.6949491
108	0x3ea4a5e8	0.32157826
109	0xbe461953	-0.19345598
110	0xbe4ceaf8	-0.20011508
111	0xbee50ce4	-0.44736397
112	0xbeb1c2e6	-0.34719008
113	0x3f24030d	0.64067155
114	0xbebf6bfd	-0.37387076
115	0x3ea2734a	0.31728584
116	0x3fa8af7a	1.3178551
117	0x3cc0fe81	0.023558857
118	0x3f8c2ce4	1.09512
119	0xbf121443	-0.57062167
120	0x3fc66944	1.5500875
121	0x3f2e1509	0.6800085
122	0xbfb4f4a5	-1.413716
123	0x3f656c16	0.8961805
124	0x3d769e36	0.060209475
125	0xbf1ddb93	-0.6166317
126	0xc0198464	-2.3987055
127	0x3f243f2b	0.64158887
128	0xbd705d66	-0.05868282
129	0x3ec923a3	0.39285
130	0x3e428a82	0.18998149
131	0xbedf12d7	-0.4356906
132	0x3e9e8237	0.3095872
133	0xbdd3803f	-0.103271954
134	0x3e77ad32	0.24187163
135	0x3f485bf9	0.7826534
136	0xbecbab53	-0.39779148
137	0x3efabfe6	0.48974532
138	0x3e93510f	0.2877278
139	0x3d1aa9cb	0.037759583
140	0x3f29522c	0.6614101
141	0xbe08ca0e	-0.13358328
142	0x3dad5a51	0.08464492
143	0x3bbd131c	0.0057701003
144	0x3d86c7c1	0.06581069
145	0x3d2b0d62	0.04176081
146	0x3e16f55a	0.14742032
147	0x3c829959	0.015942262
148	0xbdc700a6	-0.097169206
149	0x3daeea6f	0.085408084
150	0xbc850969	-0.016239839
151	0xbcfd7acc	-0.030942343
152	0xbbd19a30	-0.0063965544
153	0xbf897497	-1.0738705
154	0xbca708b8	-0.0203899
155	0xbe631537	-0.22176062
156	0x3d4dd234	0.050249293
157	0xbdcaa3e0	-0.09894538
158	0x3e4284bc	0.18995947
159	0xbc303edf	-0.010757177
160	0x3c894a16	0.01675896
161	0xbd80a6e9	-0.062818356
162	0x3de1f30e	0.11032687
163	0x3e7993a8	0.24372733
164	0xbe5cc0ed	-0.2155797
165	0xbd3eb335	-0.046557624
166	0xbe15dc1e	-0.1463475
167	0xbe7271db	-0.23676245
168	0x3dbf956e	0.09354673
169	0xbc710055	-0.014709552
170	0xbe2fe9ad	-0.17178984
171	0x3e32286e	0.17398235
172	0x3f2ba3f5	0.67047054
173	0xbd95f70a	-0.073225096
174	0xbeb49667	-0.35270998
175	0xbe21b5f6	-0.15792069
176	0xbf0f3282	-0.55936444
177	0x3e62deeb	0.22155349
178	0x3e50c7e7	0.20388757
179	0x3d633f49	0.055480275
180	0xbe295496	-0.16536173
181	0xbe534cf8	-0.2063483
182	0x3dc25281	0.094883926
183	0xbd11d76b	-0.03560583
184	0x3ed42766	0.4143631
185	0x3e94d911	0.2907186
186	0xbf32e374	-0.69878316
187	0x3e082311	0.13294627
188	0x3f1322dd	0.5747507
189	0x3e3f2faa	0.18670526
190	0xbe90f42c	-0.28311288
191	0xbe899e6d	-0.26878682
192	0xbc0de7fc	-0.008661266
193	0xbcf55b10	-0.029950649
194	0xbcd3463e	-0.02579033
195	0x3d40a823	0.047035348
196	0xbd3bfcef	-0.045895513
197	0xbc0b7448	-0.00851161
198	0xbeda2519	-0.42606428
199	0xbb9aa178	-0.0047189556
200	0xbf550d47	-0.83223385
201	0x3e056a60	0.1302886
202	0xbc959f62	-0.018264476
203	0x3d9eba8c	0.07750425
204	0xbd0cd857	-0.034386005
205	0xbc4c01ea	-0.012451628
206	0x3c791dc9	0.015204855
207	0xbcd612e7	-0.02613206
208	0xbd721700	-0.059103966
209	0xbe413f77	-0.18871866
210	0xbefa7af8	-0.48921943
211	0x3d085414	0.03328331
212	0xbf0c25de	-0.5474528
213	0xbe0c01db	-0.13672583
214	0xbf12fba9	-0.5741525
215	0xbed472ac	-0.41493738
216	0x3d9563a7	0.07294398
217	0xbdc19914	-0.094530255
218	0xbe8befb0	-0.27331305
219	0xbd3015fc	-0.042989716
220	0xbea6a151	-0.3254495
221	0xbd414e13	-0.047193598
222	0xbe2e47a4	-0.17019516
223	0xbefb4db3	-0.49082717
224	0x3eb65b1b	0.35616383
225	0xbd13ffbe	-0.036132567
226	0xbd4936a4	-0.049124375
227	0xbd492869	-0.049110804
228	0xbdad2051	-0.084534295
229	0x3da8a85f	0.08235239
230	0xbccd9088	-0.025093332
231	0xbd67f5db	-0.05663095
232	0xbb9eaaad	-0.0048421235
233	0xbb414942	-0.0029493128
234	0xbdccf498	-0.1000759
235	0xbdb85d03	-0.090021156
236	0xbdc0a575	-0.094065584
237	0x3e575195	0.21027215
238	0x3df562d1	0.11981738
239	0xbd005a54	-0.031336144
240	0x3f04f3b1	0.51934344
241	0x3ddc78fb	0.10765263
242	0x3e5f1e5c	0.21788925
243	0x3e3f4503	0.1867867
244	0x3e323d20	0.1740613
245	0xbe766866	-0.24063262
246	0x3d861bb1	0.065482505
247	0x3c11a220	0.008888751
248	0xbeb7f58e	-0.3592953
249	0xbe86b0a0	-0.2630663
250	0x3dd5268a	0.10407741
251	0x3ec39ce1	0.38205627
252	0xbe0562fa	-0.13026038
253	0x3d0f5962	0.03499735
254	0x3e4593e9	0.19294704
255	0x3ce34558	0.027743027

bias f4 [16]
0	0x3ebc5d34	0.36789858
1	0xbe0e80ec	-0.13916367
2	0x3daa5a10	0.08317959
3	0xbe82fbd2	-0.2558275
4	0x3d92ad14	0.07161918
5	0x3d97d211	0.07413114
6	0x3e387765	0.18014295
7	0xbf844f36	-1.0336673
8	0xbea6810e	-0.32520336
9	0x3d3eb866	0.046562575
10	0xbe6f8bb1	-0.23393132
11	0xbf131ae2	-0.57462895
12	0x3e0900f3	0.13379268
13	0xbe083f5c	-0.1330542
14	0x3c9de827	0.019275738
15	0xbf00c95d	-0.50307256

weight f4 [64, 64]
0	0x3e13bce7	0.1442753
1	0x3e6a0b1f	0.22855805
2	0xbe759cc0	-0.23985577
3	0x3ee5d344	0.44887745
4	0xbd7cb458	-0.061695427
5	0xbefcf4e7	-0.49405596
6	0xbe8f7715	-0.2802054
7	0x3d1d9ef5	0.03848167
8	0xbe32d20d	-0.1746294
9	0xbde01fde	-0.10943578
10	0x3e34cef5	0.17657073
11	0x3e8338d4	0.25629294
12	0x3f006fe4	0.5017073
13	0xbdad2c7d	-0.08455751
14	0x3ea91b32	0.3302856
15	0x3e79c356	0.24390921
16	0x3ebecdc5	0.37266365
17	0xbae720a2	-0.0017633627
18	0xbd4cb224	-0.049974576
19	0x3dd5d045	0.10440115
20	0xbd203a3d	-0.03911804
21	0xbf115a11	-0.56778055
22	0xbf0e74bc	-0.5564687
23	0x3dd8525c	0.10562584
24	0x3e8150b2	0.25256878
25	0x3dae5cfb	0.08513828
26	0x3c91c4e3	0.017794078
27	0xbeacd7d9	-0.3375843
28	0xbf0ac924	-0.54213166
29	0xbe369d03	-0.17833333
30	0x3d85b5ef	0.06528842
31	0xbdc49c3c	-0.09600112
32	0xbf0d8103	-0.5527498
33	0x3cf39fd0	0.02973929
34	0x3c590db7	0.013247899
35	0x3d66974c	0.05629663
36	0x3d05858a	0.032598056
37	0x3e873503	0.26407632
38	0x3c98caf5	0.018651465
39	0xbc3de1f8	-0.01158952
40	0xbe18511a	-0.14874688
41	0xbdff9590	-0.12479699
42	0xbd59a651	-0.053137127
43	0x3eaf2df9	0.34214762
44	0x3b577bd0	0.0032880194
45	0xbe062ea9	-0.13103737
46	0xbe59f6a6	-0.21285495
47	0xbec99a0a	-0.39375335
48	0x3e382188	0.17981541
49	0x3e28c569	0.16481556
50	0x3d22d9ae	0.039758377
51	0x3d70a9ee	0.058755808
52	0xbe0c82c5	-0.1372176
53	0x3eb1bb1d	0.3471307
54	0x3dd31eee	0.10308634
55	0xbdcb754f	-0.09934484
56	0xbe6d5780	-0.2317791
57	0x3ee08807	0.4385378
58	0xbd46f2cb	-0.04857139
59	0xbdc7d00b	-0.09756478
60	0xbe33f38b	-0.17573373
61	0xbe402c21	-0.18766834
62	0xbd3bc97d	-0.04584645
63	0x3ec1132f	0.37709948
64	0x3e6aa5c5	0.22914799
65	0x3e2a363c	0.16622251
66	0x3df8c07e	0.1214609
67	0x3cfdeb13	0.030995881
68	0x3e8407bd	0.25787154
69	0x3e1e0b1f	0.1543393
70	0x3e312a13	0.17301206
71	0x3d0c0075	0.034180123
72	0x3de16aa4	0.11006668
73	0x3ea438aa	0.3207448
74	0xbd008aa7	-0.03138223
75	0x3db8a95b	0.09016677
76	0x3d8244ab	0.063607536
77	0xbccf0f84	-0.025275953
78	0x3e2aef13	0.16692762
79	0x3dc7ad4f	0.09749853
80	0x3e626d34	0.2211197
81	0xbdbcabbf	-0.092124455
82	0xbefb49f7	-0.49079868
83	0xbd51f80c	-0.051261947
84	0xbedf5e1d	-0.4362649
85	0xbea76645	-0.32695213
86	0x3d69f457	0.057117786
87	0x3e059565	0.1304527
88	0x3e7c3e6b	0.24633186
89	0x3e589837	0.21151815
90	0xbe20da63	-0.15708308
91	0x3e8d856f	0.27640864
92	0xbe006c6b	-0.12541358
93	0xbf2c031b	-0.6719224
94	0xbe15bd45	-0.14622982
95	0xbdd4dc5a	-0.10393591
96	0xbf3314b5	-0.6995347
97	0x3eb21809	0.34783962
98	0x3e03c304	0.12867361
99	0x3e4a955c	0.19783539
100	0xbdc4d568	-0.096110165
101	0xbb3f94b8	-0.002923293
102	0xbce4f589	-0.027949112
103	0xbcaddd4e	-0.02122369
104	0xbe606fa2	-0.21917585
105	0xbe4be54e	-0.19911692
106	0xbd4c7d83	-0.049924385
107	0x3e813634	0.25236666
108	0xbd424fae	-0.04743927
109	0x3e055cc7	0.13023673
110	0xbeba83a8	-0.3642857
111	0x3e6d4344	0.23170191
112	0x3e63c0cd	0.22241516
113	0xbc9d105d	-0.019172842
114	0xbe2fdaa3	-0.17173247
115	0x3d4d455f	0.050114986
116	0x3ef9656e	0.48710197
117	0xbeb99fd9	-0.36254767
118	0xbda43495	-0.08017842
119	0xbeab4181	-0.33448413
120	0xbc4fdca1	-0.012686879
121	0x3de9fc38	0.1142506
122	0x3ebd40c9	0.3696349
123	0x3ea6677c	0.32500827
124	0x3e492a0c	0.19644946
125	0x3dd27624	0.1027644
126	0x3df5b924	0.119982034
127	0x3eaea4ed	0.34110203
128	0x3ee34285	0.44386688
129	0x3e8aca1d	0.27107325
130	0x3dcc986c	0.0999001
131	0x3e872218	0.263932
132	0x3dfd8af4	0.12380019
133	0x3b2367e5	0.0024933752
134	0xbe0bb6cc	-0.1364395
135	0xbe578c74	-0.21049672
136	0xbe82f4a0	-0.2557726
137	0xbac85d31	-0.0015286562
138	0x3e2d44e8	0.16920817
139	0x3e0bebc8	0.13664162
140	0x3e136421	0.14393665
141	0x3de62571	0.1123761
142	0x3debda3b	0.115162335
143	0xbdea8a7a	-0.114521936
144	0x3e186179	0.14880933
145	0xbed9e945	-0.42560783
146	0xbef38d6c	-0.47568834
147	0x3ea2cc72	0.31796604
148	0xbef14b35	-0.4712769
149	0xbefc878e	-0.4932217
150	0xbeb373b3	-0.3504921
151	0x3e8ecf6c	0.27892625
152	0x3ea5e698	0.32402492
153	0x3e84f98a	0.25971633
154	0xbdf1d060	-0.118073225
155	0x3d98f633	0.07468834
156	0xbebcecb1	-0.3689933
157	0xbe8bf0ff	-0.27332303
158	0x3e47df6e	0.19518825
159	0x3e30a315	0.17249711
160	0xbf0544a0	-0.5205784
161	0x3db30523	0.08741214
162	0xbe2141fb	-0.15747826
163	0x3c070934	0.00824194
164	0x3e10f338	0.1415528
165	0x3dd5519b	0.10415956
166	0x3df004ed	0.117196895
167	0x3d96a164	0.073550016
168	0x3d4c91f9	0.049943898
169	0x3c50bac6	0.012739843
170	0x3dfd1b9a	0.1235878
171	0x3dc5f8cc	0.09666595
172	0xbda07c51	-0.078362115
173	0xbe558374	-0.20850927
174	0xbe844fbd	-0.25842085
175	0x3e3ba9d5	0.18326505
176	0x3e83956d	0.2569994
177	0x3dd8a536	0.105783865
178	0x3c269b9a	0.010168934
179	0x3df97641	0.12180758
180	0x3d4dde59	0.050260875
181	0x3e37a6a3	0.1793466
182	0xbb06ac02	-0.0020549302
183	0xbda77c32	-0.08177985
184	0xbe55e41f	-0.20887803
185	0x3d8862f8	0.06659502
186	0x3e31145d	0.17292924
187	0x3cdc080b	0.026859304
188	0x3d4445b9	0.047918055
189	0xbda6bcc3	-0.08141472
190	0xbe114536	-0.14186558
191	0x3e366add	0.17814203
192	0x3efa4612	0.48881584
193	0x3d55789c	0.052116975
194	0x3e1a805d	0.15088029
195	0xbec9c818	-0.39410472
196	0x3ed55e8a	0.4167369
197	0x3e34a4c5	0.1764098
198	0x3ee19b18	0.4406364
199	0x3b7de97b	0.0038743902
200	0xbdc80581	-0.09766675
201	0x3e2915d5	0.16512235
202	0x3ea06b2a	0.3133176
203	0x3ed4f43d	0.4159259
204	0x3e0eb562	0.1393638
205	0xbe0a15c1	-0.13484861
206	0xbe9d40e2	-0.30713564
207	0xbef49360	-0.47768688
208	0xbef20b98	-0.4727447
209	0xbf70d83e	-0.9407996
210	0xbf185ae0	-0.59513664
211	0x3e6031fe	0.2189407
212	0xbe673656	-0.22579321
213	0x3e043d30	0.12913966
214	0x3eeb64ce	0.45975345
215	0xb9b82329	-0.0003512141
216	0xbe1ef56a	-0.15523306
217	0x3ee7cf0d	0.45275155
218	0x3dfca2cf	0.12335741
219	0x3e51c3af	0.20484804
220	0x3d6848b1	0.05670995
221	0x3da6defb	0.08147999
222	0x3ec4f9cf	0.3847184
223	0x3e062245	0.1309901
224	0xbed35f34	-0.41283572
225	0xbe5aeffd	-0.21380611
226	0xbe3e2f3b	-0.18572704
227	0x3ea8d775	0.3297688
228	0xbbd7489b	-0.0065699345
229	0x3de4548e	0.1114894
230	0x3d001904	0.031273857
231	0x3dc1e726	0.09467916
232	0x3edae5a0	0.42753315
233	0xbcf1afa9	-0.029502707
234	0x3e0040bf	0.12524699
235	0xbdaa7add	-0.083242156
236	0x3d13f65c	0.03612362
237	0xbdd5e9d1	-0.104449876
238	0xbe9ddbd0	-0.30831766
239	0x3e9ba467	0.30398867
240	0xbcd116fe	-0.025523659
241	0x3a68b1db	0.00088766
242	0xbec16ff8	-0.37780738
243	0xbd42eff4	-0.04759212
244	0x3d854ab0	0.06508386
245	0xbd9041c2	-0.07043792
246	0xbd58e3ae	-0.052951507
247	0xbeeaf8c9	-0.45892933
248	0x3dcb7b3c	0.099356145
249	0xbef3ec8e	-0.47641414
250	0x3e44084f	0.19143794
251	0x3e1cdee4	0.15319401
252	0x3ebaace6	0.36460036
253	0x3e6cc945	0.23123653
254	0xbe2ca88f	-0.16861175
255	0xbee8b0e8	-0.4544747

bias f4 [64]
0	0xbf0b36cf	-0.54380506
1	0xbf1832f5	-0.59452754
2	0xbebaf29e	-0.36513227
3	0xbec04b3a	-0.37557393
4	0xbe7dd9d3	-0.24790125
5	0xbde8f5a8	-0.1137498
6	0xbed1bbe6	-0.40963668
7	0xbed5ad61	-0.4173384
8	0xbf710b9e	-0.9415835
9	0xbf03deaf	-0.51511663
10	0xbf2df830	-0.6795683
11	0xbedd1b05	-0.43184677
12	0xbededd77	-0.4352834
13	0xbf0356ef	-0.51304525
14	0xbea2e166	-0.3181259
15	0xbece3dbb	-0.40281472
16	0xbe3d94aa	-0.18513742
17	0xbf3cd533	-0.73762816
18	0xbe669f16	-0.22521624
19	0xbf2bf331	-0.67167956
20	0xbf2d7a9c	-0.6776521
21	0xbefceba2	-0.49398524
22	0xbe539769	-0.20663227
23	0xbefa61fc	-0.4890288
24	0xbef68e2b	-0.4815534
25	0xbf27f224	-0.6560385
26	0xbef5f459	-0.48037985
27	0xbf06e6f7	-0.52696174
28	0xbf82c916	-1.0217617
29	0xbf0b32b3	-0.54374236
30	0xbf1d6a8e	-0.61490715
31	0xbe19c6b6	-0.15017208
32	0xbf5c9b1b	-0.8617417
33	0xbeccdd8c	-0.40012777
34	0xbf169c1a	-0.5883194
35	0xbedaf327	-0.42763636
36	0xbdd8d366	-0.10587196
37	0xbeead68e	-0.45866817
38	0xbe9f8a69	-0.31160286
39	0xbf3ca5f2	-0.7369071
40	0xbf05b1af	-0.5222425
41	0xbf1f0538	-0.6211734
42	0xbeb30aa1	-0.34969047
43	0xbf039555	-0.5139974
44	0xbef5ef83	-0.48034295
45	0xbe82244e	-0.25418323
46	0xbf148708	-0.5801854
47	0xbec45d03	-0.38352212
48	0xbf15318a	-0.58278716
49	0xbea87fd6	-0.3291003
50	0xbeb5bc5d	-0.35495272
51	0xbe8cd9b4	-0.27509844
52	0xbf09e6d5	-0.53867847
53	0xbeb2b0d7	-0.34900543
54	0xbee26efa	-0.44225293
55	0xbeea26c7	-0.4573271
56	0xbeb740c2	-0.35791594
57	0xbef5ffb5	-0.4804665
58	0xbed1a552	-0.40946442
59	0xbeb9c087	-0.362797
60	0xbe982d37	-0.29721996
61	0xbf2e0ace	-0.67985237
62	0xbecac41e	-0.3960275
63	0xbebf225b	-0.373309

weight f4 [64, 64]
0	0xbe674aa5	-0.22587068
1	0x3e4ee728	0.20205367
2	0xbe026002	-0.12731937
3	0xbe20d4d0	-0.15706182
4	0x3e8f350a	0.27970153
5	0x3e075b56	0.13218436
6	0x3e5a071f	0.21291779
7	0xbec0dac1	-0.37666896
8	0xbded2f74	-0.115813166
9	0xbf222cfd	-0.63349897
10	0xbe935bd9	-0.28781012
11	0x3c523a53	0.012831288
12	0xbb8d2510	-0.0043073967
13	0x3d9472d0	0.07248461
14	0xbe9e19bf	-0.30879018
15	0x3d82dfc3	0.063903354
16	0x3e08e21b	0.13367502
17	0xbf0038a3	-0.5008642
18	0xbd01ad46	-0.031659387
19	0x3cbca523	0.023027962
20	0xbe65bb71	-0.22434784
21	0xbe32f915	-0.1747783
22	0xbf1456c7	-0.5794491
23	0xbe90e67d	-0.2830085
24	0xbe542bca	-0.20719829
25	0x3e1db6dd	0.15401788
26	0xbe50f35e	-0.20405337
27	0x3ca29863	0.019848054
28	0x3ee4a6ef	0.4465861
29	0xbe84627d	-0.2585639
30	0xbd507985	-0.05089714
31	0xbec2720f	-0.37977645
32	0xbeb825cc	-0.35966337
33	0xbc566eff	-0.013087987
34	0xbd28441e	-0.041080587
35	0x3cb4b349	0.022058146
36	0xbeae5f28	-0.34056973
37	0x3c903de8	0.017607644
38	0xbf853b6e	-1.0408762
39	0x3e31ef30	0.17376399
40	0xbd0e309e	-0.034714334
41	0xbe7df662	-0.24801019
42	0xbe551198	-0.20807493
43	0xbe2fe22a	-0.17176118
44	0x3d5bff70	0.0537104
45	0xbf2c140f	-0.67218107
46	0xbe89dc16	-0.26925725
47	0x3ea6b443	0.32559404
48	0xbc796286	-0.015221244
49	0xbf246d23	-0.6422903
50	0xbee6e654	-0.450976
51	0x3ea62373	0.3244892
52	0xbd300205	-0.042970676
53	0xbc72c1e6	-0.014816737
54	0xbd2e2464	-0.042515174
55	0x3e079564	0.13240582
56	0xbf472423	-0.77789515
57	0xbf2ef067	-0.68335575
58	0x3d2f63ce	0.04281979
59	0xbe011a9e	-0.1260781
60	0xbe2df72a	-0.16988817
61	0x3e39ee19	0.18157233
62	0xbe2c6046	-0.168336
63	0xbe325ee9	-0.17419018
64	0xbdb68af2	-0.089132205
65	0x3e7e948d	0.24861355
66	0x3d2d9d52	0.04238636
67	0xbdf74004	-0.12072757
68	0xbeefc4db	-0.46829876
69	0xbe2f2976	-0.1710566
70	0xbe32a47a	-0.17445555
71	0xbe53eba9	-0.20695366
72	0x3c614b1c	0.013750818
73	0xbe81d88f	-0.25360534
74	0x3d5228ff	0.05130863
75	0xbf5e745e	-0.8689631
76	0xbddcc601	-0.10779954
77	0x3e6d0f3b	0.23150341
78	0x3c2e2979	0.010630005
79	0xbed76c90	-0.42075014
80	0xbe35242e	-0.17689583
81	0xbe11cc2b	-0.1423804
82	0x3c273a52	0.010206776
83	0xbdf255d3	-0.11832776
84	0xbe4a44c5	-0.19752796
85	0xbdd7a9e6	-0.105304524
86	0x3d4ee770	0.050513685
87	0xbea92846	-0.3303854
88	0x3e0a0c7b	0.13481323
89	0x3ecbdc02	0.3981629
90	0xbe959d26	-0.29221457
91	0xbdf92d85	-0.12166885
92	0xbe87ca89	-0.2652171
93	0xbdc7e4a0	-0.09760404
94	0x3d8a83a0	0.06763387
95	0xbe09301f	-0.13397263
96	0xbe9757e6	-0.2955925
97	0xbecb5cbd	-0.3971919
98	0x3d45f569	0.048329744
99	0x3e3a228a	0.18177238
100	0xbdcf1302	-0.10111047
101	0x3dc3b801	0.0955658
102	0xbe5022e5	-0.20325811
103	0x3e9701af	0.29493472
104	0x3e217a01	0.15769197
105	0x3e4ba290	0.19886231
106	0x3d9fc23f	0.078007214
107	0xbea496f2	-0.32146412
108	0xbdeaeffb	-0.11471554
109	0xbe394784	-0.18093687
110	0x3de6038c	0.11231145
111	0xbcd1ba02	-0.02560139
112	0xbe4c68f5	-0.19961913
113	0xbd9f1310	-0.07767308
114	0x3e51abba	0.20475665
115	0xbe1e95f5	-0.15486892
116	0x3e755b25	0.2396055
117	0xbea40296	-0.32033223
118	0xbe85d233	-0.26136932
119	0x3d433ae7	0.047663596
120	0xbbea7a5b	-0.007155699
121	0xbdea07a6	-0.1142724
122	0xbdc4b78a	-0.0960532
123	0xbe154e2a	-0.14580598
124	0xbe1056dd	-0.14095636
125	0xbe05c1e1	-0.1306224
126	0xbcc23edb	-0.023711612
127	0xbda2dcf1	-0.079522975
128	0xbe43d2a5	-0.19123323
129	0x3cf16424	0.029466696
130	0xbe20dec4	-0.15709978
131	0x3eb202d3	0.3476778
132	0x3e1506c6	0.14553365
133	0x3e4d8927	0.2007185
134	0xbe729719	-0.23690452
135	0xbd46d5da	-0.04854379
136	0x3e0c9981	0.13730432
137	0xbe9a3261	-0.3011656
138	0x3e7beba8	0.24601614
139	0xbc500944	-0.012697522
140	0x3d8ff43c	0.07029006
141	0x3e19a8cd	0.15005799
142	0x3d718e0d	0.05897336
143	0x3cea6351	0.02861181
144	0x3e06ee71	0.13176896
145	0x3de42a14	0.11140838
146	0xbe13e5f0	-0.14443183
147	0x3ebed320	0.3727045
148	0x3e1de622	0.1541982
149	0x3e6d8087	0.2319356
150	0xbeb77701	-0.3583298
151	0xbe37e767	-0.17959367
152	0xbd837fc7	-0.06420856
153	0x3e5513e5	0.2080837
154	0xbcc1997a	-0.023632754
155	0xbc68f594	-0.014218707
156	0x3e68efe5	0.22747763
157	0xbdf6a455	-0.120430626
158	0xbdaa2219	-0.08307285
159	0xbe436263	-0.190805
160	0xbe7c1476	-0.2461718
161	0x3cddfcba	0.027098048
162	0xbd962c8d	-0.07332716
163	0x3d7c75ad	0.061635662
164	0xbf3985e6	-0.7246994
165	0xbc188f7a	-0.009311551
166	0xbe61c76d	-0.22048731
167	0x3d15cdd6	0.036573254
168	0x3d8b0092	0.06787218
169	0x3e42b866	0.19015655
170	0x3e513cef	0.204334
171	0xbd17370c	-0.03691773
172	0x3da9ebfa	0.08296962
173	0x3dfcc5b3	0.12342396
174	0x3eae548c	0.3404888
175	0x3da74706	0.081678435
176	0xbcc6a1be	-0.024247047
177	0x3d3e9d11	0.04653651
178	0x3e0ea612	0.13930538
179	0xbd01e9b6	-0.031717025
180	0x3e0ba4e8	0.13637125
181	0x3e15c582	0.14626125
182	0xbd8752ad	-0.06607566
183	0x3dc16b7a	0.09444328
184	0xbe07927d	-0.13239475
185	0xbdb5bfb3	-0.08874454
186	0xbe2a5db3	-0.16637306
187	0x3ca15c4f	0.019697336
188	0x3d679626	0.056539677
189	0x3eb33439	0.3500078
190	0xbdea1c80	-0.11431217
191	0xbd5d0455	-0.05395921
192	0x3dd52f38	0.10409397
193	0x3e68ab82	0.22721675
194	0x3e009282	0.12555888
195	0x3e0f2a27	0.13980924
196	0xbf6f55ee	-0.93490493
197	0xbe70562d	-0.23470373
198	0x3e80ca75	0.25154462
199	0x3ddf5967	0.10905724
200	0x3e8532e6	0.26015395
201	0x3d442168	0.04788342
202	0x3c726752	0.014795141
203	0xbe093a52	-0.13401154
204	0xbd8e7ada	-0.06957026
205	0xbd301564	-0.04298915
206	0xbe9468f8	-0.28986335
207	0xbdc2ac29	-0.09505493
208	0xbe840757	-0.2578685
209	0xbe657d06	-0.22410974
210	0x3d5c8a18	0.053842634
211	0x3c63b57f	0.0138982525
212	0x3e49956b	0.19685905
213	0x3c9f3338	0.019433603
214	0x3cfc48f4	0.030796506
215	0xbe70290a	-0.23453155
216	0xbebe9b81	-0.37228015
217	0x3e530a84	0.2060948
218	0xbe2eedd3	-0.1708291
219	0x3e1b852b	0.15187518
220	0x3c8e8ffa	0.017402638
221	0x3cbc2d35	0.022970775
222	0x3d421734	0.04738541
223	0xbddb4cda	-0.10708018
224	0xbe62a7ab	-0.22134273
225	0xbe6a0110	-0.22851968
226	0xbf21521c	-0.63015914
227	0x3d149342	0.03627325
228	0x3e7851be	0.24249932
229	0x3e300e3b	0.17192928
230	0x3df1bdc7	0.11803775
231	0x3d3d9413	0.046283793
232	0x3d732d94	0.05936964
233	0xbe78f993	-0.24313955
234	0xbe1981b9	-0.14990892
235	0xbe67b041	-0.2262583
236	0xbd3cd229	-0.04609886
237	0xbdcf524e	-0.1012312
238	0xbdd5496d	-0.104143955
239	0x3c1e8625	0.009675537
240	0xbe8b750d	-0.2723774
241	0xbf0d27de	-0.5513896
242	0xbd91e09e	-0.071229205
243	0xbdeec275	-0.116581835
244	0x3d26966d	0.0406708
245	0xbdffb8bc	-0.12486407
246	0x3e7b4c58	0.24540842
247	0x3e499c20	0.19688463
248	0x3d294abf	0.04133105
249	0xbc4940c7	-0.0122835105
250	0xbd411f9d	-0.04714929
251	0xbee9af2a	-0.45641452
252	0xbeade405	-0.33963028
253	0xbccc091b	-0.024906686
254	0xbee8cbb1	-0.45467904
255	0x3ac56c99	0.0015062272

bias f4 [64]
0	0xbd93e1bb	-0.07220789
1	0xbf3d723a	-0.7400242
2	0xbdb55704	-0.088544875
3	0x3e370d4d	0.17876168
4	0xbea55871	-0.32294038
5	0xbf1fdc33	-0.6244537
6	0xbeebe8fe	-0.46076196
7	0xbf03ef59	-0.5153709
8	0x3e0ba731	0.13637997
9	0x3f12436b	0.5713412
10	0xbd8afb35	-0.06786195
11	0x3e1cbf9b	0.15307467
12	0xbf0d57dd	-0.55212194
13	0xbeb3f968	-0.3515122
14	0xbea9c6b1	-0.33159402
15	0x3ead59d3	0.33857593
16	0x3e18339c	0.14863437
17	0xbee34646	-0.44389552
18	0x3e34cd79	0.17656507
19	0x3d6a7d35	0.057248313
20	0xbeb62b19	-0.35579756
21	0xbd108f01	-0.03529263
22	0xbec8fad2	-0.3925386
23	0x3e359170	0.17731261
24	0xbea60649	-0.3242667
25	0xbe8838a7	-0.26605722
26	0xbe5e5184	-0.21710783
27	0xbe986d79	-0.2977102
28	0xbeca7511	-0.3954244
29	0xbea29fc0	-0.31762505
30	0x3ef5ce7e	0.48009104
31	0xbebfaa73	-0.3743473
32	0xbedca5ad	-0.4309515
33	0xbe940513	-0.2891012
34	0xbd664d5e	-0.056226127
35	0xbf189ca4	-0.59614015
36	0x3de2dbe2	0.110770956
37	0xbe949d2c	-0.29026163
38	0xbeba36e1	-0.36369994
39	0xbe6bca28	-0.23026335
40	0x3d957737	0.07298129
41	0x3ec1e0c0	0.37866783
42	0x3ea6fe88	0.32616067
43	0x3e2ffdae	0.17186615
44	0x3f01175b	0.5042626
45	0x3e4b5a24	0.19858605
46	0xbe6fbc04	-0.23411566
47	0xbdfeb6a8	-0.12437183
48	0x3d7f3dd7	0.062314834
49	0x3eb83a7d	0.35982123
50	0xbe7a1a96	-0.24424204
51	0x3d26a1b8	0.04068157
52	0xbf42c650	-0.7608385
53	0x3dfdf775	0.12400714
54	0xbf3e157f	-0.7425155
55	0xbf2819f1	-0.65664583
56	0xbf422c65	-0.7584899
57	0x3cde3b25	0.027127812
58	0xbdd105a2	-0.102061525
59	0xbdf97b43	-0.121817134
60	0xbf73df28	-0.95262384
61	0xbe025da5	-0.12731035
62	0xbe00016f	-0.12500547
63	0xbd2b9174	-0.04188676

weight f4 [128, 128]
0	0xbe8ff315	-0.28115144
1	0xbc662085	-0.014045839
2	0x3f69e150	0.91359425
3	0x3f0113b4	0.5042069
4	0x3ee4f83e	0.44720644
5	0xbd793c9c	-0.060848817
6	0x3c5a26a7	0.0133148795
7	0xbe649dd4	-0.22325832
8	0xbe9543f5	-0.2915341
9	0xbf7e6c07	-0.99383587
10	0x3e77c4a7	0.2419611
11	0xbe8e3641	-0.27775767
12	0xbd510230	-0.051027477
13	0xbdabd288	-0.08389765
14	0xbf35116f	-0.70729727
15	0xbeab6d24	-0.33481705
16	0x3e4eb4fa	0.20186225
17	0xbeddce3d	-0.4332141
18	0xbe1f6780	-0.15566826
19	0xbf099ae8	-0.53751993
20	0x3e2ffcbd	0.17186256
21	0x3ed15461	0.40884688
22	0x3e26c9b8	0.16287887
23	0xbb1281d6	-0.002235522
24	0xbf23352c	-0.6375301
25	0x3eaa2086	0.33227938
26	0xbf0a046b	-0.5391299
27	0x3cdbeaa4	0.026845284
28	0xbf2004ac	-0.6250713
29	0xbe09b1cb	-0.13446729
30	0xbe36735e	-0.17817447
31	0x3ea99458	0.3312099
32	0xbe8bfc28	-0.27340817
33	0x3e326eed	0.17425127
34	0x3beb05bf	0.007172316
35	0xbdd7a546	-0.1052957
36	0xbd270a7e	-0.04078149
37	0xbe800058	-0.25000262
38	0x3ecd044a	0.40042335
39	0xbee70db1	-0.45127633
40	0x3ea5fb7f	0.3241844
41	0x3bdcaa8c	0.006734198
42	0xbed90794	-0.42388594
43	0x3e0d11c7	0.13776313
44	0xbe9a3f85	-0.30126587
45	0x3f15ab51	0.58464533
46	0x3db6a66a	0.0891846
47	0xbf1fcf90	-0.6242609
48	0xbdae9fec	-0.085265964
49	0xbcfc2848	-0.030780926
50	0x3ec8d5ad	0.39225522
51	0xbe4ca87b	-0.19986145
52	0xbed5d4bb	-0.41763863
53	0x3e70d62d	0.23519202
54	0x3e43b227	0.19110928
55	0xbf34ec29	-0.7067285
56	0xbe2c89d3	-0.16849451
57	0x3cebc69a	0.028781224
58	0xbf72bdc6	-0.9482082
59	0xbd85970c	-0.065229505
60	0x3d27e6b5	0.040991504
61	0x3d35f9c8	0.044427663
62	0x3f002daf	0.5006971
63	0x3ea0cd71	0.3140674
64	0xbe6be365	-0.23035963
65	0xbd9b9372	-0.07596482
66	0x3eb0065c	0.34379852
67	0x3c071e2e	0.0082469415
68	0xbee64bab	-0.44979605
69	0xbc46c7b9	-0.0121325785
70	0xbef9cb52	-0.48787934
71	0xbf5313c4	-0.82452035
72	0xbea0fec8	-0.31444383
73	0x3ea821c1	0.32838252
74	0x3d51ee4a	0.05125264
75	0xbc3415fd	-0.010991571
76	0xbecc4425	-0.3989574
77	0xbc9aec19	-0.018911408
78	0x3e7b18be	0.24521157
79	0x3e8df32c	0.27724588
80	0xbe55e28b	-0.208872
81	0x3d8051a6	0.06265573
82	0xbe297efa	-0.16552344
83	0xbc333b16	-0.01093938
84	0x3f0edee0	0.5580883
85	0x3e9dbe88	0.30809426
86	0xbdc353c2	-0.0953746
87	0x3dcd4d76	0.1002454
88	0x3e3874bb	0.18013279
89	0x3e8609b1	0.2617927
90	0x3e57c82e	0.21072456
91	0x3e8931a8	0.26795697
92	0xbf0773bc	-0.5291097
93	0xbe0e49e4	-0.13895375
94	0xbf820b80	-1.015976
95	0x3d1f0a42	0.038828142
96	0xbeca2667	-0.39482424
97	0xbdbad1b6	-0.091220304
98	0xbd406846	-0.046974443
99	0xbe34cce5	-0.17656286
100	0xbe45b8d2	-0.19308785
101	0xbdb12fec	-0.086517185
102	0x3d991874	0.07475367
103	0xbb4aabc3	-0.0030925132
104	0x3e8d7af9	0.27632883
105	0x3f20b4bf	0.62775797
106	0xbd3fa1e2	-0.046785243
107	0xbf6773db	-0.90411156
108	0xbe25e505	-0.16200645
109	0xbdad35b5	-0.084575094
110	0x3ebb2c78	0.36557364
111	0x3ec35c16	0.38156193
112	0x3eb45ac7	0.35225508
113	0xbf0895b1	-0.5335341
114	0x3ebe70cf	0.3719544
115	0xbefb8b68	-0.49129796
116	0xbef0dba9	-0.47042587
117	0xbeb1a4d0	-0.34696054
118	0x3f08fce9	0.5351091
119	0xbd92fafc	-0.07176778
120	0xbf270415	-0.65240604
121	0xbea7490d	-0.3267292
122	0xbbf3dcd3	-0.007442096
123	0xbe2727d6	-0.1632379
124	0x3e4b73ed	0.19868441
125	0xbed8986a	-0.42303783
126	0xbddb1ef3	-0.106992625
127	0xbe01fd92	-0.12694386
128	0xbe2bc002	-0.16772464
129	0xbdc5ff33	-0.09667816
130	0x3b35c2bb	0.0027734477
131	0x3ef61851	0.48065427
132	0x3e1a01ed	0.15039797
133	0xbd9e0ac2	-0.07716896
134	0xbc32c98e	-0.010912312
135	0x3ca7361e	0.020411547
136	0xbd0972b6	-0.033556662
137	0xbe82202a	-0.25415164
138	0x3e1beec9	0.15227808
139	0x3de8101e	0.11331199
140	0xbc0723dc	-0.008248296
141	0xbe9bb940	-0.30414772
142	0xbe671c80	-0.22569466
143	0xbda16eb7	-0.07882445
144	0xbdf69deb	-0.12041839
145	0x3e48998b	0.19589822
146	0x3cc367af	0.023853151
147	0x3dcd916f	0.10037505
148	0x3e43e45f	0.19130085
149	0x3e6bf219	0.23041572
150	0x3d08bbfd	0.033382405
151	0x3f03750b	0.5135047
152	0x3cc3ec40	0.023916364
153	0xbe03ff31	-0.12890317
154	0xbe9dd4c1	-0.3082638
155	0x3d3b8488	0.04578069
156	0xbd950d83	-0.07277968
157	0x3e0c7276	0.13715538
158	0xbe0ed1c9	-0.13947214
159	0xbe15cb29	-0.1462828
160	0xbdd42e9f	-0.10360455
161	0x3de73a4b	0.112904154
162	0x3b55e747	0.0032639073
163	0xbe8e7c5d	-0.27829257
164	0xbe247f59	-0.16064204
165	0xbdd7989a	-0.10527153
166	0xbe5d4c7e	-0.2161121
167	0xbe48c63f	-0.19606875
168	0xbd88db65	-0.06682471
169	0xbcb4e7a0	-0.022083104
170	0x3e8cb378	0.27480674
171	0xbe9a2dab	-0.30112967
172	0xbca1766a	-0.019709785
173	0x3e55edbd	0.20891471
174	0x3d282e34	0.041059688
175	0xbda73248	-0.08163887
176	0x3e180d26	0.14848766
177	0x3e45be75	0.19310935
178	0xbe9a9a2e	-0.30195755
179	0x3c09890e	0.008394493
180	0xbe66d852	-0.22543457
181	0x3e8ac3e5	0.2710258
182	0xbd7cce93	-0.061720442
183	0xbdb0916b	-0.08621486
184	0x3ca49bce	0.020093825
185	0x3c1b7b21	0.009489805
186	0xbc218d59	-0.00986036
187	0xbdb02159	-0.086001106
188	0xbdaa5f9a	-0.08319016
189	0xbe0bfa5d	-0.13669725
190	0xbd2d9911	-0.042382304
191	0x3d89cb9c	0.067282885
192	0xbd863861	-0.06553722
193	0xbcda4393	-0.02664355
194	0x3e5c9995	0.21542962
195	0x3ba3f646	0.0050037233
196	0xbee85bf0	-0.45382643
197	0xbe3e495a	-0.18582669
198	0xbe6067c6	-0.21914586
199	0xbd9ee749	-0.07758958
200	0xbd0f9ee3	-0.035063636
201	0x3e0cd51f	0.13753174
202	0xbe1b236b	-0.1515023
203	0x3d03c567	0.03217068
204	0x3b5da6b6	0.0033821291
205	0x3e8f6e29	0.28013733
206	0xbbf21518	-0.0073877685
207	0x3e557f7f	0.20849417
208	0xbdc8b899	-0.09800834
209	0xbd8ba892	-0.068192616
210	0xbe1428b0	-0.14468646
211	0x3e3223af	0.17396425
212	0x3e15036f	0.14552091
213	0xbf08593a	-0.5326115
214	0xbdba6f29	-0.09103233
215	0x3e286940	0.164464
216	0x3cd69d7f	0.026198147
217	0xbe897e04	-0.26853955
218	0xbe7921e9	-0.24329342
219	0xbbf99faf	-0.0076179127
220	0x3bf8233b	0.007572559
221	0x3de3c6a9	0.11121876
222	0xbe3e530c	-0.18586367
223	0x3e828baf	0.25497195
224	0x3d29dc67	0.041469958
225	0xbe9d8f8d	-0.30773583
226	0x3dce0f31	0.10061491
227	0x3d8bc8e7	0.068254285
228	0xbeb8c18f	-0.36085173
229	0xbddb4b38	-0.10707706
230	0x3dd49506	0.103799865
231	0xbdf6f10a	-0.12057693
232	0xbd316e97	-0.043318357
233	0xbdc70a4f	-0.09718763
234	0x3e4e292c	0.20132893
235	0x3ea0392f	0.31293628
236	0xbda4a74b	-0.08039721
237	0x3d20cf32	0.039260097
238	0x3de5c4dd	0.11219189
239	0x3e244e0b	0.16045396
240	0x3e2441e2	0.16040757
241	0xbdbffc80	-0.093743324
242	0xbdd6d71e	-0.10490249
243	0xbd671e07	-0.05642512
244	0xbe2b6582	-0.16737941
245	0xbf019be7	-0.50628513
246	0x3f01f09f	0.50757784
247	0x3dc1f81d	0.09471152
248	0xbc15f337	-0.009152225
249	0xbec302a6	-0.38087958
250	0x3d7cc8cc	0.061714932
251	0x3eb1b83d	0.34710875
252	0xbd61ab46	-0.05509498
253	0x3e2450fb	0.16046517
254	0x3cdd8de9	0.027045207
255	0x3ca1b471	0.019739361

bias f4 [128]
0	0xbefb67a8	-0.4910252
1	0xbf83027f	-1.0235137
2	0xbe935c69	-0.2878144
3	0xbf6416e7	-0.89097446
4	0xbf310a8e	-0.6915673
5	0xbf3d235e	-0.7388209
6	0xbf49ef9e	-0.7888125
7	0xbf72b65c	-0.9480951
8	0xbeddcc3c	-0.4331988
9	0xbf4b8158	-0.7949424
10	0xbf6e175c	-0.93004394
11	0xbf14c3c2	-0.581112
12	0xbf841f4c	-1.0322051
13	0xbf057284	-0.5212786
14	0xbf49dd05	-0.78852874
15	0xbf11ea91	-0.56998545
16	0xbf322267	-0.69583744
17	0xbf4eda6a	-0.80802023
18	0xbf4ff518	-0.8123336
19	0xbf087e8a	-0.53318083
20	0xbf614bb2	-0.88006127
21	0xbf098d8d	-0.53731614
22	0xbf12de84	-0.5737078
23	0xbf5ac1f3	-0.85452193
24	0xbf5f3987	-0.87197155
25	0xbf713ff2	-0.942382
26	0xbf6f7396	-0.93535745
27	0xbf0c4baa	-0.54802954
28	0xbf2bbf01	-0.67088324
29	0xbf3d1ff6	-0.73876894
30	0xbf20139c	-0.6252992
31	0xbf33b301	-0.70195013
32	0xbeaadee6	-0.33373183
33	0xbe7f37a2	-0.24923566
34	0xbf4979bb	-0.7870137
35	0x3dc7a2aa	0.097478226
36	0xbf752d5d	-0.95772344
37	0xbf86084d	-1.0471283
38	0xbf304795	-0.68859226
39	0xbeb1a38a	-0.34695083
40	0xbf21be62	-0.63181126
41	0xbf0574ad	-0.5213116
42	0xbf524f71	-0.8215247
43	0xbf3e8739	-0.74425083
44	0xbf237780	-0.6385422
45	0xbf07abf3	-0.5299675
46	0xbf47a053	-0.7797901
47	0xbe652b84	-0.22379881
48	0xbf19d049	-0.6008344
49	0xbf346095	-0.7045987
50	0xbe53817f	-0.20654868
51	0xbeec701a	-0.46179277
52	0xbf74e5bb	-0.9566304
53	0xbf6e17b0	-0.93004894
54	0xbdfda011	-0.12384046
55	0xbf3178d4	-0.69324994
56	0xbf2aba18	-0.66690207
57	0xbf379947	-0.7171826
58	0xbf775700	-0.96617126
59	0xbef8a141	-0.48560527
60	0xbf047200	-0.5173645
61	0xbf10b38d	-0.5652397
62	0xbf423552	-0.7586261
63	0xbe918e71	-0.28428987
64	0xbf463997	-0.77431625
65	0xbf00ff93	-0.50389975
66	0xbf2da34e	-0.6782731
67	0xbf330897	-0.6993498
68	0xbe9f748c	-0.31143606
69	0xbe9926dd	-0.29912463
70	0xbf3df561	-0.74202543
71	0xbf3887fc	-0.72082496
72	0xbf12330e	-0.57109153
73	0xbf06fd13	-0.5272991
74	0xbf0fb8e5	-0.561415
75	0xbf4e5a90	-0.8060694
76	0xbf47e8fd	-0.78089887
77	0xbf08cd3d	-0.5343817
78	0x3e6c5c22	0.23082021
79	0xbf306fbc	-0.68920493
80	0xbf4d51fa	-0.8020321
81	0xbe08cdf2	-0.13359812
82	0xbebb7a86	-0.36616915
83	0xbf2c7de6	-0.67379606
84	0xbefcad46	-0.49350947
85	0xbf00986e	-0.5023259
86	0xbedda92c	-0.4329313
87	0xbf2df37d	-0.6794966
88	0xbf260812	-0.64856064
89	0xbf0f95af	-0.56087774
90	0xbf4a365d	-0.789892
91	0xbf152793	-0.5826351
92	0xbf0c8452	-0.54889405
93	0xbeb13370	-0.34609556
94	0xbf5c0387	-0.8594288
95	0xbf8d6212	-1.1045554
96	0xbf4d4fcd	-0.8019989
97	0xbf1b26a6	-0.6060585
98	0xbf2e8f07	-0.6818699
99	0xbf5b506b	-0.85669583
100	0xbf23fc27	-0.6405663
101	0xbd5ce0f2	-0.053925462
102	0xbf220437	-0.6328768
103	0xbf1a1043	-0.60181063
104	0xbf3cbb14	-0.7372296
105	0xbf0961ca	-0.5366484
106	0xbf3c24c8	-0.73493624
107	0xbebb194f	-0.36542746
108	0xbf6d1374	-0.9260781
109	0xbd2cca9d	-0.042185415
110	0xbf4d8d43	-0.80293673
111	0xbefd2db9	-0.49448946
112	0xbf48a908	-0.7838292
113	0xbf26101c	-0.6486833
114	0xbf3e71d2	-0.74392426
115	0xbf4b3c25	-0.7938865
116	0xbea62b26	-0.32454795
117	0xbefb5ca5	-0.4909412
118	0xbf2e8c7b	-0.68183106
119	0xbf133f7c	-0.57518744
120	0xbf3afacc	-0.73038936
121	0xbf446541	-0.76717
122	0xbf1f706a	-0.62280905
123	0xbef8e198	-0.48609614
124	0xbebc7d33	-0.3681427
125	0xbe7d2bef	-0.2472379
126	0xbee269a7	-0.4422123
127	0xbe7931d4	-0.24335414

weight f4 [128, 128]
0	0xbc91efea	-0.017814595
1	0x3e9890fb	0.2979811
2	0xbdf0af2f	-0.117521636
3	0xbe9b8737	-0.30376598
4	0xbe20c343	-0.15699486
5	0x3e6fac8f	0.2340567
6	0xbee28570	-0.4424243
7	0x3de5c915	0.11219994
8	0xbe70fb39	-0.23533334
9	0x3bff2548	0.0077864267
10	0xbecff981	-0.40620044
11	0x3e0b8275	0.13623984
12	0xbe350b8f	-0.1768019
13	0xbeaf7087	-0.3426554
14	0x3dacfcf6	0.08446686
15	0xbed36f8d	-0.41296044
16	0x3e3f1f8d	0.1866438
17	0xbec834b2	-0.39102703
18	0xbf1b5ba6	-0.6068672
19	0xbf0e4c38	-0.5558505
20	0x3e30ec45	0.1727763
21	0x3e5963e7	0.21229516
22	0x3cc90c1c	0.024541907
23	0xbd87ca95	-0.06630436
24	0xbe31d700	-0.17367172
25	0xbdb5071e	-0.08839248
26	0x3e781767	0.24227677
27	0xbd86c0c9	-0.065797396
28	0xbeaf91f1	-0.34291032
29	0xbd12013b	-0.035645705
30	0xbddc668b	-0.10761746
31	0xbeeb662f	-0.45976397
32	0xbe155632	-0.14583662
33	0xbe3fbedf	-0.18725155
34	0x3e5fba77	0.21848474
35	0xbf0ad3cd	-0.5422943
36	0xbe44f931	-0.19235684
37	0xbddc40cb	-0.10754546
38	0x3ed3286b	0.41241774
39	0xbeb96438	-0.36209273
40	0xbe6d1e6b	-0.23156135
41	0x3e320e9e	0.17388389
42	0x3d6b3436	0.05742284
43	0xbed01553	-0.4064127
44	0xbed72601	-0.42021182
45	0x3e8ec9fa	0.2788847
46	0xbd64ece2	-0.05588997
47	0xbea95810	-0.33075
48	0xbea23d3f	-0.31687352
49	0x3d04ea1f	0.032449838
50	0xbeb8ef42	-0.3612004
51	0x3e92aed2	0.28649002
52	0x3d835bd2	0.06413998
53	0xbc457d68	-0.012053825
54	0xbde7d5d7	-0.113200836
55	0xbe6403d5	-0.22267087
56	0xbe3abb7b	-0.1823558
57	0x3d2ca766	0.04215183
58	0x3e939452	0.28824097
59	0xbe9dd333	-0.30825195
60	0xbe7c8f9d	-0.24664159
61	0x3ed0673c	0.40703762
62	0xbcf23836	-0.02956782
63	0xbe14ff3b	-0.14550488
64	0xbeaba7d6	-0.33526486
65	0xbe197427	-0.14985715
66	0xbd40c4a0	-0.047062516
67	0xbdda2854	-0.10652223
68	0x3e00833f	0.12550066
69	0x3d7dab0a	0.061930694
70	0xbddd73d6	-0.108131096
71	0xbe88c501	-0.26712802
72	0xbec6f782	-0.38860708
73	0xbdf00dd0	-0.117213845
74	0xbf1e3828	-0.6180444
75	0xbd87646f	-0.06610953
76	0xbec97acb	-0.39351496
77	0x3cf927c3	0.030414468
78	0xbe0dd7e5	-0.13851888
79	0x3ddfdf23	0.10931232
80	0x3d3ab6ca	0.045584477
81	0xbf3e863d	-0.7442358
82	0xbdc1de36	-0.094662115
83	0x3d74c044	0.05975367
84	0xbd2a8723	-0.041632783
85	0x3eac1cac	0.33615625
86	0x3e26cd11	0.16289164
87	0xbd766004	-0.06015016
88	0xbe961974	-0.29316294
89	0xbdb4996b	-0.08818325
90	0xba91c1c4	-0.0011120369
91	0x3d62eca5	0.055401463
92	0x3d96eb89	0.073691435
93	0x3ebae6e2	0.36504275
94	0x3dc1a090	0.09454453
95	0xbe0a5d69	-0.13512196
96	0xbe95d4b8	-0.29263854
97	0xbe3fdbb6	-0.18736157
98	0x3db5f61d	0.08884833
99	0xbf13325d	-0.57498723
100	0xbe03c173	-0.12866764
101	0xbec2f363	-0.38076314
102	0xbd597767	-0.053092387
103	0xbd934fe2	-0.07192971
104	0xbabe39d2	-0.0014513081
105	0xbebbb718	-0.36663127
106	0x3d741003	0.059585582
107	0xbd0d3354	-0.03447278
108	0x3d923afe	0.07140158
109	0xbe1a689f	-0.15078972
110	0xbd471963	-0.048608195
111	0xbec43201	-0.383194
112	0x3e0b16aa	0.13582864
113	0xbf18ffdf	-0.5976543
114	0xbeb5da10	-0.3551793
115	0xbeb89609	-0.36051968
116	0xbe3cf9d8	-0.18454683
117	0x3cca8920	0.02472359
118	0x3d508e22	0.0509168
119	0x3d9d9e65	0.07696227
120	0x3ebd99d0	0.37031412
121	0x3d3df918	0.046380132
122	0xbd74c995	-0.059762556
123	0x3bbaa3d1	0.005695798
124	0xbe8097fd	-0.25115958
125	0x3e289122	0.16461614
126	0xbeb25872	-0.34833103
127	0xbe9cb19a	-0.3060425
128	0x3bc4247b	0.005985794
129	0x3ea46588	0.32108712
130	0xbe0a6b1b	-0.1351742
131	0xbe4b5da4	-0.1985994
132	0xbe6ba599	-0.23012389
133	0xbd87c19a	-0.066287234
134	0x3e6abefb	0.22924416
135	0x3dba1e78	0.09087843
136	0xbe43da28	-0.19126189
137	0x3dcbaf71	0.09945572
138	0xbe273047	-0.1632701
139	0x3cc229b4	0.023701526
140	0x3e4dcc33	0.20097427
141	0xbeee0dea	-0.4649499
142	0xbe0fa9af	-0.14029573
143	0xbea78d52	-0.32725006
144	0x3e3dd279	0.1853732
145	0xbdbcd645	-0.09220556
146	0x3e06ecdf	0.13176297
147	0xbe41f6ef	-0.18941854
148	0x3e655f4c	0.22399634
149	0x3e0b77d5	0.13619931
150	0x3e347c54	0.17625552
151	0x3ea525c7	0.32255384
152	0xbd9cadc7	-0.07650333
153	0xbe91d85f	-0.2848539
154	0x3e061920	0.13095522
155	0x3e1623df	0.14662121
156	0xbca3e5e1	-0.020007076
157	0xbe39760f	-0.18111442
158	0x3d8e567e	0.06950091
159	0xbe6c2d86	-0.23064241
160	0xbe146e99	-0.14495315
161	0xbf09160a	-0.53549254
162	0x3e0379a1	0.12839366
163	0xbe845acc	-0.25850523
164	0xbe089717	-0.13338886
165	0x3e3f22df	0.18665646
166	0x3da9fd95	0.0830032
167	0xbe7c7ff1	-0.24658181
168	0xbd1d93ea	-0.03847114
169	0x3d6da9da	0.05802331
170	0x3e38eea8	0.1805979
171	0x3ea45bb4	0.32101214
172	0xbd0ceee6	-0.03440752
173	0xbe5cf4d7	-0.21577774
174	0x3e65978b	0.2242109
175	0xbec29c51	-0.38009885
176	0xbe0bb2b5	-0.1364239
177	0x3e836d5b	0.2566937
178	0xbe2055f3	-0.15657787
179	0x3e32cccd	0.17460938
180	0xbeadcf4a	-0.33947212
181	0xbeb6c3d1	-0.3569627
182	0xbe869681	-0.262867
183	0xbeecd982	-0.46259695
184	0xbe370a27	-0.17874967
185	0x3deb044d	0.1147543
186	0x3ea6b35e	0.3255872
187	0x3c806ff2	0.01567838
188	0xbe821c60	-0.25412273
189	0x3e1f079c	0.15530246
190	0x3d359d7c	0.044339642
191	0xbe251542	-0.1612139
192	0x3e137309	0.14399351
193	0xbe05b218	-0.13056219
194	0x3ea30d69	0.3184617
195	0xbe2ea0ab	-0.17053477
196	0x3d93a391	0.07208932
197	0xbe5d94a4	-0.21638733
198	0xbe8f5e7d	-0.28001776
199	0x3e1dae58	0.15398538
200	0xbd7df5d5	-0.06200202
201	0x3d8dcff8	0.069244325
202	0xbe8d2f91	-0.27575353
203	0x3e80c9ef	0.25154063
204	0x3de8ac8f	0.11361038
205	0x3e96f134	0.29480898
206	0x3cdf5d18	0.02726607
207	0x3dd66d8e	0.10470115
208	0xbcc0fbc9	-0.02355756
209	0x3c81ab4b	0.01582875
210	0xbe4dcecc	-0.20098418
211	0xbdf7ccf9	-0.12099642
212	0x3e5168e2	0.20450166
213	0xbcf46263	-0.02983207
214	0xbed9417f	-0.42432782
215	0xbe9a7fe2	-0.30175692
216	0xbe9cd82f	-0.30633685
217	0x3e49f9fd	0.19724269
218	0xbd9fe4af	-0.0780729
219	0x3bd1f548	0.0064074136
220	0xbeaab74c	-0.3334297
221	0xbea29c81	-0.31760028
222	0x3e5cb343	0.21552758
223	0x3d6a94d1	0.05727083
224	0x3e874256	0.26417798
225	0x3c99c50d	0.018770719
226	0xbd124f28	-0.03572002
227	0xbddbfc7a	-0.107415155
228	0x3e83cb52	0.2574106
229	0xbe16e075	-0.14734061
230	0xbde72d32	-0.11287917
231	0x3daa0d2f	0.08303296
232	0xbceddd14	-0.029036082
233	0xbdef8d72	-0.116969004
234	0xbeb371a3	-0.35047635
235	0xbe9fadd7	-0.31187317
236	0x3eca7455	0.3954188
237	0xbea304c4	-0.31839573
238	0x3da76155	0.081728615
239	0xbf00f5da	-0.5037514
240	0x3e40b349	0.18818392
241	0xbef0fd97	-0.47068474
242	0x3e44d3aa	0.19221368
243	0xbeafe90e	-0.34357494
244	0xb92476bd	-0.00015684492
245	0x3e2e2b41	0.17008688
246	0x3e8f7abf	0.28023335
247	0x3dcaa910	0.09895527
248	0xbf13109a	-0.57447207
249	0xbd7183bc	-0.058963522
250	0x3e0b7166	0.13617477
251	0xbdf8c0ae	-0.12146126
252	0xbe6859f0	-0.22690558
253	0xbeae7d79	-0.34080103
254	0x3cb19827	0.021678997
255	0x3e22239c	0.15833896
