trained_models/net_2/dense_classifier_net_2.pt (torch, 139107 bytes, 55 tensors)

weight f4 [20, 20]
-0.07877727 0.14926894 -0.18085961 0.15166229 0.034363024 -0.015747761 -0.0809294 -0.015124772
-0.29858243 -0.19175933 0.122777514 0.12830937 0.0049224147 0.013672739 -0.037830833 -0.020243956
0.19991238 0.09760613 0.05392716 -0.20847994 -0.20501052 0.046200875 0.04550989 0.008405971
0.08672108 0.07587764 -0.238416 -0.1717149 0.103441946 0.19636232 0.030255986 -0.016952908
-0.097580105 0.18333793 -0.1278106 -0.18442371 -0.11167899 -0.252687 0.17411934 -0.025655575
-0.19883311 -0.061098892 -0.10340225 0.2092525 0.13653459 0.14402194 0.04039417 -0.007258434
0.22312343 -0.008664346 0.090250865 -0.0071679642 -0.043157738 -0.15702343 -0.23959798 -0.0015395065
-0.2149739 0.13327307 0.18519385 0.24222928 -0.18343385 0.09949192 -0.12321712 0.12011705
-0.066294916 -0.12560539 -0.10559764 -0.17104895 -0.1484158 0.022696063 -0.14121506 -0.08723187
-0.15092929 -0.14529197 0.2012164 -0.034912754 0.16579416 0.0100318715 -0.05320433 0.124211706
-0.062809706 -0.058613744 -0.23399048 0.17253515 -0.22187918 0.071301825 -0.03183638 -0.0767872
0.025942102 0.020416811 0.12342493 -0.1892443 0.14719929 -0.04307588 -0.07423737 -0.022851834
-0.054229904 0.24959317 -0.0385168 -0.19284615 0.18535127 -0.20350307 -0.0058870683 -0.15708487
0.13366954 -0.097667314 -0.20886277 0.04218036 -0.1901842 0.05366238 0.08131775 -0.23104763
-0.11340865 -0.0007313886 -0.22965434 -0.23628457 0.029227052 -0.06130426 0.21623975 -0.15614639
-0.11394411 -0.0928843 -0.022003205 -0.18689975 -0.084218554 0.19626975 0.28641564 0.016345184
-0.06485314 0.04407991 0.0810668 -0.00948318 -0.08238272 0.05862238 0.22247109 -0.09395759
-0.21823162 0.008216319 0.023802565 -0.14719644 0.02960161 -0.04835717 0.26534456 0.017287351
0.12642698 0.04888057 0.03782934 0.106980525 0.034489084 0.16731384 0.1711733 -0.113984205
-0.063513435 0.16028856 0.16852754 0.37855563 -0.06803217 -0.08612682 0.07953959 -0.20865084
0.046430707 0.033854794 -0.039340764 -0.109896235 0.17726436 -0.060587566 0.15673287 -0.11489728
-0.12704165 -0.046848506 -0.06445689 0.1750427 -0.035720985 -0.11172736 0.092329375 -0.30707872
0.07115521 -0.1235304 0.108775884 -0.03788073 0.083661534 -0.08154004 0.15420377 0.05916876
-0.005855951 0.10275891 0.14067861 -0.21714243 -0.017730094 -0.0892414 0.18699817 0.26627886
-0.08760093 0.01695233 0.088480465 0.077607915 -0.15825072 0.05278858 0.101203285 0.07603804
-0.28582668 0.2285945 0.15146628 0.11139595 -0.42269152 -0.08423272 -0.23042202 0.017221093
-0.20758918 -0.009161824 0.029088337 -0.2549462 -0.29634777 -0.05130481 -0.18121757 -0.19807495
-0.37604463 -0.2628926 -0.06770856 -0.10630818 -0.11364726 -0.014802004 0.114909664 -0.17265633
0.026319357 -0.19414784 0.19011326 0.0012088602 0.015011336 -0.001687653 -0.054063886 0.38050953
0.11490181 0.05540737 -0.10162033 -0.008912368 -0.05803026 0.2699532 0.13284765 0.14544058
-0.08137779 -0.19257407 0.1265093 -0.25285128 -0.09527967 -0.19891977 0.008525497 -0.049839165
0.034810804 -0.05314199 -0.18376172 0.02819021 -0.007987945 0.041006587 0.018517738 -0.14603429
00000000: fa55 a1bd f5d9 183e 4333 39be 5c4d 1b3e
00000010: 3ec0 0c3d 7301 81bc 50be a5bd e4cd 77bc
00000020: ccdf 98be 8f5c 44be c772 fb3d 8863 033e
00000030: 354c a13b a003 603c 81f4 1abd a7d6 a5bc
00000040: d5b5 4c3e b9e5 c73d bae2 5c3d c47b 55be
00000050: 47ee 51be 213d 3d3d 9468 3a3d 33b9 093c
00000060: d29a b13d bc65 9b3d 5323 74be 08d6 2fbe
00000070: 5fd9 d33d 3413 493e 67db f73c d3e0 8abc
00000080: 14d8 c7bd f0bc 3b3e c8e0 02be 92d9 3cbe
00000090: f4b7 e4bd 3160 81be 574c 323e a42b d2bc
000000a0: e89a 4bbe d542 7abd 8fc4 d3bd 4a46 563e
000000b0: b9cf 0b3e 7d7a 133e 5b74 253d 28d8 edbb
000000c0: 787a 643e e7f4 0dbc 72d5 b83d 3ee1 eabb
000000d0: 2bc6 30bd c0ca 20be 2c59 75be 44c9 c9ba
000000e0: 1e22 5cbe bc78 083e 75a3 3d3e f40a 783e
000000f0: 15d6 3bbe 6bc2 cb3d 4259 fcbd eeff f53d
00000100: a1c5 87bd b39e 00be 9343 d8bd 7527 2fbe
00000110: 50fa 17be 18ed b93c ae9a 10be 9fa6 b2bd
00000120: 358d 1abe 6bc7 14be ac0b 4e3e ad00 0fbd
00000130: f2c5 293e b85c 243c c9ec 59bd b562 fe3d
00000140: 60a2 80bd f714 70bd 339b 6fbe 0ead 303e
00000150: 4c34 63be b106 923d dd66 02bd 9c42 9dbd
00000160: 8884 d43c 2841 a73c 36c6 fc3d 42c9 41be
00000170: 69bb 163e 5570 30bd c309 98bd c533 bbbc
00000180: 2d20 5ebd 5a95 7f3e cbc3 1dbd 7679 45be
00000190: b9cc 3d3e 1c63 50be 4fe8 c0bb dbda 20be
000001a0: abe0 083e cd05 c8bd 1fe0 55be 50c5 2c3d
000001b0: a6bf 42be 15cd 5b3d ec89 a63d c097 6cbe
000001c0: cb42 e8bd a8ba 3fba 822a 6bbe 95f4 71be
000001d0: 926d ef3c 2d1a 7bbd f46d 5d3e d7e4 1fbe
000001e0: 885b e9bd 203a bebd 1140 b4bc a662 3fbe
000001f0: c77a acbd f0fa 483e 12a5 923e 56e6 853c
00000200: b9d1 84bd 238d 343d 5a06 a63d 575f 1bbc
00000210: 46b8 a8bd 051e 703d 76cf 633e d66c c0bd
00000220: 1c78 5fbe bd9d 063c 99fd c23c aaba 16be
00000230: 137f f23c 2b12 46bd 3edb 873e 349e 8d3c
00000240: 1376 013e fe36 483d f0f2 1a3d 9b18 db3d
00000250: 6d44 0d3d 5254 2b3e 0e48 2f3e 8d70 e9bd
00000260: 5513 82bd af22 243e 7c92 2c3e 0bd2 c13e
00000270: 7354 8bbd 4263 b0bd a7e5 a23d 91a8 55be
00000280: 202e 3e3d 53ab 0a3d c823 21bd 4711 e1bd
00000290: ca84 353e ab2a 78bd 957e 203e 444f ebbd
000002a0: 3517 02be 38e4 3fbd f901 84bd 653e 333e
000002b0: 2b50 12bd 50d1 e4bd 2f17 bd3d 6c39 9dbe
000002c0: d3b9 913d 82fd fcbd e4c5 de3d d328 1bbd
000002d0: bd56 ab3d 77fe a6bd 98e7 1d3e f15a 723d
000002e0: 47e3 bfbb 4373 d23d 0e0e 103e 965a 5ebe
000002f0: b43e 91bc 32c4 b6bd 737c 3f3e b455 883e
00000300: 1e68 b3bd 9ddf 8a3c 3f35 b53d e6f0 9e3d
00000310: 7a0c 22be d738 583d ab43 cf3d d5b9 9b3d
00000320: e057 92be ad14 6a3e fa19 1b3e 8f23 e43d
00000330: 066b d8be 3482 acbd c0f3 6bbe 4013 8d3c
00000340: 4292 54be 7a1b 16bc aa4a ee3c 4f88 82be
00000350: e5ba 97be fe24 52bd 1991 39be 29d4 4abe
00000360: ec88 c0be dc99 86be c9aa 8abd 1ab8 d9bd
00000370: e5bf e8bd 1b84 72bc c255 eb3d d2cc 30be
00000380: b19b d73c b1ce 46be 0dad 423e 9e72 9e3a
00000390: 1bf2 753c 3d34 ddba 1872 5dbd 25d2 c23e
000003a0: a451 eb3d d7f2 623d 521e d0bd 2e05 12bc
000003b0: 23b1 6dbd 4e37 8a3e 3709 083e 60ee 143e
000003c0: 66a9 a6bd 2332 45be a78b 013e b975 81be
000003d0: fd21 c3bd a0b1 4bbe 87ae 0b3c 2724 4cbd
000003e0: c695 0e3d 6aab 59bd 082c 3cbe 28ef e63c
000003f0: dfdf 02bc 86f6 273d 83b2 973c 038a 15be

bias f4 [20]
-0.13270456 0.17113593 0.030295761 -0.28995964 -0.17433152 0.1473479 -0.08771293 -0.08024301
-0.22143474 0.2697837 0.082006246 0.17840403 0.049378037 -0.08448689 0.1590865 -0.13322504
0.11809033 -0.17552763 -0.03565567 -0.1497891
00000000: b4e3 07be 423e 2f3e d12e f83c 9775 94be
00000010: f683 32be 5ee2 163e d6a2 b3bd 7256 a4bd
00000020: cabf 62be 1721 8a3e e4f2 a73d 8caf 363e
00000030: a040 4a3d 7607 adbd 92e7 223e 256c 08be
00000040: 58d9 f13d 84bd 33be ae0b 12bd 5062 19be

weight f4 [20, 20]
-0.25276423 0.08777596 0.24876304 -0.14430034 -0.04695797 0.041919485 0.05192418 0.06410487
0.04671003 0.16322592 -0.0035922085 0.19160661 -0.07047127 0.025244905 -0.02319391 -0.20659344
-0.25454843 0.14018716 -0.0033242016 0.116267905 -0.09462075 -0.11779248 0.12623015 -0.100698344
0.03607469 -0.14185326 0.045931663 -0.1607755 0.15194263 -0.15579432 0.14800224 0.11357533
0.06618741 0.1224913 0.11688035 0.1981651 -0.079270095 0.065422066 0.16769548 0.056002926
-0.08636929 0.059827484 -0.08557016 -0.19426544 -0.20351814 0.2519693 -0.028874958 -0.02774028
0.19460724 -0.06761015 -0.033792604 0.020681508 0.044978905 0.27121645 0.021715937 -0.15527311
0.07628321 0.11492372 -0.0926881 0.18195006 0.118087314 0.04518547 0.022473967 0.086584136
-0.06415081 -0.17719148 0.037794545 0.017051516 0.02615122 0.050034773 -0.060774747 -0.013316608
0.018047921 -0.10269122 -0.06594109 0.12531565 0.15199032 0.1593168 -0.3512598 0.26044485
0.022117805 0.050967094 0.110796474 0.062257133 0.054253373 -0.037862394 0.008286482 0.07979325
0.091099165 -0.034331735 0.109203 -0.0746285 -0.26719797 0.054124452 0.14130165 0.059532654
0.19853823 -0.007230163 0.10929689 -0.09318553 0.13360299 -0.03922824 0.026536599 0.044971913
-0.113147445 0.14902125 -0.025318084 -0.025738942 -0.051670488 -0.23358352 0.120079584 -0.21757941
0.002669949 -0.17880185 -0.07150841 -0.03209862 0.037549995 0.0013371165 0.041159995 0.009886685
-0.07356052 0.051243447 0.1230253 0.024087543 -0.11486737 0.19237065 -0.049670685 0.03225442
-0.17259698 -0.0588961 -0.14857008 -0.36010525 -0.0055554197 -0.059700716 -0.016998718 0.08477713
0.16541222 -0.014809174 0.23462999 -0.12756589 -0.14863186 0.1315394 0.14358945 0.023407355
0.04387186 0.0060965177 0.035250194 0.09640343 -0.025851285 0.021775898 0.022446916 -0.026090952
0.09216384 -0.062420722 -0.03139172 0.030140989 0.10497634 0.067967854 0.023000244 -0.158608
0.50903076 -0.32479882 -0.27847788 -0.26372626 0.08597417 -0.016766664 0.16737811 0.13767886
0.0052711098 0.30220366 -0.010468572 -0.13367471 -0.22943959 0.105086714 0.09954152 -0.485826
0.35222965 -0.33399838 -0.5543336 -0.11057021 0.1405105 0.1471978 -0.10490504 0.22773564
0.084964305 -0.13929473 0.10404162 -0.21694636 0.14141607 0.07458652 0.1593784 -0.016746307
0.1528268 -0.10292561 -0.06657051 0.10074301 -0.28901502 0.2513086 0.15418327 0.12543708
-0.01908694 0.0014386931 -0.14091285 -0.22465992 -0.04717647 -0.18542266 0.059618942 0.253695
0.093844675 0.105507925 -0.16369526 -0.18728958 -0.055557158 0.103642255 0.04137627 0.14724866
-0.036399696 0.019124744 -0.1228281 -0.078151755 0.020109631 -0.008674831 0.2091131 0.1792967
0.22981481 -0.1187945 -0.040174678 -0.094645746 -0.090638205 0.08625456 0.25440994 -0.3053808
-0.048553497 -0.2161567 0.21973197 0.11910636 0.023970455 -0.017201342 0.024302818 -0.081613
-0.09759623 0.07463335 0.0077671623 0.23118232 -0.15062211 0.1785628 -0.03349985 0.0271659
-0.059542403 -0.033040207 0.063049085 0.08454579 0.14105119 0.19818464 -0.03100931 0.27687317
00000000: 506a 81be e2c3 b33d bdbb 7e3e 78c3 13be
00000010: 0057 40bd c4b3 2b3d 73ae 543d 6a49 833d
00000020: 0453 3f3d b224 273e 426b 6bbb 8634 443e
00000030: 3e53 90bd 67ce ce3c 2801 bebc 3b8d 53be
00000040: 2c54 82be 398d 0f3e d9da 59bb de1d ee3d
00000050: 86c8 c1bd 2f3d f1bd 7a42 013e ef3a cebd
00000060: 0ec3 133d fb41 11be d722 3c3d 55a2 24be
00000070: d996 1b3e 8c88 1fbe e68d 173e 2f9a e83d
00000080: 448d 873d b8dc fa3d f75e ef3d cbeb 4a3e
00000090: 5c58 a2bd 01fc 853d 5db8 2b3e 5363 653d
000000a0: 62e2 b0bd aa0d 753d 683f afbd 85ed 46be
000000b0: 0f67 50be 1f02 813e 2d8b ecbc 953f e3bc
000000c0: 1f47 473e 3177 8abd 1d6a 0abd 446c a93c
000000d0: cd3b 383d e2dc 8a3e 9fe5 b13c eaff 1ebe
000000e0: 5f3a 9c3d 215d eb3d 42d3 bdbd 1e51 3a3e
000000f0: c3d7 f13d 6614 393d 531b b83c 0653 b13d
00000100: 8061 83bd af71 35be 74ce 1a3d 9faf 8b3c
00000110: 153b d63c 43f1 4c3d f1ee 78bd e72d 5abc
00000120: 3cd9 933c c64f d2bd 1f0c 87bd bf52 003e
00000130: 5aa3 1b3e f123 233e 53d8 b3be 0759 853e
00000140: 6630 b53c dfc2 503d 43e9 e23d 5601 7f3d
00000150: c938 5e3d 9915 1bbd 06c4 073c a56a a33d
00000160: 3392 ba3d 6f9f 0cbd d3a5 df3d d4d6 98bd
00000170: 2cce 88be 9ab1 5d3d 61b1 103e 83d8 733d
00000180: 9b4d 4b3e 01eb ecbb 0cd7 df3d 0ed8 bebd
00000190: 39cf 083e caad 20bd 4863 d93c 7834 383d
000001a0: d9b9 e7bd 0799 183e df67 cfbc 79da d2bc
000001b0: 6fa4 53bd 8530 6fbe 49ec f53d 23cd 5ebe
000001c0: 50fa 2e3b d517 37be 0073 92bd d879 03bd
000001d0: 06ce 193d 2f42 af3a 6297 283d c3fb 213c
000001e0: e6a6 96bd a6e4 513d b0f4 fb3d 3d53 c53c
000001f0: 953f ebbd d0fc 443e 7d73 4bbd 361d 043d
00000200: 43bd 30be 093d 71bd c122 18be b75f b8be
00000210: 3d0a b6bb bd88 74bd e540 8bbc a29f ad3d
00000220: d261 293e 2ea2 72bc d842 703e a2a0 02be
00000230: f332 18be 44b2 063e 1d09 133e c8c0 bf3c
00000240: fbb2 333d 4cc5 c73b 8262 103d 296f c53d
00000250: 13c6 d3bc 5e63 b23c 98e2 b73c b1bc d5bc
00000260: 65c0 bc3d dfac 7fbd 9b94 00bd 3cea f63c
00000270: d6fd d63d bb32 8b3d 026b bc3c 236a 22be
00000280: d74f 023f 084c a6be a794 8ebe 2107 87be
00000290: 3a13 b03d 3e5a 89bc 2b65 2b3e b0fb 0c3e
000002a0: 46b9 ac3b 70ba 9a3e 6084 2bbc 06e2 08be
000002b0: 36f2 6abe b437 d73d 6ddc cb3d 2fbe f8be
000002c0: 7257 b43e d601 abbe cfe8 0dbf a272 e2bd
000002d0: fce1 0f3e 05bb 163e 74d8 d6bd 8833 693e
000002e0: c401 ae3d 47a3 0ebe c613 d53d 3027 5ebe
000002f0: 60cf 103e d1c0 983d 1734 233e 8d2f 89bc
00000300: a17e 1c3e aaca d2bd 1f56 88bd 5a52 ce3d
00000310: c7f9 93be 85ab 803e 38e2 1d3e 9472 003e
00000320: 375c 9cbc 8892 bc3a 754b 10be 400d 66be
00000330: 1d3c 41bd 70df 3dbe fe32 743d 50e4 813e
00000340: a331 c03d 8a14 d83d bb9f 27be d7c8 3fbe
00000350: e78f 63bd 6442 d43d 2a7a 293d 5ac8 163e
00000360: d917 15bd 7fab 9c3c 4d8d fbbd 070e a0bd
00000370: f4bc a43c e120 0ebc bf21 563e 8e99 373e
00000380: 9354 6b3e 884a f3bd 348e 24bd a1d5 c1bd
00000390: 86a0 b9bd 3ba6 b03d 0542 823e df5a 9cbe
000003a0: 08e0 46bd 2f58 5dbe 6b01 613e 09ee f33d
000003b0: b05d c43c d4e9 8cbc b416 c73c b724 a7bd
000003c0: 88e0 c7bd 5fd9 983d ae83 fe3b 0fbb 6c3e
000003d0: af3c 1abe 2bd9 363e 2437 09bd 068b de3c
000003e0: bce2 73bd 2b55 07bd e11f 813d 5826 ad3d
000003f0: b96f 103e eaf0 4a3e 3d07 febc 52c2 8d3e

bias f4 [20]
-0.049817383 -0.15969132 0.13393007 -0.16534756 -0.28103778 0.021837 0.23975413 0.035278123
0.2809268 -0.13783276 -0.19695517 -0.18865956 -0.25980508 -0.06551666 -0.20142479 0.13298005
-0.010192826 -0.24217948 0.1334041 -0.13892438
00000000: 500d 4cbd 1f86 23be f724 093e df50 29be
00000010: 2fe4 8fbe 82e3 b23c 1b82 753e cb7f 103d
00000020: a3d5 8f3e 0824 0dbe 9eae 49be f92f 41be
00000030: 2c05 85be 992d 86bd 4d42 4ebe ec2b 083e
00000040: d0ff 26bc e6fd 77be 169b 083e 3142 0ebe

weight f4 [64, 64]
-0.34600255 0.19072156 -0.18436512 0.004922449 -0.00683379 -0.24620019 0.07288562 0.21610405
-0.3029847 -0.046408977 0.18707876 0.14181727 0.016204646 0.06982745 0.10825842 0.092221566
0.21653621 0.12854913 0.37354758 0.004491646 0.01673193 -0.09266137 0.12830105 -0.16427247
0.019435547 -0.08850476 0.04752281 0.31591216 -0.13621563 -0.26983213 -0.17293587 -0.022044977
-0.056840975 -0.05683579 0.39966702 0.0065173716 0.1523695 0.014685035 -0.1635724 0.16596454
-0.19709717 -0.0326831 -0.102434926 0.013446201 -0.43833807 0.10271158 -0.1446725 -0.11800757
-0.23778439 -0.13792601 -0.0020226953 0.22124322 -0.020027079 -0.23048848 0.17658682 0.13143963
-0.18642953 -0.019746318 -0.1807755 -0.06835551 0.10826585 0.1405745 -0.18837664 0.026017213
0.116914086 0.0019868622 -0.1577188 0.009207673 0.010107064 0.11121877 -0.096284226 0.04778867
0.06438827 0.24912168 0.25469553 -0.048824828 0.020603051 -0.14442517 -0.015394526 -0.05769906
-0.06994493 0.14870024 0.021617338 0.19368397 -0.080765314 0.0401719 0.06968614 -0.19348074
-0.05627694 0.067866474 -0.08021379 -0.087116994 0.08003031 0.020092893 -0.07855185 0.039585803
-0.072335996 -0.008046008 0.1458399 -0.06501839 0.26371235 0.103304446 0.13883995 0.09728417
0.25362575 0.12965873 -0.011216477 0.02589058 0.2441663 0.004882515 0.03458272 -0.060941454
-0.16917618 0.02086949 0.21817675 0.13272862 0.15471204 0.17326988 -0.045987878 0.09707272
-0.0015199865 0.037314717 -0.45534816 -0.18121025 0.1395638 0.06740021 -0.23337668 0.1593932
0.107751854 0.23281668 -0.012817542 -0.019224258 0.018253978 -0.07678967 -0.21205665 -0.089244865
0.23177083 -0.011453437 0.3705256 -0.21336392 -0.09251236 -0.11547196 -0.22337767 0.17348321
0.115852915 0.17940652 -0.12551624 0.1029531 0.066930175 -0.2614277 -0.037905443 0.14068176
-0.22341126 0.20071478 0.122836985 -0.14932308 0.060887553 0.027041037 -0.082055725 0.09089248
-0.20027697 0.005448571 0.20282143 0.07720784 0.18295373 0.113289475 0.029640336 0.08659382
0.11965233 0.060712345 -0.11471423 0.049264543 0.21182136 -0.03494724 -0.06162944 -0.14736083
-0.09912588 0.04104355 -0.09415168 0.14074163 0.004251498 -0.09944514 -0.12539417 -0.08391957
0.024158299 -0.012333465 -0.12772194 -0.043017127 0.1807284 0.041625194 0.03654711 0.05859139
-0.08524157 0.08410788 0.010664142 0.2746465 -0.2843993 0.08489465 -0.023995189 0.059637483
0.28959018 -0.39601082 -0.045867056 0.081484586 0.13836935 -0.28765085 -0.19374634 0.095473655
0.120971516 0.20810184 -0.18655576 -0.34263027 0.17591847 0.2041336 -0.21506238 0.109485924
-0.071792066 0.101082355 0.064509526 -0.25870577 -0.13600622 -0.13238159 0.119269386 -0.04234477
-0.13534768 -0.15967926 -0.044381507 0.020860877 -0.1404593 0.18180601 -0.024803307 -0.1388411
-0.04636491 -0.18516558 -0.21902631 -0.0078052264 -0.15608509 -0.12991385 -0.124151275 0.013255614
-0.08477604 -0.15404877 0.0846808 -0.069857374 0.085828006 0.11155383 0.018203527 -0.12004919
0.24723813 -0.2102746 0.34759843 -0.06080869 -0.22470064 -0.14884372 -0.25262448 -0.07534614
00000000: 3f27 b1be 834c 433e 36ca 3cbe 7f4c a13b
00000010: fced dfbb e71b 7cbe 0e45 953d 614a 5d3e
00000020: d020 9bbe 5717 3ebd 9391 3f3e 8c38 113e
00000030: 9bbf 843c b201 8f3d 97b6 dd3d a9de bc3d
00000040: abbb 5d3e 62a2 033e a141 bf3e a82e 933b
00000050: 6711 893c 3fc5 bdbd 5a61 033e 0b37 28be
00000060: 4c37 9f3c fc41 b5bd 47a7 423d 3dbf a13e
00000070: 1c7c 0bbe 7027 8abe 1a16 31be ab97 b4bc
00000080: 15d2 68bd a5cc 68bd 28a1 cc3e ad8f d53b
00000090: c006 1c3e 8099 703c 867f 27be 9cf2 293e
000000a0: d7d3 49be b7de 05bd 67c9 d1bd 744d 5c3c
000000b0: d96d e0be 735a d23d 0725 14be f4ad f1bd
000000c0: c07d 73be 7a3c 0dbe 328f 04bb 958d 623e
000000d0: d40f a4bc 2c05 6cbe 2dd3 343e 1c98 063e
000000e0: 62e7 3ebe 08c3 a1bc 361d 39be f9fd 8bbd
000000f0: 7cba dd3d c3f2 0f3e cee5 40be 0d22 d53c
00000100: a770 ef3d 0436 023b 0981 21be c8db 163c
00000110: 1998 253c abc6 e33d aa30 c5bd 0dbe 433d
00000120: ffdd 833d c119 7f3e 7467 823e 8bfc 47bd
00000130: bbc7 a83c 31e4 13be 5239 7cbc d955 6cbd
00000140: 4a3f 8fbd e044 183e d816 b13c 1755 463e
00000150: 4968 a5bd 4a8b 243d 9bb7 8e3d d11f 46be
00000160: a682 66bd 94fd 8a3d 2147 a4bd 656a b2bd
00000170: eee6 a33d da99 a43c cbdf a0bd b924 223d
00000180: e524 94bd 67d3 03bc 0e57 153e 5d28 85bd
00000190: 4e05 873e 4891 d33d 0f2c 0e3e ec3c c73d
000001a0: 3cdb 813e 42c5 043e 50c5 37bc 7b18 d43c
000001b0: bb06 7a3e 81fd 9f3b 9ca6 0d3d bf9d 79bd
000001c0: 853c 2dbe 7ef6 aa3c ba69 5f3e 03ea 073e
000001d0: d56c 1e3e a96d 313e c95d 3cbd 10ce c63d
000001e0: 493a c7ba 51d7 183d 6523 e9be 2e8f 39be
000001f0: d0e9 0e3e 1f09 8a3d 4cfa 6ebe f937 233e
00000200: 01ad dc3d 7f67 6e3e ab00 52bc 317c 9dbc
00000210: 5e89 953c e743 9dbd 6125 59be 03c6 b6bd
00000220: 5555 6d3e 32a7 3bbc 88b5 bd3e 127c 5abe
00000230: 1f77 bdbd 907c ecbd 1ebd 64be 95a5 313e
00000240: 4b44 ed3d 58b6 373e 5487 00be 13d9 d23d
00000250: b012 893d dad9 85be bd42 1bbd e10e 103e
00000260: ecc5 64be 2d88 4d3e f591 fb3d 26e8 18be
00000270: 3a65 793d 2a85 dd3c d50c a8bd d625 ba3d
00000280: 6815 4dbe ed89 b23b 6cb0 4f3e 251f 9e3d
00000290: 3958 3b3e 5004 e83d 4ad0 f23c 1a58 b13d
000002a0: 480c f53d 82ad 783d 4bef eabd 9ec9 493d
000002b0: b3e7 583e d624 0fbd 276f 7cbd c2e5 16be
000002c0: 8202 cbbd 481d 283d 99d2 c0bd 931e 103e
000002d0: 2650 8b3b e5a9 cbbd 5467 00be 06de abbd
000002e0: a0e7 c53c 4d12 4abc 8ac9 02be ba32 30bd
000002f0: de10 393e 2e7f 2a3d 6cb2 153d 86fd 6f3d
00000300: 2293 aebd c140 ac3d a7b8 2e3c 779e 8c3e
00000310: c99c 91be 3fdd ad3d 8f91 c4bc 6f46 743d
00000320: 2a45 943e eec1 cabe 18df 3bbd 64e1 a63d
00000330: b2b0 0d3e f946 93be 7165 46be b187 c33d
00000340: eabf f73d a618 553e 7908 3fbe 3c6d afbe
00000350: f923 343e 6608 513e 5039 5cbe 283a e03d
00000360: b807 93bd 4404 cf3d 921d 843d 1575 84be
00000370: 3745 0bbe 0a8f 07be 8243 f43d b671 2dbd
00000380: 9598 0abe f682 23be 62c9 35bd 6ee4 aa3c
00000390: 90d4 0fbe 5b2b 3a3e 4e30 cbbc 5c2c 0ebe
000003a0: 22e9 3dbd 0c9c 3dbe 6f48 60be fcc2 ffbb
000003b0: c5d4 1fbe 2308 05be 0643 febd 132e 593c
000003c0: 0f9f adbd f6be 1dbe 216d ad3d 6211 8fbd
000003d0: 98c6 af3d 5676 e43d 901f 953c 5adc f5bd
000003e0: fe2b 7d3e 3a52 57be 6cf8 b13e 8812 79bd
000003f0: ed17 66be 7d6a 18be ff57 81be 144f 9abd

bias f4 [64]
-0.21629016 -0.2211855 -0.142455 -0.2802127 -0.46114644 -0.05947252 -0.20586385 -0.066397496
-0.06320186 -0.0066598905 -0.0768756 -0.09527952 -0.0915537 -0.38318098 -0.14124261 -0.11697589
-0.05777846 -0.29684612 -0.31057453 -0.14356188 -0.3268018 -0.20635688 -0.15743603 -0.29617095
-0.264352 -0.3304713 -0.23006757 -0.12829329 -0.2592306 0.025697457 -0.261033 -0.20636748
-0.21044719 -0.24959119 -0.2841719 -0.32140416 -0.07520987 -0.20008023 -0.38935298 -0.260373
-0.27274206 -0.27683845 -0.063266754 -0.20502779 -0.061960887 -0.08405517 -0.26594836 -0.2677688
-0.08448062 -0.38254336 -0.032044098 -0.0038010855 -0.058150407 -0.040112894 -0.23321065 -0.5252227
-0.19484337 -0.11225665 -0.23857956 -0.36893997 -0.23597345 -0.09467883 -0.19599245 -0.15958738
00000000: 2b7b 5dbe 747e 62be b9df 11be 0a78 8fbe
00000010: 631b ecbe 7599 73bd f9cd 52be 69fb 87bd
00000020: fa6f 81bd 363b dabb f470 9dbd e921 c3bd
00000030: 8280 bbbd 4c30 c4be e7a1 10be 0e91 efbd
00000040: 1ba9 6cbd 37fc 97be a003 9fbe e301 13be
00000050: 9152 a7be 384f 53be e936 21be b8a3 97be
00000060: 2559 87be 8933 a9be d596 6bbe 515f 03be
00000070: e0b9 84be 7983 d23c 1ea6 85be ff51 53be
00000080: 787f 57be d594 7fbe fb7e 91be 168f a4be
00000090: a207 9abd d5e1 4cbe 4659 c7be 9c4f 85be
000000a0: d9a4 8bbe c5bd 8dbe 0092 81bd cef2 51be
000000b0: b3ca 7dbd 1e25 acbd 622a 88be fe18 89be
000000c0: 2d04 adbd b9dc c3be ac40 03bd a21b 79bb
000000d0: 1f2f 6ebd 6b4d 24bd c6ce 6ebe ff74 06bf
000000e0: 0585 47be d1e6 e5bd 334e 74be b3e5 bcbe
000000f0: 06a3 71be f9e6 c1bd 3fb2 48be e06a 23be

weight f4 [64, 64]
0.2046355 -0.13742827 0.0013365995 -0.32081348 -0.2918232 -0.18475272 -0.18280575 0.1649118
-0.015603485 -0.06884396 0.32735464 -0.3897549 -0.10523305 -0.20229045 -0.17819098 0.050941333
-0.06044165 -0.12914416 -0.055069998 -0.17862059 0.09119723 0.08835171 -0.1844665 0.01530114
0.015895465 0.061508942 -0.08264621 0.1585725 -0.11578233 0.06980213 0.10956176 -0.17235854
-0.2760057 -0.00037806344 0.16213563 -0.5477512 -0.09556937 -0.07689279 -0.30339918 -0.3070092
-0.086057484 -0.14279446 -0.017359218 0.13858177 -0.2686276 -0.016117718 0.1625157 -0.3454565
-0.13471475 -0.10603841 0.22803253 -0.38809007 0.06882307 -0.26087517 0.0636512 -0.17535603
0.039769877 -0.0579942 0.079984166 0.076930195 0.021685326 0.03867202 -0.06984036 -0.22719327
0.06396003 -0.11799937 0.01496949 -0.08399936 -0.0031600092 0.0831169 -0.24053514 -0.09442304
-0.0878888 -0.065974794 0.044486735 -0.034345526 0.056154814 0.025149668 -0.29379943 -0.14032494
-0.11268269 -0.03988465 -0.044366933 -0.021458613 0.03817611 -0.010671503 -0.20841257 0.088559896
0.054067984 -0.11357987 0.1448416 -0.02970128 0.078969315 -0.0059336005 -0.067652114 -0.113267146
-0.13296013 -0.08716782 -0.07390487 -0.23334223 -0.21401401 -0.121849254 0.08619916 -0.06293455
-0.06444614 -0.09028212 -0.093708254 -0.039182164 -0.090919696 0.009374249 -0.013804359 -0.019346915
0.003365687 -0.104762055 -0.051459964 -0.10139555 -0.10171145 -0.06321387 0.03427357 -0.10559318
-0.03197287 0.014264657 -0.027143711 -0.033610538 -0.22260578 0.08725227 0.039362736 -0.026340088
-0.011053159 -0.09972469 -0.09034876 -0.2797056 -0.047714256 -0.15227263 0.10728478 -0.02136244
0.080740556 -0.19873793 0.054610785 -0.09098997 -0.04136635 -0.11258566 -0.053407483 0.066381104
0.03334983 -0.13420029 0.07474177 -0.06139471 -0.19405891 -0.16780251 0.024663927 -0.13134791
0.14547296 0.040846806 -0.080847874 -0.17043988 -0.043893725 0.116298735 -0.32286805 -0.23241521
-0.016821595 -0.033337034 -0.14249054 -0.10782181 0.17963295 -0.00019758334 -0.07463626 0.09899167
-0.058173336 -0.10900721 0.09032289 0.07980535 -0.24674654 -0.017359676 -0.12324588 -0.06591001
-0.09936931 0.032935075 -0.13527898 -0.0034218999 -0.18791659 0.15583575 -0.056157105 -0.14232971
-0.035569698 0.13409454 -0.12671897 -0.165607 0.08082148 -0.08665541 -0.048018616 0.054840434
-0.08148463 0.033630237 -0.03706947 -0.18101642 -0.03524084 -0.24871285 -0.11260772 -0.03035369
-0.06177055 -0.0711735 0.047973726 -0.2692226 -0.21485668 -0.04575187 -0.121917054 -0.032995984
-0.031153793 -0.18102252 0.036137182 -0.02874006 -0.0607955 -0.06532045 -0.16385688 -0.2093406
0.034035005 -0.20815949 0.07303159 0.035831787 0.037284452 0.123761356 -0.04483544 -0.17064975
-0.23151378 -0.18451136 0.040398337 -0.019478954 -0.019429373 0.041401967 -0.108950384 -0.0007259437
-0.055722326 -0.15053935 0.002342804 0.012528081 -0.06382327 0.031366896 -0.11233833 -0.16538933
0.0123602515 -0.042808726 -0.10126906 -0.110312395 -0.14135934 0.10851074 -0.02359188 -0.0065023205
-0.14050686 -0.13631296 -0.23201513 -0.019568976 -0.11542353 -0.046502557 -0.2690611 -0.07841713
00000000: f88b 513e ffb9 0cbe d630 af3a aa41 a4be
00000010: da69 95be d12f 3dbe 6e31 3bbe a4de 283e
00000020: c2a5 7fbc 10fe 8cbd 079b a73e f48d c7be
00000030: 6d84 d7bd 3a25 4fbe b277 36be dca7 503d
00000040: aa91 77bd 5e3e 04be 1491 61bd 51e8 36be
00000050: 9dc5 ba3d bef1 b43d c9e4 3cbe a2b1 7a3c
00000060: 3537 823c cdf0 7b3d 6b42 a9bd d460 223e
00000070: 491f edbd 6bf4 8e3d eb61 e03d c27e 30be
00000080: 9e50 8dbe d136 c6b9 e206 263e 6c39 0cbf
00000090: e0b9 c3bd f879 9dbd 2357 9bbe 4f30 9dbe
000000a0: e83e b0bd b638 12be eb34 8ebc 61e8 0d3e
000000b0: 8f89 89be 4e09 84bc 846a 263e addf b0be
000000c0: aaf2 09be aa2a d9bd 5c81 693e beb3 c6be
000000d0: 1cf3 8c3d 6e91 85be 8f5b 823d 8890 33be
000000e0: bde5 223d 548b 6dbd bdce a33d 948d 9d3d
000000f0: 6da5 b13c 8d66 1e3d 7608 8fbd 5aa5 68be
00000100: 7afd 823d a7a9 f1bd 9742 753c db07 acbd
00000110: 2818 4fbb 3139 aa3d d84e 76be de60 c1bd
00000120: 0bff b3bd cb1d 87bd b937 363d e5ad 0cbd
00000130: 9702 663d ad06 ce3c e16c 96be 57b1 0fbe
00000140: 2fc6 e6bd 165e 23bd 1aba 35bd f9c9 afbc
00000150: 8d5e 1c3d 87d7 2ebc 1b6a 55be e45e b53d
00000160: 6476 5d3d 909c e8bd 5b51 143e 1950 f3bc
00000170: aaba a13d a66e c2bb 318d 8abd 9bf8 e7bd
00000180: b326 08be 0b85 b2bd 705b 97bd 44f1 6ebe
00000190: 7d26 5bbe 1a8c f9bd 2f89 b03d d4e3 80bd
000001a0: 56fc 83bd d5e5 b8bd 1dea bfbd 7a7d 20bd
000001b0: 1b34 babd 7396 193c ae2b 62bc 6c7d 9ebc
000001c0: dc92 5c3b 7d8d d6bd afc7 52bd 78a8 cfbd
000001d0: 184e d0bd 4676 81bd 7162 0c3d 3d41 d8bd
000001e0: fcf5 02bd 4fb6 693c 7d5c debc 34ab 09bd
000001f0: c5f2 63be 51b1 b23d d23a 213d 2bc7 d7bc
00000200: 4f18 35bc 753c ccbd c508 b9bd 9335 8fbe
00000210: 0670 43bd 5bed 1bbe 1fb8 db3d 4900 afbc
00000220: 4e5b a53d f581 4bbe 8faf 5f3d f358 babd
00000230: c36f 29bd 4f93 e6bd cec1 5abd d1f2 873d
00000240: d599 083d cd6b 09be 3712 993d 0579 7bbd
00000250: 61b7 46be 6cd4 2bbe 010c ca3c 1180 06be
00000260: ddf6 143e fb4e 273d 9293 a5bd cb87 2ebe
00000270: e8c9 33bd 082e ee3d f64e a5be 41fe 6dbe
00000280: 71cd 89bc 6a8c 08bd 0ae9 11be aed1 dcbd
00000290: b3f1 373e 602e 4fb9 e5da 98bd 25bc ca3d
000002a0: 2a47 6ebd 2c3f dfbd 35fb b83d fd70 a33d
000002b0: 20ab 7cbe e135 8ebc 5668 fcbd d4fb 86bd
000002c0: 2382 cbbd eee6 063d 9386 0abe f441 60bb
000002d0: 356d 40be 6893 1f3e fe04 66bd e1be 11be
000002e0: 88b1 11bd 1450 093e 9ec2 01be e294 29be
000002f0: bb85 a53d 6478 b1bd 2baf 44bd 5da0 603d
00000300: 6ae1 a6bd dcbf 093d 28d6 17bd 5e5c 39be
00000310: b358 10bd 95ae 7ebe e09e e6bd 4da8 f8bc
00000320: 1e03 7dbd 69c3 91bd 1980 443d 8bd7 89be
00000330: 6403 5cbe 5066 3bbd a6af f9bd cc26 07bd
00000340: 3d36 ffbc f85d 39be 9504 143d 4670 ebbc
00000350: b404 79bd bac6 85bd 19ca 27be 625d 56be
00000360: 4a68 0b3d c327 55be 9691 953d 5ac4 123d
00000370: 95b7 183d 9876 fd3d 5ea5 37bd cfbe 2ebe
00000380: f311 6dbe 8cf0 3cbe ba78 253d 5492 9fbc
00000390: 592a 9fbc 1c95 293d 6121 dfbd 424d 3eba
000003a0: 183d 64bd fd26 1abe bb89 193b 9542 4d3c
000003b0: c6b5 82bd 937a 003d a311 e6bd d25b 29be
000003c0: a782 4a3c 3458 2fbd 2766 cfbd 77eb e1bd
000003d0: 81c0 10be e13a de3d c243 c1bc 6b11 d5bb
000003e0: 08e1 0fbe a095 0bbe 6095 6dbe 1e4f a0bc
000003f0: 2c63 ecbd 7779 3ebd 60c2 89be 2999 a0bd

bias f4 [64]
-0.016002458 -0.115434475 0.030832408 -0.061501317 0.23846619 -0.08658445 -0.2610822 -0.074094765
-0.046609987 -0.012294191 -0.10318923 -0.24361621 -0.0022125784 0.02766462 0.16795771 -0.13449849
-0.008420344 0.04723819 -0.08420705 0.21886128 -0.11698998 0.08992986 -0.12290395 0.21232694
0.032731723 -0.04234831 -0.046336997 0.17369813 0.0054611787 -0.26419663 0.031696267 0.01704214
0.18014143 0.17269382 0.11599011 -0.103327416 -0.1478937 0.09120516 -0.13433975 0.11655044
0.029619703 0.12646577 -0.13955854 -0.11013203 -0.10428406 -0.20988886 -0.203315 -0.09696141
-0.0033907343 -0.04134878 -0.18305069 -0.035154615 0.027274746 0.04115285 -0.050091047 0.0933841
-0.19332978 0.1884401 -0.08991893 -0.0567815 -0.13119735 -0.17881742 0.018091572 0.13795474
00000000: 9617 83bc e968 ecbd 3f94 fc3c cee8 7bbd
00000010: 7b30 743e 3053 b1bd 91ac 85be ffbe 97bd
00000020: 1dea 3ebd 936d 49bc e054 d3bd 8776 79be
00000030: e800 11bb eaa0 e23c 1bfd 2b3e f9b9 09be
00000040: 7cf5 09bc d57c 413d bf74 acbd 2c1d 603e
00000050: 7198 efbd 252d b83d 11b5 fbbd 3c6c 593e
00000060: b311 063d 6c75 2dbd ddcb 3dbd ecdd 313e
00000070: b0f3 b23b c844 87be f2d3 013d f59b 8b3c
00000080: ff76 383e a6d6 303e 398c ed3d 539d d3bd
00000090: 7271 17be c5c9 ba3d 5c90 09be ffb1 ee3d
000000a0: 05a5 f23c 3e80 013e 6fe8 0ebe e78c e1bd
000000b0: e292 d5bd 1bed 56be cf31 50be b493 c6bd
000000c0: 1537 5ebb 575d 29bd a471 3bbe 49fe 0fbd
000000d0: 4a6f df3c e48f 283d 452c 4dbd 2a40 bf3d
000000e0: 3ef8 45be 71f6 403e 6a27 b8bd b893 68bd
000000f0: 9958 06be ea1b 37be c734 943c 0244 0d3e

weight f4 [48, 48]
0.086278066 0.1084241 -0.22928691 -0.068019375 -0.25754735 0.117935374 0.028561158 -0.051363043
0.38553852 0.061487596 0.0720974 0.1600553 -0.0920351 -0.15375882 0.35468736 0.23782882
0.17648539 0.22829336 0.05982019 0.10595468 0.037123673 0.017982677 -0.2850235 -0.18121594
-0.17726043 -0.08888193 0.12615748 -0.012396223 -0.14863554 0.10516439 0.076228544 0.09538049
0.07959433 -0.13504627 -0.20814884 0.0394685 0.016901191 0.04386801 0.20607048 0.0073251706
0.01682464 0.074594304 -0.099257 0.04193262 -0.039943356 0.15650406 -0.0040038475 -0.045715768
-0.15002705 0.006263809 0.00028600136 0.20408142 0.019858137 -0.17361876 0.08586068 0.005140908
-0.17347471 -0.23607746 0.12023687 -0.04182627 0.07284426 0.17604193 -0.13844278 -0.085699715
0.027710197 0.12750125 0.18505754 0.10000262 0.10153192 -0.1510808 -0.09650516 0.08115856
-0.1344104 -0.13383935 0.32110262 0.12899935 -0.0003629538 -0.11875847 -0.051591415 0.07359091
-0.12023191 -0.24086238 0.079862386 -0.10858878 0.013543991 0.033806466 0.12180707 -0.3060404
0.061683163 0.18040171 0.078001566 0.22720744 -0.01118052 -0.28660223 -0.1304476 -0.13859613
0.040838804 0.07762348 0.24443598 0.11340678 -0.10285932 0.07550617 0.24177535 -0.150001
-0.10707922 0.19116603 0.04936247 0.20332618 0.11544099 -0.06400292 0.025772179 0.15966316
0.11611218 -0.13597248 -0.19642946 0.12306214 0.013900811 -0.00171477 0.069824286 0.15789597
0.16371334 0.30205625 -0.0740786 0.10354484 -0.054767907 0.19466144 0.32412812 0.3103487
0.06929819 0.05200102 0.062914155 0.10188487 0.18722378 0.039725345 -0.033051778 -0.019309556
0.021741657 0.23895223 -0.09094098 0.03398494 0.09993743 0.14140375 0.112495884 -0.04273764
0.21079218 0.01992644 0.027186953 0.22230785 0.029507438 -0.07906474 0.14868678 -0.109684005
-0.004358638 0.21702386 0.15105982 -0.02664297 0.025970273 0.21837178 -0.08523225 0.15236402
0.21869732 -0.2441308 -0.07280448 0.18117985 -0.047419228 0.10702269 0.11714531 0.12959248
-0.10869531 0.29880676 -0.20598571 0.13096501 0.09926708 0.06556695 0.073970854 0.20133318
-0.05751959 0.32350436 0.13467094 -0.26767784 0.10947879 -0.12277361 -0.26541996 0.048422772
0.042649493 -0.04877266 -0.08663413 0.00036555476 0.22206467 -0.09036645 0.2118622 0.23218943
-0.031695507 -0.030636346 -0.1338064 -0.18700856 -0.076679856 0.10118634 -0.32516977 -0.030114485
0.12637 -0.111157626 -0.08947935 -0.0147180045 0.03838604 -0.057506815 -0.077828415 -0.09285134
0.0897514 0.15418276 0.038014796 0.03919754 0.04376326 -0.02136303 -0.10598998 -0.07542925
-0.18807244 -0.0070218137 -0.047830068 0.14629127 -0.003268026 -0.06932932 0.21155044 0.109613165
0.036163174 0.058364633 0.14741799 -0.19528867 -0.11684245 0.16131246 0.23805542 0.2200254
-0.19360451 0.044838857 -0.037982497 0.07220918 -0.007451602 0.17668432 0.042850334 -0.27961126
0.25775456 0.10056905 -0.1676074 0.035001628 -0.043127064 -0.16987595 0.2888035 0.2530157
0.18553887 -0.1063878 -0.0061792145 0.049869712 0.106346555 0.10965457 0.30064178 0.15317047
00000000: 8eb2 b03d 740d de3d 30ca 6abe be4d 8bbd
00000010: 3fdd 83be 1a88 f13d 17f9 e93c 0e62 52bd
00000020: 4e65 c53e 6bda 7b3d cda7 933d 89e5 233e
00000030: e67c bcbd f472 1dbe 9599 b53e 6689 733e
00000040: 96b8 343e bcc5 693e 0406 753d c4fe d83d
00000050: fe0e 183d 6850 933c 9aee 91be ac90 39be
00000060: c283 35be bb07 b6bd 6d2f 013e 8719 4bbc
00000070: ea33 18be 6d60 d73d b61d 9c3d d956 c33d
00000080: 5a02 a33d 9249 0abe f824 55be b9a9 213d
00000090: 5e74 8a3c f1ae 333d 2404 533e fc07 f03b
000000a0: d4d3 893c e6c4 983d 4147 cbbd 8ac1 2b3d
000000b0: a59b 23bd 9a42 203e b532 83bb 7540 3bbd
000000c0: b1a0 19be a340 cd3b 74f2 9539 b8fa 503e
000000d0: 88ad a23c 1ec9 31be b9d7 af3d 1075 a83b
000000e0: 5ba3 31be 4abe 71be c03e f63d 0652 2bbd
000000f0: 5f2f 953d 5644 343e f2c3 0dbe 5583 afbd
00000100: 7f00 e33c b08f 023e b97f 3d3e 2cce cc3d
00000110: f8ef cf3d edb4 1abe 7fa4 c5bd 7636 a63d
00000120: e1a2 09be 2f0d 09be 9067 a43e 6818 043e
00000130: d64a beb9 a437 f3bd 8551 53bd d5b6 963d
00000140: 263c f6bd a1a4 76be e48e a33d cb63 debd
00000150: 9ee7 5d3c a678 0a3d fc75 f93d 54b1 9cbe
00000160: 7ca7 7c3d 3abb 383e 49bf 9f3d 11a9 683e
00000170: 802e 37bc 87bd 92be 0e94 05be 25ec 0dbe
00000180: 9746 273d 0ff9 9e3d 6d4d 7a3e d041 e83d
00000190: e8a7 d2bd fba2 9a3d f593 773e dd99 19be
000001a0: 5a4c dbbd 07c1 433e 4d30 4a3d bd34 503e
000001b0: 536c ec3d f713 83bd 2d20 d33c bd7e 233e
000001c0: 39cc ed3d 5f3c 0bbe ce24 49be 0108 fc3d
000001d0: 3ac0 633c 22c2 e0ba 0900 8f3d 7baf 213e
000001e0: 78a4 273e 1ea7 9a3e 85b6 97bd 510f d43d
000001f0: 5054 60bd 5455 473e 1ff4 a53e 06e6 9e3e
00000200: 36ec 8d3d 06ff 543d 23d9 803d 04a9 d03d
00000210: 97b7 3f3e 0bb7 223d 4d61 07bd 132f 9ebc
00000220: 8f1b b23c e5af 743e 443f babd cb33 0b3d
00000230: ffab cc3d 25cc 103e 3e64 e63d aa0d 2fbd
00000240: e8d9 573e c63c a33c 2cb7 de3c aba4 633e
00000250: 95b9 f13c b2ec a1bd 5941 183e 02a2 e0bd
00000260: e8d2 8ebb 813b 5e3e 6daf 1a3e 5c42 dabc
00000270: 9cbf d43c da9c 5f3e 3f8e aebd 5005 1c3e
00000280: 31f2 5f3e 6dfd 79be 841a 95bd 3687 393e
00000290: aa3a 42bd b62e db3d e1e9 ef3d e4b3 043e
000002a0: a69b debd 33fd 983e ebed 52be b11b 063e
000002b0: 8a4c cb3d f747 863d 087e 973d 492a 4e3e
000002c0: a999 6bbd 5da2 a53e 2ee7 093e 120d 89be
000002d0: 6a36 e03d bb70 fbbd 20e5 87be f556 463d
000002e0: 3cb1 2e3d d7c5 47bd 3c6d b1bd eea7 bf39
000002f0: ec64 633e 0c12 b9bd 68f2 583e 11c3 6d3e
00000300: 26d3 01bd 13f9 fabc 8b04 09be 2c7f 3fbe
00000310: 540a 9dbd c93a cf3d a77c a6be a7b2 f6bc
00000320: 2367 013e 9ca6 e3bd f340 b7bd c923 71bc
00000330: ae3a 1d3d 448c 6bbd 8164 9fbd d828 bebd
00000340: 95cf b73d 16e2 1d3e 67b5 1b3d 9a8d 203d
00000350: 1b41 333d 8501 afbc 4611 d9bd a77a 9abd
00000360: 1096 40be 3e17 e6bb 76e9 43bd 61cd 153e
00000370: 612c 56bb 88fc 8dbd aea0 583e de7c e03d
00000380: d61f 143d c10f 6f3d bef4 163e c1f9 47be
00000390: 184b efbd 182f 253e cdc4 733e 574e 613e
000003a0: 4340 46be f3a8 373d 8993 1bbd 68e2 933d
000003b0: 912c f4bb bcec 343e d583 2f3d 3529 8fbe
000003c0: 68f8 833e 25f7 cd3d 46a1 2bbe de5d 0f3d
000003d0: 01a6 30bd f6f3 2dbe 0dde 933e 468b 813e
000003e0: e7fd 3d3e d9e1 d9bd 027b cabb 2f44 4c3d
000003f0: 39cc d93d 9392 e03d b8ed 993e b8d8 1c3e

bias f4 [48]
-0.14736296 -0.13436821 -0.4936559 -0.41516614 -0.22642371 -0.12731057 -0.07641334 -0.19051489
-0.3006245 -0.36690727 -0.19144441 -0.2593564 -0.11076782 -0.11445146 -0.14156993 -0.19883926
-0.24642727 -0.2606866 -0.21336493 0.12820062 -0.121956974 -0.391988 -0.26477957 -0.052290194
-0.1999883 -0.26588404 -0.5105041 0.115671664 0.051914264 0.15970504 -0.4399971 -0.26961273
-0.18089975 -0.040130418 -0.35132492 -0.4099742 -0.31710348 -0.022965446 -0.08422384 -0.069048695
0.027570207 -0.16264597 -0.2062486 -0.12956046 -0.299275 -0.17447993 -0.3514062 -0.11738206
00000000: 51e6 16be d297 09be 77c0 fcbe a890 d4be
00000010: 9edb 67be b45d 02be 997e 9cbd 5616 43be
00000020: 74eb 99be 45db bbbe 010a 44be 5dca 84be
00000030: 3dda e2bd 8765 eabd b5f7 10be 859c 4bbe
00000040: 6e57 7cbe b778 85be 567c 5abe 0647 033e
00000050: 94c4 f9bd a7b2 c8be 3091 87be 3e2e 56bd
00000060: bcc9 4cbe f421 88be 66b0 02bf 44e5 ec3d
00000070: 0da4 543d b889 233e 4d47 e1be ae0a 8abe
00000080: c93d 39be cb5f 24bd dce0 b3be 23e8 d1be
00000090: 635b a2be 0822 bcbc 8c7d acbd 6769 8dbd
000000a0: eada e13c aa8c 26be d532 53be 7fab 04be
000000b0: 933a 99be deaa 32be 83eb b3be 0166 f0bd

weight f4 [48, 48]
0.08205782 -0.05114418 -0.12024921 0.06479289 -0.0935572 0.056444217 -0.22941087 -0.083378
0.2853949 -0.18421344 -0.042732384 -0.027408509 -0.055053327 -0.32927117 0.08512062 0.12578727
0.11849167 -0.1150003 -0.13289504 0.24147737 -0.0629281 -0.10858536 0.048070617 0.028961014
-0.08942042 -0.1269399 -0.071894445 -0.07297342 -0.09475523 0.022909436 -0.16212168 0.052613843
-0.043302357 0.041418016 -0.17255925 -0.027914172 0.36649308 -0.10970636 -0.1546392 -0.031795204
0.0111584505 -0.06560173 0.2107252 0.13730162 0.08179838 -0.20982017 0.1006713 0.081476144
-0.16557987 -0.19110972 0.28398174 0.21595663 -0.16357663 0.11434905 -0.12687804 -0.118078515
0.116124816 0.07363456 -0.22898097 0.15965183 -0.048714146 -0.062626295 -0.063188314 0.11491685
-0.075252526 -0.12186072 0.025215896 -0.2391205 0.1841815 0.016695151 -0.046188645 -0.102064416
0.010926734 0.19048253 -0.0072162966 -0.08749377 -0.18990158 -0.026959782 0.26884213 0.20321803
0.13709974 -0.09377716 -0.01375502 0.07977969 -0.14537789 0.1126087 -0.18624482 0.111040115
0.16883166 -0.014553182 0.14877808 -0.18679482 -0.08550827 0.010765445 0.021461206 0.0049467646
-0.118149474 -0.083027914 -0.11914025 -0.19577911 0.09969898 -0.05615795 0.04444729 0.09027313
-0.07960925 -0.23153102 -0.07225153 -0.116506726 -0.19094974 -0.07923512 -0.2322793 0.121973515
-0.025999876 -0.06321003 -0.1744257 -0.074448496 0.01290197 -0.113522254 0.037954547 -0.13920641
-0.064129524 -0.33336425 0.045364983 -0.104200244 -0.15787186 -0.08813234 -0.019276438 -0.15174955
0.031030655 -0.05455136 0.021395428 -0.060545467 -0.18758394 0.13250345 -0.013390909 -0.13009769
-0.04652654 0.0028547163 -0.038348563 -0.03813455 -0.17658731 0.053307544 -0.123988815 -0.046070535
-0.09385006 0.20387651 0.02523095 -0.45726413 0.13599582 -0.3796758 0.120482884 0.19414634
-0.5189242 -0.2891811 -0.10158032 0.089485444 -0.12476681 -0.23254845 0.15334626 -0.0075227427
0.13529916 0.032517962 -0.28462303 -0.073695764 -0.26658037 0.105942585 0.2944165 0.11390991
0.24284302 -0.25523612 -0.19239146 -0.2328847 -0.11817826 -0.5180511 0.08757851 -0.05376893
-0.051348496 -0.058107156 0.038991388 0.028846093 0.0015629565 0.04528958 0.12831533 0.09536325
0.14519298 -0.39419547 -0.15329741 -0.121957645 -0.02417257 -0.32297745 -0.11532221 0.20153639
0.04999462 -0.19509791 0.04421795 -0.028870927 -0.14056528 -0.05451886 -0.005993215 0.09519236
-0.11653709 -0.16814369 -0.0035241991 0.07624718 -0.11641884 -0.07138613 -0.10004135 0.051626753
-0.015462851 -0.16702236 -0.1462617 -0.12402215 0.00035951997 0.096595645 0.057643957 -0.07139118
0.054933116 -0.15437758 0.19826846 -0.2115674 -0.08997614 -0.14014992 0.08467424 -0.1001846
-0.017975682 -0.09514208 0.065764524 0.014365841 -0.12027033 -0.079498 -0.15528864 -0.008744433
-0.19331685 -0.013196022 -0.019991007 -0.12719853 0.05178812 0.06322819 0.008898042 -0.035987347
0.03425585 0.020245548 -0.06597482 0.07479254 -0.11075408 0.0023779909 0.05627333 -0.013206988
0.038906496 -0.029331503 0.002082539 0.0021681145 0.01492957 0.119341895 -0.0022560477 -0.102362014
00000000: ee0d a83d 8f7c 51bd 3845 f6bd 22b2 843d
00000010: eb9a bfbd 0d32 673d afea 6abe 16c2 aabd
00000020: 481f 923e 73a2 3cbe 2708 2fbd cf87 e0bc
00000030: 997f 61bd 3b96 a8be b853 ae3d 61ce 003e
00000040: c3ab f23d 4785 ebbd a315 08be d845 773e
00000050: 73e0 80bd 0062 debd b2e5 443d a63f ed3c
00000060: 0e22 b7bd 88fc 01be 653d 93bd 1773 95bd
00000070: 080f c2bd 92ac bb3c 3a03 26be 9d81 573d
00000080: d05d 31bd f0a5 293d 5fb3 30be 43ac e4bc
00000090: fba4 bb3e baad e0bd bd59 1ebe b03b 02bd
000000a0: efd1 363c 335a 86bd 59c8 573e cc98 0c3e
000000b0: e985 a73d 19db 56be c12c ce3d f7dc a63d
000000c0: c58d 29be 44b2 43be 0e66 913e bc23 5d3e
000000d0: a280 27be d62f ea3d 51ec 01be 26d3 f1bd
000000e0: d9d2 ed3d b7cd 963d fd79 6abe c57b 233e
000000f0: 7c88 47bd 3742 80bd e068 81bd 8759 eb3d
00000100: ff1d 9abd 1d92 f9bd 9191 ce3c 01dc 74be
00000110: 139a 3c3e 45c4 883c 4e30 3dbd 2607 d1bd
00000120: 0b06 333c da0d 433e af76 ecbb ef2f b3bd
00000130: 8f75 42be c3da dcbc ada5 893e 6318 503e
00000140: e063 0c3e 3d0e c0bd bc5c 61bc 8963 a33d
00000150: f1dd 14be 649f e63d f6b6 3ebe 0069 e33d
00000160: 35e2 2c3e 7870 6ebc 4859 183e 2447 3fbe
00000170: f61e afbd 8d61 303c 69cf af3c 7818 a23b
00000180: 5af8 f1bd 8a0a aabd ceff f3bd 527a 48be
00000190: fb2e cc3d e105 66bd 5d0e 363d 1ee1 b83d
000001a0: 2d0a a3bd 7816 6dbe 9cf8 93bd 149b eebd
000001b0: 5488 43be 0646 a2bd a0da 6dbe 40cd f93d
000001c0: b1fd d4bc 4374 81bd a79c 32be 7478 98bd
000001d0: c962 533c 5b7e e8bd 3a76 1b3d 208c 0ebe
000001e0: 5756 83bd b8ae aabe a2d0 393d f066 d5bd
000001f0: 29a9 21be ba7e b4bd 9fe9 9dbc 3c64 1bbe
00000200: 0034 fe3c 3f71 5fbd 7745 af3c 86fe 77bd
00000210: 0116 40be fcae 073e 8b65 5bbc 5438 05be
00000220: 9d92 3ebd 3116 3b3b 6213 1dbd f932 1cbd
00000230: 4ed3 34be 0359 5a3d d9ed fdbd 75b4 3cbd
00000240: 7634 c0bd 01c5 503e 23b1 ce3c 861e eabe
00000250: 7d42 0b3e de64 c2be bbbf f63d 4cce 463e
00000260: 37d8 04bf 8c0f 94be 5809 d0bd 2544 b73d
00000270: be85 ffbd 2e21 6ebe cd06 1d3e 5781 f6bb
00000280: dd8b 0a3e 8e31 053d 1cba 91be ceed 96bd
00000290: 397d 88be 6df8 d83d c2bd 963e 9949 e93d
000002a0: d7ab 783e 4fae 82be 4402 45be 5479 6ebe
000002b0: 7207 f2bd ff9e 04bf 5d5c b33d cf3c 5cbd
000002c0: cd52 52bd c501 6ebd 6fb5 1f3d a44e ec3c
000002d0: 1edc cc3a 9181 393d 1865 033e cf4d c33d
000002e0: 78ad 143e fdd3 c9be fff9 1cbe eec4 f9bd
000002f0: 8e05 c6bc 4d5d a5be 0d2e ecbd 8e5f 4e3e
00000300: 29c7 4c3d bfc7 47be e21d 353d b982 ecbc
00000310: 58f0 0fbe 2b4f 5fbd bb62 c4bb 36f4 c23d
00000320: ffaa eebd dc2d 2cbe 40f6 66bb 7b27 9c3d
00000330: 006d eebd e432 92bd 7be2 ccbd 9376 533d
00000340: e657 7dbc e907 2bbe a1c5 15be 53ff fdbd
00000350: f47d bc39 f0d3 c53d 121c 6c3d 8a35 92bd
00000360: 8c01 613d 2815 1ebe e306 4b3e 20a5 58be
00000370: 6945 b8bd 7683 0fbe b069 ad3d 952d cdbd
00000380: bd41 93bc dad9 c2bd 8daf 863d b45e 6b3c
00000390: 4a50 f6bd d9cf a2bd fc03 1fbe cf44 0fbc
000003a0: daf4 45be 2134 58bc 2ec4 a3bc 5540 02be
000003b0: c81f 543d c87d 813d 18c9 113c 7867 13bd
000003c0: dd4f 0c3d fed9 a53c ce1d 87bd d52c 993d
000003d0: 09d3 e2bd 11d8 1b3b dd7e 663d 1f62 58bc
000003e0: 6b5c 1f3d 9f48 f0bc 357b 083b ed16 0e3b
000003f0: 289b 743c 8669 f43d 33da 13bb 2da3 d1bd

bias f4 [48]
-0.13657315 -0.07993309 0.040107507 -0.06871863 -0.32899132 -0.27040085 -0.2517418 0.02697032
-0.08312919 -0.043947548 -0.13679679 0.027458241 -0.16325969 -0.029502014 -0.27255508 -0.1888961
-0.20885248 -0.24134706 0.08124813 -0.17251296 -0.16771427 -0.054303393 -0.1706266 -0.3534305
-0.093117125 -0.01934872 -0.12678435 0.23539788 0.00674816 -0.13495721 -0.07336874 -0.33347312
-0.108519435 -0.22819522 -0.25878692 -0.12294136 0.085291035 -0.26526302 -0.08670752 -0.00670016
0.046303753 -0.14335343 -0.00395582 -0.28906944 -0.009600852 -0.0039554248 -0.14102238 -0.022237597
00000000: d5d9 0bbe f6b3 a3bd c547 243d 5abc 8cbd
00000010: 8d71 a8be fb71 8abe 4de4 80be dcf0 dc3c
00000020: a33f aabd 5802 34bd 7514 0cbe 1bf0 e03c
00000030: 8c2d 27be 35ae f1bc 578c 8bbe fb6d 41be
00000040: 6ddd 55be af23 77be 6b65 a63d 3da7 30be
00000050: 4abd 2bbe 3c6d 5ebd bdb8 2ebe d8f4 b4be
00000060: 31b4 bebd 3581 9ebc c2d3 01be 240c 713e
00000070: ab1f dd3b 3932 0abe 5a42 96bd fdbc aabe
00000080: 703f debd 02ac 69be b87f 84be aec8 fbbd
00000090: 11ad ae3d 8ed0 87be b693 b1bd 048d dbbb
000000a0: 01a9 3d3d 3ecb 12be d39f 81bb e900 94be
000000b0: e44c 1dbc 829c 81bb 2c68 10be 9f2b b6bc

weight f4 [32, 32]
-0.14987013 -0.14216773 -0.11418014 -0.0142259365 -0.03194572 0.05703882 0.0062394002 -0.17838398
0.03269914 -0.15590858 -0.09768078 0.27661926 0.29030907 0.036694467 0.3369473 0.20724107
0.033600796 0.12930071 -0.040330246 0.06908385 0.14864069 0.08198275 0.18760294 -0.084720075
-0.12210056 0.057030004 0.049426466 0.015741833 -0.116622955 -0.026304474 0.08689062 0.023666553
0.091851026 0.0900919 0.2546043 -0.19463591 -0.18444657 0.12862527 -0.017586248 -0.093609
-0.30388758 -0.24553588 -0.01827899 -0.0116737345 0.11799794 -0.17009898 -0.051158722 0.19911975
-0.18631294 0.034100447 -0.28642595 0.07482702 0.07291006 -0.022384962 -0.099607356 -0.03977375
-0.010267749 -0.013401959 0.08346723 0.14734513 0.17594074 -0.17338514 -0.3707348 -0.06072557
-0.04704544 0.07465358 -0.0334777 0.057155456 -0.03351717 0.033452224 -0.17012984 -0.0270963
-0.116996914 0.07475646 0.20596842 0.058837228 -0.12594463 -0.12185417 0.018514005 -0.075372316
-0.05142752 -0.14263988 -0.24115647 0.23443837 -0.12600963 -0.08104848 -0.09795384 0.16863203
-0.17958753 -0.0012492915 0.12597 -0.14078514 0.12735331 -0.040660188 -0.16012801 0.15446347
-0.019708402 0.15307924 -0.26505947 -0.18807061 -0.2691662 -0.08206373 -0.20011407 -0.19138585
-0.13299853 0.058824476 -0.17285627 -0.06094194 -0.013734551 0.0031952353 0.15921746 -0.3063438
-0.09899817 -0.002984281 0.090853356 0.11326076 -0.23354024 0.26397267 0.108427785 0.014715998
-0.06737861 -0.063374884 -0.23639946 -0.014305883 0.014123193 0.15987843 -0.03797429 -0.10309675
-0.15297689 -0.021469586 -0.2077431 -0.089421056 0.070395365 -0.07580366 -0.14485604 -0.20616171
0.17471932 0.08767856 -0.3093178 0.20489167 -0.17791502 0.23779286 -0.27896968 0.21065207
-0.13122319 0.048928004 -0.13845687 0.024305703 -0.083719246 -0.18417385 -0.5092039 0.020023653
0.0007980033 -0.0032656223 0.09817305 -0.29285994 0.14647745 0.0066750324 -0.0033311127 0.06190216
-0.17332841 0.05975717 -0.12590538 0.11626946 0.36689052 -0.071240164 0.0134615 -0.11174259
-0.13947183 -0.10106262 -0.04689598 -0.03964036 0.1275241 -0.11776044 0.1043739 0.027537799
0.09683627 -0.24583036 0.12563375 -0.0023429892 0.2771351 -0.34376025 -0.17396683 -0.09943621
-0.114604264 -0.22627631 0.20788695 0.07870679 0.06438052 0.19146068 -0.10444835 0.055944264
0.39046165 0.03935327 0.15529642 0.025159344 -0.055787656 0.16431534 0.056286428 -0.053094007
0.17661259 -0.05162033 -0.02375856 -0.17995533 0.23023708 0.0077514816 0.08143117 0.043751035
-0.14763741 0.20138323 -0.08334049 0.027566284 0.20504948 -0.020260304 0.030289281 -0.12672201
0.17522255 0.09728988 -0.004514556 0.04078125 0.09018453 0.15939789 -0.032640755 0.12492656
0.18710998 -0.27979383 0.029135935 -0.09449045 -0.20301674 0.14430656 -0.22283658 -0.19059817
0.0945113 0.12887456 -0.092970334 -0.24985507 0.15433154 0.33253586 0.07101977 0.12588412
-0.06844238 0.02075684 0.016560432 -0.0033234777 0.09099218 -0.0025312998 -0.03447549 -0.006765356
0.019233594 0.14351153 -0.26599407 0.017055435 -0.061018195 -0.26251546 -0.012678074 0.10352737
00000000: 8e77 19be 6b94 11be 47d7 e9bd e713 69bc
00000010: 84d9 02bd 8aa1 693d e273 cc3b 4aaa 36be
00000020: 89ef 053d 80a6 1fbe dc0c c8bd 0aa1 8d3e
00000030: 64a3 943e f04c 163d 5b84 ac3e 0137 543e
00000040: fda0 093d 6867 043e 5431 25bd d57b 8d3d
00000050: 4435 183e 92e6 a73d fc1a 403e b881 adbd
00000060: dc0f fabd 4b98 693d 6873 4a3d 04f5 803c
00000070: 04d8 eebd 7b7c d7bc b6f3 b13d 5ce0 c13c
00000080: 641c bc3d 1a82 b83d 7f5b 823e a34e 47be
00000090: 90df 3cbe 58b6 033e 0911 90bc 13b6 bfbd
000000a0: 2797 9bbe c26d 7bbe d2bd 95bc 3143 3fbc
000000b0: e7a8 f13d 6d2e 2ebe cf8b 51bd 0ce6 4b3e
000000c0: d2c8 3ebe e9ac 0b3d 6ca6 92be e93e 993d
000000d0: df51 953d ab60 b7bc f1fe cbbd cde9 22bd
000000e0: 103a 28bc e493 5bbc def0 aa3d a4e1 163e
000000f0: cf29 343e e08b 31be f4d0 bdbe 60bb 78bd
00000100: b8b2 40bd fae3 983d ea1f 09bd d71b 6a3d
00000110: 4d49 09bd 3305 093d 8436 2ebe 0ff9 ddbc
00000120: 149c efbd ea19 993d 63e9 523e 4eff 703d
00000130: a1f7 00be ae8e f9bd afaa 973c cd5c 9abd
00000140: aaa5 52bd 3010 12be b9f1 76be 9d10 703e
00000150: ab08 01be bffc a5bd 069c c8bd e0ad 2c3e
00000160: cbe5 37be 44bf a3ba 48fe 003e fb29 10be
00000170: e868 023e 4c8b 26bd 99f8 23be ac2b 1e3e
00000180: 8473 a1bc cec0 1c3e e0b5 87be 9595 40be
00000190: 27d0 89be 0711 a8bd b4ea 4cbe a7fa 43be
000001a0: c430 08be eff1 703d 3c01 31be 419e 79bd
000001b0: e206 61bc 2767 513b e709 233e 18d9 9cbe
000001c0: 8dbf cabd ed93 43bb 5311 ba3d 42f5 e73d
000001d0: 2c25 6fbe 6d27 873e 630f de3d 5f1b 713c
000001e0: ccfd 89bd b1ca 81bd b312 72be 3963 6abc
000001f0: f764 673c 2cb7 233e ee8a 1bbd 6424 d3bd
00000200: f9a5 1cbe fce0 afbc 9bba 54be 6322 b7bd
00000210: 722b 903d f33e 9bbd 2455 14be 0e1c 53be
00000220: 9fe9 323e d190 b33d e75e 9ebe 1fcf 513e
00000230: 5b2f 36be f97f 733e 1dd5 8ebe 2db5 573e
00000240: 5f5f 06be bb68 483d a3c7 0dbe c11c c73c
00000250: ff74 abbd 1298 3cbe 305b 02bf a508 a43c
00000260: 1831 513a 0d04 56bb f40e c93d bdf1 95be
00000270: 2ffe 153e 3bba da3b cc4e 5abb 1f8d 7d3d
00000280: 017d 31be efc3 743d 57ed 00be af1e ee3d
00000290: 13d9 bb3e 5de6 91bd a08d 5c3c 4dd9 e4bd
000002a0: b4d1 0ebe ebf9 cebd 0016 40bd ee5d 22bd
000002b0: ad95 023e 632c f1bd fcc1 d53d f396 e13c
000002c0: 1852 c63d f4ba 7bbe 22a6 003e d68c 19bb
000002d0: a7e4 8d3e 5801 b0be 5c24 32be 36a5 cbbd
000002e0: a4b5 eabd fab4 67be 51e0 543e 0731 a13d
000002f0: efd9 833d 450e 443e 04e9 d5bd d025 653d
00000300: 97ea c73e e530 213d 0606 1f3e f81a ce3c
00000310: 9981 64bd 4842 283e 998c 663d 1a79 59bd
00000320: eed9 343e d76f 53bd 50a1 c2bc 3646 38be
00000330: 45c3 6b3e 2400 fe3b 63c5 a63d 4934 333d
00000340: 432e 17be 6837 4e3e 6bae aabd b0d2 e13c
00000350: 7ef8 513e f0f8 a5bc 3a21 f83c 6ac3 01be
00000360: 8a6d 333e eb3f c73d d7ee 93bb 3d0a 273d
00000370: abb2 b83d 3339 233e 50b2 05bd 7fd9 ff3d
00000380: c299 3f3e 2341 8fbe 7cae ee3c 3684 c1bd
00000390: 9fe3 4fbe 19c5 133e 462f 64be 2b2c 43be
000003a0: 248f c13d b1f7 033e 3b67 bebd 02da 7fbe
000003b0: 1609 1e3e 2442 aa3e d072 913d c4e7 003e
000003c0: 852b 8cbd 400a aa3c bea9 873c b4ce 59bb
000003d0: 1c5a ba3d 2ae4 25bb 2c36 0dbd ebaf ddbb
000003e0: c58f 9d3c b0f4 123e 6030 88be d7b7 8b3c
000003f0: 37ee 79bd 6d68 86be b2b7 4fbc 2806 d43d
