trained_models/net_1_new/dense_Supervised_WAE_net_1.pt (torch, 197251 bytes, 80 tensors)

weight f4 [65, 65]
000000 21 8e cc bd d2 1a 9d 3d 32 a0 b0 bd d4 7b dc 3d
       -0.099880464 0.07671131 -0.08624305 0.10765806
000010 be ac 5b 3d 2d 4d cc 3d 24 43 1e bc 58 aa 11 3d
       0.053631537 0.099756576 -0.009659562 0.035562843
000020 c1 75 17 bb d3 01 e4 3d a0 cf ea bd fa 61 8c bc
       -0.0023110958 0.111331604 -0.114653826 -0.017136563
000030 06 9b c6 3d 1e 21 8d bd e8 a8 ca bc 72 33 c7 3d
       0.09697537 -0.06891082 -0.024738744 0.09726609
000040 d0 10 a5 bd 9e 00 a3 bd 15 73 43 3d 7f 2b 0c bb
       -0.08059847 -0.07959102 0.047717173 -0.002138823
000050 78 ae 80 bd 78 8d eb 3b 1b 57 56 3d 2c 50 9e bd
       -0.06283277 0.0071884952 0.052329164 -0.07730135
000060 59 e2 13 bd 58 8d a5 3d 56 df b1 bd d4 28 3c bd
       -0.036104534 0.080836 -0.08685176 -0.045937374
000070 69 c4 cb bd 6d 17 17 3c ab e3 e4 bd 9a 2f ba 3d
       -0.09949572 0.009221894 -0.11176237 0.090911105
000080 40 15 d7 3c f5 eb 17 3c 15 08 b6 3d 37 c0 93 3d
       0.02625525 0.009272565 0.0888826 0.072143964
000090 bb 35 6d 3d 27 e6 12 bc 2f 5e c6 3d 34 60 11 bd
       0.05791257 -0.008966005 0.09685933 -0.035492137
0000a0 cb 94 f7 bd 18 ea ef bd a0 96 8e bd 8d f2 7e 3d
       -0.12088927 -0.11714572 -0.06962323 0.062243033
0000b0 4c 54 5c 3c 06 08 73 3d d3 ed b0 3c 75 51 9b bd
       0.013447832 0.059333824 0.021597778 -0.07583896
0000c0 a6 4d 50 3d e6 c8 ea 3d 69 ea 05 3d a0 0a ac 3d
       0.0508553 0.114640996 0.032694254 0.08400464
0000d0 36 89 8a bd 70 5d e7 bb 3a c4 ae 3d 61 09 97 3c
       -0.06764452 -0.007060699 0.08533521 0.01843709
0000e0 fd 45 e8 bd bf 87 12 3d 29 bd 69 3d 2f 16 a9 3d
       -0.11341474 0.03577399 0.057065163 0.08256184
0000f0 89 27 6e 3a 55 3c b8 bc 38 73 90 bc 23 14 2f bd
       0.00090848707 -0.022489706 -0.017633066 -0.042743813
000100 08 0a 98 bd 33 79 d3 bd c4 2b 0f 3b 82 10 9e bd
       -0.07423788 -0.10325851 0.0021846155 -0.07717992
000110 ac ce 68 bd 53 67 ad 3d 04 1e 96 3d 01 e8 8d 3c
       -0.056837723 0.08466973 0.07329944 0.017322542
000120 b8 06 2c bc 16 cf bb bc 13 02 37 3d dc 27 bb 3d
       -0.010499649 -0.022925895 0.044679713 0.09138462
000130 6e 62 02 bd 9a cd f9 3d 26 f7 59 bd ad 0a dd bd
       -0.03183215 0.121974185 -0.053214215 -0.10793052
000140 42 95 37 ba f0 9b d5 bc b4 7e 56 3d 7a 60 5f bd
       -0.0007003137 -0.026075333 0.052366927 -0.054535367
000150 de 11 2a 3c fc db 82 3d f2 f0 90 3d cd d0 9e 3d
       0.010380236 0.06389615 0.07077207 0.07754669
000160 a9 42 e8 bd 94 75 cd 3d a0 76 e9 3d 43 08 a9 3d
       -0.113408394 0.10032192 0.11399579 0.08253529
000170 68 8d 82 3d 35 13 a2 3d bd 90 2c bd f2 1d 94 3d
       0.06374627 0.0791382 -0.04213022 0.07232274
000180 7f 22 13 bc e5 3a f0 bd 60 41 f3 3d c5 b1 23 bd
       -0.0089803925 -0.11729983 0.11877704 -0.039964456
000190 c4 42 a0 bd c5 69 85 bc 68 3f e5 3d 28 79 7f 3c
       -0.078252345 -0.016285786 0.111937344 0.015592851
0001a0 24 a7 3a 3b 03 9a 08 bd 0d 12 9c 3d 94 a8 f0 bd
       0.0028480971 -0.033350002 0.076206304 -0.11750904
0001b0 fa 43 b2 bc 5b 41 34 bd fa f0 0c 3d c9 41 54 bd
       -0.02176093 -0.04400764 0.0344095 -0.05182055
0001c0 49 a2 f5 3d f1 55 68 bc 20 39 f5 3d 1e 8a 96 bc
       0.11993844 -0.014180646 0.11973786 -0.018376406
0001d0 97 ac 21 3c 5c bb 12 3d 96 3d ca 3b 12 33 e7 bd
       0.009867809 0.03582321 0.0061718924 -0.11289038
0001e0 db 18 68 bd 1e 5d 9a 3d 4a 3e f6 3d 6f 55 24 3d
       -0.05666433 0.07537292 0.120235994 0.04012054
0001f0 d3 4d 57 3d 9d a0 9b 3d 68 61 e7 3b 2b 68 d8 bd
       0.052564453 0.07598994 0.0070611723 -0.105667435
000200 eb 86 6e bd 0e be e4 bd e3 04 d4 bc b0 c3 1e 3d
       -0.058234137 -0.111690626 -0.025881236 0.03876084
000210 6f 88 cb bd 05 5f e2 3d a7 9f cc bd a4 f5 ac bc
       -0.09938132 0.1105328 -0.09991389 -0.021113224
000220 4e 89 b1 3d 78 1b b3 bd bd cb 4d bd d2 0f f7 bc
       0.08668767 -0.087454736 -0.050243128 -0.03015891
000230 ce c2 f9 bd 83 08 f9 bd eb af a9 bd dc 1a 8a 3d
       -0.12195359 -0.121598266 -0.08285507 0.06743404
000240 77 2a 91 3d b7 4d f9 bd 24 ea e9 3c 6e 0d cb 3d
       0.07088178 -0.12173026 0.02855403 0.09914671
000250 62 a1 7a bd bd 45 7c 3d 10 98 b9 3d be 58 29 3c
       -0.061189063 0.061589945 0.09062207 0.010336099
000260 35 b6 e2 3b 9b 03 6d 3d e9 9e 8e 3d 5f e6 d9 3d
       0.0069186934 0.057864767 0.069639035 0.10639643
000270 2e 48 20 3c 6b c9 60 bb 28 c6 29 3d 4b 4d a9 3d
       0.009782834 -0.0034299742 0.041448742 0.082666956
000280 97 00 5e bc 98 d8 a1 bc 7c 8a 99 3c 3d c8 07 bd
       -0.013549945 -0.0197566 0.018742792 -0.033149946
000290 49 21 35 3d fc 50 26 bd b9 c1 b9 3d e6 1f 24 bd
       0.044221196 -0.040604576 0.09070153 -0.040069483
0002a0 a0 dd 2c 3d 37 49 cc 3d 76 90 e4 3d e9 12 b2 3d
       0.042203546 0.09974902 0.11160366 0.08695013
0002b0 98 a3 5f bd 3f 04 84 bd 63 bf e7 3d 2a 01 ca 3d
       -0.054599375 -0.064461224 0.11315801 0.09863503
0002c0 f9 79 8c 3d c2 89 4a bd 83 b2 b4 3d 08 e0 e2 3d
       0.06859202 -0.049447782 0.08823111 0.11077887
0002d0 e3 fa d4 bd ab 5e 78 bd d6 d7 da 3d ae a6 f9 3d
       -0.10399415 -0.060637157 0.10685699 0.12189995
0002e0 2c ab 9e bc 4a 55 87 3d d3 76 01 3b 48 0a b7 3d
       -0.01936873 0.066080645 0.0019754663 0.08937508
0002f0 62 92 84 bc b3 df 52 bd 8c be 72 bd 83 37 fb 3a
       -0.016183082 -0.051482867 -0.05926375 0.0019166324
000300 aa f0 ab 3d c2 59 bc 3b ac a6 0d 3d 36 2d d2 3c
       0.083955124 0.0057480047 0.03458278 0.025656324
000310 6d c0 f8 3a 5c 1b 4b bc 59 af 5d bd 53 b4 57 bd
       0.0018978246 -0.01239666 -0.054122303 -0.052662205
000320 f8 14 96 bd c0 dd f0 3d 89 8c c1 bd 96 22 57 bc
       -0.07328218 0.117610455 -0.09450633 -0.0131308045
000330 52 c8 9a bd 0d 64 64 bd 13 fe 48 3c 8b 0d 8f bd
       -0.07557739 -0.05575948 0.012267607 -0.06985005
000340 3b d7 1b bd c5 62 16 3d d9 dc cd bd 9c e4 0b 3d
       -0.038047057 0.036715288 -0.10051889 0.034153566
000350 b9 82 24 3d ac 87 db 3d 62 1a ed 3c 64 3f 82 bd
       0.04016373 0.10719237 0.028943244 -0.06359747
000360 93 a8 bc 3d 3c c8 af 3c b4 47 a0 3d a4 09 b7 bd
       0.092118405 0.021457784 0.07826176 -0.08937386
000370 31 e7 8d 3d 23 6d 74 bd 09 6b 69 3d 9c d1 9c 3d
       0.06928862 -0.059674393 0.056986842 0.07657167
000380 5f be 7f 3c 36 06 d2 3d 26 71 8a bd c6 93 5e 3d
       0.015609353 0.10255091 -0.067598626 0.054340146
000390 88 be 96 bd c7 0e 54 3c a5 9e ba 3c 69 05 97 bc
       -0.0736056 0.012942976 0.022780726 -0.018435197
0003a0 a1 a8 20 bd 48 ca af bb fc 5f c4 bd 9e 52 4b bd
       -0.039223317 -0.00536469 -0.0958862 -0.049639337
0003b0 f7 b3 10 bc 54 f5 d1 3d 9d 9c 1c 3d f0 e3 85 3d
       -0.008831969 0.10251871 0.038235296 0.06537616
0003c0 b3 0a 56 bc 39 94 f9 3d e5 3e f1 3d c6 c7 ef bd
       -0.013064074 0.12186474 0.11779574 -0.11708026
0003d0 3d 8c d9 3d 9e ae 10 3d e4 8c c0 bb c6 e7 66 3d
       0.106224515 0.035322778 -0.0058761705 0.05637338
0003e0 82 7a 8d 3d 57 49 b3 bd 4e ef 47 3d c9 f8 e6 bd
       0.06908132 -0.08754223 0.048812203 -0.11277921
0003f0 f2 19 aa 3d 1a 0a 82 bd 4a 9e 34 3c 6d 69 c6 bd
       0.0830573 -0.06349583 0.011024067 -0.09688077

bias f4 [65]
000000 20 7d 97 3d 82 b6 24 3d 2f 53 52 3d 46 06 c8 bd
       0.073969126 0.040213116 0.05134886 -0.097668216
000010 b8 10 94 3d 32 17 62 3d 22 06 0a 3d 76 a5 0b bd
       0.07229751 0.055197902 0.033697255 -0.034093343
000020 33 b4 ff bb 27 36 c9 bd 54 93 a8 bd 82 a6 f1 bd
       -0.007803464 -0.09824782 -0.082312256 -0.11799337
000030 04 72 29 3d 0f d6 91 3d 13 4f ba 3b a0 37 aa bd
       0.0413685 0.071209066 0.005685696 -0.08311391
000040 a1 28 f1 bd e6 80 a9 3c 80 f1 3c 3d a1 4e a0 bb
       -0.117753275 0.020691346 0.04612875 -0.004892186
000050 74 41 ed bc 3f 16 af bd 74 6e fd bd c2 58 bc bd
       -0.028961875 -0.08549165 -0.12374583 -0.09196617
000060 44 c8 c7 bc c2 16 a1 bc 30 45 fa 3d 30 4b 06 3d
       -0.024387486 -0.019664172 0.12220228 0.03278655
000070 4d af c5 3d 63 2a ad bd 82 b8 7b 3a e5 4d dd bd
       0.096525766 -0.0845535 0.0009602384 -0.10805873
000080 b1 20 fb 3d d8 1b b6 3d af 27 ed 3d 13 55 4a 3d
       0.12262095 0.088920295 0.11579835 0.04939754
000090 aa ba 94 3d 6f 14 fe bc 39 20 1e 3d f8 ff fd 3c
       0.07262166 -0.031015603 0.03860495 0.031005844
0000a0 32 28 fc bd cb a5 9a 3d c6 b8 e2 3d f4 e8 e4 bc
       -0.12312354 0.07551154 0.11070399 -0.027943112
0000b0 39 cf 00 3d 16 ef f8 3d 31 c0 da b9 0e 65 95 3c
       0.031447623 0.12154977 -0.00041723394 0.018236663
0000c0 00 28 a9 3a 50 7e a7 3d 32 99 c0 3d 64 ba 37 3d
       0.0012905598 0.08178389 0.0940422 0.04485549
0000d0 be e8 88 bd c1 28 0a 3a b0 61 43 bd 11 2d ab 3c
       -0.06685017 0.0005270355 -0.047700584 0.020895513
0000e0 51 11 f4 bc 5a 36 61 bd e1 7c e5 bd 1c 1e 64 3d
       -0.029793413 -0.054983474 -0.112054594 0.055692777
0000f0 94 77 f7 bd f0 54 8d bd 76 c5 95 3d 8a 1d 50 3d
       -0.120833546 -0.06900966 0.07313053 0.05080942
000100 55 90 4a 3d
       0.049454052

weight f4 [65, 65]
000000 f3 2c c0 3d 5d 6e da bd 25 8f 02 3d 7d 19 11 3c
       0.093835734 -0.106655814 0.031874795 0.008856175
000010 d1 64 8e ba 1a f3 75 bd c4 32 b5 3d 47 93 cb bd
       -0.0010863786 -0.060046293 0.088475734 -0.099402
000020 45 f8 1b 3a 6b 39 7b 3d 18 52 31 bd a8 b1 93 bd
       0.0005949776 0.061334055 -0.04329118 -0.072116196
000030 2d eb fa bd 56 36 7f 3d 23 2a 3f bd 2c 14 fc 3c
       -0.122518875 0.06230768 -0.046671044 0.030771337
000040 0b 04 bb 3d 90 43 5d bd 6f d0 cd 3d 30 f9 e3 3d
       0.091316305 -0.05401951 0.10049521 0.11131513
000050 12 14 e3 bd ad 79 83 3d b2 5d c2 bd bc e9 ab bd
       -0.110878125 0.06419692 -0.09490527 -0.08394191
000060 d5 cb 92 3d c5 ff 51 3d fc ce 50 3d c1 b6 3c 3d
       0.07167784 0.05126931 0.050978646 0.046072725
000070 70 2f bd bd 66 35 5a 3c 4a 86 a7 3d 8c 93 fd bd
       -0.092375636 0.013318395 0.081799105 -0.12381658
000080 6d e2 e6 3d 3b 74 e9 bd 99 43 89 bd 79 64 92 bc
       0.11273656 -0.11399122 -0.06702346 -0.017870175
000090 30 47 e8 3d 97 10 dd 3d d9 c1 b2 3d d0 9b 3d 3c
       0.11341703 0.1079418 0.0872838 0.011572793
0000a0 97 67 8b bd 70 8e 88 3d 08 a4 c5 3d 93 cd b8 3b
       -0.068068676 0.06667793 0.09650427 0.0056397407
0000b0 ae e0 7d 3d 2e fa f3 bd 01 7c f2 bc 78 fd a9 3d
       0.06198185 -0.11912952 -0.029600145 0.083002985
0000c0 39 c0 e2 3d bd 66 85 bd 9f 76 1f bd 68 0b ab 3d
       0.1107182 -0.065137364 -0.038931485 0.08351785
0000d0 b8 73 d5 bd d9 8f 80 bd 5c 3c 4c 3d 8d fd 5d 3d
       -0.10422462 -0.06277437 0.04986225 0.054196883
0000e0 0e e2 be bd 82 9f f3 3d 19 a8 dd 3d 86 c9 88 3d
       -0.0932046 0.11895658 0.10823078 0.066790625
0000f0 a5 14 ef 3d be dc ea bd db a6 ba bd 0d ab 20 3d
       0.116738595 -0.114678845 -0.091138564 0.039225627
000100 9c 4f 4d 3d 6a 16 ba bd d1 43 66 bd 05 d8 a4 bd
       0.05012475 -0.090863064 -0.05621702 -0.08049015
000110 6c b8 8b 3d 7c 3d c5 bd 03 0f be bc bf 88 01 3c
       0.06822285 -0.09630868 -0.023200518 0.007906138
000120 ee c1 e5 3d 9b a7 ba bd 80 9c e7 3d 26 d3 af bc
       0.1121863 -0.091139995 0.11309147 -0.021462988
000130 c6 0a 96 bd 99 8d bb 3c 97 72 87 bd d7 58 8d bc
       -0.073262736 0.022894667 -0.06613653 -0.017254276
000140 02 3d 89 bd ef f8 21 3c dd 0a af bc f2 ca f5 bb
       -0.067010894 0.009886011 -0.021367485 -0.0075009996
000150 2e 7e 7b bd 57 02 f0 3b d6 65 da bc e6 4d 92 bb
       -0.06139963 0.0073244977 -0.026659887 -0.0044648526
000160 55 46 92 bc 2c 04 84 3d af a3 1a bd c5 87 9e bd
       -0.017855803 0.06446108 -0.037753757 -0.0774074
000170 b8 f7 2c 3d 74 ae af 3d 38 78 b5 bd d6 22 25 3d
       0.04222843 0.08578196 -0.088608205 0.040316425
000180 f5 15 4c bd 25 41 c7 3d 93 d3 68 bd 61 89 cb bc
       -0.049825627 0.09729222 -0.056842398 -0.02484578
000190 e9 39 f2 3d 18 56 9d bd bf da 53 3c ac dd f5 ba
       0.11827452 -0.07682437 0.012930571 -0.001875808
0001a0 f7 7a f8 3a 66 be 24 3d 76 9a 04 bd a8 03 1d bd
       0.0018957545 0.04022064 -0.032373868 -0.038333565
0001b0 c0 7e ce bd c5 a6 36 bd b5 c3 a6 3d be 44 1d 3d
       -0.100827694 -0.044592638 0.08142797 0.038395636
0001c0 07 cd a1 3c c1 bb c9 bc 16 7d 99 bb 13 60 da bd
       0.019751085 -0.02462566 -0.004684101 -0.10662856
0001d0 e0 c7 7b bd fb cf 95 3d 28 14 e4 3d ac 61 c1 bc
       -0.061469913 0.0731506 0.11136657 -0.023606144
0001e0 cd de c6 ba b6 d5 62 bc 9e c0 a0 3b f5 44 f7 bd
       -0.0015172601 -0.013844898 0.0049057743 -0.120736994
0001f0 4f 3f ad bd 9d f7 5f bd 28 7d 28 bd c0 df 8a bd
       -0.08459341 -0.0546795 -0.041134983 -0.06780958
000200 1d 29 a8 3d 51 49 af bd 0c 2d 88 3d 91 fb 87 3d
       0.08210967 -0.08558906 0.06649217 0.06639779
000210 4c 5e f2 3c a2 b3 de 3c 88 a5 e6 3d 9e cc 14 3c
       0.02958598 0.027185265 0.11262041 0.009081988
000220 0a ae ba bd 94 be 8f 3d 98 96 93 bb 20 84 bc 3d
       -0.091152266 0.07018772 -0.004504036 0.09204888
000230 52 9a 9e bd d4 5f d0 bd 02 60 42 3b 35 28 b0 3c
       -0.07744278 -0.10174528 0.0029659276 0.021503547
000240 d1 51 8c bd 24 a9 cc bc 74 52 46 bc 95 5e 16 bd
       -0.06851543 -0.024982996 -0.012104619 -0.036711294
000250 33 e0 85 3d 7a dd c4 3d 6a 8f 25 3b 22 fd cb bc
       0.06536903 0.09612556 0.0025262483 -0.024900977
000260 47 d0 00 bd aa 1f 3c 3d f2 32 b5 bd f6 c0 ed 3d
       -0.03144863 0.045928635 -0.08847608 0.1160907
000270 c8 f9 1e 3c ea 9c c2 bd d4 f6 8b bd fb 8e 66 bc
       0.009703107 -0.09502585 -0.06834188 -0.014072175
000280 73 21 79 bd cd 49 72 3d bb 6f 1e 3c f4 74 98 3d
       -0.060822915 0.059152413 0.009670193 0.07444182
000290 4e 66 e3 bd 82 c4 10 3d b2 cb 89 bd 43 b7 ea 3d
       -0.111034974 0.035343654 -0.06728305 0.11460736
0002a0 42 71 f4 3b f3 1a af 3d 6a 4f 05 ba 08 53 28 3c
       0.0074597904 0.08550062 -0.0005085381 0.010273702
0002b0 4c ee df bd e1 b3 82 3d cb d1 b8 3c 84 e8 0d bd
       -0.109341234 0.063819654 0.022560975 -0.034645572
0002c0 9d 92 a2 3c 72 36 c4 3d eb ea ab bd a9 37 96 bd
       0.019845301 0.09580697 -0.083944164 -0.07334835
0002d0 01 be 17 3d ae ae f2 3d a8 06 8c bb 38 4b 67 bd
       0.037046436 0.11849724 -0.0042732544 -0.05646822
0002e0 e0 48 3a 3c e7 ca 8b 3d e9 22 dd 3d 54 54 dc 3c
       0.011369914 0.0682581 0.10797674 0.02689568
0002f0 a6 f6 aa 3b 42 27 fa 3d e1 d3 cb 3d 73 41 1a 3d
       0.005217391 0.12214519 0.09952522 0.037660073
000300 8d 4e 96 ba 11 91 f7 bc 2e 6c b0 3d ba fa f9 3d
       -0.0011467502 -0.03022054 0.08614384 0.122060254
000310 90 79 08 bd 0c 9a c6 bd 0d cf a3 bd 7f 2f 71 38
       -0.033319056 -0.09697351 -0.07998476 5.750311e-05
000320 83 02 74 bd b6 96 c6 3d e1 6e 8b bd e2 d9 8c 3d
       -0.059572708 0.096967146 -0.06808258 0.06877495
000330 4e 8a a2 bd 72 b8 fd bd 6c 91 91 3d 3d f4 a3 3b
       -0.07936536 -0.12388696 0.07107815 0.0050034807
000340 ac 9a 89 3d 1e 86 1e bc fb bd ad 3d 37 c6 ed 3d
       0.067189544 -0.009675531 0.084835015 0.11610072
000350 82 91 f4 3d 41 66 c6 3d 94 b0 13 3d fb ae 97 bd
       0.11941816 0.09687472 0.03605707 -0.07406422
000360 63 dc e5 3d c5 47 e6 3d c5 3b f0 3b 6b ec e0 3d
       0.11223676 0.11244158 0.007331344 0.10982593
000370 b9 9c c5 3d da e7 de bc c1 4c 5f 3d eb 3f da bd
       0.09649033 -0.027210165 0.054516558 -0.10656723
000380 d1 31 d0 3c c2 82 f1 bd 94 30 ce 3d 9d aa d3 3d
       0.02541438 -0.11792518 0.10067859 0.10335276
000390 9d 26 f5 bd 40 1f eb 3d 61 53 b0 bd 67 0a e8 bd
       -0.119702555 0.1148057 -0.08609653 -0.11330109
0003a0 15 63 cd bd 8f 24 fa 3c 35 19 94 bd 78 90 f6 3c
       -0.10028664 0.03053501 -0.0723137 0.030098185
0003b0 88 26 2a 3d 3b fb 81 3d 14 b7 e2 bb 05 fd bf 3d
       0.041540653 0.063467465 -0.0069187973 0.093744315
0003c0 96 b4 a0 bd 71 d7 d5 3d 43 90 4b 3c bb 4d 67 bd
       -0.07846944 0.10441483 0.012424531 -0.056470614
0003d0 df 7a 19 3d 8d 33 70 bd c9 2b 81 3b 6c 3b ea 3d
       0.037470695 -0.058642913 0.003941987 0.11437115
0003e0 fa 0c 19 3d 99 99 45 bd 0c fb 5c bd cd e6 36 3c
       0.03736589 -0.048242185 -0.053950354 0.011163426
0003f0 ba 2b 4a bd 17 b8 0c 3d 48 b2 3d 3d 76 cc 9d 3d
       -0.049358107 0.03435525 0.0463126 0.077050135

bias f4 [65]
000000 d3 99 8b bd 82 90 9a 3c 64 56 78 bd 87 5b b1 bd
       -0.06816449 0.018867735 -0.060629264 -0.086600356
000010 f8 7c d5 3d 51 0f f8 3d ce 1d 22 3d 87 43 83 bd
       0.104242265 0.121122964 0.039579205 -0.06409364
000020 f4 6f 9c 3d 75 e5 87 bd 2f f0 a8 3d ca 98 63 3d
       0.07638541 -0.06635562 0.082489364 0.055565633
000030 e0 5e b9 3d da 48 9f 3d 39 a5 73 3c f6 f3 54 3d
       0.09051299 0.07777567 0.014870935 0.05199047
000040 c3 53 96 3c 32 de ac 3d 31 20 9a bc 9e f6 08 3d
       0.018350488 0.08440818 -0.018814178 0.033438317
000050 8f d6 6f bc d4 bb 4f 3c 88 86 83 bc f6 0c ea bc
       -0.014638557 0.012679059 -0.01605536 -0.028570633
000060 ce f9 a1 bd a0 2c 3e 3b 49 d5 0e 3d 25 93 e7 3c
       -0.079089746 0.0029018298 0.034871373 0.028268406
000070 3a 3d df 3d 14 e0 c3 3c 1b 49 c5 3d 4b 4d cd bd
       0.1090035 0.02391056 0.096330844 -0.10024508
000080 7c a3 22 3b 24 a4 2d 3d c0 2f 1b 3d 6c 47 f3 bc
       0.0024816683 0.042392865 0.037887335 -0.029697143
000090 70 97 ee 3d f0 5c 34 bd 9a 46 da bd ee 1b 84 3d
       0.11649978 -0.044033945 -0.106579974 0.0645064
0000a0 31 2a c9 3d 55 fb 9d 3d 3b ae f1 bc 0f 7c 6d 3d
       0.098225005 0.077139534 -0.029502025 0.05797964
0000b0 5e b3 fc bc 60 f1 a3 3d 0a c6 d0 3c 83 1f 75 3d
       -0.030847248 0.08005023 0.025485057 0.059844505
0000c0 db 38 e3 bd a4 d0 ed bd a6 4c d7 bd 51 dd 61 bd
       -0.11094829 -0.11612061 -0.105126664 -0.055142704
0000d0 d2 c5 fd 3d 86 ca 1e 3d d2 0e 2f bd 12 d1 b7 3d
       0.12391247 0.03876736 -0.042738743 0.08975424
0000e0 37 3f d0 3c 6e c5 96 3d 12 23 eb 3d 15 d2 87 3d
       0.025420768 0.073618755 0.114812985 0.06631867
0000f0 5d df 8f bd a2 60 ce 3d 28 6e 0b bd ca d8 67 bd
       -0.07025025 0.10077025 -0.0340406 -0.05660323
000100 19 5a c8 bc
       -0.024457024

weight f4 [64, 64]
000000 f0 19 96 3d 38 60 e2 3d 90 17 af 3c 72 63 bf 3d
       0.07329166 0.110535085 0.02137354 0.093451396
000010 36 4f ac 3d 44 45 21 3d d8 dd d3 3c 58 66 03 bd
       0.08413546 0.039372697 0.02586262 -0.032080024
000020 52 43 88 3d ac 0f 0f bd 50 95 0c 3d 80 99 c9 3b
       0.06653465 -0.034927055 0.034322083 0.006152332
000030 90 99 29 3d d6 74 cf 3d 90 23 1c bc c0 aa 51 3c
       0.041406214 0.101297066 -0.009529963 0.012797058
000040 e2 d6 b3 bd 24 e9 96 3d c0 61 96 bc c0 9b 18 3b
       -0.0878122 0.07368687 -0.018357158 0.0023286194
000050 e0 c4 0e bc 26 5c a3 bd f0 43 5e bd 08 37 bf 3d
       -0.008713931 -0.0797656 -0.05426401 0.09336668
000060 08 b7 dd bc 50 7a 41 bc 24 8f 26 3d 92 b7 d9 3d
       -0.027064815 -0.011808947 0.040663853 0.106307164
000070 48 2d 5c bd 58 ee 68 bd 56 bf 92 3d ac e1 7f bd
       -0.05375412 -0.056867927 0.07165401 -0.062471077
000080 d8 11 f2 3c 80 7d fb bd a0 bb 0e bc 5a f1 83 bd
       0.029549524 -0.122797966 -0.0087117255 -0.064425185
000090 b8 1d a6 3c 84 bb 36 bd 84 61 81 3d 2e 5d e2 3d
       0.020277843 -0.044612423 0.06317428 0.11052929
0000a0 a6 f3 be bd 98 57 ec bc c4 67 c8 bd a8 d9 15 3d
       -0.09323816 -0.028850362 -0.09785417 0.036584526
0000b0 78 2a 2b 3d 00 31 02 3d cc e9 34 3d f6 56 db 3d
       0.04178855 0.03178501 0.04416828 0.10709946
0000c0 0c 82 f1 bd 24 fe 71 bd 74 79 17 3d 8e 57 c1 bd
       -0.117923826 -0.059080258 0.03698106 -0.09440528
0000d0 d4 5c f3 3d b6 d5 c3 bd 94 48 73 3d ea 33 ce 3d
       0.1188294 -0.095622465 0.059395388 0.100684956
0000e0 10 d8 e1 bd a8 08 8a bc 90 08 05 bd 88 d3 c6 3d
       -0.11027539 -0.01684983 -0.03247887 0.09708315
0000f0 e2 41 e2 3d 1e 87 c3 bd 8a 8a ff 3d 98 38 f8 bd
       0.110477224 -0.09547256 0.12477596 -0.121201694
000100 48 8c e3 3c 0c 22 4d bd d8 03 f9 bd cc 21 de bd
       0.027776852 -0.050081298 -0.12158936 -0.1084629
000110 0e 36 e3 bd 68 95 cd bd 00 af 27 bb 90 56 e7 bd
       -0.110942945 -0.100382626 -0.0025586486 -0.11295807
000120 9e 7e 8e bd 30 3a eb 3d 1a 3c c5 bd 7a 81 95 3d
       -0.06957744 0.11485708 -0.09630604 0.07300086
000130 ec 80 99 3d 70 1f 7e 3c 74 c5 28 bd be ef ce bd
       0.07495293 0.015510425 -0.04120393 -0.10104321
000140 80 d9 73 bd ea 14 b0 3d 40 39 4b 3b 48 77 cf bd
       -0.059533596 0.08597739 0.0031009465 -0.10130173
000150 20 69 3c 3d fc 64 78 3d 80 5d bc 3a 7e d3 ab 3d
       0.045998693 0.06064318 0.0014371127 0.08389948
000160 f0 14 08 3c f6 14 d3 bd 70 bf d1 bc 70 5f f2 3d
       0.008305773 -0.10306732 -0.02560398 0.118346095
000170 5c 22 cf 3d 90 2a 99 bc 4a 2d e3 3d 90 d4 3f bc
       0.101139754 -0.018697053 0.110926226 -0.011708394
000180 7c 6e 8b 3d 20 c3 5e bd b2 ea f7 bd a0 b2 ec bb
       0.068081826 -0.054385304 -0.121053115 -0.007223442
000190 0a 50 9c 3d 68 21 94 bd 90 69 3f bc 22 53 c3 3d
       0.07632454 -0.07232934 -0.011682883 0.09537341
0001a0 20 b8 d3 3c 00 56 1e 3a 00 8e d2 ba a4 f5 3e 3d
       0.025844634 0.00060400367 -0.0016064048 0.04662098
0001b0 dc 8c 9b bd 4a 23 bb bd f0 98 ed bd 2e 70 d0 3d
       -0.07595226 -0.0913759 -0.11601436 0.101776466
0001c0 b2 8c c5 3d 74 0f 38 bd 62 31 a7 bd 70 a6 6e 3c
       0.09645976 -0.044936612 -0.08163716 0.014566049
0001d0 c0 57 d3 bb f0 be 0f bc 3c ae f0 3d d0 f1 97 3d
       -0.0064496696 -0.00877355 0.117519826 0.07419169
0001e0 e4 fa b9 3d 10 af 6d bd 08 c3 a8 bd 4c a0 bc 3d
       0.09081057 -0.05802828 -0.08240324 0.09210262
0001f0 d0 2b 2c 3d 0a 82 e0 3d e4 cf ad 3d b0 8f 72 bc
       0.04203397 0.10962303 0.084869176 -0.014804766
000200 a4 be ec bd e0 04 8e bd c4 a6 49 3d 9a 59 ef 3d
       -0.11559799 -0.069345236 0.049231306 0.11687012
000210 fc 4b 76 3d 30 71 7c bc 90 e0 c9 3d 6c 93 98 3d
       0.060131058 -0.015407845 0.09857285 0.074499935
000220 7a e2 e1 bd 24 0b 30 3d 44 fd 6d bd d8 c7 c4 3d
       -0.11029525 0.042979375 -0.05810286 0.0960843
000230 a0 b5 d3 bb 4c cd 4a 3d 1c 6c d9 3d 2e d9 aa 3d
       -0.0064608604 0.049512193 0.10616323 0.08342205
000240 08 43 93 bc 24 df 23 bd 5a 4d a8 bd 68 b0 ab 3c
       -0.017976299 -0.040007725 -0.08217879 0.02095814
000250 60 4f f7 3b da 46 db 3d 72 44 a6 bd 80 94 6e 3d
       0.007547304 0.10706873 -0.08118524 0.05824709
000260 98 3d b0 bd 90 98 1a 3c 60 1d e8 3b 34 cb 7a bd
       -0.08605498 0.009435788 0.00708358 -0.061228946
000270 92 b8 bb 3d da 4e d3 3d f4 28 4b bd 48 c3 ed bd
       0.09166063 0.10317774 -0.049599603 -0.116095126
000280 70 3e 73 3c 50 3e 05 bc e0 8e 35 3c 82 c4 fe bd
       0.014846429 -0.008132532 0.011081427 -0.12439825
000290 48 57 f1 3d 32 a3 88 bd 90 6f 5c bc 30 aa bf bc
       0.11784226 -0.06671752 -0.013454333 -0.023396581
0002a0 f8 5d d7 3c e0 bd f5 bd f8 63 ab bc 54 38 91 3d
       0.026289925 -0.119991064 -0.020921692 0.07090822
0002b0 00 63 93 3a e8 c5 c0 bd 26 e7 98 bd 0c 66 cb bd
       0.0011244714 -0.094127476 -0.07465963 -0.09931573
0002c0 78 af c7 bd e0 3c c1 3d 80 49 92 ba bc bb 6d 3d
       -0.09750265 0.09435439 -0.0011160821 0.058040366
0002d0 20 da d6 3c 5e f9 a4 3d 9c c1 58 3d e0 03 00 3c
       0.026227057 0.080553755 0.052919015 0.007813424
0002e0 e4 0f 36 3d 2c 1f 3d 3d 98 21 00 bd d8 b4 c0 bc
       0.04444875 0.046172306 -0.031282037 -0.023523733
0002f0 2c 31 c2 3d 80 c0 05 bb f8 3c e4 bd 70 43 65 bd
       0.09482035 -0.0020408928 -0.11144441 -0.055972517
000300 f4 03 cf 3d 80 d6 5e 3d d8 a3 8d 3c 90 08 ea 3c
       0.10108176 0.054403782 0.01729004 0.028568536
000310 fe f0 e6 bd 0a e5 d7 3d 48 36 c9 3c 88 7f a9 bc
       -0.11276434 0.105417326 0.024562016 -0.020690694
000320 ca 64 e6 bd 4c 0d c9 bd 80 62 dd 3b a6 7c eb bd
       -0.11249693 -0.09816989 0.006756127 -0.11498384
000330 12 b3 ef 3d 48 fe 9a bc 60 31 9b bb 8e 0f e4 bd
       0.11704077 -0.018920079 -0.0047361106 -0.11135779
000340 48 1d 66 bd 58 f1 cf 3c 02 83 cd 3d c0 af 59 bb
       -0.05618027 0.025383636 0.100347534 -0.0033216327
000350 2c 72 8a 3d ca 6e 94 bd 4a 5e bb bd 00 8a f6 39
       0.06760058 -0.07247694 -0.091488436 0.00047023594
000360 00 a9 9a 3d 98 fe ea bc 36 d3 c3 bd f2 02 cc bd
       0.075517654 -0.028685853 -0.0956177 -0.09961499
000370 7e 85 de 3d f2 f1 cb 3d b0 7c 73 3c e4 59 33 bd
       0.10865305 0.09958257 0.014861271 -0.0437869
000380 de 02 d4 3d 48 47 db bd 80 88 7f bb 40 26 25 3d
       0.103521094 -0.10706955 -0.0038991272 0.04031968
000390 30 60 c8 bc 30 08 17 3d da 69 d7 bd a0 af 4c 3c
       -0.024459928 0.036873043 -0.105182365 0.012493044
0003a0 50 1a 59 3d f0 21 e6 bd 48 94 74 bd 70 46 69 3c
       0.05300361 -0.11236942 -0.059711725 0.014237985
0003b0 10 49 cd 3c 66 93 df bd 20 46 87 bb c4 b6 cb 3d
       0.025059253 -0.10916786 -0.0041282326 0.09946969
0003c0 46 99 d5 bd 06 b0 d6 bd 48 93 bf bd e0 31 ba bd
       -0.10429625 -0.104827926 -0.093542635 -0.09091544
0003d0 00 bb 6c bc 8e 02 af bd d2 e1 fa 3d b8 5d 8c bd
       -0.014448881 -0.08545409 0.12250103 -0.06853813
0003e0 a6 fb 9e bd 04 fc 8b 3d e0 aa a7 3d ae 83 a8 3d
       -0.07762842 0.068351775 0.08186889 0.08228241
0003f0 f4 4c f0 bd 14 1b ae bd 94 7d 97 bd f0 4f 59 3d
       -0.11733428 -0.085012585 -0.07396999 0.05305475

bias f4 [64]
000000 a0 0a e9 bd 40 61 39 bd 50 d7 c9 bd c0 5d b1 bd
       -0.1137898 -0.04525876 -0.09855521 -0.086604595
000010 06 f9 8a bd a0 ff ed 3b d2 40 92 3d 00 48 64 bb
       -0.06785779 0.007263139 0.0714127 -0.0034832954
000020 f0 89 c9 3d b0 de a9 bc 96 5a ad bd 70 ab f6 bc
       0.098407626 -0.020736068 -0.084645435 -0.030111045
000030 d0 51 8a bd 00 f4 67 ba ea 29 ed 3d e8 3e e0 3d
       -0.06753886 -0.00088483095 0.1158026 0.109494984
000040 2e ea 8a 3d d8 44 c3 3d 5c f9 66 3d 54 80 cf bd
       0.067829475 0.09534615 0.05639015 -0.101318985
000050 2c 65 b7 bd 80 2c 32 bb 50 67 08 bd d6 59 fb 3d
       -0.08954844 -0.0027187169 -0.03330165 0.12272994
000060 46 2d c9 3d a4 7f 01 bd b2 ed ca bd 48 36 7b 3d
       0.09823088 -0.03161587 -0.09908618 0.061331064
000070 e2 33 d6 3d 30 c1 85 3d bc 36 fa 3d 16 9e c0 3d
       0.104591146 0.06530988 0.12217471 0.094051525
000080 20 d1 96 bd 70 de 42 bc b4 9e 0b 3d 2e 29 94 bd
       -0.07364106 -0.011893854 0.034086898 -0.07234417
000090 c4 5e 77 bd de 62 fe 3d e6 23 d7 bd 5e 28 8c bd
       -0.06039311 0.12421201 -0.10504894 -0.06843637
0000a0 de 60 ae 3d 44 b9 7d bd 98 34 ca bd 48 0a f5 bd
       0.0851457 -0.06194426 -0.09873313 -0.119648516
0000b0 f0 39 21 3d 80 11 d1 3a aa 4f 9d bd 68 a4 b0 3d
       0.039361894 0.001595065 -0.0768121 0.08625108
0000c0 c8 b4 4b 3d 20 6c 92 3b 50 fc 10 3c ac 2a e5 3d
       0.049732953 0.004468456 0.0088492185 0.1118978
0000d0 2a 6d a1 3d 56 e4 d8 3d 10 93 5e bd d4 79 63 bd
       0.078821495 0.105904266 -0.05433947 -0.055536106
0000e0 80 53 01 bc b8 3a 1b 3d 58 d3 e0 bc da 77 84 bd
       -0.007893443 0.037897795 -0.027444527 -0.06468172
0000f0 1a e8 e2 3d 80 47 f2 3b 10 0f 3e 3c 28 8f b9 bc
       0.11079426 0.0073937774 0.011600271 -0.02265127

weight f4 [64, 64]
000000 c8 16 60 3d 62 77 9c 3d b6 3c fc bd 20 1b 85 bc
       0.054709226 0.07639958 -0.12316267 -0.016248286
000010 5c a4 69 bd 28 81 b7 bd 5c d6 18 3d 80 f6 67 bc
       -0.05704151 -0.089601815 0.037313804 -0.014157891
000020 0e 85 e8 3d f4 86 84 bd 3e 29 b7 3d b8 01 fe bd
       0.11353503 -0.06471053 0.08943413 -0.124026716
000030 9e 09 b0 bd 18 4a d4 bd 50 70 ea 3d 18 83 c5 bd
       -0.08595584 -0.10365695 0.11447203 -0.09644145
000040 00 5f f4 bc e0 e4 cf 3d ac 98 fd bd ac 96 3a 3d
       -0.029830456 0.10151076 -0.123826355 0.04555385
000050 a0 ea 8b bd b2 8c cb bd 56 d1 f4 3d 58 63 90 3c
       -0.068318605 -0.09938945 0.1195399 0.017625496
000060 80 31 85 3b 9c 72 fd 3d f2 f3 b7 bd 8a cc 8b bd
       0.0040647388 0.12375376 -0.08982076 -0.06826122
000070 70 11 2e 3d 4c 7d fc bd 6c 5a 8c bd b8 58 d9 3c
       0.0424971 -0.12328586 -0.06853184 0.026531562
000080 f8 cc 99 bd 60 8e b5 bb 0c 4d 28 3d 06 5c 8d 3d
       -0.07509798 -0.005540654 0.041089103 0.06902318
000090 d0 38 ff 3c 86 f4 81 bd a0 17 ef 3c bc 7e 16 3d
       0.03115502 -0.06345467 0.02918607 0.036741957
0000a0 94 27 dd 3d a6 76 eb 3d e6 35 e8 bd 9c ee 9e 3d
       0.107985646 0.1149724 -0.11338405 0.07760355
0000b0 b4 cf 64 bd 00 62 13 3c 4c df ff 3d e0 87 63 bc
       -0.055862144 0.008995533 0.124937624 -0.013887376
0000c0 6a 81 92 3d 20 88 6e 3c e0 24 93 bb d2 aa e9 3d
       0.0715359 0.014558822 -0.00449048 0.114095345
0000d0 20 da ec bb f2 c0 c5 bd e0 08 50 bc 80 9f e8 ba
       -0.007228151 -0.09655942 -0.012697428 -0.001774773
0000e0 d4 1e c5 bd b8 35 a1 3c 3a 8d c4 bd 66 15 fe 3d
       -0.096250206 0.019678935 -0.09597249 0.12406425
0000f0 f0 a8 70 bc 00 35 95 ba 90 76 2f bd ba 2f e7 bd
       -0.014688715 -0.0011383593 -0.04283768 -0.112884
000100 40 f3 55 3b 10 0e c5 3c 6e 30 8e bd 30 ad 7c bd
       0.003264621 0.024054557 -0.06942831 -0.061688602
000110 6a ff ac 3d 84 5e ff bd e0 a2 2b 3d 66 6d ae bd
       0.08447154 -0.12469199 0.041903377 -0.0851696
000120 20 86 30 bc da ea d9 3d a4 34 70 3d 90 d3 9b bc
       -0.010774165 0.106404975 0.058643952 -0.01902178
000130 ec 56 cf 3d c0 49 39 3d 50 a2 4b 3d cc 02 4b bd
       0.10124001 0.04523635 0.04971534 -0.049563214
000140 e0 27 f5 3b a6 ca c0 3d c0 51 f6 bc d8 93 f2 bd
       0.00748156 0.09413652 -0.030068278 -0.11844605
000150 10 ec 05 3c f8 22 2b 3d dc 9f 58 3d 46 02 9e 3d
       0.0081739575 0.041781396 0.05288683 0.077152774
000160 4e 25 97 bd c0 23 41 bd 12 16 c0 bd 7c 27 d9 3d
       -0.07380162 -0.047153234 -0.093792096 0.10603234
000170 e0 d2 2b 3d f4 25 09 3d 18 6b dd bd e0 49 df 3c
       0.041949153 0.03348346 -0.10811442 0.027256906
000180 16 dd 89 bd 00 ca 3b 3d 52 a3 9b bd f6 6e ab 3d
       -0.06731622 0.04584694 -0.0759951 0.083707735
000190 e6 65 82 3d 90 f0 cd bd e8 0c fd bd a0 bb d5 3c
       0.06367092 -0.10055649 -0.12355977 0.026090443
0001a0 68 22 e7 bd b0 56 06 3d c0 28 3c bc c8 cc fb bc
       -0.11285859 0.032797515 -0.011484325 -0.030737296
0001b0 0a e4 ff bd 64 9b 0a bd 40 b9 a6 3c ce b7 8d 3d
       -0.12494667 -0.0338396 0.020352006 0.069198236
0001c0 08 e0 90 bc d8 c0 5c bd d0 2d 4c 3c 58 42 e5 3c
       -0.017684951 -0.053894848 0.012462094 0.027985737
0001d0 64 32 c3 bd 18 b6 a4 bd 10 6a 28 3d 84 2c 34 3d
       -0.095310956 -0.08042544 0.041116774 0.043987766
0001e0 d8 ca cc bc 90 da f4 3c a0 f0 e3 3c 00 32 59 ba
       -0.024999067 0.029889375 0.0278247 -0.00082853436
0001f0 a4 81 1d 3d e8 b5 88 bc 4a 65 f1 bd 50 a4 a6 bd
       0.038453713 -0.016688302 -0.117868975 -0.08136809
000200 d8 2f fa 3d 04 93 97 bd ec c8 a7 bd 18 7a ff bd
       0.12216157 -0.07401088 -0.0819262 -0.124744594
000210 f8 b9 c0 bc 64 b9 7b 3d 4c 42 7d 3d bc fb 6e bd
       -0.023526177 0.0614561 0.061830804 -0.05834554
000220 f2 9b 98 3d 86 3a 81 bd bc 3b 5c 3d ac f5 dc bd
       0.07451619 -0.063099906 0.053767905 -0.10789046
000230 08 6b c9 3c 70 3e c0 3d 2e 32 c0 bd 3e ca fe 3d
       0.02458717 0.09386909 -0.09384571 0.124409184
000240 80 bf 88 ba 80 58 07 bb 44 57 85 3d b4 43 91 bd
       -0.0010433048 -0.0020652115 0.06510785 -0.070929915
000250 08 d8 60 bd 24 9d 6f 3d 24 0a 82 bd b0 d3 97 3c
       -0.054893523 0.05849947 -0.063495904 0.018533558
000260 cc 13 f9 3d 00 30 90 3c 5c 80 ac 3d 26 12 bc bd
       0.12161979 0.017601013 0.0842292 -0.09183149
000270 de 03 b2 bd 22 11 d5 3d 6c 72 c7 3d 40 9e 85 bb
       -0.08692144 0.104036584 0.09738621 -0.0040777028
000280 3a c9 e1 bd c8 77 f7 bd bc 07 34 bd 72 85 b2 bd
       -0.11024709 -0.12083393 -0.04395269 -0.08716859
000290 90 f4 ff 3c 00 c2 30 3a 0e f4 fb bd e8 61 af bc
       0.031244546 0.00067427754 -0.12302409 -0.02140899
0002a0 98 23 45 bd 6a 35 a6 bd 88 22 8e bd 60 d9 f8 3c
       -0.048129648 -0.08115657 -0.0694018 0.03037709
0002b0 94 78 78 bd dc 1a dc bd 60 8a a8 3b b0 d8 20 3c
       -0.060661867 -0.107473105 0.0051434487 0.009817287
0002c0 40 90 53 bb cc c4 1a 3d c2 a2 f2 3d 9c e2 98 bd
       -0.0032282025 0.037785336 0.1184745 -0.07465097
0002d0 98 01 09 3d 64 d2 4f bd 10 b3 f6 3c 0c ea 37 bd
       0.033448786 -0.050737754 0.03011468 -0.04490094
0002e0 0c 27 13 bd e0 a1 9d bc 6c 9d 77 3d 44 3b fd 3d
       -0.03592591 -0.019242227 0.060452864 0.1236482
0002f0 8c 14 7c bd 18 23 31 3d 8a 7e 8b 3d 8c 02 02 3d
       -0.061543033 0.04324636 0.06811245 0.03174071
000300 b0 c0 df 3c fa 70 c9 3d 40 31 b2 3b 04 0c 63 bd
       0.02731356 0.09836002 0.005438 -0.05543138
000310 b4 96 e7 bd 48 f1 fd 3d 18 3e 98 3c 9e fa 9f bd
       -0.11308041 0.12399536 0.018584296 -0.07811473
000320 04 92 6b 3d ea d4 8d bd 02 3b d7 bd 98 b9 9a bc
       0.0575123 -0.06925376 -0.10509302 -0.018887326
000330 ec af 75 bd a8 7a d6 3c 1c aa f0 bd 00 4c 23 3d
       -0.059982225 0.026181534 -0.11751196 0.0398674
000340 04 f5 a0 bd 6e 54 b8 3d da 0b c8 3d 1e c5 a0 3d
       -0.07859233 0.09000479 0.097678855 0.07850097
000350 06 fa 94 3d 60 9c e3 bc 74 df 5f 3d 14 06 49 bd
       0.07274251 -0.027784526 0.05465646 -0.049078062
000360 b8 f6 93 3c 22 cd ed bd 20 78 90 3b 28 63 d8 bd
       0.01806198 -0.116113916 0.0044088513 -0.105657876
000370 54 ac 28 bd 4e 4c 85 3d 5c 11 74 bd f8 ed e6 3d
       -0.04117997 0.065086946 -0.059586868 0.11275858
000380 c0 39 1d bd 28 c2 a1 bd 70 3a c9 bd 18 3f 1a 3d
       -0.038385153 -0.078983605 -0.09825599 0.037657827
000390 a0 45 81 3d 44 eb 9c bd 60 1c a7 bd 88 73 ab 3d
       0.06312108 -0.07662061 -0.08159709 0.08371645
0003a0 68 22 43 bd 62 07 b7 3d 70 07 7a bd 84 ce d0 bd
       -0.047640234 0.08936955 -0.06104225 -0.1019564
0003b0 42 cc 94 bd 2c 90 62 3d 44 ea 8a 3d ea 7d 88 3d
       -0.072655216 0.055313274 0.06782964 0.06664641
0003c0 28 5e 96 3d 8c f2 9c 3d 12 46 b8 3d 00 ed ba ba
       0.07342178 0.0766345 0.0899774 -0.0014261305
0003d0 fc df 28 3d 80 cb bf 3a 5c 62 21 bd c8 fa f4 3d
       0.041229233 0.0014632791 -0.039400443 0.11961895
0003e0 44 fd 58 3d 44 04 be 3d 04 85 35 bd 40 ee 62 bc
       0.052975908 0.09278157 -0.044316307 -0.013850749
0003f0 3a 40 9f bd 8a 3f b8 3d 30 1c 74 bd f8 1b bd 3d
       -0.07775922 0.08996494 -0.059597194 0.0923385

bias f4 [64]
000000 88 1d ac 3c d4 ed dc bd e8 18 c9 bc b4 57 38 3d
       0.021010175 -0.107875496 -0.024548009 0.045005515
000010 cc f8 26 bd 88 12 d1 bc 42 b9 9c bd 28 ac e7 3d
       -0.040764615 -0.025521532 -0.076525226 0.11312133
000020 80 5f 00 3b f0 20 53 3d 76 a3 db bd e0 0f cd bb
       0.0019588172 0.051545084 -0.10724537 -0.006257996
000030 c8 4a cd 3c e2 96 e5 bd 18 9c ea bd e0 c0 8f bd
       0.025060073 -0.11210419 -0.11455554 -0.0701921
000040 d0 3d 8e 3d 68 35 9d 3c a0 1e 88 3c 28 09 45 bd
       0.069453835 0.019190505 0.016616166 -0.048104435
000050 60 60 8d 3c 60 f3 8a bb 4c a4 09 bd a8 41 4c 3d
       0.01725787 -0.0042404383 -0.03360395 0.049867302
000060 54 bb 1d bd 6c 79 52 3d 24 78 ff bd 1e e6 d4 3d
       -0.03850873 0.05138533 -0.12474087 0.10395454
000070 80 a0 7e 3b d6 06 aa 3d 1c 90 05 bd a2 a3 e7 3d
       0.003885299 0.08302085 -0.032608137 0.11310507
000080 d2 3d dc bd 98 7a 9a 3d 1c 02 85 bd 70 79 b4 bd
       -0.10753979 0.07542914 -0.06494543 -0.08812225
000090 8c f9 3a 3d 48 f7 a6 bc 50 6f 61 bc 08 b1 77 3d
       0.045648143 -0.020381585 -0.013759449 0.060471565
0000a0 9e 2e dc bd 84 d0 df bd 80 05 25 bd 5c 43 cd bd
       -0.10751079 -0.10928443 -0.04028845 -0.100226134
0000b0 22 34 b5 3d 40 43 ca 3d 52 e0 d1 3d 38 79 6b bd
       0.08847834 0.09876108 0.10247864 -0.05748865
0000c0 a8 47 8b 3d 20 6c 65 3c 60 9c 85 bd 58 04 70 bd
       0.06800777 0.01400283 -0.06523967 -0.058597893
0000d0 d0 5d 5e bc 38 6b a1 3d a0 cc 87 3c 12 1c 9c 3d
       -0.013572171 0.078817785 0.016577065 0.076225415
0000e0 cc ce 37 3d f0 11 65 bd 78 95 09 3d 10 07 28 3c
       0.04487495 -0.05592531 0.03358981 0.01025559
0000f0 20 32 8e 3d 8a 6f 90 bd 20 3c c7 3b 80 0a 8a bc
       0.06943154 -0.070525244 0.0060801655 -0.01685071

weight f4 [32, 32]
000000 18 fa d7 bc f6 42 96 bd a8 83 0f 3d ac 1d 0b be
       -0.026364371 -0.073369905 0.035037667 -0.13585538
000010 bb 18 31 be 52 fb 61 3d d1 e9 c4 bc 1f d8 37 bd
       -0.1729459 0.05517132 -0.024037274 -0.044883844
000020 62 ec 1a bc 70 ec a0 bc 34 03 35 3e 92 7a 34 be
       -0.009455772 -0.019643992 0.17677003 -0.17624882
000030 e1 7d 1f be 3d 90 9a bc a4 14 82 bd d3 87 32 be
       -0.15575363 -0.018867606 -0.06351593 -0.17434625
000040 f3 81 25 3e 4c f9 2e be f3 7a a8 bc 48 b0 17 3e
       0.16162853 -0.17087287 -0.02056644 0.1481334
000050 99 c5 32 be 71 05 23 be 7a f6 5a 3d 8e e9 26 3d
       -0.1745819 -0.15920044 0.053457715 0.04075008
000060 14 2d 5b 3d 91 7b 33 3e 2e 88 f9 bd 43 51 e5 bd
       0.053509787 0.17527606 -0.12184177 -0.1119714
000070 26 e9 d8 3d 04 b9 2c be 00 e4 52 bd a8 18 ad 3d
       0.105913445 -0.16867453 -0.05148697 0.084519684
000080 a9 e2 33 3e ac e5 9f 3d 1f e7 17 3e 99 0e d8 3c
       0.17566933 0.07807478 0.1483426 0.026374148
000090 4d f2 7b 3c ab 52 ac 3d 38 79 43 bd f6 43 25 3e
       0.015377593 0.08414205 -0.047723025 0.16139206
0000a0 0d a4 7c bd 7b 99 92 3d fc e6 52 3d 09 92 ad bd
       -0.06167989 0.0715818 0.051489815 -0.084751196
0000b0 d7 ca b3 bd 31 74 9d 3d c3 8b 33 be db 0a 49 3d
       -0.08778923 0.076881774 -0.17533784 0.04908262
0000c0 72 c2 fe bd fe d4 09 be 66 19 03 be 27 1c 02 3e
       -0.12439431 -0.13460156 -0.12802657 0.12706052
0000d0 e9 68 b6 bd 45 fe fd bd 3e 53 13 3d 95 42 c7 3d
       -0.08906729 -0.12402014 0.035968058 0.097294964
0000e0 14 81 32 3e 39 52 c2 3d d2 bc c8 3d 60 d4 cc 3d
       0.17432052 0.09488339 0.098016396 0.10001445
0000f0 b8 34 f7 bd 73 1f 38 3d 28 f2 f5 3c e5 42 73 bb
       -0.12070602 0.044951867 0.030022696 -0.003711873
000100 db 98 2f 3d 0d 4a 97 3c 13 fa 8d 3d b7 94 41 bd
       0.042870384 0.018467927 0.069324635 -0.047260966
000110 fd 28 c4 bd 5e 0f fd 3d 96 b0 55 bd da d5 f9 3d
       -0.095781304 0.12356447 -0.05217036 0.12198992
000120 65 d6 02 3e bb fb b9 bd ed 11 90 bd 2a 91 ea 3d
       0.12777098 -0.09081217 -0.07034669 0.11453469
000130 c6 9a 00 3e 15 b1 64 bc d1 b4 92 bd ca 5b 1c 3d
       0.12559041 -0.013958235 -0.07163394 0.038173474
000140 14 81 1a bc cb 3e d4 bc 0b 3a 9b 3d 31 46 bb 3b
       -0.009430189 -0.025908848 0.0757943 0.0057151546
000150 35 88 91 bd 8d 9e b0 bd c4 97 bf 3d 7b b6 d8 bd
       -0.071060576 -0.08623991 0.09355119 -0.105816804
000160 56 9b 1d bc 51 ad e8 3d 64 3f 4f 3d 82 c9 ac 3d
       -0.0096195545 0.113611825 0.050597563 0.08436872
000170 ec 9b 1b 3c dd 83 6a 3d 7c 8f 18 3e 42 a3 32 3e
       0.009497624 0.05725466 0.14898485 0.1744509
000180 a1 b8 9c bd cb 89 96 bd a0 be 19 3c 24 75 de 3c
       -0.07652403 -0.07350501 0.009383827 0.027155466
000190 db 74 cb bd ed a6 19 3e 2c b6 f1 bd 84 7d eb 3d
       -0.09934398 0.15005083 -0.11802325 0.114985496
0001a0 de 63 91 bd e5 43 f8 3d f5 90 0d be d9 f9 42 3d
       -0.07099126 0.12122325 -0.13824828 0.047601555
0001b0 cb 9b c0 3d a0 4c 16 3e 10 95 f3 bd 12 d9 ca 3d
       0.09404715 0.14677668 -0.11893666 0.09904684
0001c0 e7 70 9c 3d 94 ac 3d 3d 18 01 d9 3d b0 bf bc bd
       0.07638722 0.04630716 0.10595912 -0.09216249
0001d0 9d 90 f2 3c 9b 5c 18 3e 96 e7 48 bd 77 a9 9d bd
       0.029609973 0.14879076 -0.049048983 -0.076983385
0001e0 8f 41 14 bd fa 57 6e bc c6 55 d2 bd d2 bc 8b bd
       -0.036195334 -0.014547342 -0.10270266 -0.06823124
0001f0 26 7b 1a 3e 90 a4 62 bd 79 e9 d3 bd 8f 14 00 be
       0.1508604 -0.05533272 -0.10347266 -0.12507842
000200 3b 9d 55 bd 46 f0 0e 3e ab d7 32 be d5 f2 83 bd
       -0.0521519 0.13958845 -0.17465083 -0.06442801
000210 32 ec e3 3c 88 0e 2d be 95 e6 b3 3d e4 f5 e2 bd
       0.027822588 -0.16900074 0.087842144 -0.11082056
000220 d3 00 27 bc bc 51 af 3d f7 ce 2d 3e 9b 75 ba 3d
       -0.010193068 0.085605115 0.16973482 0.09104463
000230 cd 72 23 3d 02 71 29 be 80 ec 1d 3e fa a8 f6 bd
       0.039904404 -0.16547015 0.15422249 -0.120439485
000240 cb ba 1f 3e 97 04 0d 3e 40 8d f1 bd 8d 23 79 bd
       0.155986 0.13771282 -0.117945194 -0.06082492
000250 9c 35 17 3e ab f7 86 bc a4 23 d9 3d 17 5b d1 3d
       0.14766544 -0.01647552 0.10602501 0.10222452
000260 bc ee 31 bd 2c a3 8e bd f2 9e 13 3e 10 7c 1a bd
       -0.043440565 -0.06964716 0.14416102 -0.03771597
000270 e6 ab 1c be 97 e7 b9 bd 74 54 5f 3d 7d 48 25 3e
       -0.15299949 -0.090773754 0.0545239 0.16140933
000280 56 f7 b4 3b a3 a6 67 3d 3c 2b 22 bd ff 31 2e bd
       0.005522649 0.0565554 -0.039592013 -0.04252815
000290 29 aa 04 bd 10 c4 d3 3d 4c 1e 63 bc 64 9d 18 be
       -0.03238884 0.1034013 -0.013862204 -0.1490379
0002a0 d4 14 df bd 4e e8 9c bc 0c 75 2b 3e 96 eb b1 3d
       -0.108926445 -0.01915374 0.16743869 0.086875126
0002b0 a3 47 5b bd 2c 37 21 bd 24 45 0d 3e 66 0e 08 3c
       -0.053535115 -0.039359257 0.13795906 0.008304214
0002c0 6d b2 2a 3e cc e0 02 bd 79 9c d6 bd 20 55 a5 3d
       0.16669627 -0.031952664 -0.104790635 0.08072877
0002d0 8f a3 f9 bc 05 69 58 bd c8 28 50 bd e3 df 8b 3a
       -0.030473499 -0.05283453 -0.050820142 0.0010671582
0002e0 cd 11 2c 3e c8 2c 14 3e 58 3a ad 3d ce 81 f5 bd
       0.16803665 0.14470208 0.08458394 -0.11987649
0002f0 91 a0 9e bc b7 dd 1c 3e 93 94 71 bd 19 e4 3f 3d
       -0.019363673 0.15318953 -0.058979582 0.04684839
000300 08 01 de bd 03 d4 4c bd 20 fd 18 3e ee 7f af 3c
       -0.108400404 -0.050006878 0.1494031 0.021423306
000310 74 02 00 3e 9c 4c 34 be 57 23 2a be b1 46 3d bd
       0.12500936 -0.17607349 -0.16615044 -0.046209995
000320 fa 63 48 3d 86 82 e0 bb c4 3e f6 3d be 0f 48 3c
       0.04892347 -0.006851497 0.1202369 0.0122107845
000330 97 5b 4f 3d 93 95 d9 bd dd 7d 35 bd ea 23 1f 3e
       0.050624456 -0.10624232 -0.044309486 0.15541044
000340 2b c5 b6 3d 54 7c 22 be 6e 81 e8 bd 85 c0 72 bd
       0.089243256 -0.1586774 -0.11352812 -0.059265632
000350 9a 61 17 be a8 d4 31 3e 1e bf 93 3d 22 f8 20 3e
       -0.14783326 0.17366278 0.07214187 0.15719655
000360 e7 a6 15 be 56 9e b7 bb 02 75 82 3d e8 af 82 bd
       -0.1461445 -0.005603592 0.06369974 -0.06381208
000370 a3 36 1a 3e 15 4f a5 bd cd f1 d6 3d b2 e5 a5 3d
       0.15059905 -0.08071724 0.104953386 0.081004515
000380 d1 31 dd bd eb 54 ca bd be bd e6 bd 2b 71 ad 3d
       -0.10800517 -0.09879478 -0.11266659 0.08468851
000390 c5 ac 19 3c 40 34 2b 3e 93 d4 f4 bd 5f 33 29 bd
       0.00937957 0.1671915 -0.11954608 -0.041308757
0003a0 c2 e7 5a bd b6 93 bb 3c 8e 5a 4a 3d e3 61 cf bc
       -0.053443678 0.022897583 0.049402766 -0.02531523
0003b0 d3 16 87 3b 25 16 0d be 2a 5d 6f 3c b0 6b 1c be
       0.004122594 -0.13777979 0.014609614 -0.15275455
0003c0 f2 e1 e9 3d e4 e7 2a be 7b f1 97 3d 64 65 05 bd
       0.11420049 -0.16690022 0.074191056 -0.032567397
0003d0 6a 25 2e be 48 8e fd bb fd 97 dc 3d 6e 7e 0d bc
       -0.1700646 -0.0077379085 0.10771177 -0.0086361
0003e0 4b 93 0f be c8 c5 37 bd f9 da 0d be e7 12 1e 3d
       -0.14021032 -0.044866353 -0.13853063 0.038592245
0003f0 18 0f 2c bd d5 49 51 3b 73 e2 0b be 84 3c 02 3e
       -0.042006582 0.0031934876 -0.13660602 0.12718397

bias f4 [32]
000000 93 e5 19 be e9 f1 30 3e 75 09 74 3d c5 26 d0 bc
       -0.15028982 0.17279781 0.05957933 -0.025409112
000010 30 86 eb bd 13 b8 0a be b4 b9 0b bd 1f 96 3a bc
       -0.115002036 -0.13546781 -0.034112647 -0.011388331
000020 b8 7e 3f 3d fa d9 0d be 62 e5 ae 3d cc 64 01 be
       0.046751708 -0.13852683 0.08539845 -0.12636107
000030 71 64 0d bc 10 b0 dc 3c e7 4e a3 3d 17 81 46 bd
       -0.008629904 0.026939422 0.07974034 -0.048462953
000040 9e 40 23 bd 7f 76 fa 3c 85 26 1e 3e 94 09 1f 3e
       -0.039856546 0.030574081 0.15444382 0.15530998
000050 2d ab b3 ba f2 cc 15 be b4 20 b5 bd f1 55 be 3d
       -0.001370763 -0.14628962 -0.08844128 0.09293736
000060 97 dd 28 bc ce 04 d5 3d ad 6e 58 3d 17 1b c6 bd
       -0.010306737 0.10401307 0.052839924 -0.09673136
000070 48 2b 02 be 2f 47 c4 3b f6 f9 a4 bd 7b 65 ee 3d
       -0.12711823 0.005989931 -0.08055489 0.116404496
