trained_models/net_4/dense_classifier_net_4.pt (torch, 154211 bytes, 55 tensors)

weight f4 [24, 24]
000000 65 46 b5 3d 95 ac 2f 3e 86 b3 43 3c ab 99 24 3e
       0.08851317 0.17155679 0.011944657 0.16074245
000010 ab be ab bd 7d e1 c7 bd fb f0 bb 3d 5e 26 21 3e
       -0.083859764 -0.09759805 0.09176823 0.15737292
000020 5b cc 25 3d c3 d2 99 bc ea 0a a5 3d ac 93 70 3e
       0.04047809 -0.018777257 0.08058722 0.23493832
000030 e3 84 07 3e 83 2a b2 bd b6 39 48 3d a6 86 33 3e
       0.13234286 -0.08699515 0.048883162 0.17531833
000040 3a 65 35 3e bc 98 21 3e 03 f2 37 3e 2f 5b 4d be
       0.17714396 0.1578092 0.17963414 -0.20054315
000050 4b 43 6b bd 2d e5 c8 3c cd e9 e7 bd 11 33 13 be
       -0.057437222 0.024523342 -0.11323891 -0.14374949
000060 07 6f 93 bd ea a7 86 bd e8 68 12 be 06 8b 9c 3d
       -0.07198911 -0.06574996 -0.14297831 0.07643704
000070 de 73 c4 3d 4e 65 6e 3e 0e 58 3c 3e 96 39 18 3e
       0.095924124 0.23280832 0.18392965 0.14865717
000080 83 6f 04 3e 34 a0 12 3e 02 0d f7 bd ed 10 40 3e
       0.12933163 0.14318925 -0.12063028 0.18756457
000090 b4 ec 08 3d 9b 55 2b 3e 90 15 8e 3e b3 d6 4b be
       0.033428863 0.16731875 0.27750826 -0.1990612
0000a0 33 15 19 3d 0c 9a 14 be 63 5b e4 3c f9 36 b8 bd
       0.037373733 -0.14511889 0.027875608 -0.0899486
0000b0 2f cb f2 bd 0b aa f8 bd 9f 0c 9a 3e 0a b5 58 3d
       -0.118551604 -0.12141808 0.30087754 0.052907027
0000c0 cc e2 88 3c d9 b7 cf 3b c0 e6 47 be 7b 81 3d 3d
       0.016709708 0.006339055 -0.19521618 0.04626606
0000d0 4a 7c 4a bd 63 4d ca 3c 51 8c df bd 90 01 c3 bd
       -0.049434938 0.024695104 -0.10915435 -0.095217824
0000e0 26 76 8d 3d eb 42 0b be 08 04 a2 bd 3e 8c 8d bd
       0.06907301 -0.13599746 -0.07910925 -0.06911515
0000f0 35 f1 2c 3e 66 a0 26 bd 2a 82 1d be 7d 76 97 3d
       0.16888888 -0.04068031 -0.15381685 0.07395647
000100 cb 16 f8 3d 3e e3 b1 3d 87 ad 43 bd 60 9c 55 be
       0.121137224 0.08685921 -0.04777291 -0.20860434
000110 10 d5 09 bb 0f 38 a2 3c 2b 23 db bc b4 c9 20 bd
       -0.0021031536 0.019802121 -0.026750168 -0.03925486
000120 1e ee f1 bd 4b eb 35 3d 89 6e 9a be 86 a4 13 3d
       -0.118129954 0.044413846 -0.30162457 0.036045574
000130 40 88 7d bc 57 4e a6 3d f4 34 cb bd ec 8e 4c 3e
       -0.015474379 0.08120411 -0.099222094 0.19976395
000140 6c 5a 1c 3e 24 85 23 3d 0c 83 a5 bd 3b d6 2c 3e
       0.15268868 0.039921895 -0.08081636 0.16878597
000150 9e 13 d7 bd 52 89 89 3d 16 c1 75 3e c4 17 16 3e
       -0.105017886 0.06715645 0.23999438 0.14657503
000160 d2 57 a2 bd 1a a7 b0 3b 24 ac 75 bd 1d 85 e0 bd
       -0.07926907 0.005391014 -0.05997862 -0.10962889
000170 af 4c e1 bc 69 20 53 bd 29 d0 0b 3e 3e f5 9c bd
       -0.027502386 -0.05154458 0.13653626 -0.07663964
000180 d6 56 c1 3d 5d 7d 94 bd 0e c9 2c be 70 49 c9 3d
       0.09440391 -0.07250474 -0.16873571 0.0982846
000190 ca b2 6c 3d 59 d5 de bd 93 05 7f 3d 56 df e2 3d
       0.057787694 -0.108805366 0.062261175 0.11077754
0001a0 bc df 23 3e 60 5c 01 3e 7e 53 a7 3d c3 f9 48 3e
       0.16003317 0.12632895 0.08170222 0.19626527
0001b0 1a d2 3d 3e 30 ff 17 bd e8 5a 14 3e 5f 03 25 be
       0.18537179 -0.0371086 0.14487803 -0.16114567
0001c0 bf 11 83 bc f4 09 e3 3c 02 fa 05 be d0 f9 2d 3e
       -0.015999673 0.027714707 -0.13083652 0.16989827
0001d0 dc e4 f5 3d c4 39 40 be 40 bc fa 3d 4b 61 1c 3e
       0.12006542 -0.18772036 0.12242937 0.1527149
0001e0 37 7d 88 3c cd 14 71 3d 40 e1 31 3e e9 98 cc 3d
       0.01666127 0.058857728 0.17371082 0.09990103
0001f0 c6 a3 59 3e 8a 06 3b be 08 f2 e9 bc 93 a4 b0 3d
       0.21253881 -0.18264213 -0.028557792 0.0862514
000200 db c1 80 3e 14 71 1a bd 91 8c fa 3d 75 f7 38 3e
       0.251479 -0.037705496 0.12233842 0.18063147
000210 19 ea ee bd 3a 7a 38 be f9 89 6d 3d b8 18 01 3e
       -0.11665744 -0.18015376 0.05799291 0.12607086
000220 df e7 56 be e6 72 c4 3b 5a 36 44 be 6c 21 2c 3e
       -0.2098689 0.0059951423 -0.19161358 0.16809624
000230 4a 65 40 3e a9 61 47 3e d2 5b 2d 3d cb ef 6c 3d
       0.18788639 0.19470848 0.042323895 0.057845872
000240 84 c1 c6 3d c8 27 71 be cd f1 fe 3b 69 3d 20 be
       0.09704879 -0.23550332 0.0077802897 -0.15648426
000250 c2 38 10 bb 58 85 64 be 73 de 59 3c 38 c3 37 3e
       -0.0022006487 -0.22316492 0.013297665 0.17945564
000260 78 aa 1b 3e cf 52 85 3d 8f 46 24 be 5d a5 fb 3c
       0.15201747 0.06509935 -0.16042541 0.0307185
000270 24 f0 2d be 23 68 f6 3d 44 2b 17 bd 21 a0 1c 3e
       -0.16986138 0.12031581 -0.036906496 0.1529546
000280 66 8d 67 bb 61 94 18 bd 88 f7 69 bc 37 68 62 be
       -0.0035332083 -0.03725088 -0.014280207 -0.22110067
000290 d6 34 8c 3d 81 79 2f 3e fa 35 3c 3d b1 7c 55 3d
       0.06846015 0.17136194 0.045949914 0.052120868
0002a0 9d 8a 45 be 22 59 85 be 6a a4 28 3d a4 87 a4 3d
       -0.19291158 -0.26044565 0.041172422 0.08033684
0002b0 20 27 dd bd 2e f2 0f bd 56 01 1c be f8 bc f8 bc
       -0.10798478 -0.03514307 -0.15234885 -0.030363545
0002c0 20 f6 30 be 90 25 20 be 56 19 3a 3e eb 3f 41 3e
       -0.17281389 -0.15639329 0.18173727 0.18872039
0002d0 6d 67 0b 3e f6 6d fa bd eb c3 48 bd f6 4b d3 3b
       0.13613673 -0.12228005 -0.049014967 0.0064482642
0002e0 9f 3c 25 be 28 3b 56 be 7d f0 26 be ac 88 57 3e
       -0.16136406 -0.20921004 -0.16302676 0.2104823
0002f0 4b ea 36 3d a4 39 66 be da 38 12 3e ed 0f 73 bd
       0.044657033 -0.22482926 0.142795 -0.05934136
000300 29 a6 66 be 27 bf e3 bd 2e 52 5e 3e 51 a3 71 3d
       -0.22524323 -0.11120444 0.21711037 0.05899364
000310 e5 41 92 3e b4 bc b6 3d a3 40 27 be 03 7d 7b 3e
       0.285659 0.08922711 -0.1633325 0.24559407
000320 c5 7f 29 3e 01 34 84 3c 87 3d 1a 3d 1f b3 56 bd
       0.16552646 0.016138079 0.037656333 -0.052416917
000330 0b 28 91 3e 79 fd 66 3d 25 16 cc bc 6f c9 b5 bc
       0.28350863 0.056394074 -0.024912903 -0.022190778
000340 fc bb 9f 3c bf 91 3b be 2a bb 56 be 46 ce c5 3d
       0.019498818 -0.18317316 -0.20969835 0.09658484
000350 47 81 3a 3e 9d 0a 13 3e a4 fc 22 3e e7 b1 61 be
       0.18213378 0.14359517 0.15916687 -0.2204052
000360 d6 ad a5 bc 6a da 83 3d c0 9e 0d be 84 4d 5f be
       -0.020224493 0.064381436 -0.1383009 -0.21806914
000370 09 5f 69 be 21 fa 1b 3d 17 b4 d4 3d 9e ce bf bd
       -0.2279016 0.03808034 0.10385912 -0.09365581
000380 b5 27 a5 3b b5 24 ab 3d ef 55 0d 3e 2c 13 32 be
       0.005040134 0.08356611 0.13802312 -0.17390126
000390 35 30 0c bd 65 06 1d 3e 66 2c 14 be ea ce 47 3d
       -0.03422566 0.1533447 -0.14470062 0.048781313
0003a0 ea 41 00 3d 1a a4 b9 bd e7 27 19 3e 77 a2 bc bd
       0.03131286 -0.09064503 0.14956628 -0.09210675
0003b0 14 4c 30 3e b7 d9 13 be 54 6b 6c be 59 d9 90 3d
       0.17216522 -0.1443852 -0.23087817 0.07072706
0003c0 75 1b d9 3d e4 e5 f5 3d 0b 56 5c be 85 9b 5c be
       0.1060094 0.12006739 -0.21517198 -0.21543701
0003d0 7d a2 ca 3d f1 8b 44 3d fa 97 17 3e b3 41 69 bc
       0.098942734 0.04798502 0.14804068 -0.014236855
0003e0 16 95 5b be da 85 89 bd b5 e4 b7 bd 88 7c 93 3c
       -0.2144359 -0.06714983 -0.08979169 0.018003717
0003f0 97 ea c0 3c fa a9 b0 bd ad b4 1d 3e 7c f0 2d be
       0.023549361 -0.086261705 0.15400954 -0.16986269

bias f4 [24]
000000 02 8a 11 be d9 0b 54 3e 62 72 eb bd 3c 3f 1f 3d
       -0.14212802 0.20707645 -0.11496426 0.038878664
000010 d9 14 50 3d a8 cb a9 bd 15 ca 34 be d5 df 34 be
       0.050801132 -0.082907975 -0.17655213 -0.1766351
000020 9f 5e be 3d 3e 92 2a bd de e1 08 be 67 ec 4e 3e
       0.09295391 -0.041643374 -0.13367411 0.20207368
000030 20 bf a2 bd e8 db 9b 3d da b9 61 3d e0 d7 b7 b6
       -0.079466105 0.07610303 0.055108882 -5.478956e-06
000040 ee d3 9b 3d 41 ee 40 3d 3b 84 aa 3c 95 1c 54 bd
       0.07608782 0.047102217 0.020815006 -0.05178507
000050 15 31 a4 3d 08 db 62 be 12 11 97 3c 36 28 32 3d
       0.08017174 -0.22153866 0.018440757 0.04349538

weight f4 [24, 24]
000000 b6 62 fd 3d 91 23 56 3d 9a ee b5 bc 72 38 93 bc
       0.12372343 0.052280013 -0.0222085 -0.017971251
000010 84 c7 ed 3d 1f cb fd ba 0b a1 16 be 95 5d 0d 3e
       0.1161032 -0.0019362903 -0.1470987 0.1380523
000020 25 22 9e 3d 92 19 2b be bc da 91 3d 9d 9b 07 3e
       0.07721356 -0.16708973 0.071217984 0.13242956
000030 2a 07 bf bb ef 0f e3 3d 8b ad db 3a 03 ac 37 3e
       -0.0058297114 0.110870235 0.0016760094 0.17936711
000040 80 81 a0 bd 6f b6 21 3e a5 88 78 be 52 b3 eb 3d
       -0.078372 0.15792249 -0.24270876 0.11508812
000050 e4 b9 11 3e a9 10 d6 3d 4a 83 53 bc 3b d7 56 be
       0.14231068 0.104523964 -0.01290972 -0.20980541
000060 1a 9c 71 bd 5c 36 0c 3b 2e 61 c4 3c 15 58 00 be
       -0.05898676 0.0021394705 0.02397212 -0.125336
000070 97 12 74 be 26 d5 14 be 8a 27 32 bc 33 5e 80 bc
       -0.23835216 -0.14534435 -0.010873685 -0.015669918
000080 86 4f cb bd 09 e7 49 3e 80 e9 10 be 73 3b 90 bd
       -0.09927277 0.19717039 -0.14151573 -0.07042589
000090 3d de 40 be 4f af 36 be 70 9d ae 3d 4b 48 fe bd
       -0.18834777 -0.17840312 0.085261226 -0.124161325
0000a0 02 af b0 bd a4 8d 38 be da 44 79 be 8c a2 15 be
       -0.0862713 -0.18022782 -0.24342671 -0.14612788
0000b0 d1 77 8f bd 68 fe ab ba 5a 20 d5 3d 98 d4 4a 3e
       -0.07005275 -0.0013122084 0.10406561 0.1980766
0000c0 98 68 b8 3d 28 45 e9 3d 22 31 37 bd 6f 09 91 bd
       0.09004325 0.11390144 -0.04472459 -0.070818774
0000d0 8e 69 55 3a 86 7b e3 3d 71 92 20 bd e8 88 80 be
       0.0008141034 0.111075446 -0.039202157 -0.2510445
0000e0 96 d2 c4 bd 58 14 ed 3c f0 23 31 be 7e 2e 15 bd
       -0.096104786 0.028940365 -0.17298865 -0.03642129
0000f0 52 de f3 3c 67 9a b2 3d 97 2b 75 be fc 7b 6d bd
       0.029769097 0.08720856 -0.2394241 -0.05797957
000100 8e 61 4c bd e5 35 84 be 98 9a 84 bd 7b 59 ac bc
       -0.049897723 -0.25822368 -0.06474799 -0.021038761
000110 f9 2b 50 3e 4d fc 6e 3d 5a c8 dd bd 85 02 be bd
       0.20329274 0.05834608 -0.1082923 -0.09277824
000120 79 7d 30 3d fc 4b 0d 3e b5 09 5c bd 5e 68 70 3e
       0.04308841 0.13798517 -0.053720195 0.23477313
000130 89 6f 44 3e ce b3 7d ba 3f ed 81 bd b6 28 a9 3d
       0.19183172 -0.0009677977 -0.06344079 0.08259718
000140 0d a7 11 3e 6a f5 f9 bd 58 f2 b3 bc 5a 6f 93 3c
       0.14223881 -0.12205012 -0.021966144 0.017997433
000150 09 d4 14 be 50 34 fe 3d ea f8 63 be 26 81 0c bd
       -0.1453401 0.124123216 -0.22262922 -0.034302853
000160 ac c9 e0 bc d3 79 d6 bd 18 97 55 3d be 61 81 3d
       -0.027439915 -0.10472455 0.052146047 0.06317471
000170 42 a5 05 3e 8a 69 d6 bb 4e a6 1a be 85 87 9c bd
       0.13051322 -0.006543343 -0.15102503 -0.07643036
000180 77 20 11 3b d9 53 60 3e 76 0b e9 bc 68 f6 8d be
       0.0022144595 0.21906985 -0.028447848 -0.27727056
000190 a0 c5 2f b9 33 93 b9 ba db 81 a1 bd f2 75 17 3e
       -0.00016762922 -0.0014158249 -0.07886096 0.14791086
0001a0 8e a3 05 be 1d bc 8c bd b7 bc c9 bd a6 11 7c 3e
       -0.13050672 -0.06871817 -0.098504476 0.24616107
0001b0 ac 59 f5 bc cc bb 12 bd b4 fb d4 3d be 05 28 3e
       -0.029949985 -0.03582363 0.10399571 0.1640844
0001c0 82 84 0b 3e 00 84 eb bc 42 b6 a0 bd 3f 90 c2 3c
       0.13624766 -0.028749466 -0.07847263 0.023750423
0001d0 11 02 92 be 35 12 8b 3d c2 68 62 3e 95 88 bd 3d
       -0.28517202 0.06790582 0.22110274 0.092545666
0001e0 df ca c7 3d 39 bd 06 be a3 9c 50 3d 59 a3 1d 3e
       0.097554915 -0.1315812 0.05093063 0.15394343
0001f0 14 83 e7 bd 39 ed 30 be 4e 53 7e 3d ef 18 32 be
       -0.11304298 -0.17277993 0.062091164 -0.17392324
000200 ab 63 03 be a7 0a 6e 3e a0 f4 8b 3c e3 e0 f9 bd
       -0.12830989 0.23246251 0.01708442 -0.12201097
000210 03 80 49 3e 09 3d 35 bb 23 e6 fc 3c d7 28 af bd
       0.19677739 -0.0027654788 0.030871456 -0.085527115
000220 c4 65 1c 3e 7c 62 26 3d 02 7a 38 be a2 12 30 bd
       0.15273196 0.040621266 -0.18015292 -0.04298652
000230 c6 3c aa bd c5 ec 2e 3d 6b 82 bc 3c fd f3 41 be
       -0.08312373 0.04270627 0.023011407 -0.1894073
000240 8f 56 02 3e ba cd c8 bd f7 bb 3c bd db 86 b3 3c
       0.12728332 -0.09804864 -0.046077695 0.02191489
000250 7a 71 18 bd e0 21 49 3d ca bc 4b bd 3c 56 72 bd
       -0.037217595 0.04910457 -0.04974059 -0.05916427
000260 43 4b 8e 3e 92 f3 47 3d c4 82 f3 3d 17 6a ae 3d
       0.27791795 0.04881627 0.11890176 0.08516329
000270 1b 17 b7 3d 1d 7e 18 3e 40 2d 1e 3e 14 31 b6 bd
       0.08939954 0.14891858 0.15446949 -0.0889608
000280 0d 4b 18 bd 63 ee d8 3c ae e3 ff bd 0d 9c f8 3d
       -0.03718095 0.02648086 -0.12494598 0.12139139
000290 52 7b 4b bd 38 df 36 be 71 21 a9 bd ef 35 2c 3e
       -0.049678154 -0.17858589 -0.082583316 0.16817449
0002a0 a7 af 51 bd c0 89 0c be 03 14 a5 3c 92 c1 0c 3e
       -0.051192906 -0.13724422 0.020151144 0.13745716
0002b0 a7 d0 96 bd 57 9d 19 be 5c 12 02 3e fc 25 40 bd
       -0.07364016 -0.15001427 0.12702316 -0.046911225
0002c0 d1 f2 1c bd 45 cf a2 3c a1 ea 1b 3e 61 44 bf bc
       -0.038317505 0.019874224 0.15226223 -0.023348035
0002d0 0f b2 fe bd 8a 21 0c 3d d4 b0 82 bc 2f 1e dc 3d
       -0.12436306 0.034211673 -0.015953459 0.107479446
0002e0 42 0a 99 bd e5 88 f3 3d bf 5a 11 be e6 e5 91 3d
       -0.0747266 0.11891345 -0.14194773 0.07123928
0002f0 2e 88 26 be a9 5a 79 bd f7 c7 33 3e 8d b9 7a bd
       -0.16262886 -0.060877476 0.1755675 -0.06121211
000300 d0 ee f4 bd 12 8d e8 3c 49 92 1c be 32 d6 22 be
       -0.11959612 0.02838758 -0.15290178 -0.15902022
000310 0f 1a 1c 3e b3 12 1b 3e 8e 8b 2c 3e df de 7b bd
       0.15244316 0.15143852 0.16850111 -0.061491843
000320 85 c9 3d 3d c9 48 e0 3d 2e d9 c0 ba aa fe 0f bd
       0.046334762 0.10951383 -0.0014713162 -0.035154976
000330 5e 7e a9 bd 97 1d 8c 3d c8 23 e0 bd bf e8 f8 3d
       -0.08276056 0.06841581 -0.10944325 0.12153768
000340 44 8e 19 3e 31 50 ab bd 19 46 0d be 32 8e a8 bd
       0.14995676 -0.08364905 -0.13796271 -0.082302466
000350 52 8e d9 3d a1 96 36 3d 57 75 8c bd 70 c5 b0 3d
       0.106228486 0.044577245 -0.06858318 0.08631408
000360 b0 74 93 3d c4 0a b3 bd 0e 1d a6 3b 24 cf a6 be
       0.07199991 -0.08742288 0.0050693816 -0.3257991
000370 89 07 65 bd 32 e7 a2 3d fc 3f 26 be b1 f8 c6 bd
       -0.05591539 0.07954253 -0.16235346 -0.09715403
000380 db a2 54 3d 79 c1 8d bd 2b 26 b4 bd 98 da 06 3e
       0.051913124 -0.069216676 -0.087963425 0.13169324
000390 ed e2 4c 3d e3 0f 79 bd 0d bb 7d bc 3c 4f 29 be
       0.0500211 -0.060806166 -0.015486491 -0.16534132
0003a0 d8 d7 9a 3e 88 11 0c be 98 aa c6 3d fc 41 c3 be
       0.302428 -0.13678563 0.09700507 -0.3813628
0003b0 09 ff 98 be a0 8f 5c be 21 f3 40 3e a4 7f bc 3d
       -0.29882076 -0.21539164 0.18842746 0.09204033
0003c0 5c 94 22 3e e2 a1 aa 3c 79 7d 0d 3e 88 13 4b bd
       0.15876907 0.020829145 0.13817395 -0.049579173
0003d0 8b 54 cf 3d e3 28 d6 bd bd 2e fd 3d 88 c2 6a 3e
       0.10123547 -0.10457017 0.1236243 0.2292577
0003e0 05 1e 41 bd 92 30 53 bd 3c 62 84 bd fc fa 15 be
       -0.04714777 -0.051559992 -0.06464049 -0.14646524
0003f0 f0 db 65 3e 9e 46 0d 3e d4 c4 19 3e 75 b4 ad 3c
       0.22447181 0.1379647 0.1501649 0.021204213

bias f4 [24]
000000 f2 53 ac bc dc 5c 1f be 97 82 1e 3e 69 f8 55 3e
       -0.021036122 -0.15562767 0.15479504 0.20895542
000010 ed 63 43 be f3 d8 e6 3d ad 1b db 3d 99 f2 6d 3d
       -0.19081087 0.112718485 0.10698638 0.058092687
000020 aa c1 8b bc 80 47 db bd 24 23 ed bd 8e b0 10 3e
       -0.01706012 -0.10706997 -0.11578968 0.1412985
000030 87 5f 22 3e e6 3e 12 bd 86 71 80 be ca 98 af bd
       0.15856753 -0.035704516 -0.25086612 -0.08574064
000040 ed b2 ec 3d 2d 61 6a 3e 11 dd 31 be db 26 0a 3d
       0.11557565 0.22888632 -0.17369486 0.03372846
000050 1e 89 ff bd 9d de 0b 3e f2 dd d6 3d cb be c6 3c
       -0.12477325 0.13659139 0.104915515 0.024260899

weight f4 [64, 64]
000000 08 76 e6 bb d1 c6 13 be ab 37 5f 3d be 22 5c be
       -0.0070331134 -0.14431311 0.05449645 -0.21497628
000010 82 8d c5 bd ad 98 69 3d 5d d8 d0 3b 5a 18 01 3d
       -0.09646131 0.05703037 0.0063734488 0.031517364
000020 b1 0e 08 3e ee fb b1 3d 88 cb be bc 46 d3 5c 3c
       0.13286854 0.0869063 -0.02329041 0.013478106
000030 a5 3a 0d be 62 14 a4 bc 86 7d 00 3e e1 00 7d 3c
       -0.13791902 -0.02002925 0.12547883 0.015442104
000040 5e bf 95 3d 48 38 e2 3d 6c ee 27 bb d8 83 78 3c
       0.07311891 0.11045891 -0.0025624288 0.015168153
000050 e0 3f 1d be ae c8 c4 3c 90 6d aa bc 8d 93 d6 bd
       -0.15356398 0.024021473 -0.020804197 -0.10477362
000060 ef d9 29 3e 76 3e 6d bc 84 9b 8f 3c bc a3 ae bd
       0.16587041 -0.014480224 0.01753021 -0.085273236
000070 13 cb bc bb 35 89 9e 3d 21 0f 1b be 18 57 83 3d
       -0.005761513 0.07741014 -0.1514249 0.06413096
000080 ea 3c 82 bd ee 49 a5 3d 0f ce 52 bd 0a 56 62 3b
       -0.06359275 0.080707416 -0.051466044 0.0034536147
000090 73 1a e9 3d 5b 8a 8e 3d 5c f9 22 be e3 e1 ad bd
       0.11381998 0.06959983 -0.15915436 -0.0849035
0000a0 10 47 37 be be da d3 bc db b4 29 3e 64 a0 96 bd
       -0.17898202 -0.02586114 0.16572897 -0.07354811
0000b0 c5 ed f2 bd 03 c3 fe 3c 9d 4d 32 be c3 13 2b be
       -0.11861757 0.031098848 -0.1741242 -0.16706757
0000c0 4a 6a 2c 3c 87 45 2c bd bf 73 d4 3d 20 39 0d bd
       0.010523388 -0.042058494 0.10373639 -0.034478307
0000d0 ec b6 ea 3c 6a 58 d2 bd 95 7f 43 be c8 d5 fc 3c
       0.028651677 -0.1027077 -0.19091637 0.030863658
0000e0 0a 6f 46 3d 71 76 24 bd 2d 6a be bc 2d 4c 98 3c
       0.04844574 -0.040152017 -0.023243988 0.018591011
0000f0 9a c7 f1 bd 95 e6 3b be 83 1f be 3a 23 b3 3c 3d
       -0.11805649 -0.18349679 0.0014505241 0.046069276
000100 32 cc a4 bc cd 7c f8 bd 7d 04 f9 bb a9 89 9b 3e
       -0.0201169 -0.12133179 -0.007599412 0.30378464
000110 19 a6 48 bd 2f f9 f9 3d ce a4 30 bd 49 3c 81 3d
       -0.048986528 0.12205731 -0.04312592 0.063103266
000120 7e e6 dc bd a7 d8 c1 3d 2c 0a a5 bd 88 66 3b bc
       -0.107861504 0.09465151 -0.08058581 -0.01143802
000130 9c b4 91 bd 3a 6d 07 be 15 b1 32 3d cb 53 08 3e
       -0.07114527 -0.1322526 0.04362591 0.13313214
000140 8e 4a 77 3e fc bc b6 bd 42 c6 36 3e bf e1 50 3c
       0.24149534 -0.08922765 0.17849067 0.012749135
000150 87 fb 24 3e 55 3a 00 3e 34 10 b5 bc 11 ed 3f bd
       0.16111575 0.12522252 -0.022102453 -0.046856944
000160 87 f9 92 be e0 b3 1d 3d bd d1 32 3e 4f ca ac bd
       -0.28706 0.03850162 0.17462821 -0.08437025
000170 b6 90 19 bd df 7f c2 bd 8d cc 43 3e c5 0f 28 be
       -0.037491523 -0.09497046 0.19120999 -0.16412266
000180 8b 47 06 bd 6e 31 87 bd ae 84 8a bd 3d ea 08 bc
       -0.032783072 -0.06601225 -0.06763588 -0.008356628
000190 b9 d4 6a 3c 3e 8f 75 3d 4f f4 1c 3d 31 5e df bd
       0.014332944 0.05995106 0.03831893 -0.109066375
0001a0 75 77 19 bc 92 5d 7c bc ad 2e 6d be 09 74 47 bd
       -0.00936686 -0.015403168 -0.23162337 -0.048694644
0001b0 ad 60 0f be e7 97 ac 3d ee ce 6b be 50 0c c7 bd
       -0.14001723 0.084274106 -0.23028156 -0.09719145
0001c0 d4 b9 b0 bd 12 20 48 3d b4 05 6a bd 56 ac e4 bd
       -0.08629194 0.04885871 -0.057134345 -0.11165683
0001d0 d5 24 dd bd 46 a3 e2 bc ad 24 06 be f8 49 a5 bd
       -0.10798041 -0.027665745 -0.13099928 -0.08070749
0001e0 17 b6 1b 3d 01 c0 08 be e2 b1 55 be 5e f2 ec 3d
       0.03801545 -0.13354494 -0.20868638 0.11569665
0001f0 f8 4e f5 3d 5f e4 41 3e 5a f4 81 3c a3 bc 2f 3e
       0.11977953 0.18934773 0.015863586 0.17161803
000200 cc 2e 35 3e 0a d2 2e bd 9c b4 7e 3d 97 10 a5 3d
       0.17693633 -0.042680778 0.06218396 0.08059805
000210 b7 93 68 3d ee 5f f3 bb 78 b9 18 bd 96 fe 2e 3c
       0.056781497 -0.007427207 -0.03728625 0.010680815
000220 a8 68 68 bc 03 1c 14 bc 59 ef 04 be db 57 22 bc
       -0.014185108 -0.009039882 -0.12981929 -0.009908642
000230 d3 6a 48 bd 60 7b a5 39 0b 03 13 3d 75 d0 29 bd
       -0.04893 0.00031563174 0.035891574 -0.041458566
000240 2b 26 c4 bd 35 41 5b 3c 67 86 9b 3d 6c b4 98 bd
       -0.095775925 0.013382246 0.075939946 -0.07456288
000250 14 ae 97 bd 88 c7 93 3d 3c f7 32 3d 3b 23 07 be
       -0.0740625 0.07215792 0.043692812 -0.13197033
000260 3a 40 c6 3d c3 1b c7 3c 90 39 11 be 64 c0 7d bc
       0.09680219 0.02430523 -0.14182115 -0.015487764
000270 0e 40 41 3e 40 2f 20 3e 9f 1b a6 3d dc 52 d3 bd
       0.18872091 0.15643024 0.08110737 -0.103185385
000280 0a 56 36 bd 2d ba 9b 3c bf 89 1e bd b1 f7 df 3d
       -0.044515647 0.019009674 -0.038705584 0.10935915
000290 1b 3f 83 3d f3 8c 61 bd 22 cd 1e bd 19 fb b6 bd
       0.06408521 -0.05506606 -0.03876985 -0.08934612
0002a0 17 a0 90 3d a4 84 28 3e d8 50 64 3e 1c 4e 41 3d
       0.07061785 0.16456848 0.22296464 0.04719363
0002b0 ab ef 85 bc 81 78 bb 3d fd 56 40 3e 1d be 83 bd
       -0.016349634 0.09153844 0.18783183 -0.064327456
0002c0 a2 e6 01 be 2f 44 18 3d 50 79 f7 3d bf ca 18 3c
       -0.12685636 0.0371744 0.120836854 0.009325682
0002d0 60 4c 85 3c 3a 64 00 3e f0 2a 8f 3d df 82 87 bd
       0.01627177 0.12538233 0.069906116 -0.066167586
0002e0 0f 88 80 bd 17 40 47 be d6 58 bc bd e8 0c c9 bc
       -0.06275951 -0.19458042 -0.091966316 -0.024542287
0002f0 9d 74 9d bc 84 f9 9e 3d 96 0a e3 bd 86 47 0e 3d
       -0.019220645 0.07762435 -0.110860035 0.03473618
000300 fc 28 3d 3e fa 15 e5 bd a1 23 95 3d 73 fb ef bd
       0.18472666 -0.11185832 0.07282186 -0.11717882
000310 5d 16 d3 bd d1 1c b5 3d 7c 8e 85 3d 0a c9 05 bd
       -0.10307 0.08843387 0.06521317 -0.03266243
000320 72 8c 1a 3e c0 7c af 3d f7 c4 9c bc 26 1b f2 bd
       0.15092638 0.08568716 -0.019136889 -0.118215844
000330 2e 1c b5 bd 1b 86 01 3e 56 4d 40 be c2 29 88 3e
       -0.088432655 0.12648813 -0.18779501 0.2659436
000340 76 93 b1 3c a5 51 51 3d 9a 8f 18 3e d1 2b 05 be
       0.02167676 0.051103253 0.1489853 -0.13004996
000350 ed 0d 92 be d5 12 79 3e a4 5b 1a be 7e 22 db 3d
       -0.2852625 0.2432359 -0.1507402 0.10699938
000360 48 fc b8 3d 5e 56 a5 3b 21 23 87 bd 54 6c f7 3c
       0.09032494 0.005045696 -0.06598497 0.030203022
000370 57 2b 30 3d ae 94 27 be 6e fb 99 3e 0a 48 30 bd
       0.043010082 -0.1636531 0.30074638 -0.04303745
000380 59 65 41 be b8 3e fb ba 5a e7 44 3e b4 cd 28 bd
       -0.18886317 -0.0019168472 0.19228879 -0.0412118
000390 d2 6a 4b 3c 7c 3b 8d 3d 6e dc 65 bc b3 cf f0 bd
       0.012415605 0.06896111 -0.014029605 -0.117583655
0003a0 fc 82 79 3d 5e 38 f4 3d fd 0e 8b 3d 5b 8c 09 be
       0.060915932 0.11924814 0.06789968 -0.13432448
0003b0 31 3e a0 bc b1 87 34 3e 21 ec 46 bd a4 53 e5 bd
       -0.019560905 0.17629887 -0.048565034 -0.11197594
0003c0 2b 1d c4 bd 95 31 07 be 10 ed 7a 3d 92 17 8f bd
       -0.09575876 -0.13202508 0.061261237 -0.069869176
0003d0 a2 67 9f 3d bd a9 a1 3d 85 55 86 bd ae 7a 25 3e
       0.07783438 0.07893703 -0.0655928 0.1616008
0003e0 f1 8c a2 bd f0 59 eb 3d f1 92 d6 3d 99 72 26 3d
       -0.07937039 0.114917636 0.104772456 0.040636633
0003f0 8d e4 cd bd 4b 72 ba bd 81 1d cd 3d 05 92 22 bd
       -0.10053358 -0.09103831 0.10015393 -0.039690036

bias f4 [64]
000000 1a 54 26 be 9b 08 a2 bc 17 ec 2c be 27 42 c3 bd
       -0.1624302 -0.019779494 -0.16886936 -0.09534102
000010 63 b3 7b be 7f 49 aa be d1 0c 0a bd ad 7d 77 bd
       -0.2458015 -0.33259198 -0.03370363 -0.06042259
000020 b2 9a 87 be b6 81 e1 bd 0a 11 0e 3e 68 78 2f be
       -0.2648521 -0.110110685 0.13873687 -0.17135775
000030 50 ef 81 be 0c 00 64 bc 84 f4 e5 bd 07 0c 48 be
       -0.25377893 -0.013916027 -0.11228278 -0.19535838
000040 08 94 ac be b9 19 8d be 73 29 d9 be c7 2b a1 be
       -0.3370669 -0.27558687 -0.42414436 -0.31478712
000050 8a a1 66 be a8 f0 66 bd b9 b8 a0 be 94 e4 62 be
       -0.2252256 -0.05638185 -0.31390932 -0.22157508
000060 05 9c 4e be a7 50 4b be 1e 89 3c be 81 58 ca bd
       -0.20176704 -0.19854985 -0.18411681 -0.09880162
000070 d8 b8 b5 bd 00 45 65 b9 ff 22 47 bd 93 c6 15 be
       -0.08873147 -0.00021864846 -0.04861736 -0.14626531
000080 47 f8 94 be 5e 8d 7e be 17 fd 36 be c4 04 9a be
       -0.2909567 -0.24858615 -0.17869984 -0.3008176
000090 f2 2c d2 bd 7f 2e aa bd df b3 5e be 50 34 6b be
       -0.10262479 -0.0830965 -0.21748303 -0.22969174
0000a0 77 72 19 bd 69 0c 88 be 5c 21 1a be d1 66 19 be
       -0.037462678 -0.26571968 -0.15051788 -0.14980628
0000b0 5c 56 10 be 02 7c 1f bd 89 6b 2f be 56 78 f4 bc
       -0.14095443 -0.038936622 -0.17130865 -0.029842537
0000c0 41 59 b4 bd 68 a9 66 be fb 6f 02 be be bc d7 bd
       -0.08806086 -0.22525561 -0.1273803 -0.105340466
0000d0 2d dc 39 be 0a b5 43 be 0c 8f 0c be 9c a4 ec bc
       -0.18150397 -0.1911203 -0.13726443 -0.028887086
0000e0 23 e1 d8 bd e8 38 82 bc e1 30 35 bd 18 84 84 be
       -0.105898164 -0.015896276 -0.044236068 -0.2588203
0000f0 f7 00 12 bd 6a 16 b4 bc e4 89 4d be b0 62 15 bb
       -0.03564545 -0.021983344 -0.20072132 -0.0022794418

weight f4 [64, 64]
000000 33 df f8 bd bd ab 92 3d 92 49 fd bd b6 13 2c be
       -0.12151947 0.07161663 -0.12367548 -0.16804394
000010 95 ad 99 bd 96 fb 89 bd bf 25 b7 3d a9 b3 2b be
       -0.07503811 -0.06737439 0.08942746 -0.16767754
000020 7e 01 39 3e 09 78 41 bc a2 e5 33 3c fa 1e 0f be
       0.18066975 -0.011808404 0.010980042 -0.1397666
000030 08 8a 76 bd 59 d8 17 be c9 7c de bd 1c 01 84 bd
       -0.06019023 -0.14828624 -0.10863645 -0.06445524
000040 8b f4 0b be 7a 63 6f 3c 9a 1b 11 bd db 0e 36 be
       -0.13667504 0.014611119 -0.035426714 -0.17779104
000050 33 95 e2 bd d6 35 7e be 09 01 13 3d 3b 01 9a 3d
       -0.11063614 -0.24825224 0.03588966 0.07519766
000060 2d 14 ad bd 5d bb a7 bd 07 56 fc bd 1f 58 8c bd
       -0.08451114 -0.081900336 -0.12321096 -0.06852745
000070 93 25 36 be 0a e8 58 be e9 eb 10 bc c8 70 38 3d
       -0.17787771 -0.21182266 -0.008845308 0.04502943
000080 50 78 94 3d 87 3c ba bd 7a d9 c2 3c 83 57 37 bd
       0.0724951 -0.09093576 0.023785342 -0.044761192
000090 bd 3e cb bc 60 b9 8a 3d b9 42 ee bd 6f 61 4f be
       -0.02481019 0.06773639 -0.1163382 -0.20252012
0000a0 f3 b4 f3 bd 0d fb 8b bd 7f bd 8b bd b6 aa b8 bd
       -0.11899748 -0.068349935 -0.06823253 -0.090169355
0000b0 7f 97 f3 bd b9 24 ff bc c9 d3 f9 3c be 1c 59 bd
       -0.1189413 -0.03114544 0.030496495 -0.053005926
0000c0 24 59 24 be ba a7 1d 3d f9 d5 bd bd 47 14 39 be
       -0.1604963 0.038490035 -0.09269328 -0.18074141
0000d0 4f c2 cf bd 06 a3 c2 3d 2f 44 2e bd 73 23 b6 bc
       -0.10144483 0.095037505 -0.042545494 -0.0222337
0000e0 64 cb 21 be 66 88 34 3d 98 8a 8e bd d0 e8 5d be
       -0.15800244 0.044075392 -0.069600284 -0.21670842
0000f0 de a7 83 bb 80 17 b6 bc 63 37 64 3d 07 1d 57 bd
       -0.004017814 -0.022228003 0.055716883 -0.052517917
000100 88 21 c2 3d a7 f6 01 3e 5d c9 8a bd ea 22 96 bd
       0.09479052 0.12691747 -0.06776688 -0.07330878
000110 4e 91 41 be 9c 03 9f bc 7c 9a fc bc f1 d7 68 be
       -0.18903086 -0.0194109 -0.030835383 -0.22738625
000120 a4 a7 91 bd a4 ed 16 be 4f 5f e3 3d 24 5b 26 bd
       -0.07112053 -0.1473909 0.11102163 -0.040614262
000130 b8 2e 3a bd c7 d3 b5 3c e3 55 57 be 2f 01 42 3e
       -0.04545471 0.02219571 -0.21028857 0.18945764
000140 5b 8c 84 bd 81 94 b6 bc ee 4b 58 bd 8c 66 0b bd
       -0.06472083 -0.022287609 -0.052806787 -0.034033343
000150 df c3 01 3d f0 f7 b3 bd eb 39 39 3d 11 c6 8a 3e
       0.031680938 -0.08787525 0.04522125 0.27104238
000160 31 75 e1 bd 7d 7c 1a 3e 56 86 0b 3e c2 03 10 3e
       -0.110086806 0.15086551 0.13625464 0.14063933
000170 51 5e fe 3d ed 6c 27 3d 81 16 ca bd c1 6f 7c 3d
       0.12420333 0.040875364 -0.098675735 0.061630014
000180 ed 64 bd bd 8e ca 22 bc 58 2a d0 bd 9a e8 e6 3c
       -0.09247766 -0.009935988 -0.101643264 0.028187085
000190 db 4f 0f 3e 63 7b 70 3d 2f 09 98 bc 43 9f 84 3d
       0.13995306 0.05871142 -0.018559067 0.06475689
0001a0 39 fd 48 3c d6 9a 08 3e 6d 34 4c 3d ec f1 dd 3d
       0.012267404 0.13340315 0.049854685 0.108371586
0001b0 95 27 04 3e df 4d 06 3d d2 02 8d bc b4 db 99 3d
       0.12905724 0.032789107 -0.017213259 0.07512608
0001c0 a1 cc 72 be 30 fe 87 bd 6e 0d f6 3d 20 29 72 bd
       -0.23710872 -0.06640279 0.1201428 -0.05912125
0001d0 e4 a2 00 3d 53 52 b0 3d 6e fa 66 bd 86 73 38 bd
       0.031405345 0.08609452 -0.056391172 -0.045032047
0001e0 de f5 f4 bc a0 5e 10 bc 9b a8 bd 3c a0 46 2e 3e
       -0.029902395 -0.008811623 0.023151686 0.17019129
0001f0 c4 93 40 bd 35 df 91 3d 1b 91 f1 bd ae a2 5e 3d
       -0.04701592 0.071226515 -0.11795255 0.054354362
000200 7b 77 f3 bc 7c af 09 be f2 e1 83 3a f9 43 ea 3c
       -0.029720059 -0.13445848 0.0010061844 0.028596865
000210 a5 00 97 bd 8f 2f 8a 3d 40 59 75 3d 3d 35 6d bc
       -0.0737317 0.06747352 0.05989957 -0.014478025
000220 67 92 bb bc 33 d4 33 bc ae 49 27 be b8 83 02 3d
       -0.022896959 -0.010975885 -0.163367 0.031863898
000230 96 76 96 bd 2d 10 0c bc 2a ec bd bb 76 3a a0 ba
       -0.07346837 -0.0085487785 -0.005795975 -0.0012224454
000240 32 18 4a bd 99 13 23 3d 6d f6 55 be a6 8d 02 be
       -0.04933948 0.03981361 -0.20894785 -0.12749347
000250 5f 13 64 bd ad 86 fd 3d 1a e6 0a bd c6 17 e7 bc
       -0.055682536 0.12379203 -0.03391085 -0.028209578
000260 8d 1b 2d bd e4 60 22 bc 20 d0 a7 bd c9 0b d8 bc
       -0.042262603 -0.009910796 -0.081939936 -0.026372807
000270 08 eb 4d bd 6c b5 aa 3a 41 66 81 bd c3 b4 11 3e
       -0.05027297 0.0013024039 -0.063183315 0.14229111
000280 93 b5 c8 3d a5 de 48 bd 8b 53 a0 bd 1e a3 44 bd
       0.098002575 -0.049040455 -0.078284346 -0.048007123
000290 94 e2 3f bc 17 40 36 be 29 7b a8 bd 4f 95 2c bd
       -0.011711735 -0.17797886 -0.08226616 -0.04213458
0002a0 fa af e6 3c e6 58 e8 bd f6 76 7a bd 63 4c bc 3c
       0.028160084 -0.11345081 -0.061148606 0.022985643
0002b0 e2 c7 e2 bc 53 c9 b1 3d 51 7b d3 bd dd 61 1e bd
       -0.027683202 0.08680978 -0.10326255 -0.03866755
0002c0 2a 7c 3e bc f5 77 82 bc 58 43 6f be b9 32 94 bd
       -0.011626283 -0.01592634 -0.23365533 -0.07236237
0002d0 97 ed 10 be c9 1c 00 bd 5c 39 31 bd 5e 40 f2 bc
       -0.14153133 -0.03127745 -0.043267593 -0.029571708
0002e0 b9 40 d1 3c b6 4d ee bd 90 71 7a 3d 83 68 e2 bd
       0.025543557 -0.11635916 0.061143458 -0.1105509
0002f0 be 31 87 3d 40 8b 90 3d 88 28 b1 bd dc 26 aa 3d
       0.066012844 0.0705781 -0.08650309 0.08308193
000300 d3 9e 95 3d 89 b0 2e be 57 33 4f bd 28 5c 89 bd
       0.07305684 -0.1705953 -0.05058607 -0.067070305
000310 28 57 be bc ad 14 c7 3d 2d 3f b9 3d c9 67 0f be
       -0.023234919 0.097207405 0.09045253 -0.14004435
000320 e2 06 a4 bd 95 3e c7 3d 72 ce 7e bc 01 66 f0 bd
       -0.08009125 0.097287335 -0.01555215 -0.11738206
000330 9a c5 92 3d 7d cd 52 bd 23 30 b7 be e4 45 b2 bd
       0.07166596 -0.0514655 -0.35778913 -0.08704737
000340 9e b3 08 bd 28 de 80 3e 1f ac f3 3c ea 63 b9 be
       -0.03337442 0.25169492 0.02974516 -0.3620904
000350 5c 5f e2 bb 12 6c dd 3c 40 4a b4 3d 09 d0 f9 3c
       -0.0069083404 0.027029071 0.088032246 0.030494707
000360 11 82 fa bd ab b4 3c 3e 0f 00 66 bd ea 67 a1 3d
       -0.122318394 0.18428294 -0.0561524 0.07881148
000370 ce e0 54 3d a7 e7 21 be 64 92 98 3d 46 a3 3f bb
       0.051972203 -0.15811025 0.07449797 -0.0029241606
000380 4a 27 d3 bc c6 e3 58 be 90 e5 21 be d1 00 2b 3d
       -0.02577557 -0.21180639 -0.15810227 0.041748825
000390 e0 2c 14 3e 45 06 63 be b6 c6 03 3e d2 cd 4e bc
       0.14470243 -0.2217036 0.12868771 -0.012622314
0003a0 e4 13 2c 3c 4e 5a 05 bd dd 9d 98 3d 90 bd b9 3d
       0.010502789 -0.032556824 0.07451985 0.09069359
0003b0 6b ce 19 3d 48 be 92 bd f0 f6 19 be 3c 14 13 3d
       0.03755037 -0.071651995 -0.15035605 0.03590797
0003c0 f1 89 45 be a0 c4 41 3b 9b 99 86 3a 63 43 8d 3d
       -0.19290902 0.002956666 0.0010269167 0.068976186
0003d0 6a 49 b2 bc 32 84 87 3d 39 3a 36 3d eb 84 27 3c
       -0.021763522 0.06617011 0.04448912 0.010224561
0003e0 50 17 f7 bd 2d 22 21 be 8d 5d d6 3c 3d f6 1b 3e
       -0.120649934 -0.15735693 0.026167655 0.15230651
0003f0 d8 e6 69 3d a3 e4 61 be 88 bd 1b bd e3 54 59 3e
       0.057104915 -0.22059874 -0.038022548 0.21223788

bias f4 [64]
000000 38 9d d2 bc 68 90 d7 bb c6 a1 21 be 63 30 d1 3c
       -0.025709733 -0.006578494 -0.15784368 0.025535768
000010 c0 3c 1b be f1 b7 8c 3d 10 89 15 3e 74 dc 16 3e
       -0.15159893 0.068710215 0.14603066 0.14732534
000020 48 cd 45 be 1c 8f 08 be 8e 25 20 be 36 35 fe bc
       -0.1931659 -0.13335842 -0.15639326 -0.031031232
000030 15 2f b5 3d 68 99 55 3d e4 d7 a5 bb d2 f7 3d bd
       0.08846871 0.052148253 -0.0050611366 -0.046378918
000040 07 29 05 bd 1b 6a a3 3d 30 30 db bd 77 a2 78 bc
       -0.03250983 0.079792224 -0.107025504 -0.015175453
000050 3e af 05 be 01 d6 ad bc bb 77 ab 3d be 91 3f 3e
       -0.13055131 -0.02122021 0.08372446 0.1870794
000060 a1 84 1c bd 86 f4 a7 3d 36 c2 be 3d 59 5f ff 3d
       -0.038212422 0.08200936 0.093143865 0.12469358
000070 0f 08 fc bc ca 13 ce bd 10 40 2e be b6 b0 55 be
       -0.030765561 -0.10062368 -0.17016625 -0.20868191
000080 ec 0a 1e be 2c f9 64 bd 44 cd 96 3d fc 3c 5b bb
       -0.15433854 -0.05590169 0.0736337 -0.0033453098
000090 6d ae bc bd 4d d4 3e be b2 29 cc 3d c4 bc 35 bd
       -0.092129566 -0.18635674 0.0996889 -0.044369474
0000a0 55 26 f8 bd 38 08 3d 3d 55 d0 8e 3b 20 2b fa 3d
       -0.12116686 0.046150416 0.004358331 0.12215257
0000b0 2b e3 a7 bc 89 a0 60 bd bb 2e c6 bd c4 cd db 3d
       -0.020494064 -0.0548406 -0.09676882 0.10732606
0000c0 7d 6f 37 be a9 8f 45 bd f1 37 06 be ee 9e 1d be
       -0.17913623 -0.048232708 -0.13107277 -0.15392658
0000d0 21 04 ac bd cb 45 2f bd 35 20 21 3e 76 2a d5 bd
       -0.08399225 -0.04279117 0.15734942 -0.104084894
0000e0 7f 97 a0 bc 96 89 2a 3d 9e cd 0e 3e e1 d3 1a be
       -0.019603489 0.04163512 0.13945624 -0.15119888
0000f0 67 07 ae bb af 0b 00 be c3 b9 80 bc 48 23 24 be
       -0.005310941 -0.12504457 -0.015713578 -0.16029084

weight f4 [48, 48]
000000 e3 02 6f 3d 9c 15 73 3e 78 d5 2c bb 5e 25 e7 3b
       0.058352362 0.23738712 -0.0026372354 0.007054015
000010 47 51 90 3d 9f 3c e1 bd d5 ab 0b be 15 04 c7 3d
       0.070467524 -0.10997891 -0.13639767 0.097175755
000020 86 2b 86 bd 6e 0a 02 3e 55 32 86 be f1 09 4b bd
       -0.0655127 0.12699291 -0.26210275 -0.049570028
000030 04 19 be bd a9 c4 c3 3d f1 b0 24 bd 59 19 83 bc
       -0.09282115 0.09558994 -0.040207807 -0.016003298
000040 6f 16 93 bd 78 7a 0a 3d 99 b5 23 3e 20 91 35 3e
       -0.07182013 0.0338082 0.15987243 0.17731142
000050 ac 98 05 be 22 af 0f 3e b0 82 e4 bd 23 55 5b be
       -0.13046521 0.14031652 -0.11157739 -0.21419196
000060 9d 77 5b 3d c1 3c d5 bb ee 1f 7e 3c da 4a 93 3d
       0.05358087 -0.0065074866 0.015510542 0.07192011
000070 8c 15 3a 3e 13 e0 5e bd b1 86 9a 3d 60 70 a5 bc
       0.18172282 -0.054412913 0.075452216 -0.020195186
000080 bd 8f 71 3d da 5c a8 bd c8 9a cb bd d2 f4 1d 3e
       0.05897497 -0.08220835 -0.099416316 0.15425423
000090 70 0b 91 bd bf 73 c8 3c f5 c4 07 3c f1 7e 3d 3e
       -0.0708226 0.024469255 0.008286704 0.18505456
0000a0 0f 14 56 3d 43 bb 89 bd ac 91 7e 3c ee 3d 57 3e
       0.052265223 -0.067251705 0.015537661 0.21019718
0000b0 6f d6 23 bd 87 cd 3c bd 3e e7 66 be c3 fe d3 bd
       -0.03999942 -0.046094444 -0.2254915 -0.10351326
0000c0 50 d9 aa bc b1 25 2d be 9d db 48 3e e1 50 00 3e
       -0.020855576 -0.1690891 0.19615026 0.12530853
0000d0 97 09 fb 3d 77 40 e9 bd 1a 07 4c bd 99 82 88 bd
       0.122576885 -0.11389249 -0.04981146 -0.066655345
0000e0 a3 35 91 3d cd 7a 02 3e 9a d2 be 3d 28 35 1f 3e
       0.070903085 0.12742157 0.09317513 0.15547621
0000f0 1d 2a ab 3d 39 3d 39 be b8 85 05 bd bf 20 dd bd
       0.08357642 -0.18089761 -0.032598227 -0.107972614
000100 d5 13 e8 bb ae b3 ab be 02 9b e4 bd 58 46 ae 3d
       -0.0070824423 -0.33535522 -0.11162378 0.08509511
000110 6e 56 7c bd 2f e7 a0 3d 8d 3b fc 3c 5e 58 81 bd
       -0.061605863 0.07856595 0.030790115 -0.06315683
000120 21 6e 90 3e 02 5d dc 3d bf f0 2e bc 20 0a 13 3e
       0.28209022 0.10759927 -0.0106775155 0.14359331
000130 7e d2 12 bd b2 62 73 bd 2a ca 2c be 14 7a bb 3c
       -0.035845272 -0.059420295 -0.16873994 0.02288536
000140 aa eb 5c bb 50 c0 3d 3e e9 03 6c be 9e c7 33 bd
       -0.0033709803 0.18530393 -0.23048367 -0.04389154
000150 db 3a 9f be 34 62 2c bd f4 7f 22 bd 85 e0 c4 bc
       -0.3109959 -0.04208584 -0.039672807 -0.02403284
000160 06 57 77 3d e5 a6 76 bd a5 04 8f bc d3 84 b2 3d
       0.060385726 -0.060217757 -0.01745827 0.087167405
000170 01 2b 3b bd ba 60 bb 3b 59 05 a5 3b b3 3d 89 bd
       -0.04569531 0.005718318 0.005036038 -0.06701221
000180 2d d4 1a 3d 9a 00 d8 3d 8f fa bb 3d f9 bf 38 bd
       0.037800003 0.1054699 0.0917865 -0.045104954
000190 26 2a 20 be b6 35 1f bd fa 31 15 3e 1b a3 1b 3e
       -0.15641078 -0.038869582 0.14569846 0.15198939
0001a0 46 75 c3 3d 15 d2 b6 bc 6f ee 37 3d 0c 2f 5b 3d
       0.095438525 -0.022316972 0.044905122 0.053511664
0001b0 e6 ba 28 be ad 81 7c 3d 49 79 c9 3c bc 11 d3 3d
       -0.16477546 0.061647106 0.024593966 0.10306117
0001c0 0e 69 1d be 77 a2 80 be f4 b3 32 be 01 ce 06 3b
       -0.15372106 -0.2512395 -0.17451459 0.0020569565
0001d0 1b e8 95 bd 58 42 26 3d 9b 41 cd bd 61 1e 9d bc
       -0.07319661 0.040590614 -0.10022279 -0.019179525
0001e0 37 72 90 bd 82 6b 85 3e 50 1d 08 3e e4 25 78 3e
       -0.07053035 0.26058584 0.13292432 0.24233204
0001f0 f4 c3 40 3d fd a2 a4 bc 14 3e 47 3e 8c b3 4b 3d
       0.047061875 -0.02009725 0.19457275 0.049731776
000200 42 93 22 3d f3 88 b0 3d 52 28 90 bd bf 34 32 3c
       0.039691217 0.08619871 -0.070389405 0.010876833
000210 2b 61 07 be af c1 21 3e 10 43 4e bd fb 04 43 bb
       -0.1322066 0.1579654 -0.050356925 -0.0029757607
000220 d3 be b1 bd 2c f8 5c 3e 54 c6 2a be b8 3c 3d be
       -0.08678975 0.21579045 -0.16677219 -0.18480194
000230 fb c2 be bc 11 4e 56 3e 21 35 56 bd 54 39 35 3d
       -0.023286333 0.20928217 -0.05229676 0.044244125
000240 e0 c3 36 3e a0 0b a4 bd ef 49 3e 3e 77 c6 32 3d
       0.17848158 -0.0801003 0.18582891 0.043646302
000250 7d ea 6c 3e d4 0e 3b be c6 c6 19 3d 00 7b 1c 3e
       0.23136325 -0.18267375 0.03754308 0.15281296
000260 ae 6c a0 bb f3 d0 8d 3d 6c 39 9a bd d7 ad 66 bd
       -0.004895768 0.069246195 -0.075304836 -0.05631813
000270 88 0e 8b bd 92 66 1f 3e 02 e8 ce bd 7e b0 ac be
       -0.06789881 0.15566471 -0.10102846 -0.33728403
000280 3b b6 b9 3d 50 ce d0 3d 92 86 d9 bd fb b9 04 be
       0.09067961 0.10195601 -0.106213704 -0.12961571
000290 d3 57 9b 3d a4 d9 ab 3d 77 84 3b be 66 a6 8f 3d
       0.075851105 0.08391121 -0.1831225 0.0701416
0002a0 e1 b0 e8 3d 96 1f 1a 3e 6b 2c 57 bd f3 20 73 3e
       0.11361862 0.15051112 -0.052532595 0.23743038
0002b0 4b 57 87 3e 5e 17 bc 3b c9 7f 44 3e e4 78 03 3e
       0.26433787 0.0057400903 0.19189371 0.12839085
0002c0 d7 58 d2 bd 1d 4e ec 3d ed e6 1c 3e 7b 57 36 3e
       -0.10270851 0.115383364 0.15322466 0.17806809
0002d0 2c 09 7b 3e 60 5e a3 3d 19 6e 95 bd 21 4d 61 3e
       0.24515218 0.07976985 -0.0729639 0.22002079
0002e0 90 c5 20 bd 17 d4 e4 3c 1b ea 4b 3e ba c1 5b 3e
       -0.03925091 0.027933164 0.19913523 0.2146062
0002f0 cf fd d0 bd 99 1d b7 3d f9 77 d7 bd 9e f5 45 be
       -0.1020466 0.08941192 -0.1052093 -0.19331977
000300 d9 c1 41 bd 7c c8 e4 3d 42 89 4d 3d 1e 10 0e be
       -0.04730401 0.11171052 0.050179727 -0.13873336
000310 82 22 14 be 68 32 5b bd bc ae 27 3d 19 8d a6 3d
       -0.14466289 -0.053514868 0.040938124 0.08132381
000320 33 30 b0 3c 7f ee 70 bd 7b 3a 38 3d c0 f7 8f 3d
       0.021507358 -0.058821198 0.044977646 0.070296764
000330 28 35 f3 bd 7e 71 a4 bd 80 a3 90 bd a6 8e bc 3d
       -0.11875373 -0.080294594 -0.07062435 0.092068955
000340 28 60 2c be 69 9a db bc ec 4a 2f bd 52 d5 a1 bb
       -0.16833556 -0.026807027 -0.04279606 -0.00493876
000350 8d e9 c2 3d ec 06 d9 3d fb 7a c8 3d 81 e3 63 bd
       0.095172025 0.10597023 0.09789082 -0.055636887
000360 84 3e 62 3e 54 5b 58 3e 44 ae 44 be 42 20 d1 3c
       0.2209416 0.21128589 -0.19207102 0.025528077
000370 36 49 a4 bc 00 26 50 be 08 1a 51 be c4 23 1c bd
       -0.020054441 -0.20326996 -0.20420086 -0.038120046
000380 d8 4b af 3c ef 1e 15 bd 7c 42 25 3e 65 3c 70 bd
       0.02139847 -0.036406454 0.16138643 -0.058651347
000390 36 47 16 bb a5 f2 dc bd 2b dd 9e bc 47 30 3e 3e
       -0.0022930629 -0.10788468 -0.01939257 0.18573104
0003a0 02 f0 8e bc 52 68 67 bd 6b 86 d6 bd de 6d ae bb
       -0.017448429 -0.056495972 -0.10474857 -0.005323156
0003b0 0e 48 ff 3d 1e 08 fa bd 13 9c e4 3c bd 74 c2 bd
       0.12464915 -0.122085795 0.027906453 -0.09494922
0003c0 5a 78 f2 bb 2e 20 a7 bb dc bc 1e 3e 27 c7 36 3e
       -0.007399601 -0.0051002717 0.15501732 0.17849408
0003d0 0a 70 0b bd fb 4b a1 3d 3c 63 9f 3d 2f 1d 8f bd
       -0.034042396 0.0787582 0.07782599 -0.06987988
0003e0 91 d9 7f bd ef 8f 5e 3d a8 2a 34 3e 97 1f ad bc
       -0.062463347 0.054336485 0.17594397 -0.021133227
0003f0 ad be c3 bd d1 fa 52 3d ec 84 01 3b 2a 86 a3 3b
       -0.09557853 0.05150873 0.0019763066 0.004990359

bias f4 [48]
000000 f2 d4 82 be 8c b5 3a be 0b 7e bb bd 5d a3 36 be
       -0.2555309 -0.18233317 -0.091549 -0.17835756
000010 f5 9c bc bd 05 0a 35 be 08 15 f6 3d c8 e7 82 bd
       -0.09209625 -0.17679603 0.1201573 -0.06391865
000020 99 bc 0b 3d 88 1a 4e be 30 aa 0b 3d cf 29 8d be
       0.034115408 -0.20127308 0.03409785 -0.2757096
000030 6b 91 ea 3c 6a a6 74 be 38 3b a9 bd e1 37 d6 bd
       0.028633794 -0.23891607 -0.08263248 -0.10459877
000040 01 7a 64 be 65 88 9d be ea 73 14 be f5 2b 9b bd
       -0.22312166 -0.30768123 -0.14497343 -0.075767435
000050 e4 3a 82 bd bd 7f 6a be 86 5f cf bd 6d 83 85 bd
       -0.06358889 -0.22900291 -0.101256415 -0.06519208
000060 05 24 b0 bd fb c0 52 bd 94 15 e5 bd c7 b6 0b be
       -0.0860062 -0.05145357 -0.11185756 -0.13643943
000070 c0 22 b2 bd 77 32 c7 bb 7f d0 bf be 0e cd 9e be
       -0.08698034 -0.006079014 -0.37463757 -0.3101582
000080 c0 b8 a0 bd b2 aa f5 bd 46 b3 7f be 1c 1d c0 be
       -0.07847738 -0.11995448 -0.24970731 -0.3752221
000090 30 b9 1f bd 73 fb 72 be 7e 0f 2f bd 2c a5 25 be
       -0.038994968 -0.23728733 -0.042739384 -0.1617629
0000a0 8d bc 7b 3d 53 15 4f bd fb d6 17 be 87 e5 c2 bc
       0.061459113 -0.050557446 -0.14828102 -0.023791088
0000b0 7c c8 49 be f3 46 1f be 59 46 65 bd 5e 1f 23 be
       -0.19705385 -0.15554409 -0.055975292 -0.15929934

weight f4 [48, 48]
000000 69 66 06 bd f0 ce 6f 3d 38 c3 f4 bd 62 be 1b be
       -0.03281251 0.05854696 -0.119512975 -0.15209344
000010 4c 43 de bd d6 84 af bd 88 fb 94 bd ab d2 4e be
       -0.108526796 -0.08570258 -0.07274538 -0.20197551
000020 e5 29 78 bd 21 c2 05 be 3c 22 c0 bd 88 6b ba bd
       -0.06058683 -0.13062336 -0.0938153 -0.09102541
000030 de 0a 9f 3d 1e 14 0b bd ca 08 52 bd 5f 15 2a be
       0.077657446 -0.033954732 -0.051277913 -0.16609715
000040 f2 0e 60 bd be e6 b4 bb 0c 57 3f be b2 6a 01 be
       -0.054701753 -0.0055206707 -0.1868555 -0.12638357
000050 f4 b0 0c be 2f a6 7a ba 3a 76 ac bd d0 36 a8 3d
       -0.13739377 -0.00095615064 -0.084209874 0.0821358
000060 7c f1 88 3d 0c fd 1d 3d e0 20 47 bd 60 8b fc 3c
       0.066866845 0.038571402 -0.048615336 0.030828178
000070 e0 db 35 be c3 e9 1b bd 95 08 19 be a9 cb 48 3d
       -0.17759657 -0.03806473 -0.1494468 0.04902235
000080 d8 66 88 3d 23 16 9f bd ed ad cb 3c ce 94 34 be
       0.06660241 -0.07767894 0.024863208 -0.1763489
000090 03 fa 68 be ea c8 5c bd d4 63 a5 bd 88 37 3b bd
       -0.22751622 -0.053902544 -0.08075681 -0.045707256
0000a0 51 75 37 3c 57 f2 76 bd 5a 04 3a be 3b 36 e1 bd
       0.011197404 -0.060289707 -0.18165722 -0.10996672
0000b0 a8 3b 9d bd 20 36 8c 3d e8 9f d6 bd 0e 2f ee bd
       -0.07677394 0.06846261 -0.104797184 -0.11630069
0000c0 e6 98 e6 bd 57 e9 16 be 94 e1 b2 bb c6 e0 32 bd
       -0.11259632 -0.1473745 -0.00545902 -0.043671392
0000d0 dc 63 c7 bd 5b ee c2 bc 45 f0 b7 bd c6 79 86 bd
       -0.097358435 -0.023795297 -0.08981375 -0.06566195
0000e0 c1 92 79 be b7 3e 37 be 23 f5 f7 bd df e9 39 bc
       -0.24372388 -0.17895018 -0.12107303 -0.011347263
0000f0 a4 b7 a2 bd 59 2d 45 3d 4a fb f3 bc 90 ab 86 3d
       -0.07945183 0.04813895 -0.02978291 0.06575692
000100 da 61 86 bd bb 17 2e bc 83 f6 bb bd 53 80 91 bd
       -0.065616325 -0.010625775 -0.09177878 -0.07104554
000110 b9 75 30 be cf 55 d2 bd e2 6a fb bd c7 ed 31 3b
       -0.17232408 -0.10270273 -0.12276246 0.0027149783
000120 cc 7f 11 bd 35 da 76 bc 43 b4 4c be 68 b9 36 bd
       -0.035522267 -0.015066673 -0.1999064 -0.04461041
000130 da 93 e9 bd 8e df cb bc 21 90 e0 bd 28 20 c0 bc
       -0.114051536 -0.024886873 -0.109649904 -0.023452833
000140 dc ee cd bd 03 46 86 be 10 62 99 3d 50 f0 27 3d
       -0.100553244 -0.2622529 0.07489407 0.041000664
000150 ae 24 0e 3d 8b 76 3e 3d 9d 4e 46 be c2 2b 1b be
       0.03470295 0.04649977 -0.19365926 -0.15153411
000160 3f 2b 7c bd cb a4 01 be 60 e9 5a bd 0d ff c0 bd
       -0.06156468 -0.1266052 -0.05344522 -0.09423647
000170 5c 02 e1 bd 6c 8f 44 3d f5 6a 21 3d a6 b1 74 3d
       -0.10986778 0.04798834 0.039408643 0.05973973
000180 86 74 e3 b9 92 e3 2a be ea 17 52 3e 71 90 b6 bc
       -0.0004338363 -0.16688374 0.20516935 -0.022285672
000190 23 9e e6 bd 08 33 92 3d a2 45 5b be 90 ac 3f 3d
       -0.11260631 0.0713864 -0.21413282 0.046795428
0001a0 d1 7d 8e be e2 71 56 bd 6b be d9 bd 0d ed 1e be
       -0.27830365 -0.0523547 -0.106320225 -0.15520115
0001b0 6d de 5b 3d 0c e0 b0 3d 2c 67 8a bd 1c f0 17 be
       0.05367892 0.086364836 -0.0675796 -0.14837688
0001c0 00 60 f5 3c d0 34 ad bd 36 26 38 be f8 54 ad bd
       0.029953003 -0.08457339 -0.17983326 -0.08463472
0001d0 cb c7 75 bc 5e 99 51 3d 3e 7d e0 3d 5e 86 1a be
       -0.015001248 0.051171653 0.10961388 -0.1509032
0001e0 fa 8f 32 3d d4 5a 2a be c3 14 7b 3b f4 aa 14 bd
       0.043594338 -0.1663621 0.0038311935 -0.036295846
0001f0 08 ca a5 bc a3 38 b1 3d d9 df 21 3d 54 d2 95 bd
       -0.020237938 0.08653381 0.03952012 -0.073155075
000200 da 2a bf bd 47 c4 15 be a3 37 a2 bd 3d 91 57 bd
       -0.09334345 -0.14625655 -0.07920768 -0.052628744
000210 d1 03 0b 3e c5 22 aa 3d d0 eb dd bc b9 ac 8a 3d
       0.13575675 0.08307413 -0.027089983 0.067712255
000220 ba da 80 bd 60 d5 6a bd fb 56 76 be 31 bd c1 bd
       -0.06291719 -0.057332397 -0.24056618 -0.094599135
000230 2e 82 d4 bc 4b e5 c1 bc aa be 77 bb 56 75 eb bd
       -0.02594098 -0.023668906 -0.0037802854 -0.114969894
000240 b6 05 29 be 66 cb ce bd de 13 d5 bc c9 8e de 3c
       -0.16506085 -0.10097389 -0.02601045 0.027167695
000250 04 58 c3 3d f4 1d b7 3c cf d9 0c be 5b 9e a5 bd
       0.09538272 0.02235315 -0.13754962 -0.080868445
000260 0b 9f a6 bc 90 eb c0 bd 0e 8f 93 bc 08 52 fd bb
       -0.02033951 -0.0941993 -0.01801255 -0.007730726
000270 fc 19 45 3d 26 c1 6d bd 28 86 11 bd a6 fa 99 bd
       0.048120484 -0.05804553 -0.035528332 -0.075185105
000280 42 05 ce bd d5 f3 b6 bd 0a 2c 92 bd fa 74 29 bd
       -0.100595966 -0.08933226 -0.07137306 -0.041371323
000290 4a 72 8f 3d 47 9e 1e be ce fd 1e 3d 04 0c cf bd
       0.07004221 -0.15490066 0.038816266 -0.10109714
0002a0 ec f9 e6 bd f6 05 8c bd 3c 8c 90 bd 0a e0 69 bd
       -0.112781376 -0.068370745 -0.070579976 -0.057098426
0002b0 db 89 c9 bb 87 4a 4d be 69 6b b5 3d 76 f5 54 bd
       -0.006150467 -0.20047961 0.088583775 -0.051991902
0002c0 ef ad 8b bd 8a a8 e2 bd 6b 74 be 3d a6 13 8b bd
       -0.068202846 -0.110673025 0.09299549 -0.06790857
0002d0 79 2a c3 bd a0 ac 4a 3d 10 c8 f4 3d 59 ee 29 bd
       -0.095295854 0.049481034 0.119522214 -0.04148707
0002e0 d0 5a a5 bd ed 99 c6 bd 79 81 60 3c 70 97 02 be
       -0.08073962 -0.09697328 0.013702744 -0.12753081
0002f0 6c c9 41 be e3 c9 3f be 95 12 5d bc c5 47 8c bd
       -0.18924493 -0.18729357 -0.0134932 -0.068496265
000300 bc b3 d2 bc 4d 21 a1 bd 2f 72 2e bc 84 fb fa 3d
       -0.02572047 -0.0786768 -0.010647341 0.12255004
000310 f9 b4 35 bc 1d 8e eb 3d ef 87 19 3d 32 8b 8a 3d
       -0.0110905105 0.11501715 0.037483152 0.06764831
000320 03 e9 c8 3d 50 38 56 3d ff ba 0a 3e ba d4 bc bd
       0.098100685 0.052299798 0.13547896 -0.09220262
000330 9e a0 d1 3d c5 eb 9e 3d bd 07 c7 bd 23 15 f6 3d
       0.102357134 0.07759813 -0.09718273 0.1201575
000340 5f f6 4d bd e7 a8 bf bc 9e 5a dc bd 26 c8 c6 bd
       -0.050283786 -0.023395969 -0.10759471 -0.09706144
000350 f6 eb 24 bd 0e ce dd 3c 3c 4b d9 ba c6 51 d9 3d
       -0.040264092 0.027075794 -0.0016578208 0.106113
000360 99 c7 ee 3d 19 3d 97 bd 4e bb fa 3d fb de 44 3d
       0.11659164 -0.073847 0.12242757 0.048064213
000370 f5 fd 20 3d ba ff e7 bd 48 0d 63 be 86 3b 6e bc
       0.039304692 -0.11328073 -0.22173035 -0.014540559
000380 36 ef 03 be 0b 0e 84 3c f7 35 5a be 2e cd 45 be
       -0.1288422 0.016119977 -0.21309648 -0.19316551
000390 7f 34 c0 3e 02 89 c7 3d f2 d2 19 bd bd 0e 1b be
       0.3754005 0.09742929 -0.03755469 -0.15142341
0003a0 cb ec 80 3d d8 1b 10 be 79 47 e8 3c e2 26 e6 3d
       0.06295165 -0.14073122 0.028354393 0.11237885
0003b0 34 67 be 3d ee c9 96 bd 06 d4 3f 3d e8 73 f4 3d
       0.09297028 -0.07362734 0.04683306 0.1193617
0003c0 73 1b 9e bd a6 19 dd 3d 65 68 6c be fe f1 fa bc
       -0.07720079 0.10795908 -0.23086698 -0.030632969
0003d0 ae a8 4b 3d 59 57 5c be 93 8a c8 bd b7 3a 0f be
       0.049721412 -0.21517695 -0.09792056 -0.13987242
0003e0 2a 1b 27 3e 1d a7 db 3c 15 8b 97 be 5c 84 9b 3d
       0.16318956 0.026813084 -0.295983 0.07593605
0003f0 34 87 4f be 42 40 2e be 2e a6 24 3e 49 15 21 bd
       -0.2026642 -0.170167 0.16079018 -0.03932694

bias f4 [48]
000000 f6 d6 45 3d 18 c6 87 3c ed 35 16 be f9 9b 6c bd
       0.048300706 0.01657395 -0.14669009 -0.057765935
000010 cc 54 ae 3c 8e ff 25 bd f8 0f 2c bd 14 c0 23 bd
       0.021280669 -0.04052692 -0.042007416 -0.0399781
000020 ca 22 00 3e 42 75 ca bd 29 33 bb bd b2 0c 56 bc
       0.12513271 -0.098856464 -0.091406174 -0.01306455
000030 6d b4 67 3d 0f 65 9e bd 15 9a 92 bd 15 0f 88 bd
       0.05656855 -0.07734119 -0.07158295 -0.06643502
000040 53 2d c2 3d 70 ba 3a bd 3e c8 89 3c 04 24 0d be
       0.09481301 -0.045587957 0.016819116 -0.1378327
000050 ee d5 dd 3d f3 58 6c be 5e 7c 24 bd 9f cb 03 be
       0.108318195 -0.23080806 -0.04015767 -0.12870644
000060 d8 11 ce 3d 2b ec a9 bd fd 5c 45 3e 1b 5e e1 3c
       0.10061997 -0.082969986 0.19273753 0.027510693
000070 44 b3 2f be 10 1c 88 be 6a b2 99 3d 52 e4 5e 3d
       -0.17158228 -0.2658391 0.07504733 0.054416962
000080 12 36 7e bd 39 21 9e bd e9 5e 16 bc cc 89 fb bd
       -0.062063284 -0.077211805 -0.009177902 -0.12282142
000090 2e 07 7c bd 71 d6 f0 bd 84 f5 88 bd 57 25 f2 3c
       -0.061530285 -0.117596515 -0.066874534 0.02955882
0000a0 27 e1 66 3d 5b 76 4a be d9 f4 1b be 22 66 a4 bd
       0.056367066 -0.19771712 -0.1523012 -0.08027293
0000b0 ca fd 00 bc cd 29 b4 bd 76 42 01 be d8 1e 17 be
       -0.007873008 -0.08797035 -0.12623009 -0.1475786
