trained_models/net_1/dense_classifier_net_1_obs_case_3.pt (torch, 110144 bytes, 25 tensors)

weight f4 [6, 6]
0.22942337 -0.43807495 0.11457618 0.02378944 -0.24135546 -0.17739883 0.2758762 -0.041851558
-0.3667912 -0.35766736 0.18976498 -0.4149226 0.19841886 -0.39638475 -0.36758193 -0.3103732
0.26695573 -0.55662805 -0.36281535 -0.16797566 0.24811737 0.34868595 -0.15328048 -0.22825338
-0.26238558 -0.30753985 -0.19043903 0.35548842 -0.34977233 -0.4061023 -0.30218148 -0.31005946
0.2360604 0.034231864 -0.007806553 -0.09185297
00000000: f6ed 6a3e 5c4b e0be eba6 ea3d 12e2 c23c
00000010: e325 77be 0aa8 35be a53f 8d3e 8a6c 2bbd
00000020: 0ecc bbbe 2d20 b7be c051 423e bc70 d4be
00000030: 502e 4b3e f1f2 cabe b333 bcbe 3ce9 9ebe
00000040: 6cae 883e 2d7f 0ebf efc2 b9be d001 2cbe
00000050: 7b12 7e3e f786 b23e 8ff5 1cbe 41bb 69be
00000060: 6757 86be dd75 9dbe 7302 43be 9402 b63e
00000070: 5c15 b3be a4ec cfbe 88b7 9abe 1dc0 9ebe
00000080: d1b9 713e b636 0c3d 1dce ffbb 691d bcbd

bias f4 [6]
0.047196276 -0.11132669 -0.09040874 0.34400928 0.106544316 -0.31973213
00000000: e250 413d 3fff e3bd 3828 b9bd fc21 b03e
00000010: e833 da3d eeb3 a3be

weight f4 [6, 6]
-0.17927141 -0.19291791 -0.05962425 0.17776093 -0.17969884 0.14933352 -0.23341936 -0.030060805
0.3987401 0.00048357015 0.21265739 -0.16065168 0.023851931 -0.15641935 -0.014166019 -0.10184375
0.056976713 0.21907456 -0.12373984 -0.031954072 -0.3869397 -0.27562502 0.2751185 0.2523606
0.031304 0.52509767 0.5351684 -0.20893861 -0.33639613 0.029942952 -0.054025795 -0.20727992
-0.42649335 -0.15704362 -0.43181542 0.12991996
00000000: ed92 37be 468c 45be 8f38 74bd f606 363e
00000010: f902 38be e3ea 183e 7c05 6fbe 1442 f6bc
00000020: aa27 cc3e b087 fd39 dcc2 593e e081 24be
00000030: 2065 c33c 652c 20be 9718 68bc 7593 d0bd
00000040: 6a60 693d 1555 603e 506b fdbd 46e2 02bd
00000050: f61c c6be b91e 8dbe 55dc 8c3e 6935 813e
00000060: a038 003d cd6c 063f cc00 093f 01f4 55be
00000070: 1d3c acbe ec4a f53c 274a 5dbd 3041 54be
00000080: 565d dabe 0bd0 20be e916 ddbe bd09 053e

bias f4 [6]
0.056276675 -0.32799676 0.31136143 -0.5708246 0.104873076 0.18614551
00000000: 5f82 663d 31ef a7be c46a 9f3e 9021 12bf
00000010: b2c7 d63d ee9c 3e3e

weight f4 [64, 64]
0.08070068 0.046091262 -0.061749354 0.06358794 0.1779798 0.16692802 0.0481056 0.09006707
0.20516479 0.09112659 0.41237745 -0.021584425 -0.057430066 0.070978366 0.09418159 0.013782306
0.1037802 0.29543132 0.035025924 0.40295467 0.19777688 -0.07754839 0.26622325 0.1100333
0.4559825 0.4510066 -0.22653203 0.1427257 -0.031055704 -0.030245641 -0.0976964 0.3559978
-0.09785566 -0.3684468 -0.07163838 -0.025454924 -0.06287707 -0.19671403 0.08489954 -0.061389714
0.3478705 -0.04084651 0.03025077 0.068302 0.23532988 -0.12615295 0.24103057 0.14513533
-0.011834944 -0.004963203 -0.024000393 0.05040464 0.19462466 0.008064094 0.04638637 0.70330036
-0.39019874 0.04281747 0.17028624 -0.03608588 0.2685971 0.21090525 0.32205528 -0.032767702
0.048609115 0.006345615 0.00017078573 0.13830952 -0.02052546 0.17703289 -0.077281624 -0.06558705
0.19370638 0.37861186 0.32112592 -0.12915903 -0.0642775 -0.4672969 -0.090983674 -0.10527749
-0.035660435 -0.02682671 0.3013554 0.7038373 0.27343252 0.1372439 -0.22945721 -0.09041742
-0.06255512 0.16258441 -0.29614133 0.059696283 0.011391445 -0.2307647 -0.114316665 0.26336494
0.017663898 -0.2907709 0.12764792 0.045170765 0.15256098 -0.4112816 0.14845954 -0.19974594
0.24645045 -0.055718757 -0.07263509 0.49213526 -0.0494729 -0.30492228 0.28278583 -0.010956383
-0.09027842 0.022649737 0.110181294 -0.006719687 0.08254362 0.031683616 0.21119197 0.58030975
-0.30509523 -0.0718417 0.11433471 -0.03666007 0.2119884 0.6527578 0.34802243 -0.22411706
-0.029641783 0.32827577 0.096518844 -0.19250926 -0.22627518 -0.02431893 -0.032293417 0.22881164
-0.044056192 -0.083784476 -0.21513562 0.36137572 -0.45734307 -0.14800419 -0.1435003 -0.17426962
0.09653262 -0.29062077 -0.34544358 -0.25573263 0.08171843 -0.17461807 -0.109159455 0.10977473
0.036680315 -0.022178598 -0.18947126 0.14235699 0.1118229 -0.015481655 0.38518077 -0.25851125
0.053953342 -0.06101242 -0.022056388 0.18154377 -0.1557994 0.14283724 -0.21653599 -0.12222123
-0.15411207 0.17929542 -0.19678262 -0.08138444 0.1449045 -0.06826358 -0.17115228 0.34494177
-0.14554176 0.10495569 0.00032877905 0.011897963 -0.19511057 -0.23667508 -0.33712274 0.3640216
0.35143408 0.027138062 -0.11209615 0.058980525 -0.33640882 -0.20177017 -0.3141558 0.04783272
-0.072930895 -0.04065882 0.15307449 -0.11187635 -0.042179544 0.021251608 -0.18046859 0.11272569
0.14211856 -0.05746935 -0.0127811525 0.016000269 0.07912274 -0.017281216 0.03853523 -0.09260188
0.027426573 -0.04220911 -0.031611573 -0.078229025 0.024052726 -0.05289641 0.00037432913 0.015900716
-0.11932395 0.08054308 0.015452053 -0.043785986 -0.105205216 -0.033170246 -0.06296951 -0.0143750785
0.15178391 -0.026075605 -0.050828613 0.012039045 0.017273806 -0.08487035 0.010133828 -0.06912932
0.005747804 0.074408144 0.047491197 -0.00090835115 -0.07096079 -0.010718524 0.06914759 0.12509377
-0.053542975 -0.042921096 0.038495183 0.07530715 -0.094596215 0.103343815 0.0058789863 0.21163748
-0.08337905 0.03608339 -0.13530423 -0.09395299 -0.032243393 -0.101761214 0.12343008 0.1040606
00000000: 6646 a53d 31ca 3c3d e4ec 7cbd 653a 823d
00000010: 5640 363e 2eef 2a3e 610a 453d 1675 b83d
00000020: b816 523e 94a0 ba3d 2323 d33e d2d1 b0bc
00000030: ca3b 6bbd 1b5d 913d 47e2 c03d 2ecf 613c
00000040: b78a d43d c642 973e 5877 0f3d 1350 ce3e
00000050: 0686 4a3e b1d1 9ebd 6a4e 883e 2459 e13d
00000060: 8a76 e93e 56ea e63e 03f8 67be b026 123e
00000070: 8868 febc b5c5 f7bc 0d15 c8bd 5845 b63e
00000080: 8c68 c8bd 0fa5 bcbe 25b7 92bd d886 d0bc
00000090: b1c5 80bd 676f 49be cfdf ad3d c873 7bbd
000000a0: 151c b23e ac4e 27bd 76d0 f73c ebe1 8b3d
000000b0: 51fa 703e 3d2e 01be b8d0 763e 5b9e 143e
000000c0: 5ae7 41bc 5da2 a2bb 799c c4bc 1975 4e3d
000000d0: b04b 473e 431f 043c a2ff 3d3d 7e0b 343f
000000e0: 21c8 c7be 5f61 2f3d 845f 2e3e cace 13bd
000000f0: 8f85 893e 8cf7 573e 6ee4 a43e 6d37 06bd
00000100: 5a1a 473d e0ee cf3b f214 3339 03a1 0d3e
00000110: 0225 a8bc 1c48 353e d445 9ebd 8152 86bd
00000120: f75a 463e 6ad9 c13e 9e6a a43e 4442 04be
00000130: eca3 83bd 8a41 efbe a655 babd ba9b d7bd
00000140: ad10 12bd b0c3 dbbc 414b 9a3e ae2e 343f
00000150: 59ff 8b3e aa89 0c3e d5f6 6abe c52c b9bd
00000160: e61c 80bd 877c 263e d69f 97be 1784 743d
00000170: 2fa3 3a3c 954d 6cbe db1e eabd c5d7 863e
00000180: e1b3 903c ecdf 94be 23b6 023e fb04 393d
00000190: f238 1c3e 8093 d2be c705 183e 338a 4cbe
000001a0: 825d 7c3e 5a39 64bd b5c1 94bd 27f9 fb3e
000001b0: 18a4 4abd c61e 9cbe 4ec9 903e 6782 33bc
000001c0: e4e3 b8bd f18b b93c bba6 e13d d230 dcbb
000001d0: a10c a93d aec6 013d b542 583e 2e8f 143f
000001e0: 7135 9cbe be21 93bd 5128 ea3d df28 16bd
000001f0: 7d13 593e 231b 273f ff2f b23e f17e 65be
00000200: 53d3 f2bc c313 a83e acab c53d 2621 45be
00000210: aeb4 67be 7e38 c7bc 1a46 04bd 994d 6a3e
00000220: 4474 34bd 3297 abbd 834c 5cbe 3d06 b93e
00000230: df28 eabe 698e 17be bef1 12be bc73 32be
00000240: e5b2 c53d 3fcc 94be fbdd b0be 63ef 82be
00000250: fe5b a73d 14cf 32be fe8e dfbd 93d1 e03d
00000260: 193e 163d e4af b5bc c104 42be 08c6 113e
00000270: 6803 e53d c4a6 7dbc 6a36 c53e 965b 84be
00000280: 2efe 5c3d 29e8 79bd 99af b4bc 9ce6 393e
00000290: e189 1fbe ed43 123e 9cbb 5dbe 204f fabd
000002a0: 8ecf 1dbe 3899 373e 6281 49be e3ac a6bd
000002b0: d861 143e c7cd 8bbd 8b42 2fbe 359c b03e
000002c0: e608 15be 02f3 d63d fa5f ac39 acef 423c
000002d0: 11cb 47be f45a 72be 5a9b acbe 0a61 ba3e
000002e0: 2bef b33e a450 de3c ab92 e5bd 9095 713d
000002f0: c73d acbe d79c 4ebe 07d9 a0be 3eec 433d
00000300: cb5c 95bd dd89 26bd 8fbf 1c3e 6e1f e5bd
00000310: 75c4 2cbd da17 ae3c c2cc 38be badc e63d
00000320: 8787 113e fb64 6bbd 0a68 51bc ff12 833c
00000330: 1a0b a23d 5691 8dbc 1ed7 1d3d 0ea6 bdbd
00000340: b1ad e03c 76e3 2cbd 237b 01bd 8a36 a0bd
00000350: 390a c53c e8a9 58bd 9b41 c439 3842 823c
00000360: 1d60 f4bd c5f3 a43d 9c2a 7d3c ef58 33bd
00000370: d575 d7bd 86dd 07bd 29f6 80bd 7385 6bbc
00000380: 3e6d 1b3e 829c d5bc aa31 50bd 6a3f 453c
00000390: cc81 8d3c 82d0 adbd 5b08 263c ac93 8dbd
000003a0: 1358 bc3b 4c63 983d 2186 423d 6a1e 6eba
000003b0: e453 91bd c09c 2fbc 409d 8d3d 9518 003e
000003c0: e14f 5bbd 08ce 2fbd 20ad 1d3d a33a 9a3d
000003d0: a9bb c1bd eca5 d33d 83a4 c03b 7fb7 583e
000003e0: a3c2 aabd 2dcc 133d 318d 0abe 6d6a c0bd
000003f0: a611 04bd 2f68 d0bd e9c8 fc3d b91d d53d

bias f4 [64]
-0.45917103 -0.3239435 -0.3497145 -0.30348256 -0.8131892 -0.5532448 -0.13530771 0.060765937
-0.19092634 -0.5110967 -0.5675495 -0.4040162 -0.21658355 0.08076919 -0.25044748 -0.4725643
0.057365235 -0.44091547 -0.19393969 0.071689926 -0.18781367 -0.002486797 0.19258736 -0.39868397
-0.14144889 0.14316864 -0.042637102 -0.54924417 -0.015143587 -0.56937957 -0.53146935 -0.20012113
-0.50181246 0.09297589 0.2459333 0.234633 -0.11177549 -0.49533093 -0.5381783 -0.14763276
-0.2862262 -0.496699 -0.2263267 -0.1853807 0.34266955 -0.5434234 -0.4089678 -0.5064433
-0.22148699 0.19780254 0.046654258 -0.008747065 -0.6184637 0.111988485 -0.121729754 -0.007482707
-0.103204064 -0.44257692 -0.10322196 -0.5219075 -0.03764994 -0.11228159 -0.6481085 0.045338362
00000000: 7718 ebbe ecdb a5be c70d b3be 1162 9bbe
00000010: 2b2d 50bf 74a1 0dbf 1b8e 0abe b4e5 783d
00000020: 3282 43be 3cd7 02bf ed4a 11bf 36db cebe
00000030: 14c8 5dbe 516a a53d a73a 80be f3f3 f1be
00000040: cff7 6a3d acbf e1be 2098 46be 2bd2 923d
00000050: 3a52 40be 88f9 22bb 9f35 453e 4e20 ccbe
00000060: fad7 10be cd9a 123e 3ea4 2ebd 449b 0cbf
00000070: cf1c 78bc dcc2 11bf 600e 08bf 8eec 4cbe
00000080: c876 00bf 256a be3d f0d5 7b3e a243 703e
00000090: 8cea e4bd 049c fdbe 0ec6 09bf 0b2d 17be
000000a0: 3e8c 92be 554f febe 30c2 67be 70d4 3dbe
000000b0: 6272 af3e cc1d 0bbf 3a64 d1be 45a6 01bf
000000c0: 7ccd 62be c08c 4a3e 8918 3f3d da4f 0fbc
000000d0: a353 1ebf 385a e53d 734d f9bd 7f31 f5bb
000000e0: a75c d3bd 7199 e2be 0966 d3bd bb9b 05bf
000000f0: d336 1abd e4f3 e5bd 70ea 25bf b8b4 393d

weight f4 [64, 64]
-0.12637465 0.066842526 -0.1232497 -0.08668439 -0.03806619 -0.36778834 0.09860015 -0.33993363
-0.14213201 0.09888233 -0.07906214 -0.18941697 0.0843769 -0.1910982 0.012588346 -0.15520419
-0.24332346 -0.006065949 0.03539058 -0.28464144 -0.42917755 -0.33182964 0.29252145 -0.33911157
0.056631286 -0.09732082 -0.17805064 -0.12906545 0.1114087 0.048125397 0.029066332 0.21656752
-0.04805022 0.12933005 0.03843055 0.27036947 -0.20493194 -0.16229852 0.1960477 -0.043642405
-0.18988667 0.059410755 0.3419862 -0.8344649 -0.31296661 -0.0683987 -0.3244399 -0.18885183
0.17633024 -0.347182 0.017304538 -0.24299626 0.018827485 -0.24555254 -0.099954434 -0.071293086
0.03794613 -0.34173307 -0.23695707 0.0034835786 -0.40636292 -0.33167908 -0.06625054 0.1767399
-0.27943453 -0.08555521 0.24064453 0.09906893 -0.025794178 -0.0910334 -0.674153 -0.036605798
-0.1136886 0.30024263 0.21116729 0.10319714 -0.09862224 -0.25693846 -0.08012275 -0.13968533
-0.23036677 -0.047664143 0.18331572 0.011637094 -0.21620849 -0.079372235 -0.2324319 -0.22662015
-0.043407165 -0.27159646 -0.13744181 0.15061522 -0.18504722 -0.26099676 -0.07558919 -0.356291
-0.35997605 -0.27064496 -0.03933393 -0.52864724 -0.34508118 -0.12243543 -0.2497514 0.04160055
-0.21479566 -0.30090016 -0.26787177 0.00012996024 -0.021041831 -0.14534847 -0.0123945465 -0.15795115
-0.41369843 -0.26476067 -0.106887065 0.15522441 -0.19507448 0.28780052 -0.093173094 0.110307
-0.0080642 -0.083402485 -0.1571833 -0.14688404 -0.053384114 -0.18060349 -0.20245256 -0.5855211
0.0059301397 -0.27194637 0.2502999 0.0342223 0.045035575 -0.00024381524 -0.090315975 -0.19892445
-0.3754649 0.5073542 -0.1985675 0.07647425 0.16880782 0.09406095 0.080971375 -0.11888258
-0.580169 -0.067271255 0.06617854 -0.57868975 -0.25209612 0.17874049 0.2836208 -0.37849706
0.10962999 -0.116987675 -0.12286741 0.08851469 0.14606598 -0.07316929 0.26143238 -0.24477513
-0.23517439 0.021470925 0.015502418 0.17105839 0.17542064 0.17146218 -0.26454535 0.32856175
0.06685969 -0.17491755 0.40193468 -0.17218135 -0.11037889 -0.045277745 0.16188349 -0.25954106
-0.27504504 0.06488279 -0.14195462 0.34950313 -0.3060299 0.43063635 -0.17912482 -0.55014193
0.029581325 0.29849988 0.071917295 -0.0786568 -0.038610887 -0.21834885 -0.23898217 -0.5454961
-0.075732164 -0.031072633 -0.32207087 -0.006174924 0.08657196 -0.20135832 -0.49072272 0.4406533
-0.20921202 -0.1805642 -0.3019972 0.40141338 -0.2643774 -0.09709053 0.09202659 -0.049528528
0.18704322 -0.026774684 -0.029777583 0.25652823 -0.014243217 0.080621436 -0.16003478 0.21679161
0.07573533 -0.07757006 0.09703998 -0.12337406 -0.0674282 -0.005250692 -0.24965262 -0.27450684
-0.05166509 -0.3687452 0.022605704 -0.059407786 0.12359562 -0.38566092 -0.32495925 -0.15423818
-0.16811237 -0.05343747 -0.027940629 -0.26335672 0.08890038 0.02467949 -0.29699627 -0.03265042
-0.18687783 -0.13891156 0.12650508 -0.47232008 -0.19040716 -0.08474603 0.012273637 -0.37285227
0.062010095 0.04457367 0.07644102 0.17439488 -0.26865226 -0.12939487 0.30145663 -0.07287341
00000000: 5b68 01be bce4 883d 576a fcbd 9687 b1bd
00000010: 4beb 1bbd c14e bcbe e0ee c93d c80b aebe
00000020: 0e8b 11be d282 ca3d 55eb a1bd 86f6 41be
00000030: cccd ac3d 3faf 43be 5a3f 4e3c d9ed 1ebe
00000040: c929 79be dec4 c6bb b6f5 103d 86bc 91be
00000050: 29bd dbbe 93e5 a9be 5fc5 953e 08a0 adbe
00000060: 35f6 673d 2350 c7bd e852 36be bc29 04be
00000070: 3f2a e43d 231f 453d 841c ee3c e0c3 5d3e
00000080: 4fd0 44bd 196f 043e 5a69 1d3d de6d 8a3e
00000090: aed9 51be 9531 26be bac0 483e 61c2 32bd
000000a0: a771 42be b158 733d d118 af3e 7e9f 55bf
000000b0: 293d a0be 9e14 8cbd fd1c a6be 6062 41be
000000c0: ea8f 343e d7c1 b1be 3fc2 8d3c 03d4 78be
000000d0: 193c 9a3c 2072 7bbe e9b4 ccbd 1c02 92bd
000000e0: 676d 1b3d a3f7 aebe e0a4 72be c04c 643b
000000f0: cd0e d0be d7d1 a9be 5dae 87bd 4efb 343e
00000100: 0b12 8fbe 9237 afbd 856b 763e a7e4 ca3d
00000110: 504e d3bc b86f babd 4a95 2cbf f6ef 15bd
00000120: 92d5 e8bd 67b9 993e 3d3c 583e 0659 d33d
00000130: 75fa c9bd 708d 83be 6517 a4bd ac09 0fbe
00000140: 44e5 6bbe 7a3b 43bd 1eb7 3b3e 83a9 3e3c
00000150: c265 5dbe e98d a2bd a102 6ebe 1d0f 68be
00000160: b6cb 31bd b10e 8bbe 8cbd 0cbe e03a 1a3e
00000170: 057d 3dbe 5ea1 85be 81ce 9abd c66b b6be
00000180: c84e b8be fa91 8abe 9d1c 21bd 6d55 07bf
00000190: 7bae b0be 6dbf fabd d5be 7fbe 5765 2a3d
000001a0: 65f3 5bbe 960f 9abe 7d26 89be f045 0839
000001b0: eb5f acbc 3bd6 14be 7f12 4bbc f2bd 21be
000001c0: 48d0 d3be b68e 87be 9be7 dabd 26f3 1e3e
000001d0: 9bc1 47be 975a 933e 89d1 bebd a3e8 e13d
000001e0: b51f 04bc ecce aabd a9f4 20be c568 16be
000001f0: 4da9 5abd 1ff0 38be b94f 4fbe b6e4 15bf
00000200: 9e51 c23b 8e3c 8bbe 4f27 803e af2c 0c3d
00000210: 3977 383d a8a8 7fb9 95f7 b8bd dab2 4bbe
00000220: ef3c c0be f7e1 013f 4755 4bbe 889e 9c3d
00000230: f5db 2c3e 07a3 c03d 52d4 a53d b678 f3bd
00000240: f585 14bf 83c5 89bd 9d88 873d 0325 14bf
00000250: be12 81be bf07 373e bf36 913e 5eca c1be
00000260: b085 e03d 3c97 efbd e9a1 fbbd 3147 b53d
00000270: 5292 153e c8d9 95bd 77da 853e 55a6 7abe
00000280: 8ed1 70be cbe3 af3c dbfd 7d3c ee29 2f3e
00000290: 78a1 333e c893 2f3e 7d72 87be 3f39 a83e
000002a0: bced 883d 961d 33be 62ca cd3e 4f50 30be
000002b0: 540e e2bd 2875 39bd c9c4 253e 91e2 84be
000002c0: b4d2 8cbe 45e1 843d 8d5c 11be 13f2 b23e
000002d0: f3af 9cbe 5e7c dc3e 7f6c 37be 1ad6 0cbf
000002e0: 8954 f23c fad4 983e 6049 933d d116 a1bd
000002f0: 7326 1ebd d796 5fbe beb7 74be a2a5 0bbf
00000300: 7719 9bbd 098c febc 79e6 a4be 0457 cabb
00000310: a44c b13d e030 4ebe 0240 fbbe 4f9d e13e
00000320: ad3b 56be d2e5 38be 619f 9abe 0e86 cd3e
00000330: 795c 87be 66d7 c6bd 7078 bc3d 6dde 4abd
00000340: 4288 3f3e 9556 dbbc 1ef0 f3bc ab57 833e
00000350: 625c 69bc da1c a53d 28e0 23be 9ffe 5d3e
00000360: 201b 9b3d 0ddd 9ebd e6bc c63d 8aab fcbd
00000370: cc17 8abd ff0d acbb f0a4 7fbe 298c 8cbe
00000380: c69e 53bd 2ccc bcbe 992f b93c 9455 73bd
00000390: b31f fd3d 5975 c5be 0f61 a6be 9df0 1dbe
000003a0: a625 2cbe 40e1 5abd bfe3 e4bc b1d6 86be
000003b0: 6711 b63d a42c ca3c e50f 98be 72bc 05bd
000003c0: e75c 3fbe d53e 0ebe 8c8a 013e f0d3 f1be
000003d0: 18fa 42be 548f adbd 5d17 493c 7ee6 bebe
000003e0: 4cfe 7d3d e192 363d 1c8d 9c3d 9294 323e
000003f0: ca8c 89be 1780 04be 8658 9a3e a83e 95bd

bias f4 [64]
0.05689333 -0.38071224 -0.12890014 0.10168697 0.01392263 0.21792957 -0.13898689 0.032950997
-0.14911348 -0.4663765 0.3094323 0.05535225 -0.06660991 -0.17631137 -0.20605016 -0.3685819
0.14832862 -0.038216542 -0.33495727 -0.10814681 -0.17596346 -0.28472862 -0.42138746 0.12991174
0.15939553 -0.043258354 0.045762002 0.45073766 0.018287424 0.22583486 0.006956194 -0.4235539
0.049480468 0.077040695 -0.1640845 -0.038249698 -0.15517452 0.3165667 0.08997694 -0.2927047
0.053875033 0.029349703 -0.11585847 -0.27290094 0.12290944 0.12469048 -0.4620283 -0.25727844
0.017915942 -0.78058904 -0.08896083 -0.6601262 -0.08111675 -0.28972802 -0.11739382 -0.049266394
-0.11199822 0.05252302 0.1771599 0.14788093 -0.06505512 -0.29060274 -0.38652128 -0.29019317
00000000: fb08 693d b7ec c2be 66fe 03be 4241 d03d
00000010: be1b 643c ee28 5f3e 9452 0ebe a0f7 063d
00000020: 34b1 18be e7c8 eebe e96d 9e3e 0ab9 623d
00000030: c76a 88bd f88a 34be d0fe 52be c4b6 bcbe
00000040: 75e3 173e f388 1cbd 857f abbe 137c ddbd
00000050: c42f 34be f3c7 91be 19c0 d7be 9507 053e
00000060: 9538 233e ac2f 31bd f070 3b3d 16c7 e63e
00000070: 82cf 953c 4141 673e c9f0 e33b 0fdc d8be
00000080: 08ac 4a3d 83c7 9d3d c405 28be b7ab 1cbd
00000090: 12e6 1ebe 0815 a23e d445 b83d 64dd 95be
000000a0: 11ac 5c3d ca6e f03c 3547 edbd acb9 8bbe
000000b0: f2b7 fb3d b95d ff3d f98e ecbe 00ba 83be
000000c0: 74c4 923c afd4 47bf 1831 b6bd 08fe 28bf
000000d0: 8a20 a6bd 3b57 94be 2c6c f0bd 8fcb 49bd
000000e0: 535f e5bd 6122 573d 6869 353e 196e 173e
000000f0: 9e3b 85bd e2c9 94be 1ee6 c5be 3394 94be

weight f4 [64, 64]
-0.12459497 -0.030079111 -0.03723046 -0.022271529 0.123751834 -0.03658168 -0.055481344 0.08529158
0.10793769 0.038036704 -0.05133599 0.0792865 -0.03583856 0.03417237 0.10505082 7.635355e-05
0.06319192 0.004539445 -0.09320499 -0.033596322 -0.08302787 -0.025148824 0.025673404 0.1215397
-0.09587337 0.018183231 -0.09171082 0.029404923 -0.088906795 0.02626063 -0.021368176 0.03726007
-0.014444038 -0.043897867 0.037167326 0.07156606 0.040153176 -0.041735977 -0.12077752 0.0442376
0.012712762 0.042758927 -0.122963175 0.03650908 -0.089918375 -0.0022135973 0.096910596 0.036995694
0.10676804 -0.058561057 0.07715367 0.100764304 -0.0075179785 0.08508861 0.08945851 0.06127028
0.0544938 -0.055777445 -0.07024352 0.06066425 -0.099595994 -0.01723975 0.06941883 0.070512846
-0.08476998 0.06234069 0.033695415 0.031897336 -0.101167485 0.08044097 -0.015506387 0.09361228
-0.017613232 -0.05829926 0.092284665 0.119364455 -0.062159404 -0.021679193 0.09868635 0.043862775
-0.07752068 0.10750556 0.10518594 -0.086395875 -0.065990776 -0.085724965 -0.024674356 0.00796245
-0.05449885 -0.02865757 0.103964046 -0.11496563 -0.022774756 0.049469635 0.025996312 -0.0071032345
-0.11947842 -0.029637545 -0.0354833 -0.066265255 -0.11891745 0.11338845 0.10717514 -0.056992635
0.04244691 0.09298441 0.043834552 -0.017782643 -0.12268007 0.124406174 -0.08253077 -0.094561204
-0.0026572794 0.056698635 0.026969045 0.10073711 0.00687404 -0.01803355 0.10041487 -0.028138742
-0.09611316 0.0687561 -0.048446238 -0.010827422 0.016904294 0.00061933696 -0.02071026 0.040067777
-0.075156376 0.1068404 0.0010920614 0.07384576 0.11922529 -0.052858368 -0.091609135 0.103858605
-0.11417702 -0.093458295 0.08563879 0.004350826 0.06823419 0.1139981 0.10647386 -0.06747541
0.045436382 0.0131946355 -0.110284 -0.06976786 -0.08924489 0.099535346 -0.11559175 0.11324404
0.07848781 0.10311368 0.08143212 0.01247485 0.091037706 -0.08620766 -0.002357155 0.11935666
-0.053634584 0.06839007 0.10239363 -0.02379556 0.048720285 -0.07909097 -0.042422757 -0.03264363
0.05939561 -0.08852489 -0.028583393 -0.091119125 0.013958827 0.107246175 -0.08303982 0.07652685
-0.11606389 -0.0056971014 0.06471816 -0.07084577 -0.018569663 0.053649724 -0.11945243 0.06965442
-0.067836285 -0.09428874 0.09417766 0.08420953 0.09952366 0.12407103 0.013290182 -0.0952452
0.12461989 -0.09810488 -0.07769391 -0.07413629 -0.039379284 -0.07418673 -0.11511724 0.07587625
0.07611495 0.078573555 0.023498401 0.059322447 0.015536845 -0.10863948 0.095337555 -0.08884776
-0.034526512 -0.115342334 -0.047947347 -0.082975626 0.007206708 0.048371524 -0.02656801 -0.077209145
-0.021803513 0.020247817 0.088330105 0.10850966 0.11661154 -0.0222238 -0.014634043 -0.10889767
0.04727356 -0.11721791 -0.041221306 -0.11566463 0.07716739 -0.08293298 -0.04840575 -0.019369096
0.0061808378 -0.10661483 0.036740735 -0.05066228 0.069049045 -0.09901644 0.019220248 -0.00019425154
-0.027199581 -0.09267536 -0.035935506 -0.121433094 0.10920896 0.094787076 -0.01745011 0.043387637
0.077487126 -0.08806349 -0.07845421 0.034871697 -0.019571394 0.11049344 0.035105184 0.03563808
00000000: a62b ffbd 7868 f6bc f87e 18bd c872 b6bc
00000010: 9a71 fd3d acd6 15bd 6840 63bd 5aad ae3d
00000020: 700e dd3d 60cc 1b3d b045 52bd f660 a23d
00000030: 74cb 12bd 54f8 0b3d e224 d73d 0020 a038
00000040: c46a 813d a0bf 943b 42e2 bebd 4c9c 09bd
00000050: 840a aabd e804 cebc 0851 d23c cee9 f83d
00000060: 4259 c4bd 00f5 943c e2d2 bbbd 98e2 f03c
00000070: c414 b6bd 8820 d73c 500c afbc 049e 183d
00000080: b0a6 6cbc 40ce 33bd c43c 183d 3a91 923d
00000090: a877 243d 58f3 2abd 345a f7bd 7c32 353d
000000a0: 3049 503c fc23 2f3d 1ed4 fbbd 8c8a 153d
000000b0: 2027 b8bd 0012 11bb 1079 c63d cc88 173d
000000c0: 34a9 da3d b8dd 6fbd be02 9e3d 845d ce3d
000000d0: 6059 f6bb f042 ae3d 0636 b73d 8cf6 7a3d
000000e0: e434 5f3d e476 64bd d6db 8fbd 147b 783d
000000f0: fcf8 cbbd 603a 8dbc 762b 8e3d 0a69 903d
00000100: e29b adbd f458 7f3d 3404 0a3d c8a6 023d
00000110: e630 cfbd 3cbe a43d 800e 7ebc ccb7 bf3d
00000120: a049 90bc 34cb 6ebd beff bc3d 5a75 f43d
00000130: dc9a 7ebd 9098 b1bc 121c ca3d 74a9 333d
00000140: 2ac3 9ebd e02b dc3d ba6b d73d 52f0 b0bd
00000150: 2c26 87bd 9290 afbd e021 cabc f074 023c
00000160: 303a 5fbd 48c3 eabc 1aeb d43d 1a73 ebbd
00000170: 2092 babc aca0 4a3d 38f6 d43c 40c2 e8bb
00000180: 1ab1 f4bd 70ca f2bc f056 11bd 14b6 87bd
00000190: fe8a f3bd 3438 e83d a47e db3d 1c71 69bd
000001a0: d0dc 2d3d 9c6e be3d dc8b 333d e8ac 91bc
000001b0: b03f fbbd aac8 fe3d e405 a9bd 4ea9 c1bd
000001c0: c025 2ebb d43c 683d 30ee dc3c 424f ce3d
000001d0: a03f e13b 18bb 93bc 50a6 cd3d 3883 e6bc
000001e0: fad6 c4bd 00d0 8c3d 906f 46bd 8065 31bc
000001f0: e07a 8a3c 005b 223a 90a8 a9bc 1c1e 243d
00000200: 96eb 99bd 24cf da3d 8023 8f3a 723c 973d
00000210: 642c f43d 0482 58bd 929d bbbd d2b3 d43d
00000220: a4d5 e9bd 1067 bfbd 6463 af3d 6091 8e3b
00000230: 5ebe 8b3d d677 e93d f80e da3d 8c30 8abd
00000240: 801b 3a3d 502e 583c 94dc e1bd 74e2 8ebd
00000250: 06c6 b6bd 30d9 cb3d 5ebb ecbd 7eec e73d
00000260: 38be a03d 442d d33d e2c5 a63d 5063 4c3c
00000270: fa71 ba3d a48d b0bd 807a 1abb 4471 f43d
00000280: f0af 5bbd 1810 8c3d c0b3 d13d e8ee c2bc
00000290: ec8e 473d 72fa a1bd 7cc3 2dbd 54b5 05bd
000002a0: d048 733d 8a4c b5bd b827 eabc aa9c babd
000002b0: 90b3 643c e2a3 db3d c810 aabd 1cba 9c3d
000002c0: e8b2 edbd c0ae babb f48a 843d 9617 91bd
000002d0: 681f 98bc d0bf 5b3d 7aa3 f4bd faa6 8e3d
000002e0: c0ed 8abd 741a c1bd 38e0 c03d 0c76 ac3d
000002f0: 10d3 cb3d f418 fe3d 10bf 593c ea0f c3bd
00000300: b638 ff3d 36eb c8bd fc1d 9fbd c4d4 97bd
00000310: 2c4c 21bd 36ef 97bd 96c2 ebbd 0265 9b3d
00000320: 28e2 9b3d 2ceb a03d b87f c03c 18fc 723d
00000330: 408e 7e3c 607e debd 5640 c33d d0f5 b5bd
00000340: ac6b 0dbd 9a38 ecbd 7064 44bd 20ef a9bd
00000350: 4026 ec3b 3821 463d 28a5 d9bc d41f 9ebd
00000360: 489d b2bc c0de a53c 6ae6 b43d 503a de3d
00000370: 08d2 ee3d b00e b6bc a0c3 6fbc be05 dfbd
00000380: eca1 413d f20f f0bd acd7 28bd 94e1 ecbd
00000390: f009 9e3d c4d8 a9bd 1c45 46bd f0ab 9ebc
000003a0: a088 ca3b e058 dabd 747d 163d 4083 4fbd
000003b0: 9669 8d3d 22c9 cabd c873 9d3c 00b0 4bb9
000003c0: a8d1 debc 94cc bdbd 1c31 13bd eab1 f8bd
000003d0: f2a8 df3d ba1f c23d 88f3 8ebc 3cb7 313d
000003e0: 92b1 9e3d a25a b4bd 9aac a0bd a0d5 0e3d
000003f0: 3054 a0bc 624a e23d 74ca 0f3d 3cf9 113d

bias f4 [64]
-0.11428723 0.043130025 -0.09772037 0.060477003 -0.057755858 -0.0021883994 0.06964488 0.05342017
-0.107872605 -0.08778812 -0.08762176 -0.013373911 0.1080741 -0.0063448697 -0.11717725 -0.0033129454
0.08639677 -0.07893172 0.050454885 -0.11571273 0.06588194 0.040572807 -0.08170146 -0.05327347
0.04901199 -0.048137203 -0.01957266 -0.054123506 0.053438872 0.08647044 -0.122344196 0.0067652017
-0.004733473 0.04188727 -0.0185619 -0.035478294 -0.08214241 -0.119395554 -0.09702076 0.11971289
0.0024014413 0.023559779 0.08262181 -0.04545994 0.0833101 -0.059614196 0.049185544 0.0412931
-0.11345816 0.10970606 0.029815346 0.017209053 0.0012056082 -0.06915307 0.003539741 -0.058144525
-0.03538862 -0.04977253 -0.057903647 0.07574074 -0.049544975 0.096645236 -0.08462004 0.017916843
00000000: 6c0f eabd 1ca9 303d 9e21 c8bd bcb6 773d
00000010: 6891 6cbd 406b 0fbb faa1 8e3d 1ccf 5a3d
00000020: 50ec dcbd 42ca b3bd 0a73 b3bd 401e 5bbc
00000030: f455 dd3d a0e8 cfbb a0fa efbd 001e 59bb
00000040: caf0 b03d f4a6 a1bd c8a9 4e3d ccfa ecbd
00000050: 1ced 863d ac2f 263d 1853 a7bd 4835 5abd
00000060: ccc0 483d 842b 45bd d856 a0bc 9cb0 5dbd
00000070: b8e2 5a3d 6a17 b13d 988f fabd a0ae dd3b
00000080: 401b 9bbb fc91 2b3d 200f 98bc b051 11bd
00000090: 483a a8bd a885 f4bd d2b2 c6bd 082c f53d
000000a0: 8061 1d3b 7000 c13c a035 a93d 3434 3abd
000000b0: 7c9e aa3d 042e 74bd c876 493d f422 293d
000000c0: c05c e8bd 92ad e03d 503f f43c 00fa 8c3c
000000d0: 8005 9e3a 20a0 8dbd 00fb 673b f428 6ebd
000000e0: a8f3 10bd 48de 4bbd 602c 6dbd f61d 9b3d
000000f0: acef 4abd f0ed c53d 464d adbd 58c6 923c

weight f4 [64, 64]
-0.09780909 0.0363466 -0.08044794 0.036558583 0.07098879 -0.045635357 0.009545177 -0.10146992
-0.028777093 -0.038274467 -0.038155988 -0.07480611 -0.042149916 0.021417215 -0.032390967 0.03073369
0.0042667836 0.030375317 -0.06711765 -0.0836321 0.018633038 0.031331956 0.01725106 0.0566089
0.12451209 -0.06843707 -0.069213346 0.0857584 -0.02056241 -0.12463875 -0.030922443 -0.06321962
-0.09362607 0.05882643 -0.034253493 0.04293607 0.07560326 -0.0057632923 0.05021085 0.08095971
-0.0858628 0.014382288 -0.08852781 0.045426115 -0.06096551 -0.100370675 -0.022484958 0.09860428
0.008625388 -0.11527717 0.05245377 0.094477996 -0.12459634 -0.018532261 -0.040170938 -0.09108931
0.10785268 -0.015029162 -0.05780618 0.0910919 -0.11120197 0.0741259 0.036057353 0.115590155
-0.10374497 -0.017286792 -0.04400821 0.11275822 0.10462944 -0.058565482 -0.008417994 -0.108643726
0.059277415 0.029065192 0.07514267 -0.1057436 0.06060955 -0.020502746 0.040162206 -0.0028349906
-0.04561928 -0.025902078 0.02908197 -0.014211193 0.04564783 -0.04522468 0.06806417 -0.09715775
-0.12405948 -0.013273865 0.031115666 0.099493 -0.08683418 -0.049205437 0.050838783 0.037655517
0.014547721 -0.09487435 0.006388083 0.014789924 -0.05647494 -0.08084604 -0.107183546 0.037054628
0.123860404 0.084090024 0.07555233 -0.07131897 -0.11377278 -0.10453895 -0.045746773 0.05827567
0.07365373 -0.098735586 -0.020581678 -0.07642573 0.095896974 -0.0023185462 -0.08970854 0.07806826
0.11683063 0.094678715 0.11803146 -0.07829432 -0.010147482 0.09606652 0.034181997 0.09935844
0.056956694 -0.057976186 -0.095072135 0.025004357 -0.11776136 0.04153776 0.12286973 0.09135592
0.07459147 -0.08314332 -0.009206772 -0.08198115 -0.071682006 -0.038990676 0.08625057 -0.086027846
-0.00031864643 0.0691472 -0.08719514 0.07353252 -0.046934724 -0.07828805 0.03919694 -0.031024799
-0.08128746 -0.06510487 0.11958054 -0.005468443 -0.012346357 -0.037741005 -0.017717555 0.070925444
0.11377604 -0.005371332 0.037024185 -0.007788703 -0.044052348 0.11506112 -0.102966264 0.10897797
-0.11849554 0.09324399 -0.064402044 -0.0047140867 -0.05884032 0.12296036 0.043141067 -0.05737114
-0.10448703 -0.009405866 -0.1001599 0.10340935 0.11030164 0.087668836 0.017686144 -0.059013903
0.02523227 -0.057529166 -0.089983016 0.088559985 0.07924108 0.112554416 0.0047204494 0.091735765
0.08444062 0.11477563 -0.11199744 -0.00071284175 0.08528897 0.08536263 0.091544464 -0.10415539
0.08099452 0.016845003 -0.013904363 0.03314492 -0.082056016 0.029318348 -0.110101104 -0.048851028
-0.026369542 0.007041484 0.10806163 -0.1071977 0.008077785 -0.027833745 -0.10845475 0.124558374
0.060016975 -0.121147096 0.082591414 -0.032918528 0.026090622 -0.020335242 -0.0665995 0.020247519
0.020443097 -0.00898242 0.098011374 0.07270698 -0.069638476 -0.049006343 -0.03610368 -0.05706282
0.082613036 0.07208124 -0.06512578 -0.10629572 0.0042251796 -0.06133695 0.08975884 0.12431276
0.10496977 0.02359353 -0.08329128 0.0484069 0.11135258 0.06821257 0.12189111 -0.02677758
0.12396091 -0.11224605 -0.08280067 0.0633381 -0.09547672 -0.11253703 0.0061140954 0.117700234
00000000: 2250 c8bd 2ce0 143d e4c1 a4bd 74be 153d
00000010: 9262 913d 24ec 3abd 6063 1c3c 76cf cfbd
00000020: f0bd ebbc b0c5 1cbd 7449 1cbd f233 99bd
00000030: 64a5 2cbd 2873 af3c 64ac 04bd 38c5 fb3c
00000040: 60d0 8b3b a8d5 f83c fa74 89bd 4e47 abbd
00000050: 50a4 983c f055 003d 1852 8d3c bcde 673d
00000060: 3200 ff3d bc28 8cbd babf 8dbd 1aa2 af3d
00000070: 8072 a8bc 9a42 ffbd 1051 fdbc 4a79 81bd
00000080: 06bf bfbd fcf3 703d 644d 0cbd bcdd 2f3d
00000090: e2d5 9a3d 00da bcbb e4a9 4d3d 34ce a53d
000000a0: d6d8 afbd b0a3 6b3c 124e b5bd bc10 3a3d
000000b0: f8b6 79bd 248f cdbd 6032 b8bc 0af1 c93d
000000c0: 8051 0d3c 7016 ecbd c4d9 563d ae7d c13d
000000d0: 5e2c ffbd f8d0 97bc 488a 24bd 088d babd
000000e0: dee1 dc3d e03c 76bc 2cc6 6cbd 648e ba3d
000000f0: dcbd e3bd 52cf 973d e0b0 133d 88ba ec3d
00000100: 3e78 d4bd 089d 8dbc f441 34bd c8ed e63d
00000110: f647 d63d 5ce2 6fbd a0eb 09bc 9a80 debd
00000120: e0cc 723d 201a ee3c 66e4 993d 1a90 d8bd
00000130: b841 783d 60f5 a7bc 2081 243d 40cb 39bb
00000140: 48db 3abd 9830 d4bc 503d ee3c 10d6 68bc
00000150: 38f9 3a3d 843d 39bd 3a65 8b3d a4fa c6bd
00000160: e612 febd a07a 59bc 48e6 fe3c fcc2 cb3d
00000170: 1ed6 b1bd a48b 49bd 543c 503d ac3c 1a3d
00000180: 9059 6e3c 7c4d c2bd 2053 d13b 7051 723c
00000190: 4452 67bd 9c92 a5bd 0c83 dbbd 98c6 173d
000001a0: 86aa fd3d 6437 ac3d 2ebb 9a3d ae0f 92bd
000001b0: b401 e9bd 8418 d6bd f860 3bbd 78b2 6e3d
000001c0: c4d7 963d e235 cabd e89a a8bc 1885 9cbd
000001d0: a265 c43d c0f2 17bb 1cb9 b7bd 40e2 9f3d
000001e0: e644 ef3d eae6 c13d 7aba f13d c658 a0bd
000001f0: a041 26bc 86be c43d 6c02 0c3d 707c cb3d
00000200: 6c4b 693d 7078 6dbd 2eb5 c2bd f0d5 cc3c
00000210: de2c f1bd 8023 2a3d 20a3 fb3d d018 bb3d
00000220: 6ac3 983d 0c47 aabd 00d8 16bc bce5 a7bd
00000230: 04ce 92bd b0b4 1fbd 24a4 b03d 5e2f b0bd
00000240: 0010 a7b9 0c9d 8d3d 5e93 b2bd 3898 963d
00000250: a03e 40bd 7c55 a0bd f88c 203d b827 febc
00000260: 0a7a a6bd b455 85bd a4e6 f43d a030 b3bb
00000270: 6048 4abc 5096 1abd 6824 91bc 5c41 913d
00000280: 6a03 e93d 0002 b0bb aca6 173d 6038 ffbb
00000290: 3c70 34bd 2aa5 eb3d fadf d2bd d82f df3d
000002a0: caad f2bd b4f6 be3d 38e5 83bd a078 9abb
000002b0: 8c02 71bd a4d2 fb3d b0b4 303d 00fe 6abd
000002c0: 4cfd d5bd 101b 1abc a220 cdbd 48c8 d33d
000002d0: d4e5 e13d b88b b33d 88e2 903c 90b8 71bd
000002e0: e8b3 ce3c b4a3 6bbd 0449 b8bd f05e b53d
000002f0: 2649 a23d ee82 e63d 00ae 9a3b f6df bb3d
00000300: 34ef ac3d 7c0f eb3d ea5e e5bd 00de 3aba
00000310: fcab ae3d 9ad2 ae3d aa7b bb3d 6c4f d5bd
00000320: 74e0 a53d 88fe 893c 20cf 63bc f8c2 073d
00000330: fc0c a8bd 082d f03c b07c e1bd 0418 48bd
00000340: f004 d8bc 40bc e63b 6a4f dd3d 788a dbbd
00000350: b058 043c 9803 e4bc 861d debd 7618 ff3d
00000360: 5cd4 753d f81b f8bd b025 a93d 94d5 06bd
00000370: 00bc d53c 1896 a6bc 5265 88bd 20de a53c
00000380: 4878 a73c 002b 13bc 30ba c83d 66e7 943d
00000390: 9e9e 8ebd e0ba 48bd 74e1 13bd b4ba 69bd
000003a0: 0631 a93d 549f 933d aa60 85bd 92b1 d9bd
000003b0: 6073 8a3b 743c 7bbd 7cd3 b73d b097 fe3d
000003c0: 64fa d63d 3847 c13c 9e94 aabd 5046 463d
000003d0: d20c e43d 08b3 8b3d 0ca2 f93d a85c dbbc
000003e0: 38df fd3d 42e1 e5bd 6693 a9bd 68b7 813d
000003f0: 4c89 c3bd d079 e6bd c058 c83b d20c f13d

bias f4 [64]
-0.06952666 0.08293386 0.10674019 -0.02512382 -0.075777665 0.031924844 -0.04610981 0.023358881
-0.040943563 -0.106110066 -0.022415668 -0.06713906 0.05061969 -0.049783885 -0.06325747 -0.040141016
-0.078027666 0.11263856 -0.006247863 0.066583455 -0.11647819 -0.10361847 0.05186303 0.1215847
0.08710095 -0.12262195 -0.060498804 0.12256737 -0.11704534 -0.016040564 -0.042517483 0.07193497
-0.0084717125 -0.03824447 -0.065796375 -0.030229166 -0.04649231 0.035467148 -0.07767825 -0.03169629
0.035969555 -0.085173205 0.057591125 -0.027313918 0.0052273124 -0.091521695 0.035759285 0.04688181
-0.041098237 0.01307705 0.124844804 0.072218716 0.023654059 -0.02402915 0.013872474 0.052245826
-0.081874534 0.08283676 -0.075503156 0.118546784 0.05165112 -0.03286837 0.008353278 -0.1128546
00000000: fe63 8ebd 3ad9 a93d 9a9a da3d 78d0 cdbc
00000010: 5231 9bbd a0c3 023d a4dd 3cbd 205b bf3c
00000020: 70b4 27bd 3c50 d9bd 10a1 b7bc 3480 89bd
00000030: 9856 4f3d 30ea 4bbd 228d 81bd e86a 24bd
00000040: f8cc 9fbd 0caf e63d e0ba ccbb e85c 883d
00000050: 1e8c eebd ec35 d4bd 546e 543d 6601 f93d
00000060: fc61 b23d 3821 fbbd 98cd 77bd 9a04 fb3d
00000070: 78b5 efbd 8067 83bc d026 2ebd a452 933d
00000080: f0cc 0abc 3ca6 1cbd 40c0 86bd 28a3 f7bc
00000090: b86e 3ebd 0046 113d c615 9fbd f8d3 01bd
000000a0: d054 133d 4a6f aebd ace4 6b3d 70c1 dfbc
000000b0: e049 ab3b ba6f bbbd 5478 123d 2407 403d
000000c0: a056 28bd 2041 563c a2ae ff3d 68e7 933d
000000d0: 28c6 c13c c8d8 c4bc 6049 633c b8ff 553d
000000e0: d6ad a7bd 52a6 a93d 66a1 9abd a8c8 f23d
000000f0: 2090 533d fca0 06bd 30dc 083c 5020 e7bd

weight f4 [64, 6]
-0.21936044 -0.31762776 0.05364373 -0.4490923 -0.07436492 -0.09934245 0.32411882 -0.2568225
-0.07427423 0.32723075 0.3753562 -0.56634945 0.1604966 -0.24666774 -0.0022398122 -0.43989155
0.33244222 -0.12476555 0.27670333 0.13609318 0.050972834 0.29341388 0.3821832 0.05030635
0.13168675 0.32112312 0.13734446 -0.19281018 0.44136238 0.121285476 -0.21845084 0.054201365
0.060113758 -0.33707106 -0.25486162 0.5491573 -0.2784353 -0.041258737 -0.08796864 0.037876
-0.14387043 -0.3427284 0.26304567 -0.35286415 -0.17557341 0.24919063 -0.15895148 -0.39200228
0.15866837 0.08528167 0.2750714 -0.18762124 0.10757449 0.31976962 0.30561945 -0.13918431
0.07843757 0.099289104 -0.5740636 0.8340145 0.49422905 0.67760444 0.10403792 -0.07640903
-0.02281262 -0.23454235 -0.068365395 0.031290226 -0.31730273 -0.23301764 -0.24521035 0.20475781
0.10314813 0.498034 -0.3784323 0.12387749 0.30534485 0.12935655 -0.23507951 0.110745855
-0.020376096 -0.19758137 0.48366302 -0.30022302 -0.0799738 -0.035878044 0.07853638 0.046916254
-0.09531278 -0.052005544 -0.20191444 0.11303356 0.19477712 0.07644266 0.16985445 -0.21893412
0.12547658 -0.2462307 -0.50353426 0.32492965 -0.23566523 -0.07449614 0.44243097 0.5224717
0.085482344 0.16783874 -0.4819148 -0.19936045 0.3915589 0.23631106 0.17440274 -0.23852366
0.29535916 0.6807903 -0.4218191 -0.7931676 -0.21154724 0.29549438 -0.17768535 0.31176934
0.015870346 -0.40649614 0.2642591 -0.03662836 -0.32674104 0.009383132 -0.24898052 0.087535694
0.115851425 -0.04221349 -0.34022024 0.22031932 0.047878217 -0.05600798 0.040904034 -0.6271936
0.7219498 0.046816204 -0.1542809 -0.23871818 0.20608895 0.059117045 0.17186287 -0.4300813
0.22734742 0.3422286 0.18589857 -0.3530793 -0.49098954 0.042677023 0.43363532 -0.092127554
0.21692562 0.4249924 0.4800243 0.15293023 0.13399242 0.30402687 -0.19233473 -0.15923622
0.38980207 -0.43173906 -0.32083607 0.06572521 0.09172476 -0.1747677 0.3702526 -0.45711362
0.15989196 -0.25334445 -0.38676256 -0.46309698 0.19260347 0.33506677 0.10373329 -0.18260232
0.024763359 -0.529279 0.19604635 0.2740929 -0.05923154 0.016061585 -0.30477956 -0.35900363
-0.036479678 0.22694397 0.48642865 0.5790537 -0.123319335 -0.034720387 -0.31371573 -0.44954512
-0.15068418 0.27284306 -0.16147417 0.0041892757 -0.07687908 0.073871836 -0.20259787 0.10333387
-0.38369912 -0.21664152 -0.20381209 -0.019537646 -0.15837768 0.12548584 -0.017604258 0.22088526
-0.40795144 0.099289104 -0.013232408 -0.11917015 -0.09518165 0.13192965 -0.24240685 -0.19689845
0.109522015 0.039491203 0.043972887 0.32796848 -0.524987 0.5578661 -0.24965714 -0.31344238
-0.33799362 -0.19450837 -0.3690494 -0.35053858 -0.15651357 0.42929193 0.07831969 0.49863842
0.15761524 -0.003947238 0.03255758 0.09644026 -0.03960723 0.3589134 0.016505133 -0.33243302
0.35045168 0.075481825 0.11212102 0.4368876 0.46881312 -0.028375605 -0.059998892 -0.05577425
-0.24132156 -0.21236147 -0.15263718 0.05211481 -0.18826221 0.26272768 0.46662077 0.24774697
00000000: 06a0 60be 1ba0 a2be 87b9 5b3d 6def e5be
00000010: a34c 98bd 0e74 cbbd e7f2 a53e 3d7e 83be
00000020: 161d 98bd ca8a a73e b02e c03e 47fc 10bf
00000030: 3959 243e 7896 7cbe d0c9 12bb 7739 e1be
00000040: de35 aa3e 1585 ffbd 0fac 8d3e 035c 0b3e
00000050: e4c8 503d 583a 963e 84ad c33e 080e 4e3d
00000060: e4d8 063e 406a a43e 07a4 0c3e 0870 45be
00000070: 40fa e13e 8564 f83d 94b1 5fbe 4002 5e3d
00000080: d839 763d 9494 acbe 397d 82be 9395 0c3f
00000090: 128f 8ebe ecfe 28bd e728 b4bd dd23 1b3d
000000a0: c552 13be 197a afbe ecad 863e 9caa b4be
000000b0: 84c9 33be d42b 7f3e 2dc4 22be 86b4 c8be
000000c0: f679 223e 28a8 ae3d 29d6 8c3e c81f 40be
000000d0: 0450 dc3d d8b8 a33e 277a 9c3e 5586 0ebe
000000e0: e0a3 a03d 1658 cb3d d5f5 12bf f981 553f
000000f0: 970b fd3e 7c77 2d3f d511 d53d 567c 9cbd
00000100: 88e1 babc df2b 70be 2803 8cbd 2e2a 003d
00000110: 8175 a2be 2d9c 6ebe 6c18 7bbe 08ac 513e
00000120: 543f d33d 50fe fe3e e1c1 c1be 7bb3 fd3d
00000130: 2956 9c3e 0b76 043e afb8 70be b9ce e23d
00000140: c5eb a6bc c552 4abe aea2 f73e d5b6 99be
00000150: 4ec9 a3bd dbf4 12bd aed7 a03d 422b 403d
00000160: 5933 c3bd c403 55bd a9c2 4ebe 247e e73d
00000170: a773 473e f88d 9c3d 53ee 2d3e 4430 60be
00000180: ef7c 003e e723 7cbe 9fe7 00bf 2e5d a63e
00000190: 3a52 71be 6f91 98bd 5086 e23e b5c0 053f
000001a0: 5e11 af3d ebdd 2b3e 89bd f6be 2525 4cbe
000001b0: 687a c83e 87fb 713e a296 323e 8c3f 74be
000001c0: 5139 973e 4648 2e3f acf8 d7be 080d 4bbf
000001d0: d79f 58be 0a4b 973e 26f3 35be 3ba0 9f3e
000001e0: 8702 823c 4320 d0be f84c 873e 9f07 16bd
000001f0: 9a4a a7be b5bb 193c c0f4 7ebe ea45 b33d
00000200: 8343 ed3d 0de8 2cbd 5931 aebe 639b 613e
00000210: f31b 443d a068 65bd fd8a 273d c38f 20bf
00000220: b4d1 383f 59c2 3f3d d0fb 1dbe 8a72 74be
00000230: fb08 533e b724 723d d2fc 2f3e 9e33 dcbe
00000240: c3cd 683e 9638 af3e 325c 3e3e cfc6 b4be
00000250: fb62 fbbe 1ace 2e3d 7305 de3e 5fad bcbd
00000260: c021 5e3e 9b98 d93e bfc5 f53e be99 1c3e
00000270: 4f35 093e 69a9 9b3e 65f3 44be d20e 23be
00000280: 2394 c73e e70c ddbe a044 a4be f09a 863d
00000290: 31da bb3d 4ef6 32be c091 bd3e cc0a eabe
000002a0: b8ba 233e 5db6 81be be05 c6be 0c1b edbe
000002b0: d839 453e df8d ab3e 1f72 d43d 1afc 3abe
000002c0: 87dc ca3c d47e 07bf 60c0 483e e855 8c3e
000002d0: c59c 72bd 9693 833c 110c 9cbe 53cf b7be
000002e0: b76b 15bd 0064 683e 2d0d f93e dd3c 143f
000002f0: d98e fcbd f736 0ebd 599f a0be c72a e6be
00000300: f44c 1abe 16b2 8b3e 7c59 25be 3146 893b
00000310: c772 9dbd 1e4a 973d d175 4fbe b5a0 d33d
00000320: 3674 c4be 46d7 5dbe 1eb4 50be 6a0d a0bc
00000330: c22d 22be 5c7f 003e ce36 90bc bf2f 623e
00000340: 03df d0be 1658 cb3d becc 58bc 7b0f f4bd
00000350: 99ee c2bd 9118 073e 8039 78be bf9f 49be
00000360: 144d e03d 87c1 213d ea1c 343d 7ceb a73e
00000370: 8c65 06bf 50d0 0e3f 1fa6 7fbe 857b a0be
00000380: 800d adbe 342d 47be 0bf4 bcbe cb79 b3be
00000390: 1845 20be 27cc db3e 1366 a03d 894d ff3e
000003a0: e465 213e d557 81bb 195b 053d 7982 c53d
000003b0: 313b 22bd 7fc3 b73e c635 873c a934 aabe
000003c0: 676e b33e 3796 9a3d b59f e53d bbaf df3e
000003d0: 4608 f03e f573 e8bc 66c1 75bd 8a73 64bd
000003e0: 001d 77be 4975 59be ec4c 1cbe 5776 553d
000003f0: cfc7 40be 3e84 863e ebe8 ee3e 62b1 7d3e

bias f4 [64]
-0.2974086 0.11536321 0.39296693 -0.002437564 -0.29093802 1.0244927 0.308605 -0.24080366
-0.25597548 -0.26742983 -0.15965723 -0.16482452 -0.1731874 0.19092038 -0.06650452 -0.27826914
0.7509038 -0.18119799 0.06403528 0.015827317 0.07631194 -0.26720625 0.6625361 0.39535815
0.0041208835 0.11468997 0.52846205 -0.09069936 0.4656329 -0.28890738 -0.3332216 0.34021273
-0.03092064 0.06595923 -0.1913305 -0.11207667 -0.1880152 0.10204552 -0.27019036 0.5542177
-0.24932368 0.277592 -0.24031036 -0.055786047 0.15997921 0.06290137 0.17208068 -0.24831642
-0.32701272 -0.3161282 0.13204262 -0.3265208 -0.17595875 0.3525725 -0.30157065 -0.15993947
-0.2651489 0.3093463 -0.124121495 -0.3269858 0.32081768 -0.21684875 0.08479731 -0.27232236
00000000: f145 98be 8c43 ec3d f632 c93e 8abf 1fbb
00000010: d4f5 94be 9422 833f 7901 9e3e 3c95 76be
00000020: 380f 83be 90ec 88be 2f7d 23be c2c7 28be
00000030: 0a58 31be a280 433e 8633 88bd 4b79 8ebe
00000040: 3b3b 403f f78b 39be ee24 833d 4aa8 813c
00000050: 6f49 9c3d 42cf 88be f79b 293f 626c ca3e
00000060: 7a08 873b 93e2 ea3d 4a49 073f 96c0 b9bd
00000070: 6f67 ee3e abeb 93be 069c aabe 5d30 ae3e
00000080: 484d fdbc a215 873d 25ec 43be 7488 e5bd
00000090: 0e87 40be 3efd d03d 6456 8abe 36e1 0d3f
000000a0: b54e 7fbe 8a20 8e3e eb13 76be e97f 64bd
000000b0: 97d1 233e 6fd2 803d eb35 303e a946 7ebe
000000c0: 366e a7be 8edb a1be 2e36 073e bc2d a7be
000000d0: 882e 34be 6284 b43e 7867 9abe 2cc7 23be
000000e0: 99c1 87be a362 9e3e 6933 febd af6a a7be
000000f0: 3742 a43e 990d 5ebe 36aa ad3d d66d 8bbe

weight f4 [64, 64]
0.22448477 -0.05913181 0.42832246 -0.122070365 0.16074318 -0.12514122 0.33943525 0.12306584
0.1369467 -0.23023191 -0.20312186 0.0513202 -0.052528176 0.24966274 -0.073311195 -0.03277102
0.08177631 -0.13386957 -0.11359501 -0.33018482 -0.1434441 -0.020160135 0.41576073 -0.010586518
-0.0034287267 0.09477751 0.06678429 -0.1692577 0.2582786 0.220081 0.27253088 -0.037833214
0.16326354 -0.11643382 0.091588914 -0.31128877 -0.14290288 0.14890692 -0.4001138 -0.21565472
-0.089574344 0.074271046 -0.10061926 -0.36298338 0.040826667 0.7061085 -0.02961476 0.21232437
-0.5351755 -0.22391564 0.072631806 0.095183685 0.41546527 -0.5951177 -0.30212754 -0.44745627
0.5153801 0.026949683 -0.28115493 0.011812606 -0.17831782 -0.23340662 -0.16183513 0.17814276
-0.1628433 0.43476534 0.40839103 0.12825404 -0.19623616 -0.72881603 0.14456397 -0.21894094
-0.4767719 0.14347024 0.13082987 -0.03236367 -0.069038674 -0.41056165 -0.16125706 -0.19703346
0.09550013 -0.07562917 0.008089946 -0.115186766 0.03561139 -0.29237238 0.029675528 -0.104415506
-0.02028106 0.110336676 0.26547202 0.12862492 0.08092636 -0.12523164 -0.5873184 -0.1258505
0.048290394 -0.00746648 -0.024256406 -0.02558479 -0.19569078 -0.24865808 -0.0074083954 -0.037083063
0.13880235 -0.006742072 -0.38536847 -0.34293213 0.2842091 0.16912444 0.07076081 0.0839333
-0.07421016 -0.17346823 0.08075623 -0.03997747 -0.27430737 -0.6013958 -0.051889267 -0.6028215
0.28381446 -0.11875586 -0.34141162 -0.1429559 -0.016382579 -0.26645336 -0.23309252 -0.020727178
-0.320731 -0.43094411 -0.17300881 0.069985345 0.38817444 0.27443662 0.5455791 -0.58615613
0.18732195 -0.040651582 0.31158474 -0.24601527 0.0004913048 0.6180072 0.05758661 0.20887303
0.3185563 -0.11854001 0.37666577 0.25782898 -0.11292336 0.058821246 0.18814187 -0.19753686
0.49697286 0.22644211 0.09622231 0.63018006 0.14573398 -0.04869978 0.202171 -0.25455812
0.0055180346 0.035345085 -0.02094671 -0.4535857 0.29768443 -0.63198364 0.26685482 0.07588003
0.031381566 -0.07798047 -0.21718661 -0.032695312 0.3079418 -0.08852113 0.023657668 -0.49667257
0.20156625 -0.056102052 0.13550209 -0.08493026 -0.48703218 -0.30696526 0.30246353 -0.629359
-0.12336511 -0.006316796 -0.38331917 -0.101981744 0.35174233 0.12442063 0.031011617 0.041406054
0.05303787 0.2978614 0.5705392 -0.10592301 -0.1574828 -0.07814081 0.56946635 0.5530508
0.021036435 -0.08444043 -0.3181016 0.11617932 0.078823544 -0.042713273 -0.027589168 -0.09952061
-0.074503504 -0.46800813 -0.095730595 -0.2723661 -0.29221264 -0.13763547 0.37114552 0.463974
-0.16040285 -0.06777465 -0.13667105 -0.42768538 0.037125997 0.33292052 0.32449922 -0.17180218
-0.12106714 -0.084444754 0.02064351 0.14423662 -0.13081425 0.31919217 -0.5704002 -0.15443301
0.031925745 0.07625694 -0.055095684 -0.16729935 -0.03590842 0.010718412 0.018565854 0.32758376
-0.75551546 -0.018342841 -0.13108099 -0.050236393 -0.15765126 -0.19249108 -0.103916414 -0.009681948
0.6008249 -0.17062205 -0.026999984 -0.0930187 -0.12025045 -0.24919191 -0.51838773 0.019161962
00000000: 56df 653e 3234 72bd 154d db3e 0700 fabd
00000010: dc99 243e 0525 00be 75ca ad3e f109 fc3d
00000020: c13b 0c3e eac1 6bbe 2dff 4fbe 2135 523d
00000030: c927 57bd 97a7 7f3e 2e24 96bd e83a 06bd
00000040: 577a a73d 1b15 09be 80a4 e8bd fc0d a9be
00000050: 03e3 12be de26 a5bc 97de d43e 1373 2dbc
00000060: 7db4 60bb b61a c23d 34c6 883d e451 2dbe
00000070: 183d 843e ea5c 613e 2b89 8b3e 00f7 1abd
00000080: 8f2e 273e db74 eebd f892 bb3d 3e61 9fbe
00000090: 2255 12be 0e7b 183e b7db ccbe 97d4 5cbe
000000a0: c172 b7bd 6b1b 983d 7811 cebd f5d8 b9be
000000b0: dd39 273d 87c3 343f a79a f2bc 8f6b 593e
000000c0: 4301 09bf 244a 65be fcbf 943d aaef c23d
000000d0: ddb7 d43e a259 18bf 76b0 9abe fd18 e5be
000000e0: f3ef 033f 95c5 dc3c 8af3 8fbe a989 413c
000000f0: f298 36be 2502 6fbe 1cb8 25be 0e6b 363e
00000100: 65c0 26be 9099 de3e a118 d13e 0755 033e
00000110: 22f2 48be b093 3abf 9408 143e 0e32 60be
00000120: 721b f4be dde9 123e 44f8 053e c58f 04bd
00000130: 2664 8dbd 2335 d2be 9220 25be 24c3 49be
00000140: 9295 c33d 77e3 9abd b18b 043c 0ae7 ebbd
00000150: 40dd 113d d5b1 95be 181a f33c ccd7 d5bd
00000160: 7724 a6bc 32f8 e13d f3eb 873e 40b6 033e
00000170: b8bc a53d b93c 00be 805a 16bf f4de 00be
00000180: 26cc 453d 60a9 f4bb 5fb5 c6bc 3297 d1bc
00000190: 2a63 48be 39a0 7ebe 20c2 f2bb 69e4 17bd
000001a0: 3422 0e3e 99ec dcbb 044f c5be cd94 afbe
000001b0: db83 913e f52e 2d3e 0beb 903d 39e5 ab3d
000001c0: 7ffb 97bd a8a1 31be 8663 a53d 6abf 23bd
000001d0: 0472 8cbe 13f5 19bf d789 54bd 8352 1abf
000001e0: 2150 913e 4636 f3bd 81cd aebe 0863 12be
000001f0: c234 86bc 936c 88be ceaf 6ebe 0bcc a9bc
00000200: db36 a4be b5a4 dcbe 3929 31be 7a54 8f3d
00000210: cdbe c63e f582 8c3e 12ab 0b3f 540e 16bf
00000220: 53d1 3f3e 4682 26bd 0988 9f3e 6deb 7bbe
00000230: e8ca 003a b835 1e3f f0df 6b3d d0e2 553e
00000240: d019 a33e 1bc5 f2bd 56da c03e 2902 843e
00000250: 5d44 e7bd 8cee 703d 43a8 403e 1a47 4abe
00000260: 3a73 fe3e 71e0 673e 3410 c53d 7b53 213f
00000270: 4a3b 153e 6c79 47bd ea05 4f3e 7155 82be
00000280: a1d0 b43b 02c6 103d 6f98 abbc 633c e8be
00000290: 186a 983e aec9 21bf 32a1 883e fd66 9b3d
000002a0: f589 003d 3ab4 9fbd 2b66 5ebe 85eb 05bd
000002b0: 8caa 9d3e 914a b5bd bacd c13c de4b febe
000002c0: 6267 4e3e 44cb 65bd 0fc1 0a3e ebef adbd
000002d0: 485c f9be 8d2a 9dbe 80dc 9a3e ac1d 21bf
000002e0: d9a6 fcbd 20fd cebb 6942 c4be cedb d0bd
000002f0: 9217 b43e 3ed0 fe3d 130c fe3c 6599 293d
00000300: 3d3e 593d 4a81 983e db0e 123f 2aee d8bd
00000310: 2c43 21be 4a08 a0bd 8cc8 113f bd94 0d3f
00000320: 9a54 ac3c 1bef acbd 37de a2be 6cef ed3d
00000330: 3d6e a13d 1df4 2ebd ae02 e2bc 76d1 cbbd
00000340: 4b95 98bd c39e efbe 670e c4bd 9273 8bbe
00000350: e59c 95be 50f0 0cbe c906 be3e 008e ed3e
00000360: a540 24be 70cd 8abd 7ff3 0bbe 94f9 dabe
00000370: 6e11 183d 8f74 aa3e c324 a63e e9ec 2fbe
00000380: 0cf2 f7bd 5ff1 acbd 941c a93c c4b2 133e
00000390: 2cf4 05be 286d a33e bf05 12bf b023 1ebe
000003a0: 92c4 023d 992c 9c3d 03ac 61bd 8550 2bbe
000003b0: b514 13bd 479c 2f3c 6b17 983c 0fb9 a73e
000003c0: 7669 41bf ba43 96bc 183a 06be adc4 4dbd
000003d0: 556f 21be 621c 45be 21d2 d4bd 09a1 1ebc
000003e0: a9cf 193f 8cb7 2ebe 122f ddbc 9780 bebd
000003f0: de45 f6bd 2a2c 7fbe 0fb5 04bf 8cf9 9c3c

bias f4 [64]
-0.27880996 0.33172116 0.14101306 -0.324011 0.28223875 0.011003342 0.113948934 -0.40103686
0.078458704 -0.10536131 0.32756972 -0.36771983 -0.2723071 -0.29138836 0.0014206786 0.07765854
0.032853257 -0.20580935 0.23427992 0.2909614 0.5244487 -0.2565811 0.27336594 -0.3541466
0.19886059 -0.12691176 0.03746131 -0.21345289 -0.16460869 -0.04335608 -0.1305288 -0.42173997
0.39193073 -0.8105929 0.44591957 -0.6334526 0.4328485 -0.6843677 -0.2499322 -0.29783747
-0.4481168 0.09704991 -0.22503428 -0.004038347 0.6796018 -0.47158375 0.29279637 -0.019796003
-0.619066 -0.5782066 -0.12517965 -0.19600055 -0.7352233 -0.06302324 0.02369579 -0.31622803
0.5486712 0.44082794 -0.3424591 -0.11769386 0.11905081 -0.07645956 -0.027903445 -0.56739956
00000000: 2ec0 8ebe 5bd7 a93e ba65 103e c5e4 a5be
00000010: 9981 903e 5d47 343c 0f5e e93d b454 cdbe
00000020: f5ae a03d acc7 d7bd 38b7 a73e c645 bcbe
00000030: d66b 8bbe db30 95be 1036 ba3a 710b 9f3d
00000040: 2391 063d b0bf 52be 13e7 6f3e e5f8 943e
00000050: 4542 063f 995e 83be 9ff6 8b3e b452 b5be
00000060: 1ca2 4b3e 28f5 01be 0871 193d 6593 5abe
00000070: 2e8f 28be 2596 31bd 57a9 05be 4dee d7be
00000080: 25ab c83e 0483 4fbf 924f e43e f329 22bf
00000090: 529e dd3e b932 2fbf 3aee 7fbe 277e 98be
000000a0: 916f e5be 1ac2 c63d 636f 66be 1c54 84bb
000000b0: 62fa 2d3f 6d73 f1be 68e9 953e 3a2b a2bc
000000c0: 1c7b 1ebf 5905 14bf 182f 00be 5eb4 48be
000000d0: 9837 3cbf 5412 81bd ac1d c23c a4e8 a1be
000000e0: b775 0c3f 33b4 e13e cd56 afbe 7a09 f1bd
000000f0: e9d0 f33d d496 9cbd c495 e4bc 1941 11bf
