trained_models/net_1/dense_classifier_net_1_obs_case_1.pt (torch, 113882 bytes, 25 tensors)

weight f4 [14, 14]
-0.013607713 -0.17608233 -0.17811882 0.14269048 -0.019714111 0.04076309 -0.06305135 -0.05413075
-0.1805599 -0.14796567 0.0023697647 0.25181544 0.13397257 0.07711343 -0.1854412 -0.1649695
-0.13080229 -0.36078152 0.009578416 0.077013865 -0.1619616 0.25188127 -0.2106863 0.029223088
-0.045899153 -0.14467697 -0.03630142 -0.17214571 -0.055324543 -0.20967858 -0.0037109929 0.10700095
-0.2327936 -0.12444962 -0.25975013 -0.27922863 0.1276676 -0.17314304 0.14354838 -0.09195806
0.1392236 -0.25164247 -0.013904755 0.22045021 0.20147474 -0.10233461 0.12238974 0.17897496
0.13685185 -0.069636516 0.15310302 0.011765481 -0.1152156 -0.12820223 -0.14546585 0.001144659
-0.19893043 -0.06549562 -0.12490076 -0.33657402 0.047475588 -0.011347705 0.12700452 0.11880436
-0.25320435 -0.2285138 -0.13645916 -0.070433825 0.08757139 0.18568139 0.41800797 0.32986793
0.11952131 0.29191142 -0.19178608 0.18752225 0.07024441 -0.08510752 0.23073609 -0.15323374
0.2131445 0.05970644 -0.12599556 0.15352936 0.14672133 -0.22086844 -0.15043941 -0.23085095
0.038184974 -0.046881147 -0.1955633 -0.14174731 -0.33333546 -0.25607887 -0.011612097 -0.16747971
0.04302281 0.06519151 0.2135493 0.06199368 0.08580154 0.13971603 -0.0020087254 0.13514043
-0.15991737 -0.2567575 -0.26770338 -0.099485874 0.18595174 -0.15715598 0.14219928 0.03363114
-0.0031873868 -0.15697709 -0.0037622738 -0.11850793 -0.1390929 0.2148393 -0.08816636 -0.059947226
-0.2547903 -0.046591576 0.23138481 0.09447877 -0.013927693 0.1468719 0.0023854156 -0.038474396
0.0102827735 0.14044076 0.02524413 -0.034647208 -0.02648504 0.052909184 -0.30727178 -0.188162
0.088612996 0.14077707 0.17915294 -0.16013876 0.19021627 -0.19964239 -0.28658986 -0.05128464
0.06904869 0.05572453 -0.02309144 0.17918152 0.1342542 0.19468395 -0.21183643 -0.13564256
0.24001752 0.17842412 -0.032075893 -0.2991261 -0.3518677 -0.23285815 0.023922002 -0.18943156
-0.17315415 -0.23339331 0.06316564 0.02338864 -0.17036586 0.23566654 0.23194647 -0.069250844
-0.03360015 -0.09636917 -0.04569162 0.14487007 -0.19156294 0.12841694 0.2289278 0.052652005
0.0813671 -0.32740775 -0.18336387 -0.05027832 0.07689364 -0.2642669 0.07870281 -0.036766622
-0.14273858 0.057899266 -0.08523738 -0.041846074 -0.11631767 0.12557295 -0.316279 -0.1014429
-0.11003001 -0.08926562 -0.0033168178 0.19858602
00000000: e3f2 5ebc ed4e 34be c864 36be 741d 123e
00000010: 7d7f a1bc 33f7 263d 1121 81bd 35b8 5dbd
00000020: b2e4 38be 5084 17be 0e4e 1b3b f4ed 803e
00000030: 1b30 093e a5ed 9d3d 4ce4 3dbe c4ed 28be
00000040: 09f1 05be 5bb8 b8be caee 1c3c 72b9 9d3d
00000050: 43d9 25be 95f6 803e 26be 57be 4265 ef3c
00000060: c000 3cbd 3326 14be ccb0 14bd f746 30be
00000070: fd9b 62bd fbb5 56be 2134 73bb 5023 db3d
00000080: 7261 6ebe 71df febd f8fd 84be 0ef7 8ebe
00000090: 4cbb 023e 694c 31be 59fe 123e 8254 bcbd
000000a0: a290 0e3e 48d7 80be c5d0 63bc b3bd 613e
000000b0: 654f 4e3e cf94 d1bd 79a7 fa3d 3645 373e
000000c0: e422 0c3e 979d 8ebd 0ac7 1c3e 01c4 403c
000000d0: 28f6 ebbd 7247 03be 00f5 14be 6208 963a
000000e0: 6bb4 4bbe 9122 86bd f8cb ffbd 6e53 acbe
000000f0: c375 423d b9eb 39bc 790d 023e b34f f33d
00000100: 00a4 81be 86ff 69be f3bb 0bbe 9c3f 90bd
00000110: a158 b33d 4323 3e3e 2405 d63e 73e4 a83e
00000120: 97c7 f43d 6a75 953e 9263 44be d505 403e
00000130: 4ddc 8f3d da4c aebd 1546 6c3e 4ee9 1cbe
00000140: 8d42 5a3e bd8e 743d fb04 01be cd36 1d3e
00000150: 1e3e 163e 562b 62be ca0c 1abe 3164 6cbe
00000160: d967 1c3d 7206 40bd bf41 48be 3526 11be
00000170: f2aa aabe c51c 83be aa40 3ebc cd7f 2bbe
00000180: b038 303d 2083 853d abac 5a3e 16ed 7d3d
00000190: b8b8 af3d b811 0f3e d2a4 03bb 4162 0a3e
000001a0: 61c1 23be b875 83be 6b10 89be 40bf cbbd
000001b0: 226a 3e3e 7fed 20be b09c 113e cec0 093d
000001c0: 7ae3 50bb 9abe 20be 7b90 76bb 49b4 f2bd
000001d0: 5f6e 0ebe d5fe 5b3e 9190 b4bd 398b 75bd
000001e0: e073 82be cfd6 3ebd 24f0 6c3e 167e c13d
000001f0: fa30 64bc 9665 163e a254 1c3b 5497 1dbd
00000200: 1479 283c b4cf 0f3e c7cc ce3c 3bea 0dbd
00000210: 28f7 d8bc 4db7 583d ba52 9dbe 8aad 40be
00000220: bb7a b53d dd27 103e de73 373e 6afb 23be
00000230: 0ec8 423e 0e6f 4cbe e8bb 92be d80f 52bd
00000240: 6669 8d3d 683f 643d 422a bdbc 5c7b 373e
00000250: ef79 093e 3b5b 473e a6eb 58be e2e5 0abe
00000260: 27c7 753e d0b4 363e 0362 03bd 0e27 99be
00000270: 0128 b4be 5e72 6ebe 13f8 c33c 59fa 41be
00000280: 524f 31be a8fe 6ebe fd5c 813d 8899 bf3c
00000290: 6374 2ebe 9252 713e 6083 6d3e 63d3 8dbd
000002a0: 50a0 09bd 335d c5bd 2327 3bbd d258 143e
000002b0: 1329 44be bb7f 033e 0d6c 6a3e a1a9 573d
000002c0: cba3 a63d fda1 a7be bdc3 3bbe a4f0 4dbd
000002d0: 6a7a 9d3d fe4d 87be f02e a13d 9998 16bd
000002e0: 102a 12be c827 6d3d ef90 aebd ca66 2bbd
000002f0: f537 eebd 3296 003e 52ef a1be 4cc1 cfbd
00000300: 6a57 e1bd e5d0 b6bd f85e 59bb 225a 4b3e

bias f4 [14]
-0.08296297 -0.4014124 -0.04424183 0.043663435 0.08402632 0.19990203 -0.21144477 -0.27280945
-0.15341735 -0.16723803 0.15443924 0.19845328 -0.103941955 0.075587094
00000000: 7de8 a9bd ed85 cdbe ec36 35bd 6ed8 323d
00000010: fe15 ac3d 1eb3 4c3e fa84 58be aead 8bbe
00000020: 7019 1dbe 7240 2bbe 5225 1e3e 5637 4b3e
00000030: 85df d4bd 68cd 9a3d

weight f4 [14, 14]
0.13556053 0.21372631 -0.052136224 0.22065005 -0.16513132 -0.036773387 0.23521473 -0.1648289
0.14925122 0.020536674 0.0148505485 -0.25103968 0.084931396 -0.2624798 -0.12386484 0.052267116
-0.18795793 -0.0154992575 0.09934535 -0.014091327 -0.26399818 -0.14342552 -0.064546496 -0.11822053
-0.031192238 0.04614278 -0.09170153 -0.077087335 -0.012225613 -0.029229097 -0.086629204 0.22465546
-0.030477962 0.12483207 -0.055195846 -0.04899862 -0.15553144 0.017197378 -0.19074787 -0.30933976
0.19231646 0.15241896 0.009185481 0.05893404 0.110364236 -0.2581967 -0.04975724 -0.2929961
-0.20032294 0.04881753 0.05409652 -0.09975176 -0.015374248 0.00910121 0.15618989 -0.18855128
0.041190732 -0.22384359 -0.0932499 0.15187356 -0.16721067 0.31813255 -0.069810525 -0.22169863
0.20239457 -0.18580326 0.11845222 0.12581037 -0.081272475 -0.15332855 -0.054279413 0.08872379
-0.11240002 -0.31852666 0.046925873 0.017275322 0.20831725 -0.33392602 0.052874047 -0.08540154
-0.012147423 0.18069224 0.12437469 -0.064021885 -0.07009667 -0.081339546 -0.18687922 -0.1292406
0.009083791 -0.050335657 -0.2459203 -0.11865236 0.0879617 -0.009613863 0.12190494 0.06894196
0.015791107 -0.108082324 -0.10364501 -0.16009228 -0.03299494 0.017940428 -0.15348409 0.28773627
0.19405246 0.20888755 -0.3123728 0.1586749 -0.068403974 -0.023120003 0.3149572 -0.015652433
-0.11645268 -0.2369695 0.07227691 0.19130157 -0.10606759 0.046952277 0.022794258 0.11553002
-0.00085895706 0.17316203 0.14270785 -0.08147848 0.04690516 -0.10242249 0.1065938 -0.1963496
0.20003937 0.14271022 -0.17840785 0.19675103 0.16040608 -0.18609905 0.242295 0.23387899
-0.055333387 -0.09186226 0.28657684 0.13147458 0.006177917 -0.2372972 -0.10701541 -0.015907494
-0.06486996 0.26634836 0.121050276 0.21934739 -0.26830307 0.16668808 -0.12691401 -0.0058732266
-0.0058709783 -0.053355332 0.16652028 -0.28743863 -0.07381418 0.115717515 -0.24271217 0.26969403
-0.1570169 0.09956273 -0.14869757 -0.1171881 -0.20971735 -0.18026671 0.1325086 0.26491085
0.012228973 0.037891116 0.09876131 -0.003932556 -0.017904842 0.16765954 0.11125515 0.3216852
-0.13386679 0.082265794 -0.3659463 0.022300629 0.15592061 -0.024385266 0.0405473 0.079091005
-0.09246209 0.14487444 0.044028 0.19770256 0.029539248 -0.09540612 -0.11579072 0.056332916
-0.07616375 0.036317658 -0.026031598 -0.09148989
00000000: 61d0 0a3e 12db 5a3e cb8c 55bd 16f2 613e
00000010: 2f18 29be b19f 16bd 21dc 703e e8c8 28be
00000020: 50d5 183e 873c a83c b74f 733c 4688 80be
00000030: 83f0 ad3d c163 86be d9ac fdbd 0b16 563d
00000040: 0b78 40be 99f0 7dbc 9375 cb3d 4fdf 66bc
00000050: c52a 87be 24de 12be f430 84bd 9b1d f2bd
00000060: dd86 ffbc 3600 3d3d 03ce bbbd f7df 9dbd
00000070: f04d 48bc dc71 efbc a76a b1bd 150c 663e
00000080: ebac f9bc f5a7 ff3d 0a15 62bd c7b2 48bd
00000090: a243 1fbe 84e1 8c3c 6953 43be c861 9ebe
000000a0: 9bee 443e b713 1c3e b37e 163c d264 713d
000000b0: a506 e23d 5c32 84be 3fce 4bbd 9603 96be
000000c0: 7521 4dbe e4f4 473d 5094 5d3d a74a ccbd
000000d0: 45e4 7bbc 3e1d 153c 3ef0 1f3e 9613 41be
000000e0: 9db7 283d 4137 65be cef9 bebd be84 1b3e
000000f0: 4639 2bbe 45e2 a23e d2f8 8ebd f704 63be
00000100: 8640 4f3e 3643 3ebe 1497 f23d 6fd4 003e
00000110: 2f72 a6bd 2902 1dbe 1754 5ebd d2b4 b53d
00000120: fb31 e6bd ed15 a3be 5835 403d fa84 8d3c
00000130: 1e51 553e 5af8 aabe 7592 583d 01e7 aebd
00000140: fc05 47bc 6307 393e 28b8 fe3d e81d 83bd
00000150: d88e 8fbd 5995 a6bd 445d 3fbe a657 04be
00000160: 2ed4 143c c32c 4ebd 88d2 7bbe 0200 f3bd
00000170: 4425 b43d 7783 1dbc 4ca9 f93d 7131 8d3d
00000180: 5a5c 813c 445a ddbd d643 d4bd 3bef 23be
00000190: b425 07bd cef7 923c ef2a 1dbe 2b52 933e
000001a0: b0b5 463e 9ee6 553e 54ef 9fbe ac7b 223e
000001b0: 6217 8cbd 2966 bdbc 1242 a13e 8839 80bc
000001c0: be7e eebd 22a8 72be eb05 943d 8fe4 433e
000001d0: f739 d9bd 0851 403d 06bb ba3c 019b ec3d
000001e0: a22b 61ba 6351 313e 0222 123e 30de a6bd
000001f0: a01f 403d e2c2 d1bd da4d da3d df0f 49be
00000200: 1fd7 4c3e a122 123e 8cb0 36be 1a79 493e
00000210: 7e41 243e c090 3ebe 2e1c 783e f97d 6f3e
00000220: 43a5 62bd 4822 bcbd 33ba 923e 46a1 063e
00000230: 2070 ca3b 0afe 72be e52a dbbd 6f50 82bc
00000240: 8bda 84bd d05e 883e 35e9 f73d 9a9c 603e
00000250: 055f 89be 48b0 2a3e bff5 01be 3274 c0bb
00000260: 5661 c0bb 1f8b 5abd 4b84 2a3e 282b 93be
00000270: e42b 97bd 4efd ec3d 8a89 78be 5615 8a3e
00000280: 0ac9 20be 8be7 cb3d 2d44 18be 5100 f0bd
00000290: 25c0 56be d697 38be 56b0 073e 65a2 873e
000002a0: 085c 483c b733 1b3d 5f43 ca3d acdc 80bb
000002b0: 2dad 92bc f1ae 2b3e bdd9 e33d ecb3 a43e
000002c0: 6014 09be f87a a83d 505d bbbe cfaf b63c
000002d0: a7a9 1f3e 9cc3 c7bc ed14 263d 77fa a13d
000002e0: c45c bdbd f759 143e b456 343d 8a72 4a3e
000002f0: 4bfc f13c 4964 c3bd af23 edbd 58bd 663d
00000300: bdfb 9bbd d3c1 143d 3840 d5bc 0d5f bbbd

bias f4 [14]
-0.06370004 0.2616701 0.26729307 0.018226301 -0.16817793 -0.0544588 0.08687301 -0.060827725
0.18314922 0.04429873 0.15788867 0.123311654 -0.22256413 -0.353957
00000000: 2b75 82bd a0f9 853e a3da 883e 534f 953c
00000010: d636 2cbe 3110 5fbd 7aea b13d 7e26 79bd
00000020: 788b 3b3e 9672 353d 91ad 213e d28a fc3d
00000030: dae7 63be da39 b5be

weight f4 [64, 64]
-0.07474922 0.188841 -0.103823945 0.1607157 0.08554496 0.00055020134 0.0040764795 -0.075524695
-0.22831114 0.099162996 0.097167484 -0.18900253 0.21813874 0.1433257 0.16142614 -0.077060744
0.04104052 0.02077932 -0.19196102 -0.38304198 -0.21682747 0.08432854 0.10377063 0.12701248
0.24490325 0.10541918 0.16933928 -0.12862404 0.15465884 -0.044501178 -0.0628949 -0.11734121
0.115494445 0.075777225 -0.10056861 0.19804445 0.0039513116 -0.032873053 -0.04071206 -0.39687142
0.22163245 -0.05478677 0.057277996 -0.005524125 -0.074902035 -0.092394345 0.12733601 0.09250332
-0.14024903 0.06980773 -0.2671584 -0.024066018 -0.20608474 0.097408004 -0.13757181 0.035486784
0.05356853 -0.15082246 0.022789704 0.10317699 0.0690565 -0.0065356703 0.24616516 -0.37834707
0.081714615 0.14315602 -0.12470089 -0.012101552 0.118870296 0.11678784 0.08396084 0.028773474
-0.16829976 -0.25497064 0.1800527 0.07975492 -0.019735765 -0.042463664 -0.05429325 -0.07988296
0.22907473 -0.070182264 -0.09980094 -0.33945337 -0.015927825 -0.07691179 -0.045946043 0.13379046
0.003751126 0.16303135 0.15052919 -0.088532045 -0.32126108 -0.25131437 0.012333028 -0.100290835
-0.4632529 -0.06547615 -0.19552784 0.086425915 0.013457641 0.043570355 0.044536304 0.1933545
-0.14219277 -0.033508815 -0.06793007 0.03803291 -0.09544717 -0.060029514 0.22300458 -0.18027641
0.060834877 0.011976414 -0.026076991 -0.20384596 -0.12473392 0.10726692 -0.17221802 -0.1380822
-0.05679705 0.06407291 0.061660204 0.08450153 -0.06346832 0.031349804 -0.062644556 -0.17447022
0.16084632 -0.05444096 -0.10892012 -0.011176079 -0.11480805 0.10056635 0.041701727 -0.024028307
0.010585268 0.12318242 -0.18153496 0.13836224 -0.09973162 0.13556759 0.034699343 -0.04171406
0.025070015 0.061748054 -0.16063152 0.15778631 -0.22555654 -0.09249378 -0.079637416 -0.10689915
0.13775499 0.0030739561 -0.031217474 -0.138838 0.227273 0.2097483 -0.101823956 0.14620002
-0.19793841 -0.013317888 -0.04163052 0.08851618 -0.08515536 0.113785885 -0.05785504 0.01852835
0.20155689 0.17324585 -0.039126366 0.07295799 0.07493722 -0.021028299 -0.15131487 0.041441523
0.17809963 0.097900994 -0.11139566 0.0068080835 -0.0649773 -0.037593573 0.018666776 0.08207207
-0.06419225 -0.15894324 0.07640326 0.13442034 -0.07565792 -0.06401785 -0.065589674 -0.16182843
0.052574854 0.12616701 -0.03961058 0.047761902 0.030551353 0.03418282 0.02748291 -0.07935142
-0.026672464 0.13972923 0.0122742625 -0.17303157 -0.02550779 -0.008710565 0.07809651 0.12819007
-0.07526163 0.07075513 0.049106535 -0.035905987 -0.25150087 -0.03346133 0.044723116 0.028936084
0.0122479545 -0.13758305 0.0842585 -0.0778832 0.25377598 0.030060941 -0.07853895 -0.39421374
0.38551164 0.07927873 -0.23341063 0.15990342 -0.0244062 -0.0049080406 0.045930225 -0.3295836
0.10502345 -0.12395647 -0.022530248 -0.030224277 -0.10514045 0.048162125 -0.038229395 0.10402397
-0.15568747 0.09333652 -0.2765034 0.07546018 -0.017699989 0.18190406 0.06277293 -0.150584
0.12997106 0.091580756 0.1359622 0.08848051 0.16136809 -0.1730441 0.07381356 -0.3406325
00000000: 1e16 99bd 895f 413e a6a1 d4bd a892 243e
00000010: 3232 af3d 633b 103a fd93 853b b1ac 9abd
00000020: 65ca 69be f815 cb3d bfff c63d e189 41be
00000030: c35f 5f3e f9c3 123e e54c 253e 06d2 9dbd
00000040: 1b1a 283d 6439 aa3c 6e91 44be 141e c4be
00000050: 0508 5ebe 71b4 ac3d b285 d43d 8f0f 023e
00000060: ebc7 7a3e 03e6 d73d 4767 2d3e 05b6 03be
00000070: e35e 1e3e de46 36bd 0bcf 80bd 9750 f0bd
00000080: 5a88 ec3d 1731 9b3d eaf6 cdbd 2acc 4a3e
00000090: 017a 813b e5a5 06bd b0c1 26bd bb32 cbbe
000000a0: 9ef3 623e 1868 60bd 559c 6a3d b803 b5bb
000000b0: 3d66 99bd 3f39 bdbd 5f64 023e 6172 bd3d
000000c0: 719d 0fbe 5bf7 8e3d fcc8 88be 1926 c5bc
000000d0: e107 53be d97d c73d a0df 0cbe 975a 113d
000000e0: ad6a 5b3d 3471 1abe 79b1 ba3c 754e d33d
000000f0: 7f6d 8d3d 2d29 d6bb b812 7c3e b5b6 c1be
00000100: fe59 a73d 7e97 123e 2e63 ffbd 9745 46bc
00000110: 4572 f33d 772e ef3d a9f3 ab3d 59b6 eb3c
00000120: c656 2cbe 838b 82be bc5f 383e 8c56 a33d
00000130: e6ac a1bc 61ee 2dbd 9962 5ebd ad99 a3bd
00000140: 9192 6a3e b8bb 8fbd 6f64 ccbd d5cc adbe
00000150: 127b 82bc ee83 9dbd eb31 3cbd 5e00 093e
00000160: 73d5 753b b1f1 263e 5324 1a3e 4a50 b5bd
00000170: 557c a4be 47ac 80be 7810 4a3c 4865 cdbd
00000180: 7c2f edbe 5c18 86bd 7338 48be 1200 b13d
00000190: 707d 5c3c d476 323d b36b 363d b9fe 453e
000001a0: fb9a 11be 8a40 09bd ec1e 8bbd 66c8 1b3d
000001b0: ce79 c3bd 82e1 75bd 505b 643e 619a 38be
000001c0: fe2d 793d b938 443c 6a9f d5bc ffbc 50be
000001d0: 7f74 ffbd c2ae db3d ec59 30be 6c65 0dbe
000001e0: 06a4 68bd a838 833d 698f 7c3d 230f ad3d
000001f0: aefb 81bd a768 003d ca4b 80bd 52a8 32be
00000200: e6b4 243e 7cfd 5ebd 8311 dfbd df1b 37bc
00000210: 7c20 ebbd bbf5 cd3d 6ecf 2a3d 03d7 c4bc
00000220: d56d 2d3c 1147 fc3d 4de4 39be d5ae 0d3e
00000230: 1740 ccbd 3bd2 0a3e e620 0e3d 5ddc 2abd
00000240: a25f cd3c 87eb 7c3d 977c 24be bc92 213e
00000250: 4bf8 66be 616d bdbd f118 a3bd f1ed dabd
00000260: a50f 0d3e 6d74 493b cabb ffbc 8c2b 0ebe
00000270: 41ba 683e 42c8 563e 1489 d0bd 75b5 153e
00000280: 5eb0 4abe 4533 5abc c484 2abd f947 b53d
00000290: ef65 aebd 9308 e93d 68f9 6cbd c4c8 973c
000002a0: ee64 4e3e 5c67 313e f842 20bd 006b 953d
000002b0: af78 993d 8a43 acbc 49f2 1abe 96be 293d
000002c0: c05f 363e 5180 c83d 6823 e4bd 5816 df3b
000002d0: d212 85bd b8fb 19bd 11eb 983c 6715 a83d
000002e0: 3a77 83bd 04c2 22be 5079 9c3d 7ca5 093e
000002f0: 8af2 9abd ca1b 83bd e153 86bd 5ab6 25be
00000300: bb58 573d ed31 013e b43e 22bd fca1 433d
00000310: d546 fa3c 4903 0c3d d723 e13c ff82 a2bd
00000320: 3680 dabc 2e15 0f3e fd19 493c 302f 31be
00000330: b6f5 d0bc c2b6 0ebc 10f1 9f3d 4244 033e
00000340: c522 9abd 11e8 903d ef23 493d 2812 13bd
00000350: b9c4 80be bf0e 09bd 962f 373d 5e0b ed3c
00000360: a5ab 483c 92e2 0cbe b88f ac3d 3a81 9fbd
00000370: edee 813e 5d42 f63c 07d9 a0bd 62d6 c9be
00000380: c861 c53e e35c a23d 3203 6fbe b9bd 233e
00000390: 83ef c7bc a1d3 a0bb 5521 3c3d 2ebf a8be
000003a0: 8916 d73d e4dc fdbd 5b91 b8bc e798 f7bc
000003b0: e053 d7bd a645 453d 6d96 1cbd 850a d53d
000003c0: 896c 1fbe 3827 bf3d db91 8dbe de8a 9a3d
000003d0: 91ff 90bc 0f45 3a3e 188f 803d b132 1abe
000003e0: 2217 053e b18e bb3d ad39 0b3e 4535 b53d
000003f0: ad3d 253e 7932 31be 902b 973d 6267 aebe

bias f4 [64]
-0.07853135 0.05179693 -0.105810665 -0.12519188 -0.30687425 0.11830789 -0.0012738114 0.2325264
0.10051102 -0.06385994 0.18127951 0.2908045 -0.37566802 0.09559498 0.18230341 -0.15074848
-0.07381782 0.08573879 -0.16790776 -0.021321531 0.10217682 -0.032604326 -0.01712508 -0.36267632
-0.19525506 -0.097618945 -0.24184343 -0.17543983 0.13233192 -0.070846215 0.09867566 -0.14571948
-0.1733283 0.016025692 -0.026415126 -0.08864717 -0.18512782 -0.008509363 -0.33554316 -0.4087433
-0.0771309 0.011465002 -0.12736866 0.019107668 -0.28539371 -0.11559539 -0.11052868 -0.06689399
0.23760305 -0.13922982 -0.07693896 0.07164914 0.13566846 -0.23915339 0.07582551 -0.044053506
-0.29935002 0.04742009 -0.2494836 -0.3217244 0.005980292 -0.186203 -0.043376163 -0.41017097
00000000: 0bd5 a0bd 0529 543d 43b3 d8bd 4d32 00be
00000010: 9f1e 9dbe 684b f23d 05f6 a6ba 671b 6e3e
00000020: b9d8 cd3d 00c9 82bd 56a1 393e 54e4 943e
00000030: 8f57 c0be 4dc7 c33d bfad 3a3e cf5d 1abe
00000040: cc2d 97bd d297 af3d 03f0 2bbe 7eaa aebc
00000050: 1542 d13d 1d8c 05bd e549 8cbc b6b0 b9be
00000060: f1f0 47be 71ec c7bd cea5 77be 80a6 33be
00000070: 0582 073e d217 91bd 7716 ca3d 7d37 15be
00000080: f97c 31be 5048 833c 8964 d8bc a68c b5bd
00000090: 2692 3dbe db6a 0bbc 50cc abbe cd46 d1be
000000a0: cef6 9dbd b4d7 3b3c ee6c 02be af87 9c3c
000000b0: 201f 92be 47bd ecbd dc5c e2bd b7ff 88bd
000000c0: 374e 733e 4392 0ebe 2c92 9dbd c9bc 923d
000000d0: acec 0a3e a0e4 74be 684a 9b3d 7371 34bd
000000e0: 6844 99be 913b 423d a178 7fbe 10b9 a4be
000000f0: 53f6 c33b 00ac 3ebe 34ab 31bd ee01 d2be

weight f4 [64, 64]
-0.0067789224 0.04234232 -0.10902977 0.08352372 -0.057554264 -0.095225915 -0.059688684 -0.15218258
0.011176277 -0.1512812 -0.06685664 -0.05437621 -0.13537167 -0.19828427 -0.06268815 0.09766478
-0.050128028 -0.017721515 -0.0919365 -0.12180246 -0.019434089 0.069446675 -0.04930573 0.024082532
0.045959488 -0.03314921 -0.065011024 -0.064594574 0.034775116 -0.019891586 0.00083512726 -0.112418525
0.08442103 -0.20474319 -0.21715406 -0.08159908 -0.052749943 -0.07247027 0.053750582 -0.029681271
0.002463379 -0.19218498 -0.11861108 0.013774759 -0.06674637 -0.14077552 -0.09410832 -0.18311992
-0.23896219 -0.045163658 0.016488103 0.012597876 -0.1853859 -0.13202865 -0.0020760682 -0.106581196
-0.0074767526 0.16555236 0.09535716 -0.12759553 0.0046515255 0.031129578 -0.14269288 0.011135942
0.19517405 -0.32555255 0.025031552 0.21630035 0.014627641 0.100119084 -0.23280053 0.0029074836
-0.21468031 -0.18462573 -0.18381602 -0.20884517 0.18854642 -0.03240972 -0.22057897 -0.10254991
0.081890605 -0.08963467 -0.06802607 -0.13908261 0.070041426 -0.21066147 0.025133928 -0.1678128
0.11705065 -0.025331693 0.10685209 -0.03477263 -0.34749573 0.14869845 -0.121078886 0.08030617
-0.06722682 -0.32151023 0.11512391 0.1717497 -0.12206796 0.16269149 -0.04851663 -0.13838479
0.19615649 -0.23123226 -0.096545026 0.16992337 0.09197596 0.06680946 -0.019004095 -0.1294865
-0.5940099 0.11925548 -0.0493076 0.06267147 0.08237773 0.07303632 -0.24560863 -0.010362175
-0.075653955 -0.066012494 0.21125479 -0.06609245 -0.03220137 0.16036828 -0.17174177 0.04285253
0.0043676537 -0.016979959 0.078704834 0.013746011 0.13575518 -0.11833241 0.09939204 0.025514418
0.03261859 0.020151827 0.17217125 0.15596989 -0.38553387 -0.11585372 0.058265816 -0.20434485
-0.10674515 0.20515874 -0.0011265418 0.05709341 -0.49156794 -0.023992954 0.17385548 0.02740275
-0.21141835 0.13742745 -0.067357056 -0.070565954 0.09558241 -0.083409384 0.018405255 -0.04643965
-0.034142226 -0.0028306567 0.10004263 -0.019545918 -0.18947943 -0.06761554 0.03674204 0.01595962
-0.19155891 0.00024032223 -0.06744703 0.08010591 0.2085726 -0.08578205 -0.104738675 -0.21172753
0.2192099 0.07061441 0.16741084 -0.10255115 -0.2530458 -0.027948458 -0.11294259 0.07298102
-0.033424854 0.013319308 0.22965166 0.010646151 -0.032588024 -0.10100568 -0.09041005 0.03613122
-0.14378867 0.0020618048 -0.08034214 0.011192568 -0.09200296 -0.115452625 -0.115395725 -0.11654707
0.0031137525 -0.090015255 -0.014333299 0.03849202 -0.013608092 0.047378156 0.016841998 -0.04555327
0.17706698 -0.010682311 -0.11757065 -0.04260657 0.0011553654 0.010112235 -0.020933418 -0.047089458
-0.030319935 -0.06604423 -0.089566 -0.09499947 0.049895417 -0.10346196 -0.0048952745 0.004489997
0.09605617 -0.049564335 -0.17683014 -0.03185203 -0.0024796152 -0.09279545 -0.017755903 -0.015497996
-0.053815886 -0.19584996 0.0034969398 0.07575989 0.09251293 -0.19391105 -0.0051573403 -0.02265307
-0.050572637 -0.10012567 -0.027492186 -0.07385159 -0.35286352 -0.054755885 -0.0834541 0.051181108
-0.00017890273 0.052405067 0.014335312 -0.0038685026 0.0830496 -0.16537118 0.06327525 -0.07995912
00000000: b921 debb 246f 2d3d 004b dfbd 7c0e ab3d
00000010: 05be 6bbd ce05 c3bd 1f7c 74bd c0d5 1bbe
00000020: b41c 373c 75e9 1abe 22ec 88bd 97b9 5ebd
00000030: df9e 0abe 080b 4bbe a562 80bd 7904 c83d
00000040: 0c53 4dbd b62c 91bc 3449 bcbd 9173 f9bd
00000050: 3d34 9fbc 0f3a 8e3d cef4 49bd bb48 c53c
00000060: 0440 3c3d 77c7 07bd 8024 85bd 294a 84bd
00000070: 5a70 0e3d aef3 a2bc 71ec 5a3a af3b e6bd
00000080: efe4 ac3d 33a8 51be a25d 5ebe 6b1d a7bd
00000090: 5310 58bd 4b6b 94bd 9229 5c3d 2326 f3bc
000000a0: a470 213b 24cc 44be 5eea f2bd 87af 613c
000000b0: 52b2 88bd 7527 10be ddbb c0bd ca83 3bbe
000000c0: 81b2 74be 87fd 38bd 0f12 873c 5267 4e3c
000000d0: cdd5 3dbe 8532 07be a50e 08bb 3e47 dabd
000000e0: 8cff f4bb 8f86 293e 9d4a c33d 67a8 02be
000000f0: d36b 983b 7503 ff3c 151e 12be 8773 363c
00000100: b5db 473e d3ae a6be f80e cd3c d77d 5d3e
00000110: c6a8 6f3c 3c0b cd3d 4363 6ebe 7b8b 3e3b
00000120: 28d5 5bbe 870e 3dbe 443a 3cbe 82db 55be
00000130: 5012 413e 0ec0 04bd 74df 61be b005 d2bd
00000140: 43b6 a73d 6292 b7bd 4151 8bbd ac6b 0ebe
00000150: e171 8f3d a4b7 57be abe5 cd3c 1ed7 2bbe
00000160: 40b8 ef3d 6984 cfbc 45d5 da3d bf6d 0ebd
00000170: f6ea b1be 6844 183e 35f8 f7bd 9077 a43d
00000180: 37ae 89bd fd9c a4be 16c6 eb3d 27df 2f3e
00000190: c4fe f9bd 9998 263e 60b9 46bd beb4 0dbe
000001a0: 3fdd 483e 26c8 6cbe 66b9 c5bd 6400 2e3e
000001b0: e45d bc3d 66d3 883d 7aae 9bbc 1c98 04be
000001c0: 0811 18bf 383c f43d c4f6 49bd e659 803d
000001d0: a8b5 a83d 1194 953d d480 7bbe 1dc6 29bc
000001e0: 76f0 9abd 8f31 87bd 2d53 583e 7a5b 87bd
000001f0: 95e5 03bd 9537 243e 13dd 2fbe 2286 2f3d
00000200: 891e 8f3b 8e19 8bbc 0030 a13d f336 613c
00000210: 6803 0b3e 4358 f2bd 0e8e cb3d 9d03 d13c
00000220: 129b 053d 7215 a53c a94d 303e 92b6 1f3e
00000230: b264 c5be b744 edbd 23a8 6e3d c73f 51be
00000240: 349d dabd 2215 523e 78a8 93ba c8da 693d
00000250: cbae fbbe df8c c4bc 2c07 323e bb7b e03c
00000260: 0d7e 58be c8b9 0c3e 7ff2 89bd e284 90bd
00000270: b6c0 c33d 8ad2 aabd 9ec6 963c 8137 3ebd
00000280: b8d8 0bbd 8a82 39bb 27e3 cc3d c31e a0bc
00000290: e506 42be 047a 8abd d27e 163d c0bd 823c
000002a0: 0528 44be 02ff 7b39 ab21 8abd 910e a43d
000002b0: 0e94 553e 80ae afbd 3b81 d6bd 1acf 58be
000002c0: 8f78 603e 4a9e 903d bf6d 2b3e 5606 d2bd
000002d0: 388f 81be 2af4 e4bc 724e e7bd 1377 953d
000002e0: 80e8 08bd 3a39 5a3c ce29 6b3e 326d 2e3c
000002f0: 057b 05bd 11dc cebd e728 b9bd 55fe 133d
00000300: 563d 13be 581f 073b 6b8a a4bd 0861 373c
00000310: 0c6c bcbd 6d72 ecbd 9854 ecbd 3bb0 eebd
00000320: 1910 4c3b eb59 b8bd 37d6 6abc cfa9 1d3d
00000330: 7af4 5ebc 990f 423d 3bf8 893c 1196 3abd
00000340: 0c51 353e dc04 2fbc e2c8 f0bd 3a84 2ebd
00000350: a16f 973a caad 253c 8f7c abbc e0e0 40bd
00000360: 8361 f8bc 3242 87bd 616e b7bd 158f c2bd
00000370: 235f 4c3d dde3 d3bd 8a68 a0bb d320 933b
00000380: 19b9 c43d f903 4bbd f612 35be 4677 02bd
00000390: 0a81 22bb 8a0b bebd d474 91bc 4eeb 7dbc
000003a0: 0c6e 5cbd e48c 48be ea2c 653b 0028 9b3d
000003b0: 6b77 bd3d 9e90 46be e8fe a8bb ee92 b9bc
000003c0: 4125 4fbd b00e cdbd 4b37 e1bc 813f 97bd
000003d0: 87aa b4be b547 60bd fce9 aabd 48a3 513d
000003e0: d697 3bb9 b2a6 563d a8de 6a3c b486 7dbb
000003f0: e915 aa3d 1057 29be 7496 813d 9bc1 a3bd

bias f4 [64]
-0.19813155 -0.3033956 0.1671041 -0.1674702 0.07497918 -0.08269934 -0.37817556 0.27252397
0.019598186 0.013251824 0.22958224 0.21612224 0.012622288 -0.24682613 -0.13777483 0.05968404
0.1659924 -0.22969252 -0.035628006 -0.10773985 -0.16111131 -0.21514462 -0.11156224 0.14628652
-0.012146277 -0.15583248 -0.21156172 -0.19739045 -0.03600805 -0.021698702 0.008055622 -0.19023512
0.15563022 -0.049593393 -0.06588887 0.02173605 0.09152858 -0.23676679 0.30940047 0.07262615
-0.24117042 0.034612812 -0.008028088 -0.3134135 0.18400675 -0.05613443 -0.037487973 -0.020197712
-0.2858986 -0.20044598 -0.036454767 -0.23555999 -0.20669128 -0.19524859 -0.22574003 0.20832987
-0.4268372 0.27012005 -0.14232585 -0.2927598 -0.05447463 -0.074384 0.1543723 -0.01441995
00000000: ffe2 4abe ab56 9bbe 561d 2b3e 4f7d 2bbe
00000010: af8e 993d 465e a9bd 3aa0 c1be 4388 8b3e
00000020: 608c a03c 2e1e 593c 9b17 6b3e 264f 5d3e
00000030: b7cd 4e3c fdbf 7cbe d814 0dbe 4077 743d
00000040: e9f9 293e 8434 6bbe acee 11bd b6a6 dcbd
00000050: 5dfa 24be df4e 5cbe be7a e4bd 22cc 153e
00000060: 2e01 47bc 8d92 1fbe a3a3 58be b920 4abe
00000070: 2d7d 13bd 7ac1 b1bc bafb 033c ffcc 42be
00000080: 875d 1f3e 7122 4bbd bef0 86bd cd0f b23c
00000090: 5673 bb3d fe72 72be bd69 9e3e 05bd 943d
000000a0: 61f5 76be 2ac6 0d3d 3e88 03bc bc77 a0be
000000b0: 446c 3c3e 37ed 65bd fd8c 19bd ac75 a5bc
000000c0: 4d61 92be b641 4dbe 9851 15bd a336 71be
000000d0: e1a6 53be 3fef 47be 6528 67be 6d54 553e
000000e0: 688a dabe 2d4d 8a3e debd 11be 9de4 95be
000000f0: ca20 5fbd a356 98bd c613 1e3e a741 6cbc

weight f4 [64, 64]
0.06923589 -0.03101407 0.025643677 0.0379249 -0.036097974 0.1132554 -0.057286426 -0.09326352
0.107281625 -0.037777692 0.07865508 0.017710924 0.06092757 0.10575576 -0.06886278 -0.0829882
-0.05919437 -0.08112171 -0.036914796 0.10365677 0.016620547 0.030843377 -0.11683646 0.06029056
0.0891989 -0.08464491 0.002726972 0.07121168 0.024579734 -0.083414614 -0.09067617 0.025502399
0.017349958 -0.07444739 -0.052698806 0.07291414 -0.10956338 -0.044965923 -0.014978662 -0.046107292
-0.08432686 -0.03938788 -0.0029218495 0.071359634 -0.056219548 -0.0007548183 -0.018369958 0.009235904
-0.124396086 -0.0056635737 -0.07467781 -0.018985346 -0.0065859854 -0.03598468 -0.070113614 0.017184049
0.080138594 -0.075615495 -0.06729357 0.0110783875 -0.032392323 0.068712085 -0.09536791 -0.10841438
-0.11802992 0.0710963 -0.054819614 0.123424724 -0.024372742 -0.037821814 0.016612679 -0.03246434
-0.0926168 -0.06526987 -0.102935255 -0.01714176 -0.09907663 -0.04979679 0.06151004 0.11664231
-0.10278615 -0.11656201 0.08443326 -0.010387331 -0.11128387 -0.1156743 -0.09775345 0.1195744
0.014825568 -0.035166234 0.03625503 0.09210999 0.010194823 -0.026492625 -0.1161235 0.1067404
-0.120512694 -0.12278831 0.018587485 0.016160324 0.012896538 0.06250645 0.02245754 0.0062080175
-0.004470125 0.05979535 0.115669474 0.10908714 0.08408502 0.064931035 -0.06267652 0.07553631
0.0021318644 0.00913015 0.059663817 -0.02716668 0.07087499 -0.0047903657 0.009970829 -0.013202891
0.10186015 0.10500325 0.040353566 -0.06879559 -0.11016391 0.0071838945 0.05907896 -0.04671207
0.07194877 0.11200452 0.036532715 0.09289907 -0.06645909 -0.09698863 0.021013424 0.032090947
0.045726374 -0.009113148 0.07843308 0.08665483 -0.09709208 0.095440075 -0.08898489 -0.08526881
-0.0039435327 -0.11506817 -0.06044501 -0.015204549 -0.056210235 0.03036289 -0.019495293 -0.097547844
-0.042325407 -0.034282 -0.02125685 0.033746913 0.098352596 0.05807118 -0.08141208 0.10118304
0.094318286 -0.010844797 0.046972215 -0.025875032 0.036414325 -0.072193995 -0.12049848 -0.10287669
0.124551356 0.0023312718 -0.024461374 0.015238777 0.119334504 0.04426509 -0.07711491 -0.07803056
0.08805896 -0.068804115 0.020788044 0.06604163 -0.10186201 0.10518773 0.040421113 0.028676987
-0.05331497 -0.106303126 -0.1164711 0.0029123425 0.04730819 -0.0250635 -0.106657356 -0.033718675
-0.07750784 -0.061135918 -0.0039414614 -0.11867197 0.09307738 0.03345123 -0.10447115 0.06899707
-0.048040673 0.064477354 0.07843058 -0.050553933 0.045151815 0.06813797 0.091914326 -0.0503913
0.027443543 0.0681653 0.11509885 -0.07641238 -0.015453666 -0.08536619 0.04378569 -0.092663884
-0.08631614 0.026989922 -0.031737983 -0.018744886 -0.040736973 0.117154345 -0.017211407 -0.08508742
0.060076907 0.04095158 0.07204139 0.014096156 -0.005591288 -0.05669111 -0.06226027 0.0067139417
-0.09629086 -0.048286438 0.0528232 -0.012161955 0.0026983172 -0.04316719 0.03346917 -0.0495753
-0.07192351 -0.055194065 0.09166506 0.06499259 -0.10797538 0.06628126 0.042700335 0.026664287
-0.074061975 -0.04054396 0.043378666 -0.082065 -0.016354233 0.051962167 -0.06177315 -0.022448093
00000000: 8ccb 8d3d 3811 febc b012 d23c 2457 1b3d
00000010: 78db 13bd 72f2 e73d 2ca5 6abd f200 bfbd
00000020: 78b6 db3d c8bc 1abd ea15 a13d 8016 913c
00000030: 308f 793d 7a96 d83d ee07 8dbd b8f5 a9bd
00000040: cc75 72bd 2423 a6bd f833 17bd 004a d43d
00000050: d027 883c 40ab fc3c f447 efbd 3cf3 763d
00000060: eaad b63d 505a adbd 00b7 323b 6ed7 913d
00000070: 705b c93c 48d5 aabd 6eb4 b9bd 68ea d03c
00000080: 8021 8e3c e077 98bd b4da 57bd 0254 953d
00000090: c462 e0bd 302e 38bd 1069 75bc 00db 3cbd
000000a0: 90b3 acbd 3055 21bd 807c 3fbb 0025 923d
000000b0: 7846 66bd 00df 45ba 987c 96bc 3052 173c
000000c0: 60c3 febd 8095 b9bb aef0 98bd 2887 9bbc
000000d0: 40cf d7bb ac64 13bd ba97 8fbd 90c5 8c3c
000000e0: b41f a43d 4cdc 9abd 36d1 89bd 2082 353c
000000f0: d0ad 04bd ecb8 8c3d 4050 c3bd 5c08 debd
00000100: acb9 f1bd f09a 913d 888a 60bd 1ac6 fc3d
00000110: 58a9 c7bc 0ceb 1abd 5017 883c 54f9 04bd
00000120: e0ad bdbd 36ac 85bd b8cf d2bd e06c 8cbc
00000130: b0e8 cabd b8f7 4bbd f4f1 7b3d 2ae2 ee3d
00000140: 8c81 d2bd 10b8 eebd 58eb ac3d a02f 2abc
00000150: cce8 e3bd a6e6 ecbd f632 c8bd 6ce3 f43d
00000160: f0e6 723c 780a 10bd 2880 143d 2aa4 bc3d
00000170: 3008 273c 1007 d9bc 28d2 edbd b69a da3d
00000180: 5ccf f6bd 7078 fbbd c844 983c a862 843c
00000190: 004c 533c 6203 803d e0f8 b73c a06c cb3b
000001a0: 207a 92bb f8eb 743d 1ee4 ec3d 1469 df3d
000001b0: c434 ac3d 90fa 843d 8c5c 80bd c8b2 9a3d
000001c0: c0b6 0b3b a096 153c 0c62 743d a88c debc
000001d0: e826 913d 80f8 9cbb b05c 233c f050 58bc
000001e0: 0e9c d03d f20b d73d c849 253d b4e4 8cbd
000001f0: 9e9d e1bd e066 eb3b c8fc 713d 2855 3fbd
00000200: e059 933d a062 e53d 54a3 153d de41 be3d
00000210: b41b 88bd faa1 c6bd 5824 ac3c cc71 033d
00000220: 944b 3b3d 504f 15bc 86a1 a03d 1678 b13d
00000230: 36d8 c6bd 1676 c33d b63d b6bd 6aa1 aebd
00000240: c038 81bb dca8 ebbd 3095 77bd 801c 79bc
00000250: b43c 66bd 98bb f83c 98b4 9fbc 2ac7 c7bd
00000260: 685d 2dbd 486b 0cbd d822 aebc 343a 0a3d
00000270: 166d c93d 0cdc 6d3d 60bb a6bd 0e39 cf3d
00000280: f229 c13d 60ae 31bc f065 403d e0f7 d3bc
00000290: 3027 153d 72da 93bd e8c7 f6bd 04b1 d2bd
000002a0: c814 ff3d 40c8 183b 3863 c8bc 10ac 793c
000002b0: a665 f43d 504f 353d 6cee 9dbd 7cce 9fbd
000002c0: 4258 b43d 2ce9 8cbd b04b aa3c d640 873d
000002d0: 089d d0bd aa6c d73d 9c90 253d 00ec ea3c
000002e0: cc60 5abd 74b5 d9bd 6688 eebd 00dd 3e3b
000002f0: 3cc6 413d f851 cdbc 2c6f dabd 981c 0abd
00000300: 6ebc 9ebd a869 7abd 6027 81bb 4a0a f3bd
00000310: 5a9f be3d 2804 093d f8f4 d5bd 564e 8d3d
00000320: 4cc6 44bd b40c 843d 36a0 a03d a411 4fbd
00000330: 1cf1 383d ec8b 8b3d 943d bc3d 1c67 4ebd
00000340: 48d1 e03c 409a 8b3d f2b8 eb3d 187e 9cbd
00000350: 6031 7dbc 78d4 aebd a058 333d 90c6 bdbd
00000360: 84c6 b0bd f819 dd3c b0ff 01bd e08e 99bc
00000370: d0db 26bd 9eee ef3d f0fe 8cbc 5042 aebd
00000380: 3413 763d d8bc 273d 708a 933d 90f3 663c
00000390: 2037 b7bb f034 68bd a004 7fbd a000 dc3b
000003a0: 2434 c5bd 00c8 45bd 245d 583d f042 47bc
000003b0: 40d6 303b 14d0 30bd f816 093d 780f 4bbd
000003c0: a24c 93bd 2c13 62bd e4ba bb3d d61a 853d
000003d0: 3222 ddbd 78be 873d 8ce6 2e3d 106f da3c
000003e0: cead 97bd 6c11 26bd d4ad 313d b211 a8bd
000003f0: 50f9 85bc 48d6 543d d805 7dbd 10e5 b7bc

bias f4 [64]
0.07012832 0.09006286 -0.010499269 -0.08974622 0.11425798 0.029897109 -0.066173926 -0.0097157955
-0.11877024 -0.10003011 -0.11651704 0.08993091 -0.08475146 -0.021825477 0.07375993 0.12397842
0.05891873 0.11319332 -0.050197855 0.038242117 0.042155758 -0.021685675 0.010125577 -0.0337514
-0.103846684 0.038932115 -0.098144874 0.11566141 0.0826112 -0.032541737 -0.0663736 -0.041161746
-0.05522628 0.029199734 -0.10346536 -0.061278418 0.0636877 0.04456301 0.09676796 0.06486791
-0.041432753 0.037748307 -0.10924716 -0.10232042 -0.10723752 0.05230145 -0.022479653 -0.051501125
-0.035455883 0.09395762 -0.114319995 -0.10404825 0.012706429 0.11446424 -0.00078724325 -0.01768285
0.020391077 -0.058362707 -0.11765753 0.01469247 0.11389746 -0.03375496 -0.11475359 0.08501801
00000000: 709f 8f3d e072 b83d 2005 2cbc decc b7bd
00000010: 1600 ea3d c8ea f43c 3286 87bd 002f 1fbc
00000020: d03d f3bd 96dc ccbd 7ca0 eebd b22d b83d
00000030: 2c92 adbd 58cb b2bc 720f 973d 66e8 fd3d
00000040: c454 713d e6d1 e73d 449c 4dbd c4a3 1c3d
00000050: 84ab 2c3d 28a6 b1bc c0e5 253c e83e 0abd
00000060: 92ad d4bd 4877 1f3d 2e00 c9bd e4df ec3d
00000070: 1030 a93d 7c4a 05bd e2ee 87bd 3899 28bd
00000080: f434 62bd 4834 ef3c a6e5 d3bd 14ff 7abd
00000090: b26e 823d b487 363d 482e c63d 78d9 843d
000000a0: 64b5 29bd f89d 1a3d fabc dfbd 5e8d d1bd
000000b0: 589f dbbd 0c3a 563d 4027 b8bc d8f2 52bd
000000c0: 303a 11bd da6c c03d 9a20 eabd 4017 d5bd
000000d0: a02e 503c 3a6c ea3d 005f 4eba a0db 90bc
000000e0: 300b a73c bc0d 6fbd 6ef6 f0bd b0b8 703c
000000f0: 1243 e93d a442 0abd ee03 ebbd ec1d ae3d

weight f4 [64, 64]
-0.0023710728 -0.0059867054 -0.003459841 -0.0804503 -0.11354552 0.110362545 0.03061311 0.05498168
-0.027293697 0.08131045 0.043940052 0.07163893 -0.037515223 -0.11897819 -0.090697706 0.114893034
0.039733082 0.12004167 0.0313641 -0.06397052 -0.09459126 -0.03615287 0.077348754 0.0021199584
-0.036650553 0.0083678365 0.08788271 0.057684526 0.07445589 -0.04478784 -0.046813294 -0.09057394
0.09834719 0.04299648 0.042786002 0.0012662113 -0.09894183 0.03624241 -0.04145518 -0.078867
0.048908755 -0.027408183 -0.08902991 0.09214395 -0.069239095 0.023402736 -0.010134071 0.09797326
-0.03474149 -0.054264978 0.04703775 -0.07843988 0.08563398 0.008636862 -0.101356044 0.04572469
0.031600744 -0.023714513 0.0071623027 0.046893567 0.08130778 -0.00684689 -0.11565195 0.03187971
0.077774286 0.12222077 0.008775726 0.0547048 0.04080315 0.12174784 -0.046232074 0.020368516
0.035994664 -0.10299671 0.01211004 -0.014269158 -0.12120058 0.078987345 0.020983577 -0.09579283
-0.011754692 -0.11448486 0.100228176 -0.091586486 -0.04529901 0.036637083 0.051113114 -0.037380397
-0.097920164 0.053528354 -0.0392261 0.08837579 0.06981069 -0.118092686 -0.07972585 -0.02782002
-0.09346831 -0.049741372 -0.06815638 -0.043197572 0.023811087 -0.07275373 -0.09154254 -0.01299268
-0.061256036 0.008904472 0.022607252 0.003194347 -0.075813964 -0.009909093 0.0040967017 0.010269806
-0.017786533 -0.10384394 -0.03219755 0.06833887 -0.013186783 0.0885656 -0.11871895 -0.12216602
-0.04775445 0.10092077 0.024566159 0.1008511 0.058894426 -0.037007242 -0.001630351 0.0117173195
0.06549202 0.073786125 -0.074498996 0.030065984 0.057448223 0.00038053095 0.079619974 0.039313495
0.061910734 0.10269068 -0.077767834 -0.0040860325 0.06368396 0.112035975 0.11770634 -0.071469635
-0.10050306 0.09385958 0.057734296 0.04338047 -0.079556555 -0.041160792 0.05079016 0.11300634
-0.12272358 -0.0432027 0.043403313 0.032197863 0.12427913 0.0719239 0.037366763 0.10099745
0.035242572 0.01711315 0.046114102 -0.11710605 0.07115424 -0.11283922 -0.022522956 -0.04392627
0.07655656 -0.084426284 0.05557525 0.064780414 0.0035678297 0.06594142 0.11074853 -0.11462012
0.07415974 0.11861676 -0.09614538 0.050458416 -0.12275599 0.0945517 0.02756247 0.11246152
-0.11536987 0.027176961 0.014232308 -0.065038875 -0.042028278 0.10852091 0.052687436 -0.03522964
-0.0676592 0.045635894 0.10184911 -0.049552932 0.10728188 0.062311023 0.077330664 0.05854422
0.111295864 -0.034010127 -0.0209184 0.006948024 0.030305445 0.11465874 0.0037060976 -0.05108027
-0.123045325 -0.039162546 0.11873631 -0.0073278695 -0.06909953 0.021075204 0.006457284 0.124954045
0.087504715 -0.095038354 -0.075581595 -0.070569575 0.033557937 0.12136209 -0.06407279 -0.0526302
0.075302646 0.03449802 0.07678458 -0.0617027 -0.07614778 -0.06843302 0.00026862323 0.080100715
0.058425292 0.10830276 -0.035968482 -0.014686719 0.0173762 0.11416176 0.04841277 0.10264337
0.097184286 -0.10966121 -0.04920678 -0.11545126 -0.044632033 0.07591793 -0.048733994 0.047157586
-0.03238496 -0.016463563 0.07835908 -0.09394796 -0.1025628 0.03925535 0.03886746 -0.072028056
00000000: 0064 1bbb 202c c4bb 80be 62bb 20c3 a4bd
00000010: 8e8a e8bd c205 e23d 58c8 fa3c 7834 613d
00000020: 0897 dfbc 1886 a63d 7cfa 333d 6eb7 923d
00000030: 90a9 19bd d6aa f3bd b8bf b9bd 0a4d eb3d
00000040: 28bf 223d 68d8 f53d a477 003d fa02 83bd
00000050: 10b9 c1bd 0815 14bd 0669 9e3d 00ef 0a3b
00000060: e41e 16bd 4019 093c dafb b33d 9c46 6c3d
00000070: 547c 983d 7473 37bd 4cbf 3fbd d47e b9bd
00000080: 406a c93d 141d 303d 6040 2f3d 00f7 a53a
00000090: 04a2 cabd ec72 143d e8cc 29bd 0685 a1bd
000000a0: 8c54 483d 2087 e0bc 5055 b6bd f8b5 bc3d
000000b0: 3acd 8dbd 18b7 bf3c 6009 26bc 34a6 c83d
000000c0: 184d 0ebd f444 5ebd a8aa 403d 16a5 a0bd
000000d0: de60 af3d a081 0d3c c293 cfbd d049 3b3d
000000e0: c86f 013d f044 c2bc c0b1 ea3b 7813 403d
000000f0: b284 a63d e05b e0bb eeda ecbd 4c94 023d
00000100: 2048 9f3d e24e fa3d 10c8 0f3c 2412 603d
00000110: 3421 273d ee56 f93d d85d 3dbd e0db a63c
00000120: 246f 133d f0ef d2bd 3069 463c 30c9 69bc
00000130: 0238 f8bd 1ec4 a13d c0e5 ab3c 082f c4bd
00000140: c096 40bc 0a77 eabd 6e44 cd3d b291 bbbd
00000150: 748b 39bd c410 163d fc5b 513d 301c 19bd
00000160: 5e8a c8bd 8c40 5b3d 8cab 20bd 5efe b43d
00000170: e8f8 8e3d 94da f1bd 4e47 a3bd d0e6 e3bc
00000180: 506c bfbd 9cbd 4bbd 9295 8bbd f0ef 30bd
00000190: 780f c33c e8ff 94bd a87a bbbd 40df 54bc
000001a0: 9ce7 7abd 10e4 113c d832 b93c 4058 513b
000001b0: 5a44 9bbd c059 22bc a03d 863b b042 283c
000001c0: 10b5 91bc 22ac d4bd 94e1 03bd 40f5 8b3d
000001d0: 600d 58bc e261 b53d ec22 f3bd 2e32 fabd
000001e0: 2c9a 43bd 8caf ce3d f83e c93c 068b ce3d
000001f0: 483b 713d e894 17bd 80b1 d5ba 00fa 3f3c
00000200: ae20 863d 2e1d 973d ee92 98bd f04c f63c
00000210: d44e 6b3d 0082 c739 cc0f a33d 3007 213d
00000220: 1c96 7d3d 7e4f d23d be44 9fbd 20e4 85bb
00000230: bc6c 823d 1e73 e53d 0610 f13d ac5e 92bd
00000240: 8cd4 cdbd 7439 c03d cc7a 6c3d b8af 313d
00000250: 8cee a2bd 3898 28bd 5809 503d de6f e73d
00000260: 8056 fbbd 50f5 30bd acc7 313d e8e1 033d
00000270: 0e86 fe3d d64c 933d e40d 193d c0d7 ce3d
00000280: 845a 103d e030 8c3c 24e2 3c3d 4cd5 efbd
00000290: 50b9 913d 4018 e7bd 1082 b8bc 08ec 33bd
000002a0: b0c9 9c3d b0e7 acbd e0a2 633d 98ab 843d
000002b0: 40d2 693b 4c0c 873d 20d0 e23d f4bd eabd
000002c0: 10e1 973d 58ed f23d dee7 c4bd 7cad 4e3d
000002d0: 7e67 fbbd 52a4 c13d b0ca e13c 3a52 e63d
000002e0: 0a47 ecbd 38a2 de3c a02e 693c 1a33 85bd
000002f0: d825 2cbd 3640 de3d c8ce 573d f44c 10bd
00000300: e890 8abd b4ec 3a3d 4496 d03d 04f8 4abd
00000310: 9ab6 db3d d839 7f3d 8a5f 9e3d 10cc 6f3d
00000320: 16ef e33d 344e 0bbd 105d abbc 40ac e33b
00000330: 2043 f83c 34d2 ea3d 00e2 723b 8c39 51bd
00000340: 30ff fbbd e868 20bd 062c f33d a01e f0bb
00000350: 0e84 8dbd e8a5 ac3c a097 d33b e8e7 ff3d
00000360: ac35 b33d 78a3 c2bd 86ca 9abd c886 90bd
00000370: 0c74 093d b08c f83d 9838 83bd c492 57bd
00000380: 4638 9a3d cc4d 0d3d 3c41 9d3d f8bb 7cbd
00000390: 5ef3 9bbd 9c26 8cbd 00d6 8c39 d80b a43d
000003a0: 5c4f 6f3d d6cd dd3d b053 13bd 90a0 70bc
000003b0: 8858 8e3c a4cd e93d 784c 463d b036 d23d
000003c0: 8e08 c73d 0e96 e0bd 0c8d 49bd b671 ecbd
000003d0: 14d0 36bd dc7a 9b3d 4c9d 47bd 5028 413d
000003e0: 18a6 04bd 98de 86bc ba7a a03d ca67 c0bd
000003f0: 720c d2bd 38ca 203d 7c33 1f3d 7283 93bd

bias f4 [64]
0.023521826 -0.04233709 -0.076307446 -0.01816094 -0.022786811 0.11794135 0.029510781 0.08259991
-0.11850774 -0.035138145 -0.017102376 -0.10395104 0.025481805 0.015282258 0.02533494 -0.11460997
-0.11678295 0.009132206 -0.06045139 -0.070235744 0.06029661 0.089557454 0.0865943 -0.012270004
-0.023562029 0.10941991 -0.06875262 -0.036367476 0.045992598 0.043747157 -0.047437117 -0.062076584
0.08034213 -0.0055969805 0.105563805 0.029460505 -0.012117997 -0.06377216 -0.03894621 0.100081965
0.017246306 -0.08789317 0.031375065 0.11260064 0.028373107 0.08141126 -0.0052814484 -0.06383741
-0.050075814 -0.0656504 0.11640602 -0.09798682 -0.04529938 -0.09125587 -0.007356301 0.08887382
0.0763253 -0.11505033 0.0150188655 0.04093331 -0.024804145 0.03210412 -0.11823751 0.11007267
00000000: d8b0 c03c a869 2dbd 1447 9cbd 40c6 94bc
00000010: 68ab babc 3c8b f13d 98c0 f13c 242a a93d
00000020: 30b4 f2bd 04ed 0fbd 481a 8cbc 48e4 d4bd
00000030: 38bf d03c 7062 7a3c 388b cf3c a2b8 eabd
00000040: e62b efbd 409f 153c e09b 77bd c2d7 8fbd
00000050: 94f9 763d e669 b73d 5a58 b13d 2008 49bc
00000060: 2805 c1bc 8c17 e03d 2cce 8cbd 10f6 14bd
00000070: bc62 3c3d 3830 333d 6c4d 42bd 0444 7ebd
00000080: 6a8a a43d e066 b7bb d631 d83d 2857 f13c
00000090: 908a 46bc fa9a 82bd 1086 1fbd c6f7 cc3d
000000a0: 2048 8d3c 5601 b4bd 2483 003d 2a9b e63d
000000b0: b86e e83c f2ba a63d 0010 adbb 30bd 82bd
000000c0: 4c1c 4dbd b873 86bd 4866 ee3d 50ad c8bd
000000d0: d88b 39bd 5ce4 babd 200d f1bb 7a03 b63d
000000e0: 7050 9c3d 829f ebbd b011 763c b0a9 273d
000000f0: 1032 cbbc 9c7f 033d 8226 f2bd c86d e13d

weight f4 [64, 14]
0.06626555 -0.10418686 0.18941149 0.16273648 -0.07535987 -0.12233679 0.44654414 0.20625333
-0.00566697 -0.087502025 -0.09323299 0.08564961 0.25886172 -0.02509617 -0.18425518 0.17685345
-0.1926864 -0.34172225 0.101700835 0.15016434 0.19083385 0.04371836 0.23495555 -0.16917188
0.023674857 0.0054291035 0.12535708 -0.17475463 -0.22070867 0.16761929 0.42099366 0.31653628
-0.17291485 0.035558827 -0.2699617 0.22128314 0.022528892 -0.10636863 0.054385927 0.104028925
0.13342014 -0.118087664 -0.21439944 0.09178522 -0.21771915 0.10413969 0.044151366 -0.058582246
0.05831797 0.24504448 -0.057051625 -0.18679789 -0.12590517 0.26326153 -0.1588609 0.30926105
-0.12254858 0.10111168 0.4225782 -0.094858535 0.21910486 0.11817651 0.04846308 -0.1335295
0.36396557 -0.12239298 -0.022474544 0.10106364 -0.07025851 -0.06990457 0.1986673 -0.20711026
0.34685954 0.099712834 -0.08396093 -0.1268826 0.40126032 0.1746564 0.056684177 0.1741379
-0.22411184 -0.09527957 0.11086835 -0.10649807 0.03718112 0.033043474 -0.37934116 -0.15459529
0.27056286 0.0880718 -0.22559746 0.15259604 0.07712666 0.15908751 -0.14950976 0.027054362
0.042524785 -0.2928247 0.11784863 0.16609788 -0.34788457 0.0119400965 -0.20189707 -0.09610268
-0.15017997 0.25322807 0.05361392 0.12675527 0.384573 0.2565372 0.06418063 0.16840617
-0.15194575 0.11813039 0.21321608 0.25847435 -0.14666224 -0.15466008 0.057486415 -0.03921235
-0.06716088 -0.19645914 0.23248555 0.11339937 0.07057637 -0.098775044 0.23708652 0.35849777
0.024608718 -0.14315015 0.014718733 0.20267162 0.11189419 0.14127044 0.23587428 -0.25822547
0.20274942 -0.17280753 0.11876246 0.21773489 -0.2047071 0.024929559 -0.038886815 -0.26756638
-0.032566477 -0.037553146 0.16515078 -0.098574564 -0.10059175 -0.122558795 -0.104834415 0.07648916
-0.19480632 0.16143537 -0.16907522 0.086910404 0.20589808 0.3299078 -0.07714024 0.02515059
-0.20002592 -0.23655382 0.11007153 0.22748306 0.068496004 0.20132007 -0.16895503 -0.20221125
0.0010574189 0.16412345 -0.15875985 -0.27015898 0.2852069 -0.06543402 -0.2326912 0.16497163
0.111947544 0.12718093 -0.20171228 0.13464718 -0.25600532 0.08280009 -0.16675603 0.22404625
-0.24440813 -0.29300937 -0.27492788 -0.020336522 0.0018550152 0.2401151 -0.26630047 0.09177429
0.013736266 0.054359972 -0.070219554 -0.16557126 -0.10269519 -0.12458412 -0.21578632 -0.04684939
-0.12765601 -0.21597025 0.29643404 0.3323317 0.086597376 -0.07234857 -0.037716642 -0.10589911
-0.09259732 -0.20939147 0.09685808 0.19740018 0.32718757 -0.13887371 -0.27852365 -0.23350163
0.17133182 -0.14922187 -0.022572294 -0.011311176 -0.13503715 -0.19993469 0.23792279 0.16701187
-0.1923711 -0.31725553 0.081236266 0.35505185 -0.18640454 -0.076050736 0.2623433 -0.040171955
0.07337869 0.02355428 0.06772917 0.1350424 -0.12739912 -0.01668775 0.026191762 -0.07599063
0.20159578 -0.17217958 0.029582314 0.11810856 0.14670523 0.10685194 -0.18155007 -0.11596635
0.13633347 0.010037571 -0.026642988 -0.15105233 0.29848912 0.00821146 -0.0717283 -0.24244668
00000000: 3cb6 873d ec5f d5bd 16f5 413e 64a4 263e
00000010: 4756 9abd b68b fabd 6fa1 e43e 1334 533e
00000020: fdb1 b9bb 4334 b3bd f0f0 bebd 1069 af3d
00000030: 8689 843e 7c96 cdbc 64ad 3cbe 1219 353e
00000040: 954f 45be 38f6 aebe 8748 d03d aec4 193e
00000050: f369 433e 0612 333d 3098 703e 653b 2dbe
00000060: c6f1 c13c 9fe6 b13b 9b5d 003e e1f2 32be
00000070: 7401 62be 64a4 2b3e 7b8c d73e 0b11 a23e
00000080: 9710 31be 22a6 113d 6c38 8abe 0c98 623e
00000090: 838e b83c ccd7 d9bd c7c3 5e3d 1e0d d53d
000000a0: 4a9f 083e f2d7 f1bd 878b 5bbe e4f9 bb3d
000000b0: c5f1 5ebe 3147 d53d 10d8 343d f0f3 6fbd
000000c0: d3de 6e3d f1ec 7a3e f7ae 69bd f247 3fbe
000000d0: 49ed 00be 37ca 863e 6fac 22be 7757 9e3e
000000e0: c0fa fabd a413 cf3d 2b5c d83e 3145 c2bd
000000f0: 065d 603e 8706 f23d 3981 463d f5bb 08be
00000100: b259 ba3e 2ca9 fabd 891c b8bc 74fa ce3d
00000110: b2e3 8fbd 212a 8fbd 716f 4b3e b614 54be
00000120: 9397 b13e 3e36 cc3d b5f3 abbd 83ed 01be
00000130: fe71 cd3e 21d9 323e ab2d 683d 3551 323e
00000140: 937d 65be ef21 c3bd f20e e33d a91b dabd
00000150: 3b4b 183d 9858 073d 0139 c2be 3a4e 1ebe
00000160: 3787 8a3e fd5e b43d 0503 67be 2342 1c3e
00000170: 95f4 9d3d d6e7 223e 1619 19be 1ca1 dd3c
00000180: 782e 2e3d 1eed 95be 9f5a f13d 9015 2a3e
00000190: ed1d b2be 65a0 433c 1bbe 4ebe 7bd1 c4bd
000001a0: c7c8 19be 1ca7 813e 459a 5b3d 22cc 013e
000001b0: c1e6 c43e d858 833e 2271 833d ab72 2c3e
000001c0: ab97 1bbe 59ee f13d 5155 5a3e c056 843e
000001d0: a02e 16be 365f 1ebe e076 6b3d 219d 20bd
000001e0: a58b 89bd 962c 49be b110 6e3e ee3d e83d
000001f0: 588a 903d 924a cabd cfc6 723e 058d b73e
00000200: 3998 c93c f495 12be d726 713c 2689 4f3e
00000210: c828 e53d 33a9 103e 0789 713e 2136 84be
00000220: 8b9d 4f3e 75f4 30be bc39 f33d e5f5 5e3e
00000230: bd9e 51be 1339 cc3c c847 1fbd 76fe 88be
00000240: 6d64 05bd 54d1 19bd 491d 293e 76e1 c9bd
00000250: 0c03 cebd 1b00 fbbd 6db3 d6bd 59a6 9c3d
00000260: 4f7b 47be 504f 253e 0e22 2dbe 15fe b13d
00000270: f2d6 523e ade9 a83e b4fb 9dbd 9c08 ce3c
00000280: 98d3 4cbe 2a3b 72be 2f6d e13d 52f1 683e
00000290: a247 8c3d d926 4e3e 8c02 2dbe 7710 4fbe
000002a0: 1799 8a3a fa0f 283e f191 22be 4752 8abe
000002b0: a406 923e 4502 86bd 9a46 6ebe 53ee 283e
000002c0: c144 e53d b83b 023e aa8d 4ebe f3e0 093e
000002d0: 2113 83be 1893 a93d 18c2 2abe 616c 653e
000002e0: 2046 7abe 5305 96be 59c3 8cbe c798 a6bc
000002f0: fb23 f33a bce0 753e 8958 88be 29f4 bb3d
00000300: 130e 613c 90a8 5e3d 45cf 8fbd 838b 29be
00000310: db51 d2bd f625 ffbd 17f7 5cbe 25e5 3fbd
00000320: 42b8 02be 4e27 5dbe 34c6 973e 6127 aa3e
00000330: f759 b13d 7d2b 94bd c47c 1abd a2e1 d8bd
00000340: aaa3 bdbd b86a 56be 875d c63d 4623 4a3e
00000350: 2185 a73e e934 0ebe a79a 8ebe 0d1b 6fbe
00000360: 9c71 2f3e 9ecd 18be 88e9 b8bc 8352 39bc
00000370: 2e47 0abe aebb 4cbe 08a2 733e 2905 2b3e
00000380: eefc 44be 516f a2be 335f a63d 5bc9 b53e
00000390: d5e0 3ebe 7dc0 9bbd dc51 863e 598b 24bd
000003a0: 9147 963d e8f4 c03c 97b5 8a3d 8e48 0a3e
000003b0: ea74 02be c0b4 88bc 1b90 d63c faa0 9bbd
000003c0: 206f 4e3e d84f 30be 9c56 f23c e7e2 f13d
000003d0: e539 163e 31d5 da3d 43e8 39be c47f edbd
000003e0: 009b 0b3e a074 243c 6542 dabc 76ad 1abe
000003f0: 91d3 983e 5c89 063c 49e6 92bd f143 78be

bias f4 [64]
0.045730647 0.010747874 -0.054746035 -0.18705855 0.009569428 -0.05039058 -0.18695201 -0.010807849
0.072329454 0.14238876 -0.00014389888 -0.099019185 0.18716468 0.12586577 0.00025620847 0.2327041
0.15281625 -0.26917407 0.26431522 -0.15699713 -0.00047369112 -0.026210316 0.31030774 0.14986302
0.08806394 0.0007886738 -5.550643e-05 0.0070796 -0.17179433 -0.15124777 -0.2811808 0.16377771
0.17673452 0.009139438 -0.05992349 -0.15404654 0.03616634 -0.010380868 0.030181756 0.31320342
-0.14351931 -0.10283942 -0.20341966 1.05211675e-05 -0.051314916 0.017002363 0.0014569366 0.16432002
0.17324543 0.2519766 0.00076251064 -0.24305269 0.00023276308 0.00032369132 -0.054718133 -0.026682975
0.025762552 0.00016888925 0.00033569743 0.07744114 0.04221975 -0.08619614 -0.084358305 -0.12188363
00000000: 0f50 3b3d da17 303c 613d 60bd 478c 3fbe
00000010: 17c9 1c3c 5a66 4ebd 5970 3fbe 6713 31bc
00000020: 7721 943d 5cce 113e 90e3 16b9 92ca cabd
00000030: 19a8 3f3e f5e2 003e b853 8639 fc49 6e3e
00000040: dd7b 1c3e 2fd1 89be 5354 873e dbc3 20be
00000050: bf59 f8b9 04b7 d6bc a8e0 9e3e b175 193e
00000060: de5a b43d 01bf 4e3a 93cf 68b8 fdfb e73b
00000070: daea 2fbe b2e0 1abe eef6 8fbe 58b5 273e
00000080: e5f9 343e 95bd 153c 5572 75bd 60be 1dbe
00000090: 2823 143d 8414 2abc bb3f f73c 335c a03e
000000a0: baf6 12be 799d d2bd 3e4d 50be 1284 3037
000000b0: 972f 52bd 8a48 8b3c aef6 be3a 8243 283e
000000c0: 4067 313e 1403 813e 39e3 473a cee2 78be
000000d0: dd11 7439 1db5 a939 1f20 60bd 4196 dabc
000000e0: fd0b d33c dd17 3139 8c00 b039 7699 9e3d
000000f0: 9eee 2c3d 9a87 b0bd 0cc4 acbd 209e f9bd
