trained_models/net_1/dense_classifier_net_1_obs_case_2.pt (torch, 111681 bytes, 25 tensors)

weight f4 [10, 10]
0	0xbe329bcc	-0.17442244
1	0x3ec813e1	0.39077666
2	0xbe55678a	-0.20840278
3	0x3e15eb79	0.14640607
4	0xbda2ed18	-0.07955378
5	0x3e1cfb9b	0.15330355
6	0x3e6b4128	0.22974074
7	0xbec1527e	-0.3775825
8	0xbe2f77da	-0.17135563
9	0xbebaf546	-0.36515254
10	0x3da4cf7c	0.08047387
11	0x3d932e72	0.07186593
12	0xbd66ef5e	-0.056380622
13	0x3e9a50d3	0.3013979
14	0x3dc3dcbb	0.09563585
15	0xbe536f36	-0.20647892
16	0xbd5c4566	-0.05377712
17	0xbe81ce82	-0.25352865
18	0x3e9bf868	0.30462956
19	0x3d2f4f9a	0.042800523
20	0x3dae091c	0.08497831
21	0xbe3eba11	-0.18625666
22	0x3db97e6c	0.09057316
23	0x3e38a45c	0.18031448
24	0x3e50883c	0.2036447
25	0xbe4e2a47	-0.20133315
26	0xbe36a1fb	-0.17835228
27	0xbe70a0d9	-0.23498859
28	0x3e97030c	0.29494512
29	0xbe757bfe	-0.2397308
30	0x3dc8e983	0.09810164
31	0x3d24e2d7	0.040255394
32	0x3e9d257a	0.30692655
33	0x391cefb6	0.00014966619
34	0x3c954125	0.01821954
35	0x3eb6f414	0.35733092
36	0x3d9b359a	0.07578583
37	0xbe8093b6	-0.25112695
38	0xbe786df3	-0.24260692
39	0x3db4c5b0	0.088267684
40	0x3dc59a1a	0.09648533
41	0xbdcef496	-0.10105245
42	0xbd8411c2	-0.064486995
43	0xbe50cf20	-0.20391512
44	0xbdfcda6d	-0.12346349
45	0xbc0e0202	-0.008667471
46	0xbcab4971	-0.020909043
47	0xbe9473e1	-0.2899466
48	0xbea81e47	-0.328356
49	0xbe46d9ea	-0.19419065
50	0xbe652b1f	-0.2237973
51	0x3d229806	0.039695762
52	0x3d04dee5	0.03243913
53	0xbd4555d5	-0.04817756
54	0xbe6b2fbd	-0.2296743
55	0xbe8496b7	-0.25896236
56	0x3d931eb2	0.07183589
57	0x3d4c1bba	0.04983113
58	0xbe875053	-0.2642847
59	0x3dbcb6d2	0.09214558
60	0x3e95fc71	0.2929416
61	0x3b4e9175	0.0031519805
62	0xbd5bdca8	-0.05367723
63	0x3ea124af	0.314733
64	0x3cf1c563	0.029513067
65	0xbe9f9645	-0.31169334
66	0x3e77af51	0.24187972
67	0x3e3cc5c8	0.18434823
68	0xbe062243	-0.13099007
69	0xbed5f321	-0.41787055
70	0x3a4e7663	0.00078759174
71	0xbe457feb	-0.19287078
72	0x3e16a8af	0.14712785
73	0xbe7d0e79	-0.24712552
74	0xbd157797	-0.036491003
75	0x3d977495	0.07395283
76	0x3ae2bfec	0.0017299629
77	0x3e964043	0.29345903
78	0xbd8f5e7b	-0.070004426
79	0xbe2a0797	-0.16604458
80	0xbe34dab9	-0.17661561
81	0xbe9e35ac	-0.30900323
82	0x3e27233c	0.16322035
83	0x3e298453	0.16554384
84	0x3df434bb	0.1192412
85	0x3daa7694	0.08323398
86	0xbe399adf	-0.18125485
87	0xbead2d61	-0.33823684
88	0xbeac477f	-0.33648297
89	0x3e9c8f2f	0.3057799
90	0x3e67911b	0.22613947
91	0x3e277f65	0.16357191
92	0x3d869406	0.06571202
93	0xbe0d93b4	-0.13825876
94	0x3d3c45c8	0.045964986
95	0x3cbf75eb	0.023371657
96	0x3eb087e7	0.34478685
97	0xbe514e47	-0.20440017
98	0xbcef3f88	-0.029205099
99	0x3e753145	0.23944576

bias f4 [10]
0	0xbe26a810	-0.16275048
1	0xbe8ad7f9	-0.271179
2	0xbe556d6d	-0.20842524
3	0x3e1c8493	0.15284948
4	0xbe2253a8	-0.15852225
5	0x3e4f5fbc	0.20251364
6	0x3e9af90d	0.30268136
7	0xbe29f710	-0.16598153
8	0xbdbc7970	-0.0920285
9	0x3db7a978	0.089678705

weight f4 [10, 10]
0	0x3a459f36	0.0007538678
1	0xbdb4fd58	-0.08837384
2	0xbdaf417b	-0.08557411
3	0x3e5155bb	0.2044286
4	0xbeb5165a	-0.35368615
5	0x3e42b4e0	0.19014311
6	0xbe55ee7d	-0.20891757
7	0xbf198dba	-0.5998188
8	0xbd5b3457	-0.053516712
9	0xbeaa064c	-0.3320793
10	0xbe2a8ff6	-0.16656479
11	0x3e0e9a90	0.13926148
12	0xbe4b7fed	-0.19873019
13	0x3e6c15ec	0.23055238
14	0xbea17af8	-0.3153913
15	0xbe36af6f	-0.1784036
16	0xbcb8e003	-0.022567755
17	0xbc0218d5	-0.007940491
18	0xbdf1b040	-0.11801195
19	0x3e6747e6	0.22586021
20	0x3e3e2d7f	0.18572043
21	0xbe2094c6	-0.15681753
22	0x3d95aab4	0.0730795
23	0xbeaf49c3	-0.34235963
24	0xbe50d447	-0.20393477
25	0x3e2de97a	0.16983595
26	0xbed993e3	-0.4249564
27	0x3ec6d3c8	0.3883345
28	0x3d47df20	0.048796773
29	0xbe8ffda0	-0.28123188
30	0x3e887ddb	0.2665852
31	0x3db3b6cc	0.087751
32	0xbc7ee61a	-0.01555779
33	0x3c8e21b1	0.01735005
34	0x3e9270ab	0.28601584
35	0x3e911011	0.2833257
36	0x3ef49ada	0.47774392
37	0x3d34ee9b	0.044172864
38	0xbeb0fcda	-0.3456791
39	0xbcbc08f4	-0.022953488
40	0xbc60dc78	-0.013724439
41	0xbe025cdf	-0.1273074
42	0xbe2c852d	-0.16847678
43	0xbe9a24e3	-0.30106267
44	0x3e1401f8	0.14453876
45	0xbe4c4e00	-0.1995163
46	0x3d8b1493	0.067910336
47	0xbb9b9dee	-0.0047490513
48	0xbe8684a9	-0.26273087
49	0x3d15b73e	0.036551706
50	0x3eaa4a51	0.33259824
51	0x3d311384	0.043231502
52	0x3d37c74f	0.04486781
53	0x3eb781a1	0.35841087
54	0x3e7556f6	0.23958954
55	0x3dbd97d6	0.09257476
56	0x3cfddecf	0.030990032
57	0xbd288314	-0.04114063
58	0x3e1763ac	0.14784116
59	0x3e90e805	0.28302017
60	0x3ef822b9	0.4846399
61	0x3de7ab44	0.11311963
62	0x3de7d2ca	0.11319502
63	0x3c700688	0.014649995
64	0x3d1758cd	0.03694992
65	0x3dcbe713	0.09956183
66	0x3e514bda	0.20439091
67	0xbe0ad5fd	-0.13558193
68	0x3e008db3	0.12554054
69	0x3e11c43b	0.14235012
70	0x3cf7d20d	0.030251527
71	0xbf007556	-0.5017904
72	0x3ecb401a	0.39697343
73	0xbe8a5ae8	-0.2702248
74	0xbdf14e8f	-0.11782562
75	0xbe2f3926	-0.17111644
76	0x3d016b41	0.031596426
77	0x3e823d43	0.25437364
78	0xbe22239d	-0.15833898
79	0x3c2e40dc	0.010635581
80	0xbe189897	-0.14901958
81	0xbdd18436	-0.10230295
82	0x3eefc6ed	0.46831456
83	0x3d6b7e59	0.05749354
84	0x3e41e9d2	0.18936852
85	0x3e5669de	0.20938823
86	0x3efed988	0.49775338
87	0x3dc6f3e9	0.09714491
88	0xbeb2c0ae	-0.34912628
89	0xbdb9140e	-0.09037028
90	0xbde4a38e	-0.11164008
91	0x3d638712	0.055548735
92	0xbe240d7f	-0.16020773
93	0x3e4b68fe	0.1986427
94	0x3dc07166	0.09396629
95	0x3ea487a6	0.32134742
96	0x3dc4d361	0.0961063
97	0xbddbf03b	-0.1073918
98	0x3d9955e4	0.074870855
99	0x3c3cd580	0.011525512

bias f4 [10]
0	0x3c6b57a6	0.014364159
1	0xbe875ded	-0.26438847
2	0xbec56be0	-0.38558865
3	0x3e42b292	0.19013432
4	0x3e555de7	0.20836602
5	0xbdaa550b	-0.08317002
6	0xbb3aae2c	-0.0028485162
7	0x3d203e8c	0.03912215
8	0x3d881580	0.06644726
9	0x3e566298	0.20936048

weight f4 [64, 64]
0	0xbe0e74bc	-0.13911718
1	0x3dad552c	0.08463511
2	0xbc2f2f3b	-0.010692413
3	0xbb1e0ca4	-0.002411642
4	0x3da4d001	0.08047486
5	0x3d8ea167	0.06964379
6	0x3cc0da44	0.023541577
7	0x3e110eda	0.14165822
8	0x3e59cbf6	0.21269211
9	0xbd456ad0	-0.048197567
10	0xbd324049	-0.04351834
11	0x3e0cdaca	0.13755336
12	0xbc18123f	-0.009281694
13	0x3d085e6d	0.033293176
14	0xbdf0ddcd	-0.11761055
15	0x3d9c32cc	0.07626876
16	0x3df89e36	0.12139551
17	0x3cc277fd	0.023738855
18	0x3ddd17ce	0.10795556
19	0x3d7d4c73	0.061840486
20	0xbd6db75b	-0.05803619
21	0xbdfe6c59	-0.124230094
22	0x3e1bdee1	0.1522174
23	0xbd1e278c	-0.038611934
24	0x3d13dd3e	0.036099665
25	0x3d926603	0.071483634
26	0xbe0ac48b	-0.13551538
27	0x3e9a533d	0.3014163
28	0x3db0b765	0.0862873
29	0xbdbf0dd5	-0.0932881
30	0xbd08b017	-0.033371057
31	0x3ce0980e	0.027416255
32	0x3cd09416	0.025461238
33	0xbd570e6f	-0.052504
34	0x3de23028	0.11044341
35	0xbd9f2cfb	-0.07772251
36	0x3c22b27b	0.009930248
37	0xbbe3580b	-0.006937986
38	0xbdfb53ab	-0.12271818
39	0x3d8ae72a	0.06782372
40	0xbd53e44c	-0.051731393
41	0x3cdfb56d	0.02730819
42	0x3c872ab7	0.01649986
43	0x3dc42340	0.09577036
44	0x3da90779	0.082533784
45	0x3db22e44	0.08700231
46	0xbd8c18b3	-0.068406485
47	0x3d896602	0.067089096
48	0xbc9333dd	-0.017969066
49	0x3dd50b9d	0.10402606
50	0xbdd65bd2	-0.10466732
51	0xbd66263b	-0.056188803
52	0xbc0420d5	-0.008064468
53	0x3c729fca	0.0148086045
54	0xbbee0d63	-0.0072647794
55	0xbdb8e8ea	-0.090288
56	0xbdcae681	-0.099072464
57	0x3dfc57d7	0.123214416
58	0xbe25068f	-0.16115783
59	0x3bc66c95	0.0060554245
60	0x3de7c58c	0.11316976
61	0x3ca06778	0.019580588
62	0xbcfe59eb	-0.031048736
63	0x3dfe7ae1	0.12425781
64	0xbe0b1533	-0.13582306
65	0xbde3c19e	-0.11120914
66	0xbe008f13	-0.12554578
67	0xbe33855c	-0.17531341
68	0xbbb7e385	-0.0056118392
69	0xbe1e22b8	-0.15442932
70	0xbc05d368	-0.008168079
71	0xbe81b021	-0.25329688
72	0x3e1b05ce	0.15138933
73	0xbdf0cab3	-0.11757412
74	0x3c3c2a64	0.011484716
75	0xbdbb2a1e	-0.091388926
76	0xbd9c6b9e	-0.07637714
77	0x3e5e8d1d	0.21733518
78	0x3ec1f855	0.37884775
79	0x3d252f83	0.040328514
80	0xbca836fb	-0.02053403
81	0x3d14b64a	0.036306657
82	0x3e631cf2	0.2217901
83	0xbe9922a0	-0.2990923
84	0x3e9b6e8d	0.3035778
85	0xbd8a9796	-0.06767194
86	0x3d71b58a	0.05901102
87	0x3e75ddc9	0.24010386
88	0xbe1485db	-0.14504187
89	0x3e701b0c	0.23447818
90	0x3d03816f	0.03210586
91	0xbe64af7e	-0.2233257
92	0xbd652074	-0.055939153
93	0xbd7a9d91	-0.061185423
94	0xbe86d974	-0.2633778
95	0xbc9ec400	-0.01938057
96	0x3d913126	0.070894524
97	0x3e50c211	0.2038653
98	0xbe4e82f6	-0.20167145
99	0xbd16a832	-0.036781497
100	0x3df58b0e	0.11989413
101	0xbd264eac	-0.04060237
102	0x3e333dbd	0.1750402
103	0x3e7da526	0.2477003
104	0xbea974c8	-0.3309691
105	0x3cc9ca46	0.024632584
106	0x3cc000e6	0.023437928
107	0xbdeba2ce	-0.11505662
108	0xbe0a2eb9	-0.13494386
109	0x3da64cf3	0.08120146
110	0x3e6f2250	0.23352933
111	0x3d61453c	0.054997668
112	0xbea6dbdf	-0.32589623
113	0x3da37727	0.07981711
114	0xbc41c64f	-0.011827066
115	0x3dfcb7c5	0.12339739
116	0xbd08befb	-0.03338526
117	0xbdcba142	-0.09942867
118	0xbdf65c81	-0.120293625
119	0x3e750b08	0.2392999
120	0xbdb0b4de	-0.08628248
121	0xbd4e741c	-0.0504037
122	0x3d121633	0.035665702
123	0xbcc7a950	-0.024372727
124	0xbdedd808	-0.1161347
125	0xbdff525b	-0.1246688
126	0x3d481bc3	0.0488546
127	0x3d009251	0.03138954
128	0x3c84f787	0.016231311
129	0x3cb21c57	0.02174203
130	0xbdad1b92	-0.08452524
131	0xbc273e53	-0.01020773
132	0x3e55eb55	0.20890553
133	0x3cb8a236	0.022538286
134	0x3d86c22d	0.06580005
135	0x3dd44d85	0.10366348
136	0x3c4efb69	0.012633183
137	0xbc6bd6cd	-0.014394474
138	0xbdfd79c0	-0.123767376
139	0xbd9d5cbb	-0.076837026
140	0xbbf1689c	-0.0073672067
141	0xbd5f4119	-0.05450544
142	0xbe84f4ec	-0.2596811
143	0x3bc45ef2	0.0059927637
144	0x3cdbf2b0	0.02684912
145	0xbe955144	-0.29163563
146	0xbe491110	-0.19635415
147	0x3d5f35f4	0.054494813
148	0xbe852b52	-0.26009613
149	0xbd818f66	-0.06326179
150	0xbe41a750	-0.18911481
151	0x3d792dcb	0.060834687
152	0x3ce910ad	0.028450334
153	0xbeec5b12	-0.4616323
154	0xbe4b4a62	-0.19852594
155	0xbe200efa	-0.15630713
156	0x3daff405	0.08591465
157	0x3c509c50	0.01273258
158	0xbda608fc	-0.081071824
159	0xbcc6fac9	-0.024289506
160	0xbc92f2e5	-0.017938087
161	0xbeb56692	-0.35429817
162	0xbc0628a2	-0.008188399
163	0xbd832e4c	-0.06405315
164	0x3aeafe5d	0.0017928589
165	0x3e530fbb	0.2061147
166	0xbc9fc2de	-0.0195021
167	0xbe0a0ddf	-0.13481854
168	0x3ee700d3	0.45117816
169	0xbded6d34	-0.115930945
170	0xbd2afe09	-0.041746173
171	0xbdb991cc	-0.09061012
172	0xbdbab4b1	-0.091164954
173	0xbd03b7ac	-0.032157585
174	0x3e63cbb2	0.22245672
175	0x3d6e4909	0.05817512
176	0x3dcb6078	0.09930509
177	0xbe16fae2	-0.14744142
178	0x3dec075f	0.115248434
179	0xbcaa6903	-0.020802027
180	0x3c4ccc7a	0.012499923
181	0x3cf1db3d	0.029523486
182	0x3d5e2e02	0.054243095
183	0x3d024e32	0.031812854
184	0xbdc845ef	-0.09778964
185	0x3dd8f4f8	0.10593599
186	0x3dc0d204	0.09415057
187	0x3d8549b4	0.065081984
188	0x3c29e4f4	0.010369528
189	0xbc827838	-0.015926465
190	0x3dd999f1	0.10625065
191	0x3dc87b31	0.09789122
192	0x3c74649e	0.014916567
193	0x3ea65329	0.3248532
194	0xbe32ace5	-0.17448767
195	0x3e42b9b8	0.19016159
196	0x3e5e8fb4	0.21734506
197	0x3cc61f91	0.024184974
198	0x3d2fb4bf	0.042896982
199	0xbd1565d9	-0.036474083
200	0xbda37495	-0.07981221
201	0x3cad7a4e	0.021176483
202	0x3e4f1309	0.20222105
203	0x3d744875	0.059639413
204	0xbe125452	-0.14289978
205	0xbcf0aacb	-0.029378315
206	0x3bbf76f6	0.0058430387
207	0x3e2f7d32	0.17137602
208	0xbcc52882	-0.024067167
209	0x3e5e7a27	0.21726285
210	0x3e761f26	0.2403532
211	0x3eb89ac1	0.36055568
212	0xbd197d61	-0.037473086
213	0xbc3bbed4	-0.011459071
214	0xbcafb9eb	-0.021450957
215	0x3d418a6a	0.047251143
216	0x3c7cf54e	0.015439345
217	0x3d076bc9	0.033061776
218	0xbdf38532	-0.11890639
219	0xbc329641	-0.010900081
220	0x3cadfaeb	0.021237811
221	0x3ddf1111	0.10891927
222	0x3ea456bc	0.32097423
223	0x3e0d4a3e	0.13797852
224	0xbd5bb374	-0.053637937
225	0x3ea8d87a	0.3297766
226	0x3d80e514	0.06293693
227	0x3e6b44b3	0.22975425
228	0x3e4957f8	0.19662464
229	0x3d84c6ce	0.064832315
230	0xbcb9cf96	-0.022681993
231	0x3e62c459	0.22145213
232	0xbd6bdaa0	-0.057581544
233	0xbd897e15	-0.06713501
234	0xbdf496f7	-0.11942857
235	0xbd3f713e	-0.046738856
236	0x3d3d6158	0.046235412
237	0x3d68a335	0.05679627
238	0xbb82b368	-0.003988672
239	0xbc7179bd	-0.014738497
240	0x3ea7a3b0	0.3274207
241	0xbe4407ce	-0.19143602
242	0xbe303751	-0.17208602
243	0x3d6111f4	0.054948762
244	0xbdf8352e	-0.12119518
245	0xbd42b882	-0.04753924
246	0xbe22a6db	-0.15883963
247	0x3dbcea56	0.092243835
248	0x3d9402b9	0.07227082
249	0x3e261f4f	0.16222881
250	0xbe09c011	-0.13452174
251	0x3deb0bf7	0.114768915
252	0x3e83e918	0.25763774
253	0xbda1cf3a	-0.079008535
254	0x3d85c372	0.06531419
255	0xbd92c985	-0.07167343

bias f4 [64]
0	0xbeac0f5b	-0.33605465
1	0x3e779eb7	0.24181639
2	0x3d89e620	0.06733346
3	0xbe92b27c	-0.28651798
4	0xbeba1022	-0.36340433
5	0x3e3ec43e	0.18629548
6	0xbec2b276	-0.3802678
7	0xbde9714c	-0.11398563
8	0xbf0d17dc	-0.5511453
9	0xbe886cd5	-0.26645532
10	0x3e5b20b1	0.2139919
11	0x3db10776	0.08644001
12	0x3df7a0eb	0.120912395
13	0xbd4472db	-0.047961097
14	0xbf403b46	-0.75090444
15	0xbe2dd480	-0.16975594
16	0x3c1ce858	0.009576879
17	0x3d3e362b	0.046438377
18	0xbe4e0850	-0.20120358
19	0xbc275ff3	-0.010215747
20	0x3dfe7e56	0.124264404
21	0x3d503573	0.050832223
22	0x3bb1d613	0.005427131
23	0xbaade76e	-0.0013267824
24	0x3d2947a5	0.04132809
25	0x3cd19f17	0.025588555
26	0xbd724e38	-0.059156626
27	0xbe44864a	-0.19191852
28	0xbea1c2cd	-0.31593934
29	0xbd89b235	-0.067234434
30	0xbec3f9f9	-0.38276652
31	0x3c276010	0.010215774
32	0x3e12e131	0.14343716
33	0xbe92dad2	-0.28682572
34	0xbefd591f	-0.49482056
35	0xbec16813	-0.37774715
36	0x3aa718f2	0.0012748523
37	0x3e3e2289	0.18567862
38	0xbe41dcda	-0.18931904
39	0xbebc1756	-0.36736554
40	0xbcefe11e	-0.029282149
41	0xbd449cd7	-0.048001137
42	0xbe349f69	-0.17638935
43	0x3d8be12b	0.06830057
44	0xbe2cf959	-0.16891994
45	0xbe0e149d	-0.13875051
46	0x3e936926	0.2879116
47	0xbe9475a2	-0.28995997
48	0xbe2ca1f0	-0.16858649
49	0xbd8451bf	-0.06460904
50	0x3dd8c730	0.10584867
51	0x3daa5f19	0.0831892
52	0x3e5e5c08	0.21714795
53	0xbea062aa	-0.31325275
54	0xbeba6a48	-0.3640921
55	0xbe776f14	-0.24163467
56	0x3dcee13b	0.10101553
57	0xbe62b170	-0.22138
58	0xbe41b77c	-0.1891765
59	0xbe725ca9	-0.2366816
60	0xbf07af04	-0.5300143
61	0xbef18a61	-0.47175887
62	0xbd4a59ac	-0.049401924
63	0xbedac2bf	-0.42726704

weight f4 [64, 64]
0	0x3dd0f1fb	0.10202404
1	0x3db51c2d	0.08843265
2	0x3dae2d82	0.08504774
3	0x3d2cb314	0.04216297
4	0xbf049154	-0.51784253
5	0xbdf9ed59	-0.122034736
6	0xbcd1998f	-0.025585918
7	0xbe5900ac	-0.21191663
8	0xbe80e9e0	-0.25178432
9	0xbe5f5004	-0.21807867
10	0xbf18228b	-0.5942771
11	0xbeac31d1	-0.33631757
12	0x3e3ca4f3	0.18422298
13	0x3dabf593	0.08396449
14	0xbefedf3c	-0.4977969
15	0x3ce0ac07	0.027425779
16	0xbedeb0ac	-0.43494165
17	0xbe10a20b	-0.14124314
18	0xbd803888	-0.062607825
19	0x3e4d49e3	0.20047717
20	0xbefe0e05	-0.4962007
21	0x3e0e8674	0.13918477
22	0xbe103abb	-0.14084904
23	0xbe95756f	-0.29191157
24	0xbc1a545a	-0.009419525
25	0x3e0c181b	0.1368107
26	0xbdbab352	-0.09116234
27	0x3bea0684	0.00714189
28	0xbcb8eaf2	-0.022572968
29	0xbca38a88	-0.019963518
30	0xbe59d8a1	-0.21274044
31	0x3d40f3f4	0.04710765
32	0xbe84c914	-0.2593466
33	0xbd3330e8	-0.043747813
34	0xbebd7835	-0.37005773
35	0xbe1e2a4f	-0.15445827
36	0x3ca8e4fa	0.020616997
37	0x3d7f1364	0.06227435
38	0x3d36df60	0.04464662
39	0x3dbcf956	0.092272446
40	0xbe5c450f	-0.21510719
41	0x3e0cbdd9	0.13744296
42	0x3d2af1b5	0.041734416
43	0xbefec746	-0.4976141
44	0xbe162d2f	-0.14665674
45	0xbf45b1c5	-0.7722438
46	0x3e32d1da	0.17462865
47	0x3ccfcaf0	0.025365323
48	0xbea804f5	-0.32816282
49	0xbea930de	-0.33045095
50	0x3ea0a726	0.31377524
51	0x3e39e1fa	0.1815261
52	0xbec31ad6	-0.38106412
53	0x3e623c53	0.22093324
54	0xbd51da78	-0.05123374
55	0x3e4ca6f7	0.19985567
56	0x3d4684f1	0.048466627
57	0x3cf12138	0.029434785
58	0x3dbc010b	0.091798864
59	0x3ba00045	0.0048828446
60	0x3de6fe06	0.1127892
61	0x3d384665	0.04498901
62	0x3e651273	0.22370319
63	0xbd520fcb	-0.051284593
64	0x3db68720	0.08912492
65	0xbdfa04c0	-0.12207937
66	0xbde199a4	-0.11015633
67	0xbc7c9d25	-0.015418326
68	0xbcbef95d	-0.023312265
69	0x3dfc53c4	0.123206645
70	0xbef248b9	-0.47321108
71	0x3cf1156a	0.029429156
72	0xbdc4b7fc	-0.09605405
73	0xbe7ff562	-0.2499595
74	0xbe9d6977	-0.30744526
75	0xbe82a8ee	-0.25519508
76	0x3e0b86ea	0.13625684
77	0x3e6d9e1a	0.23204842
78	0x3dd1c674	0.1024293
79	0x3e233506	0.15938196
80	0xbe015326	-0.12629375
81	0xbe6263f8	-0.22108448
82	0x3de10ce2	0.10988785
83	0xbddcb3eb	-0.10776504
84	0xbd2f5191	-0.042802397
85	0x3df682e1	0.12036682
86	0xbe0adf16	-0.13561663
87	0xbd08678a	-0.033301868
88	0xbdc64401	-0.096809395
89	0x3e8547d5	0.26031366
90	0x3e64491a	0.22293511
91	0xbc9d444e	-0.01919761
92	0x3c6c77c7	0.014432854
93	0x3e2431ec	0.16034669
94	0x3e298bf2	0.16557291
95	0x3e64fbc7	0.2236167
96	0x3e31a8ac	0.173495
97	0xbd9e263e	-0.07722138
98	0xbc5803f4	-0.013184536
99	0x3d84bae1	0.06480957
100	0x3e6fe2f0	0.23426414
101	0xbd33b096	-0.043869577
102	0x3c0fd2d2	0.008778291
103	0x3d9bd23b	0.07608458
104	0x3d039a05	0.032129306
105	0xbe5ac200	-0.21363068
106	0x3e5a4cf0	0.21318412
107	0x3ce66a2e	0.028126802
108	0x3e6a236e	0.22865078
109	0xbe8ec229	-0.27882507
110	0xba846883	-0.0010101948
111	0xbe6e6fbd	-0.23284812
112	0xbc232ef4	-0.009959925
113	0xbd2635d4	-0.04057868
114	0x3dbfb5fd	0.093608834
115	0xbdc9658a	-0.0983382
116	0xbe2cd58a	-0.16878334
117	0xbcd83663	-0.026393121
118	0x3d831cce	0.064019784
119	0xbd5678a9	-0.052361164
120	0x3e27568f	0.16341613
121	0x3dd14e44	0.10220006
122	0x3ecff349	0.406153
123	0xbc0c7a48	-0.008574076
124	0x3e4e8cb0	0.20170856
125	0xbe16c45c	-0.14723343
126	0xbdc0be92	-0.094113484
127	0xbea6580a	-0.32489043
128	0x3d43bdfb	0.0477886
129	0xbe8de21e	-0.27711576
130	0x3e5e2236	0.21692738
131	0x3e88bc64	0.2670623
132	0x3e690de5	0.22759207
133	0xbc070bff	-0.008242606
134	0x3d3b34e3	0.045704734
135	0xbe006910	-0.12540078
136	0xbdbb1907	-0.09135633
137	0x3e06a621	0.1314931
138	0xbe8cad3d	-0.2747592
139	0xbe8f5375	-0.2799336
140	0x3f08c66a	0.53427756
141	0x3da0effb	0.07858273
142	0xbeea6323	-0.4577876
143	0xbdc40f59	-0.0957324
144	0xbe063d95	-0.13109429
145	0xbe92b385	-0.28652588
146	0xbe727df1	-0.23680855
147	0x3e7ab8d6	0.24484572
148	0xbe3b95a4	-0.18318802
149	0x3e1f4dde	0.15557048
150	0x3e0cbbe6	0.13743553
151	0xbde371c5	-0.11105684
152	0x3e28bcb4	0.16478235
153	0xbe8a6b6f	-0.2703509
154	0x3dc4e5b3	0.09614124
155	0x3d2ffbf4	0.04296489
156	0x3d591d2e	0.053006344
157	0xbdc71696	-0.09721105
158	0xbcb0c96b	-0.021580419
159	0x3e9ada02	0.30244452
160	0x3db9068e	0.09034453
161	0x3e410f36	0.18853459
162	0xbdfa0115	-0.12207238
163	0xbe78fd5c	-0.24315399
164	0x3e100f2c	0.14068288
165	0xbbaa52e4	-0.0051978696
166	0x3c1014c2	0.008794012
167	0xbd71eb9d	-0.05906259
168	0xbdeb1cd2	-0.114801064
169	0x3dd0f754	0.10203424
170	0x3e318ca3	0.17338805
171	0xbea2adbe	-0.3177318
172	0xbb803d65	-0.003913569
173	0xbd801b05	-0.062551536
174	0x3ab3ae56	0.0013708572
175	0xbdf5ce4f	-0.12002241
176	0xbd3b5aa1	-0.045740727
177	0x3e4b2e88	0.19841969
178	0x3e5d2176	0.21594796
179	0x3e2d4004	0.16918951
180	0xbec1e724	-0.3787166
181	0xbdee0621	-0.11622263
182	0x3d7a0a6b	0.06104509
183	0x3ddcfbe7	0.10790234
184	0x3e508d88	0.2036649
185	0xbe92945a	-0.28628808
186	0x3ecf5d8b	0.40501055
187	0x3e2fc05d	0.17163225
188	0xbe7ffa01	-0.24997713
189	0xbe62b712	-0.22140148
190	0x3efd966e	0.4952883
191	0x3e4fbc97	0.20286785
192	0x3de65ebd	0.11248539
193	0xbd566db4	-0.052350715
194	0xbe808599	-0.25101927
195	0xbe827648	-0.25480866
196	0xbde5fbe6	-0.112296864
197	0x3c5592bf	0.013035475
198	0xbe743020	-0.23846483
199	0xbd90510b	-0.07046708
200	0xbe259df1	-0.16173531
201	0xbdb5f8c1	-0.08885337
202	0xbe1bca7d	-0.15213962
203	0xbec6e479	-0.38846186
204	0xbda438e0	-0.080186605
205	0x3d0925e6	0.03348341
206	0xbe13fc2a	-0.14451662
207	0xbd41e680	-0.047338963
208	0xbec4b39f	-0.3841829
209	0xbb5c9945	-0.0033660692
210	0x3db000f0	0.08593929
211	0xbc393033	-0.0113029955
212	0xbdbd251e	-0.09235595
213	0xbdc47b36	-0.09593813
214	0xbe939242	-0.28822523
215	0xbe6886e8	-0.22707713
216	0xbdff0006	-0.12451176
217	0xbbd9b7d8	-0.0066442303
218	0xbe1a0270	-0.15039992
219	0xbb0724f1	-0.0020621384
220	0x3d30fede	0.04321181
221	0x3ce929b3	0.028462267
222	0x3dc242bb	0.09485384
223	0xbdd9af4d	-0.10629139
224	0xbbbf68ac	-0.0058413353
225	0xbe920917	-0.2852256
226	0xbe82f979	-0.25580958
227	0xbdb5ec84	-0.088830024
228	0xbe0ee789	-0.13955511
229	0xbe4fa711	-0.20278575
230	0x3db6c259	0.089237876
231	0xbca19040	-0.019722104
232	0xbec2cc25	-0.38046375
233	0xbe107150	-0.14105725
234	0x3ce01a74	0.027356364
235	0xbeb04002	-0.34423834
236	0x3cda9154	0.026680626
237	0xbed0cd60	-0.4078169
238	0xbe4d6c47	-0.20060836
239	0xbdbcf148	-0.09225708
240	0xbe872957	-0.26398727
241	0xbe05ed5c	-0.13078827
242	0xbd3618f3	-0.044457387
243	0xbd368a76	-0.04456564
244	0xbe405182	-0.18781093
245	0xbe759de8	-0.23986018
246	0xbe055dcc	-0.13024062
247	0xbdcd37ac	-0.10020384
248	0x3d79012e	0.06079214
249	0x3e10b863	0.14132838
250	0xbe45fb34	-0.19334108
251	0xbe72357b	-0.23653214
252	0x3db50d11	0.08840383
253	0xbe1f5b2c	-0.15562123
254	0xbddd44cb	-0.10804137
255	0xbe492da4	-0.19646317

bias f4 [64]
0	0x3d829618	0.06376284
1	0x3d3c8ccd	0.046032716
2	0x3dd98747	0.10621505
3	0xbdeb122b	-0.11478075
4	0x3dae724e	0.08517896
5	0x3e02f78a	0.12789741
6	0xbdced21a	-0.100986674
7	0x3e3bc24d	0.18335839
8	0xbe13cdc5	-0.14433964
9	0x3d807bad	0.06273589
10	0xbe42b8de	-0.19015834
11	0xbcf306e5	-0.029666374
12	0xbe5d4488	-0.21608174
13	0xbdd338e0	-0.103135824
14	0xbd4c8250	-0.049928963
15	0xbdae8957	-0.08522289
16	0xbd47ea7c	-0.048807606
17	0x3eac511c	0.33655632
18	0xbdbb32ce	-0.091405496
19	0xbd62063a	-0.05518172
20	0x3e33c2e6	0.17554817
21	0x3e3de02a	0.18542543
22	0xbe60ac8a	-0.21940818
23	0xbe2009e8	-0.15628779
24	0x3e756f43	0.23968224
25	0xbd802689	-0.0625735
26	0x3de6bfa5	0.11267022
27	0xbf0c6f64	-0.5485747
28	0xbe1068d5	-0.1410249
29	0x3defc9d1	0.11708415
30	0xbbb0b223	-0.0053923293
31	0xbe371393	-0.1787856
32	0xbe0aaad9	-0.13541736
33	0xbe324783	-0.17410092
34	0x3e0589c3	0.13040833
35	0xbe037ff3	-0.12841778
36	0x3e120812	0.14260891
37	0x3e4b7245	0.19867809
38	0xbd4c80e4	-0.049927607
39	0xbe2dc1b4	-0.16968423
40	0x3e05c962	0.13065103
41	0x3e1c5936	0.15268406
42	0xbdba9926	-0.09111242
43	0xbe528e5b	-0.20562117
44	0xbf157eb2	-0.58396447
45	0xbdeb6781	-0.11494351
46	0x3e6c2691	0.23061587
47	0x3e78c29c	0.24292988
48	0x3e612404	0.21986395
49	0x3e8126f4	0.2522503
50	0x3d6d262c	0.05789773
51	0x3c9902dd	0.018678123
52	0xbe8acfab	-0.27111563
53	0xbd8a78e9	-0.06761343
54	0xbd9ca488	-0.07648569
55	0xbd8d4c80	-0.06899357
56	0x3d747cf7	0.05968949
57	0xbe867b6e	-0.26266044
58	0x3edc7e08	0.43064904
59	0x3ed5f986	0.41791934
60	0xbca4cca0	-0.020117104
61	0xbdadd1f2	-0.084873095
62	0x3c4b3fae	0.012405319
63	0xbdece005	-0.11566166

weight f4 [64, 64]
0	0x3bd4d820	0.0064954907
1	0x3cc1f1d8	0.02367489
2	0xbc35dfb0	-0.011100695
3	0x3c9c3ea8	0.019072846
4	0xbd8065ea	-0.062694386
5	0x3d2921f4	0.041292146
6	0xbde13608	-0.10996634
7	0xbd527b48	-0.0513871
8	0x3dfcec9c	0.12349817
9	0x3d93f602	0.07224657
10	0xbd4d8d98	-0.050183862
11	0x3c47e120	0.01219967
12	0xbde99e22	-0.114071146
13	0x3da45606	0.0802422
14	0xbdf863f8	-0.121284425
15	0x3de6107a	0.112336114
16	0xbcb59f10	-0.022170573
17	0x3df675f2	0.12034215
18	0xbdab1d90	-0.08355248
19	0x3db8458a	0.089976385
20	0x3da98efc	0.08279225
21	0xbde7e7f0	-0.113235354
22	0x3db99f78	0.090636194
23	0xbdc820f6	-0.09771912
24	0xbd974e3e	-0.073879704
25	0x3baa87a0	0.005204156
26	0x3d945c14	0.07244125
27	0xbd626a20	-0.05527699
28	0xbdbdc136	-0.09265368
29	0x3d989fbe	0.074523434
30	0xbbae7fe0	-0.0053253025
31	0x3ca69d48	0.02033867
32	0x3d467cc8	0.048458844
33	0xbc27b950	-0.010237053
34	0xbdd7d3ce	-0.105384454
35	0x3dd67bc0	0.10472822
36	0x3b44e5c0	0.0030044168
37	0x3dc83320	0.09775376
38	0xbcdf9e60	-0.027297199
39	0xbc248e10	-0.010043636
40	0xbdaf6878	-0.08564848
41	0x3d33ea1c	0.043924436
42	0xbd74a8dc	-0.05973135
43	0xbd834f46	-0.064116046
44	0xbdc06fa8	-0.09396297
45	0xbb47e080	-0.0030498803
46	0x39115400	0.0001385957
47	0xbd10a684	-0.03531505
48	0x3d49f358	0.049304336
49	0xbbd45020	-0.006479278
50	0xbd9eefa8	-0.077605546
51	0x3df01ed4	0.1172463
52	0xbdb8ab4e	-0.09017049
53	0xbc93b0c0	-0.018028617
54	0xbd401748	-0.046897203
55	0xbda1376a	-0.078718975
56	0xbdd6b108	-0.10482985
57	0x3db90e88	0.09035975
58	0xbdbc0550	-0.09180701
59	0x3cef77f8	0.02923201
60	0xbda0b820	-0.07847619
61	0xbc71ce00	-0.014758587
62	0x3cee9af8	0.02912663
63	0x3cd7b8e0	0.026333272
64	0xbd940bdc	-0.072288245
65	0x3d81961a	0.06327458
66	0x3de6d088	0.11270243
67	0x39b05000	0.0003362894
68	0xbddc4834	-0.10755959
69	0x3cf8c878	0.030369028
70	0x3de5c57e	0.11219309
71	0x3deac7ba	0.11463876
72	0x3dd07a18	0.101795375
73	0x3c819500	0.015818119
74	0x3db317bc	0.08744761
75	0x3d71d6a0	0.059042573
76	0xbd913082	-0.0708933
77	0x3d597a8c	0.053095385
78	0x3da74adc	0.08168575
79	0x3ddeea5a	0.10884543
80	0xbd062730	-0.032752216
81	0xbdc281d2	-0.094974175
82	0xbda893c8	-0.08231312
83	0xbdf78cc8	-0.12087399
84	0xbdbbb6ea	-0.091657475
85	0x3d05c860	0.032661796
86	0x3d95c504	0.073129684
87	0xbdb17aa4	-0.0866597
88	0x3d598c94	0.05311258
89	0xbddc4e2a	-0.10757096
90	0xbd2dfe60	-0.04247892
91	0xbd9da6fc	-0.07697865
92	0x3d4c0748	0.04981163
93	0x3d969b08	0.073537886
94	0x3de804e4	0.11329058
95	0xbdc986e8	-0.098401845
96	0x3d89988e	0.067185506
97	0x3da9b294	0.08286014
98	0x3dedb5f2	0.11606969
99	0xbdd32474	-0.10309687
100	0x3d85d3e4	0.065345556
101	0x3bfd1720	0.007723704
102	0x3bf0fb20	0.007354155
103	0xbd434200	-0.047670364
104	0x3dabfb4a	0.08397539
105	0x3ddf8e32	0.109157935
106	0x3d4d183c	0.05007194
107	0x3da0dbdc	0.07854435
108	0xbc85fbd0	-0.016355425
109	0xbbf33340	-0.007421881
110	0xbde175ea	-0.110088184
111	0xbb890260	-0.0041811913
112	0x3d3fa1f8	0.046785325
113	0x3db7cb14	0.08974281
114	0x3b89f6a0	0.004210308
115	0xbd8cfbe8	-0.06883985
116	0x3b22eb00	0.002485931
117	0xbd93ef10	-0.07223332
118	0xbbaa3ae0	-0.0051950067
119	0x3d4f2720	0.050574422
120	0x3df42832	0.11921729
121	0xbdd16588	-0.10224444
122	0x3d9b6fec	0.07589707
123	0x3d075994	0.033044413
124	0x3d16e450	0.03683883
125	0xbcd2a400	-0.025712967
126	0x3b505080	0.0031786263
127	0x3d9b37ea	0.07579024
128	0x3d29eee8	0.041487604
129	0xbcae5dc8	-0.021284953
130	0x3cc0edf0	0.023550957
131	0xbdb89340	-0.09012461
132	0x3d693a10	0.05694014
133	0x3dc91b4e	0.09819661
134	0xbdc4240e	-0.095771894
135	0x3df61582	0.12015821
136	0xbd68f028	-0.056869656
137	0x3dac74a0	0.08420682
138	0x3c973f40	0.018462777
139	0x3dccc788	0.09998995
140	0x3ab7f480	0.0014034659
141	0xbd9fe392	-0.078070775
142	0xbcfc88e0	-0.030826986
143	0x3cea5fc0	0.02861011
144	0x3d3ab6bc	0.045584425
145	0xbd9b5dac	-0.07586226
146	0x3dbf5cb2	0.09343852
147	0xbddf744e	-0.10910855
148	0x3bc8cd60	0.0061279982
149	0xbdc11eb4	-0.09429684
150	0xbdf90552	-0.12159218
151	0x3dd0a474	0.10187617
152	0x3d90bd86	0.07067399
153	0x3d5cfb58	0.053950638
154	0x3dd34a86	0.103169486
155	0x3d5d25a4	0.053990975
156	0xbd18bf58	-0.037291855
157	0x3dfe66b4	0.12421933
158	0x3d00afa8	0.03141752
159	0xbcfb9338	-0.030709848
160	0xbc311ba0	-0.010809809
161	0xb9cb7e00	-0.00038813055
162	0xbd1a25dc	-0.03763376
163	0x3d92c1c4	0.07165864
164	0x3ce623e0	0.028093278
165	0xbd666760	-0.05625093
166	0x3b734480	0.0037119687
167	0x3bb9afa0	0.005666688
168	0x3dfdd19e	0.12393497
169	0xbd1f6504	-0.038914695
170	0x3ce5c228	0.028046682
171	0xbc5f31f0	-0.013622746
172	0xbda0cdb4	-0.07851735
173	0xbd8cc664	-0.068737775
174	0x3bcc4520	0.0062338263
175	0xbd82ae10	-0.06380856
176	0x3d3a9dc4	0.045560613
177	0x3d770684	0.06030895
178	0xbdd22b08	-0.10262114
179	0x3cd11d48	0.025526658
180	0x3d0e8844	0.03479792
181	0xbd837bd8	-0.06420106
182	0x3d8434fe	0.0645542
183	0x3de9ec54	0.11422029
184	0x3da32b64	0.079672605
185	0x3d846d8e	0.064662084
186	0xbd644aac	-0.055735275
187	0xbb1d3bc0	-0.0023991913
188	0x3d9d2e84	0.07674888
189	0x3c10bd00	0.008834124
190	0x3d97d202	0.07413103
191	0xbb522940	-0.0032068044
192	0xbdffba0e	-0.12486659
193	0x3cc4d568	0.024027541
194	0xbdf0b38c	-0.11752996
195	0x3dcec890	0.10096848
196	0xbdc00f50	-0.09377921
197	0xbd8b94e6	-0.068155095
198	0x3d090eec	0.033461496
199	0xbdd09e7e	-0.1018648
200	0xbdf66d42	-0.12032558
201	0xbdde456c	-0.10853085
202	0xbd6f8424	-0.05847563
203	0xbacbaf00	-0.0015539825
204	0xbc997a10	-0.018734962
205	0x3cb38f08	0.021918789
206	0xbde50a42	-0.11183597
207	0xbb5ed540	-0.0034001619
208	0xbd9f36cc	-0.077741235
209	0xbd8b6f30	-0.06808317
210	0xbd0f04fc	-0.034916863
211	0x3d62b698	0.055349916
212	0x3d4e6044	0.050384775
213	0xbca358b8	-0.019939765
214	0xbdaadeda	-0.08343287
215	0xbd7c2928	-0.061562687
216	0xbde1814e	-0.11010991
217	0xbcabf628	-0.0209914
218	0x3df440b6	0.11926405
219	0x3c893528	0.01674898
220	0xbdaa2dae	-0.08309494
221	0x3da1338e	0.078711614
222	0x3de86e4e	0.11349164
223	0xbd7c99b8	-0.061670035
224	0x3dca7f0e	0.09887515
225	0x3df8ba3a	0.12144895
226	0xbd942318	-0.07233256
227	0x3be6c0a0	0.0070420057
228	0x3dec4c74	0.1153802
229	0xbd537cec	-0.051632807
230	0xbddc7cfc	-0.107660264
231	0xbd0938f0	-0.033501565
232	0x3d4b9a88	0.04970792
233	0x3dab5ffa	0.083679155
234	0x3d9a9656	0.075482056
235	0x3db3670c	0.08759889
236	0xbdc3b266	-0.09555511
237	0xbd33e4fc	-0.04391955
238	0x3d833a36	0.06407587
239	0xbd2c78d8	-0.042107433
240	0x3d944ac6	0.072408244
241	0xbb9ebd60	-0.0048443526
242	0xbde40a42	-0.11134769
243	0xbdc74816	-0.09730546
244	0x3d5df3f0	0.054187715
245	0x3d5d8cc0	0.054089308
246	0x3daf3650	0.08555281
247	0xbdb17b14	-0.086660534
248	0xbd03afb8	-0.03215
249	0x3dbde7a2	0.09272696
250	0x3d8b3382	0.06796934
251	0x3d41a66c	0.047277853
252	0xbdd141b8	-0.10217613
253	0x3dfdea92	0.12398256
254	0x3d9da0fe	0.076967224
255	0x3da0000c	0.07812509

bias f4 [64]
0	0x3d8c351c	0.06846067
1	0x3dd1f766	0.10252266
2	0x3d40de98	0.047087282
3	0x3dd84daa	0.10561688
4	0xbbb39a40	-0.0054810345
5	0xbd849fe8	-0.06475812
6	0xbd55c604	-0.052190796
7	0x3c03e730	0.008050725
8	0xbd0c22e0	-0.034212947
9	0xbd6bf768	-0.05760899
10	0xbde90756	-0.11378352
11	0x3d29e6e8	0.041479975
12	0xbbc44d80	-0.005990684
13	0xbd92830e	-0.07153903
14	0xbcf84028	-0.03030403
15	0xbdf088f2	-0.1174487
16	0x3ded32b6	0.11581938
17	0xbd1f6f94	-0.03892477
18	0xbc884ae0	-0.016637266
19	0xbd78bd6c	-0.06072752
20	0x3caf4938	0.021397218
21	0x3ddf3d48	0.1090036
22	0xbd9ad5e8	-0.07560331
23	0x3dc1d67c	0.09464738
24	0x3de60bf8	0.112327516
25	0xbceeb1e0	-0.029137552
26	0xbd27ffc4	-0.0410154
27	0x3c671ca0	0.014105946
28	0x3db9ebf4	0.090782076
29	0xbd764e6c	-0.060133383
30	0xbbfd1aa0	-0.007724121
31	0x3b254bc0	0.0025222152
32	0xbdde1afc	-0.108449906
33	0xbde49d98	-0.11162871
34	0xbd914734	-0.07093659
35	0xbbe74d00	-0.0070587397
36	0x3c6a8470	0.014313802
37	0x3d2248c0	0.03962016
38	0x3cbe76b0	0.023249954
39	0x3dd9cf72	0.1063527
40	0xbdd668c8	-0.10469204
41	0x3dcc45da	0.09974261
42	0x3df05e58	0.11736745
43	0xbdcdfc22	-0.10057856
44	0x3ddfd046	0.10928397
45	0x3d4db4bc	0.05022119
46	0xbdbc235c	-0.09186432
47	0x3deaa284	0.11456779
48	0x3d3af628	0.04564491
49	0x3d41dccc	0.04732971
50	0x3d507c9c	0.050900087
51	0x3dc8396a	0.09776576
52	0xbda9d530	-0.082926154
53	0xbdd1582a	-0.10221894
54	0x3dd02d16	0.101648495
55	0x3da4980c	0.08036813
56	0x3de00748	0.10938889
57	0xbd26c4d0	-0.04071504
58	0x3d9f607a	0.07782073
59	0x3dd25ee4	0.10272005
60	0xbdcf0a7e	-0.10109423
61	0xbda3c2be	-0.079961285
62	0x3d67f0f8	0.05662629
63	0xbd2da510	-0.042393744

weight f4 [64, 64]
0	0x39ee4200	0.0004544407
1	0x3d16e20c	0.03683667
2	0x3ba296c0	0.0049618185
3	0xbda5f468	-0.081032574
4	0x3dc36d2e	0.09542309
5	0x3b536b80	0.003226012
6	0xbd1c5bf0	-0.038173616
7	0x3d41eb4c	0.047343537
8	0x3ded6a52	0.115925446
9	0x3d94e8b2	0.072709456
10	0xbd4966f8	-0.049170464
11	0xbd77bfcc	-0.060485646
12	0xbc8066e8	-0.01567407
13	0xba4e6800	-0.00078737736
14	0x3cd172d8	0.025567457
15	0xbcff2f10	-0.03115037
16	0xbccb61e8	-0.024826959
17	0x3db20a48	0.08693367
18	0x3c01d2b0	0.007923767
19	0xbdd541c2	-0.10412933
20	0xbd99effc	-0.075164765
21	0x3cb392b0	0.021920532
22	0xbde7db02	-0.11321069
23	0xbc969440	-0.018381238
24	0x3d378444	0.044803873
25	0xbda124b0	-0.07868326
26	0x3dd388c2	0.10328819
27	0x3d0844b0	0.03326863
28	0xbdbda90e	-0.0926076
29	0xbdc2eeb6	-0.09518187
30	0xbd84d7a8	-0.06486446
31	0x3dc46344	0.09589246
32	0xbd9a89c2	-0.075458065
33	0x3ddf884c	0.109146684
34	0x3dd977f2	0.10618581
35	0xbc8fe0b0	-0.017563194
36	0xbda4bb66	-0.08043556
37	0xbd542d2c	-0.05180089
38	0x3d07b56c	0.033132
39	0x3db586e2	0.088636175
40	0x3d69dfcc	0.057098195
41	0x39239000	0.00015598536
42	0x3db1fb82	0.086905494
43	0x3d87e450	0.06635344
44	0xbcd0b3c8	-0.025476351
45	0xbd886772	-0.06660356
46	0xbc5fa220	-0.013649493
47	0x3dec11fc	0.11526868
48	0x3dd6b120	0.10483003
49	0xbc06de00	-0.00823164
50	0xbc8f5618	-0.017497107
51	0x3cef9910	0.02924779
52	0x3d9c2854	0.076248795
53	0x3d4f78cc	0.05065231
54	0x3d218f54	0.03944333
55	0xbc420610	-0.011842266
56	0x3debd6e8	0.115155995
57	0xbdbcb4ea	-0.09214194
58	0x3dd0372c	0.10166773
59	0x3dab3bcc	0.08361015
60	0x3d90c678	0.07069105
61	0xbd830c30	-0.06398809
62	0xbb025d00	-0.0019891858
63	0xbd52fff0	-0.051513612
64	0xbca0bda0	-0.01962167
65	0x3dba52ee	0.09097849
66	0xbdb28e2e	-0.08718525
67	0x3c3b70e0	0.011440486
68	0x3cdb3c48	0.026762143
69	0xbdd54502	-0.10413553
70	0xbdde5cbe	-0.10857533
71	0xbdc77904	-0.09739879
72	0x3d01f89c	0.031731233
73	0x3dac321c	0.08407995
74	0xbd6e350c	-0.05815606
75	0x3dd556d6	0.10416953
76	0xbce50d38	-0.027960405
77	0xbd175a08	-0.036951095
78	0x3d0f614c	0.0350049
79	0xbd545254	-0.051836327
80	0xbc14f0f0	-0.009090647
81	0xbb1c8cc0	-0.0023887604
82	0xbd0e5dec	-0.03475754
83	0x3d0abe30	0.033872783
84	0xbc606620	-0.0136962235
85	0xbd625af4	-0.05526252
86	0xbcc2aaf8	-0.023763165
87	0xbd359394	-0.044330195
88	0x3d456350	0.048190415
89	0xbdee722c	-0.1164287
90	0x3d1dd400	0.038532257
91	0xbd927b98	-0.0715248
92	0xbd949a90	-0.07256043
93	0xbd4701c4	-0.04858567
94	0xbd9d5568	-0.076823056
95	0xbd534650	-0.051580727
96	0xbdded070	-0.108796
97	0x3ddcf3fa	0.10788722
98	0x3b175400	0.002309084
99	0xbb9b7520	-0.004744187
100	0xbd97071a	-0.073744014
101	0x3d97f9a4	0.07420662
102	0x3c8219b0	0.01588139
103	0xbdb93196	-0.09042661
104	0x3d24135c	0.040057525
105	0x3d39c89c	0.04535733
106	0x3cfdbe90	0.030974656
107	0xbdcda680	-0.10041523
108	0xbd229b14	-0.039698675
109	0x3d66a754	0.05631192
110	0xbdb17198	-0.086642444
111	0x3d8b11fa	0.06790538
112	0xbdca1e0e	-0.09869014
113	0xbc86d220	-0.016457617
114	0xbc124b40	-0.008929074
115	0xbdc978c4	-0.09837487
116	0x3d3e7440	0.046497583
117	0x3dd863c0	0.10565901
118	0xbd9eedb6	-0.077601835
119	0x3d3c5b4c	0.045985505
120	0x3cb0cdf0	0.021582574
121	0x3dc1db62	0.09465672
122	0x3ded09f4	0.11574164
123	0xbdc7b582	-0.09751417
124	0xbdfa24ba	-0.12214036
125	0xbd25c22c	-0.04046838
126	0xbd768588	-0.06018594
127	0x3d37d09c	0.04487668
128	0x3bb02600	0.0053756237
129	0x3d08a294	0.03335817
130	0x3d1143fc	0.035465226
131	0x3d8746c8	0.06605297
132	0x3df519d0	0.11967814
133	0x3d0b0b00	0.033946037
134	0xbdfa5dbc	-0.1222491
135	0x3d6bf2dc	0.057604656
136	0x3dfa2d9a	0.12215729
137	0x3da1e4b4	0.0790495
138	0xbdc493ce	-0.09598504
139	0xbdd111ee	-0.10208498
140	0x3db5ac24	0.08870724
141	0xbc956500	-0.018236637
142	0xbd7f0448	-0.062259942
143	0x3d24703c	0.040146098
144	0x3dd93c34	0.10607186
145	0x3d79e384	0.06100799
146	0x3d67a2a4	0.05655159
147	0x3c931428	0.017953947
148	0x3d23911c	0.03993331
149	0xbd88781a	-0.066635326
150	0xbcce9f08	-0.025222316
151	0xbd0bfefc	-0.03417872
152	0x3d23e1e8	0.040010363
153	0x3df6f5a4	0.12058571
154	0xbde21f6c	-0.110411495
155	0xbd48368c	-0.048880145
156	0x3db4b184	0.08822921
157	0xbdf3b620	-0.11899972
158	0x3dc4e626	0.0961421
159	0x3c93b6c0	0.018031478
160	0x3d9dc098	0.0770275
161	0xbdb298da	-0.0872056
162	0xbd749a9c	-0.05971776
163	0xbd1d6288	-0.038424045
164	0xbcb6e580	-0.022326231
165	0x3cb89348	0.022531167
166	0x3d4a305c	0.049362525
167	0x3d206868	0.03916207
168	0x3d6977a4	0.056998864
169	0xbd882bde	-0.06648992
170	0x3d2c10c0	0.04200816
171	0x3dd2df28	0.1029647
172	0xbd76f6f0	-0.06029409
173	0xbde1e3c6	-0.110297725
174	0xbdb9d6e6	-0.09074192
175	0x3d734b10	0.059397757
176	0xbce52618	-0.027972266
177	0x3d93a4ea	0.07209189
178	0xbca3d468	-0.019998744
179	0xbd68df84	-0.056853786
180	0x3dfcff38	0.123533666
181	0x3da46672	0.080273524
182	0x3d60ae74	0.05485387
183	0x3dbeb14e	0.09311162
184	0xbd8e2ace	-0.06941758
185	0xbdd766b4	-0.10517636
186	0xbd742b24	-0.059611455
187	0xbce20280	-0.027589083
188	0xbd2374ec	-0.039906427
189	0x3d9c932c	0.07645258
190	0xbc18c130	-0.009323403
191	0xbbb7d700	-0.005610347
192	0xbd9a702c	-0.07540926
193	0x3d1acc3c	0.03779243
194	0x3d9cc378	0.0765447
195	0xbc997258	-0.018731281
196	0xbd076430	-0.03305453
197	0x3df4df96	0.11956708
198	0xbdb27a92	-0.08714785
199	0x3dc5cd6e	0.09658323
200	0xbdde9bd4	-0.108695656
201	0xbd69a204	-0.057039276
202	0x3c1665a0	0.009179503
203	0x3d97e21a	0.07416172
204	0x3ddd772e	0.10813747
205	0xbcfd4fc0	-0.030921817
206	0x3c532220	0.012886554
207	0x3ce431c8	0.027855769
208	0x3d87e26e	0.06634985
209	0x3c464460	0.012101263
210	0xbd42cbe4	-0.047557727
211	0x3d4d0fc0	0.05006385
212	0x3dfd2ad0	0.123616815
213	0xbdb07370	-0.08615768
214	0xbbf2fec0	-0.0074156225
215	0x3d0971a4	0.03355564
216	0x3d5ec2fc	0.05438517
217	0xbdd9f2de	-0.10642026
218	0xbd7d5334	-0.061846927
219	0x3d0cab54	0.03434308
220	0x3dec4604	0.11536792
221	0x3dccbf04	0.09997371
222	0x3dc11d5e	0.094294295
223	0xbd22d560	-0.03975427
224	0xbc4fc800	-0.012681961
225	0xbd6afbac	-0.05736892
226	0xbc4f2d10	-0.012645021
227	0xbdb22cb2	-0.08699931
228	0xbc0d6ed0	-0.008632377
229	0xbcd635e8	-0.026148751
230	0x3d80278c	0.06257543
231	0x3da6b014	0.08139053
232	0x3d4e66bc	0.050390944
233	0xbda6839a	-0.0813057
234	0x3d76cbf4	0.0602531
235	0xbdc13e70	-0.09435737
236	0x3da55d12	0.080743924
237	0x3dac39ae	0.08409439
238	0x3d852e26	0.06502943
239	0xbc70ff50	-0.014709309
240	0xbc917c28	-0.017759398
241	0xbdb6b52c	-0.089212745
242	0x3ca7a098	0.02046232
243	0x3a2c6100	0.00065757334
244	0xbd7935d8	-0.060842365
245	0x3c3805d0	0.011231855
246	0xbda37992	-0.07982172
247	0xbdbf1d28	-0.09331733
248	0x3dddcbbe	0.10829876
249	0x3d2f4178	0.042787045
250	0xbc9c29f0	-0.019062966
251	0x3d0ac24c	0.033876702
252	0x3d589c94	0.0528837
253	0x3cc61660	0.024180591
254	0x3dfda876	0.12385647
255	0x3d52c7e8	0.051460177

bias f4 [64]
0	0xbd12a2c8	-0.03579977
1	0xbd5b6fe8	-0.05357352
2	0xbdd127c4	-0.10212663
3	0xbde87b2c	-0.11351618
4	0xbc8fec48	-0.017568722
5	0x3d715cfc	0.058926567
6	0xbd83320c	-0.0640603
7	0xbba0bd40	-0.004905373
8	0x3d88921e	0.06668495
9	0xbcd0fdf0	-0.025511712
10	0x3de8a4de	0.11359571
11	0x3d5159d0	0.051111042
12	0x3dc2a2f0	0.09503734
13	0xbd805bae	-0.062674865
14	0x3aae7180	0.0013308972
15	0x3df71696	0.12064855
16	0xbae87800	-0.0017735958
17	0xbd2ef78c	-0.042716548
18	0x3d8c662a	0.06855424
19	0x3d2bc8a4	0.041939393
20	0x3d002ba8	0.031291634
21	0x3d69d1b8	0.05708477
22	0x3da9c4e2	0.082895055
23	0xbdce1252	-0.10062088
24	0x3dc5b1c4	0.09653047
25	0x3d9ef9ba	0.07762475
26	0x3b6d9640	0.0036252886
27	0xbd387ea4	-0.04504265
28	0x3c04beb0	0.008102104
29	0xbdcbd7aa	-0.09953244
30	0x3c7f1df0	0.0155711025
31	0xbd05f480	-0.032703876
32	0x3d912cde	0.07088636
33	0xbbc13220	-0.005895868
34	0x3c4fd410	0.012684837
35	0xbd8a10ce	-0.067414865
36	0xbda5415e	-0.080691084
37	0x3dda466c	0.10657963
38	0xbcadaf60	-0.02120179
39	0x3df2cad8	0.118550956
40	0x3d998cc8	0.07497555
41	0x3c1e9430	0.009678885
42	0xbdd254f2	-0.10270108
43	0x3db85114	0.089998394
44	0x3c62d170	0.013843879
45	0x3d6243e0	0.055240512
46	0xbda6212e	-0.08111797
47	0x3c539da0	0.012915999
48	0xbb5c1ec0	-0.0033587664
49	0x3dc71476	0.097206995
50	0x3cb2b1f8	0.021813378
51	0x3d2ddc88	0.042446643
52	0xbd514000	-0.051086426
53	0xbccf87d8	-0.02533333
54	0xbdf3ead6	-0.11910026
55	0x3de36c64	0.11104658
56	0xbd9b5178	-0.07583898
57	0xbb453240	-0.0030089766
58	0xbdf25904	-0.11833385
59	0x3d3b9f6c	0.045806333
60	0x3cf68280	0.030091524
61	0xbbc056e0	-0.0058697313
62	0xbcee3e10	-0.029082328
63	0xbd1f4790	-0.038886607

weight f4 [64, 10]
0	0xbe8ea6ef	-0.27861735
1	0x3e9c6b8f	0.3055081
2	0x3e5aea78	0.21378505
3	0x3e77e88c	0.24209803
4	0xbde7b3c5	-0.11313585
5	0xbe5881ba	-0.21143237
6	0x3d474abb	0.048655253
7	0x3e3d1908	0.1846658
8	0xbdd9e902	-0.10640146
9	0xbc85154e	-0.01624551
10	0x3d326955	0.043557484
11	0xbd8f7a9e	-0.07005809
12	0x3e90701a	0.28210527
13	0x3da98716	0.08277719
14	0xbda2b70d	-0.079450704
15	0xbea20c94	-0.3165022
16	0x3e0be936	0.13663182
17	0x3e341055	0.17584355
18	0xbe9da30f	-0.30788466
19	0x3f06772f	0.5252561
20	0xbd4128cd	-0.04715805
21	0x3e5e033c	0.21680921
22	0x3ed7bb17	0.42134926
23	0x3e8e4360	0.27785778
24	0xbdd945bc	-0.10609004
25	0xbe642b10	-0.22282052
26	0x3e90fd0b	0.28318056
27	0x3db9ff1d	0.09081862
28	0xbe5ceb82	-0.21574214
29	0x3df434ea	0.11924155
30	0x3e37a182	0.17932704
31	0x3c84f2e4	0.0162291
32	0xbe25e129	-0.16199173
33	0x3eaa4372	0.33254582
34	0xbeb7b45d	-0.35879794
35	0x3e927fe1	0.2861319
36	0xbe77fb25	-0.24216898
37	0xbe6333a3	-0.22187667
38	0xbed5ae0a	-0.41734344
39	0x3e8a2e72	0.2698856
40	0x3e5ecc69	0.21757664
41	0x3e3a77b3	0.18209724
42	0x3d0b2ea3	0.033980023
43	0xbd8a65ac	-0.067576736
44	0xbe1545fa	-0.14577475
45	0x3d473e67	0.048643496
46	0xbeaf1f25	-0.3420345
47	0x3eb6aba0	0.35677814
48	0x3e8a4eed	0.2701334
49	0x3e8144e7	0.2524788
50	0xbe909a95	-0.28242937
51	0x3e65ba23	0.22434287
52	0xbebb68bf	-0.36603352
53	0xbd4c404b	-0.049866002
54	0x3e4b36f6	0.19845185
55	0xbd98a081	-0.07452489
56	0xbe8ed7cf	-0.27899024
57	0xbe3b4e50	-0.18291593
58	0x3db12292	0.08649172
59	0x3e6f1733	0.23348694
60	0x3db46f87	0.08810335
61	0xbdcf08c5	-0.101090945
62	0xbd0e16cf	-0.03468972
63	0x3ba55c77	0.005046423
64	0x3d2ee599	0.04269943
65	0x3ebc9676	0.36833543
66	0xbe0b2a20	-0.13590288
67	0xbeaf8a94	-0.34285414
68	0xbea5fb61	-0.3241835
69	0x3eb39c55	0.3508021
70	0x3d95e4ec	0.07319054
71	0x3e43736a	0.19086996
72	0x3e32ceb8	0.1746167
73	0x3cdbd3fa	0.026834477
74	0xbefc5085	-0.49280182
75	0xbd8c8469	-0.06861193
76	0x3e52d2fa	0.20588294
77	0xbe870d35	-0.26377264
78	0xbdb13ebd	-0.086545445
79	0x3ebdda0d	0.37080422
80	0x3d5c7779	0.053824876
81	0xbe326595	-0.17421563
82	0xbe261daf	-0.16222261
83	0x3eb5eb88	0.3553126
84	0x3eadc613	0.3394018
85	0x3e099e5f	0.1343932
86	0xbd522908	-0.05130866
87	0xbdb36a23	-0.08760478
88	0xbeb87101	-0.36023715
89	0xbe386aae	-0.18009445
90	0x3de6243b	0.11237379
91	0x3e8c3618	0.2738502
92	0xbe151667	-0.14559327
93	0x3caa5491	0.020792278
94	0xbbf2b345	-0.0074066245
95	0x3ed7f53e	0.42179292
96	0x3c21e71d	0.009881762
97	0xbe292679	-0.16518582
98	0xbe93f409	-0.28897122
99	0x3e5e05f7	0.21681963
100	0x3d6a8db5	0.05726405
101	0x3e416589	0.18886389
102	0x3eb8227f	0.35963818
103	0x3f23d9da	0.6400429
104	0xbe7887f6	-0.24270615
105	0x3d8e743d	0.069557644
106	0x3eb9eade	0.36312002
107	0xbdd7916b	-0.10525783
108	0xbe33c3cd	-0.17555161
109	0x3d9ad3bd	0.07559917
110	0x3e4d415d	0.20044465
111	0x3e07847e	0.13234136
112	0x3eb3bfb1	0.35107186
113	0xbd3bb5af	-0.045827564
114	0x3eb3b77b	0.35100922
115	0x3e31d236	0.17365345
116	0xbe963b6a	-0.29342204
117	0xbe8adb7e	-0.27120584
118	0x3cdca261	0.026932897
119	0xbe45cc3d	-0.19316192
120	0x3dc2aafe	0.095052704
121	0x3df8b479	0.121437974
122	0xbcc84a14	-0.024449386
123	0x3d4ad540	0.049519777
124	0x3f23e467	0.6402039
125	0x3eb875d3	0.36027393
126	0xbe782e32	-0.24236372
127	0x3e8af1fe	0.2713775
128	0xbe1987d6	-0.14993224
129	0x3d7c398c	0.06157832
130	0x3e5f9a85	0.21836288
131	0xbe712046	-0.23547468
132	0x3e62970a	0.2212793
133	0x3e807f68	0.25097203
134	0x3e94cd60	0.2906294
135	0x3e688c99	0.22709884
136	0x3e7f22c6	0.24915609
137	0x3e3cab2c	0.18424672
138	0xbe6db89c	-0.23214954
139	0xbea87e68	-0.3290894
140	0x3e8eba02	0.27876288
141	0x3e0f0e92	0.13970402
142	0x3e37f4b3	0.17964439
143	0x3e1d6862	0.1537185
144	0xbddbb084	-0.10727027
145	0x3eafee7b	0.34361634
146	0x3e42c298	0.19019544
147	0xbe45ebe0	-0.1932826
148	0x3ebd21f1	0.36939958
149	0xbe9e84b5	-0.30960622
150	0x3d9e80db	0.07739421
151	0x3e916908	0.28400445
152	0xbf00f9f7	-0.50381416
153	0xbea7c08a	-0.32764083
154	0x3dbb7846	0.091538
155	0xbe554cba	-0.2083005
156	0x3e8e6f76	0.27819413
157	0x3df72d18	0.12069148
158	0x3e528cf7	0.20561586
159	0x3e4d20c7	0.20032035
160	0xbe358c77	-0.17729364
161	0xbd8988e6	-0.067155644
162	0xbda7b0bf	-0.081880085
163	0xbdad8c35	-0.08474008
164	0x3e415239	0.18879022
165	0xbbc248d4	-0.005929092
166	0x3cb603f0	0.022218674
167	0x3e1618c8	0.14657891
168	0xbe694733	-0.22781067
169	0xbe4c601c	-0.19958538
170	0x3e69e776	0.22842202
171	0x3e75c1b3	0.23999672
172	0x3c28a60e	0.010293497
173	0x3e886d7b	0.26646027
174	0xbb3d8e0b	-0.0028923776
175	0xbe7dc9c7	-0.24784003
176	0x3eb40514	0.35160124
177	0x3e498e71	0.19683243
178	0xbcbff60f	-0.02343276
179	0xbdc08721	-0.09400774
180	0x3e312ee5	0.17303045
181	0xbce8ba94	-0.02840928
182	0x3daf6402	0.08563997
183	0x3e16db56	0.14732108
184	0xbe11d0ca	-0.14239803
185	0x3ea8ad8e	0.32944912
186	0x3e894d1a	0.26816636
187	0xbdae5a90	-0.08513367
188	0xbe7b646c	-0.24550027
189	0x3b68b722	0.0035509546
190	0xbe5c0c9a	-0.21489182
191	0x3ebe1bf6	0.37130708
192	0xbe8be29b	-0.27321324
193	0xbccd1f84	-0.025039442
194	0x3e4218c1	0.18954755
195	0x3e14e6ec	0.14541215
196	0x3e9b6e72	0.303577
197	0xbdac4e2f	-0.0841335
198	0xbe055ed6	-0.13024458
199	0x3df4b2e3	0.119481824
200	0x3e605a1e	0.21909377
201	0xbd6bc7b0	-0.057563484
202	0xbeb43a47	-0.35200712
203	0x3e9bc657	0.3042476
204	0x3e05ed96	0.13078913
205	0xbc832ee3	-0.016013568
206	0x3e013568	0.12618029
207	0xbe5437f5	-0.20724471
208	0x3e19f732	0.15035704
209	0xbdf2d8af	-0.11857735
210	0xbe7a6d98	-0.24455869
211	0x3e378c86	0.17924699
212	0xbe639a17	-0.2222675
213	0xbc1fb720	-0.00974825
214	0x3e5a0297	0.2129005
215	0xbe6c6cdf	-0.23088406
216	0xbe593d2a	-0.21214738
217	0x3db75496	0.0895168
218	0xbdc1c322	-0.09461047
219	0x3e9595f7	0.29215977
220	0xbe4ccc54	-0.1999982
221	0xbe8281ad	-0.2548956
222	0xbea517db	-0.32244763
223	0xbec1b514	-0.37833464
224	0x3ed6ff0b	0.41991457
225	0xbe165621	-0.14681293
226	0x3d37ee08	0.04490474
227	0xbdec88a6	-0.11549501
228	0xbdf05242	-0.117344394
229	0x3d19f4ec	0.03758709
230	0x3e23ab7c	0.15983385
231	0xbe09426f	-0.13404249
232	0xbcf1deda	-0.02952521
233	0xbeab8d69	-0.33506325
234	0x3d8cfe97	0.06884497
235	0x3d9f52d5	0.07779471
236	0x3d409ded	0.04702561
237	0xbe08616f	-0.13318418
238	0x3e60673e	0.21914384
239	0x3c1ca4d1	0.00956078
240	0xbd4d22ad	-0.050081898
241	0x3cddcd3d	0.027075404
242	0xbc94c589	-0.018160598
243	0xbe26a772	-0.16274813
244	0xbe9b858b	-0.30375323
245	0xbd1248de	-0.035714023
246	0xbe5834da	-0.21113911
247	0xbe8b776f	-0.27239558
248	0x3eae59a3	0.34052762
249	0x3e1f3fd5	0.15551694
250	0x3e851a98	0.25996852
251	0x3e0721a1	0.13196422
252	0x3db55bc1	0.08855391
253	0x3ecd4792	0.40093666
254	0xbdb494f6	-0.088174745
255	0x3e20e9c9	0.15714182

bias f4 [64]
0	0xbea9e8f6	-0.33185548
1	0x3da53d2c	0.08068308
2	0x3e1f72c3	0.15571122
3	0x3ecc7d89	0.39939526
4	0x3e9c2335	0.3049561
5	0xbe3c09a6	-0.18363056
6	0x3ef3d910	0.47626543
7	0x3c3b3070	0.011425123
8	0xbe6a58fb	-0.22885506
9	0xbdd99b3e	-0.10625313
10	0x3e83a803	0.2571412
11	0xbd1686a0	-0.036749482
12	0xbda1c134	-0.07898179
13	0xbe81341d	-0.25235072
14	0x3e1e1c6c	0.1544053
15	0xbcfa77f8	-0.030574784
16	0x3dd375a6	0.10325174
17	0x3e7ce087	0.24695025
18	0xbbff5b69	-0.0077928794
19	0x3dae9d38	0.08526081
20	0x3ea2b9a8	0.3178227
21	0xbe8fa3cc	-0.28054655
22	0xbe2b3149	-0.1671802
23	0x3e1a9133	0.15094452
24	0xbe7312e5	-0.23737676
25	0x3e647af1	0.22312523
26	0xbce38f83	-0.027778393
27	0xbd21616a	-0.039399542
28	0x3e133543	0.14375786
29	0xbe1a4251	-0.1506436
30	0xbe3fb503	-0.18721394
31	0x3deb186b	0.11479267
32	0xbdcbd34c	-0.09952411
33	0x3e3baf56	0.18328604
34	0x3e6f49c7	0.23367988
35	0xbe061798	-0.13094938
36	0xbe8bc2e6	-0.27297133
37	0x3eb2aecd	0.34898987
38	0xbe9bd2b3	-0.30434188
39	0x3dbddc52	0.092705384
40	0x3de129cd	0.10994301
41	0x3eb3d5c6	0.35124034
42	0x3e8e8266	0.2783386
43	0x3e283bf9	0.16429128
44	0xbe98436c	-0.2973894
45	0xbe65eae5	-0.22452886
46	0xbe23905a	-0.15973035
47	0xbdbfce1d	-0.09365485
48	0xbe7de7a1	-0.2479539
49	0x3dfc947c	0.12333009
50	0x3e8858ee	0.26630348
51	0x3d9e1b11	0.07720006
52	0x3d6e1a09	0.058130298
53	0xbdaff10e	-0.085908994
54	0x3e751a5d	0.23935838
55	0xba660cd9	-0.0008775718
56	0xbe1e1ea6	-0.15441379
57	0xbe0e78d8	-0.13913286
58	0xbe321f5e	-0.17394778
59	0xbe81deb6	-0.25365227
60	0xbe9d2bff	-0.3069763
61	0x3e73ed5d	0.23821016
62	0xbbd5052e	-0.0065008616
63	0x3cf885c8	0.03033723
