trained_models/net_1/dense_Supervised_WAE_net_1.pt (torch, 291134 bytes, 120 tensors)

weight f4 [65, 65]
0.4635494 0.59209096 0.024652803 0.17908941 -0.33920673 -0.24761401 0.14551923 -0.026131218
0.2883394 -0.028017158 0.020713594 -0.20386462 -0.039264776 0.11934483 -0.041642204 -0.04637527
0.58384156 0.49994448 0.32502687 -0.065829314 0.002636862 -0.028153708 0.05672371 0.17384174
0.059070855 -0.18599775 -0.24131212 0.044442747 -0.04078382 0.117924824 0.045808297 0.14336424
-0.16440915 -0.18192981 -0.25400555 0.0039248755 -0.03708778 -0.11103464 -0.012514875 0.100279376
-0.0384415 0.090621606 -0.007253658 -0.0070147566 0.08835555 0.19998255 -0.007841185 0.115392655
0.07164575 0.011359602 -0.030149013 -0.12501921 -0.032368653 0.008177327 0.049117297 0.030005625
0.052507218 0.008748595 0.0070870477 0.05343959 0.11900407 -0.003796584 -0.0862137 0.108642235
0.12232921 -0.29486156 -0.3539413 -0.03936537 0.29545677 -0.20131393 -0.33572578 -0.075911105
-0.27990195 -0.01783647 0.0022167978 -0.08889022 0.014703982 -0.20824446 -0.067299336 -0.15175794
0.014799367 0.15735707 0.16419278 0.011515524 -0.3532204 0.15526885 -0.01660639 -0.0070161237
0.18187873 0.054419 -0.18418872 -0.12473903 -0.11005239 0.35683814 0.025469434 -0.07109504
0.15613452 -0.09608124 0.12339237 0.08279219 -0.041933704 -0.056097608 0.01978612 0.0145361805
-0.0431457 0.00027938726 0.046784744 -0.072977364 -0.049197327 -0.11193424 -0.11462688 -0.040969584
0.005267104 -0.002738499 0.01276642 0.03137059 0.047476057 -0.02639019 0.05758675 0.025916325
-0.016405737 0.0019929959 -0.019347139 0.039402667 -0.085172564 -0.021955865 -0.092707425 0.016849045
-0.13680257 -0.020706948 0.081035204 0.14468232 0.24114779 -0.26884738 0.14658913 0.4168914
-0.17056167 0.3090328 -0.057906818 -0.033222098 -0.031212205 -0.120714724 0.11001392 0.14912492
0.029924385 -0.07349306 -0.26832584 -0.43091387 0.17093013 0.2816456 -0.365279 0.18710665
-0.04147497 -0.13071497 -0.048298012 0.22856988 0.13463493 0.059449695 -0.24277368 0.07602889
-0.02336942 0.0060747457 0.14616063 -0.23153846 0.14910656 0.024039933 0.0007174888 -0.0744516
0.07831756 0.019247966 0.107788794 0.065773636 0.07930062 0.033546206 -0.0635286 -0.038497224
0.04027088 0.10608787 -0.0633328 -0.12942238 0.066621184 -0.13678649 -0.069063045 0.06743907
-0.019164626 0.04115825 -0.06983638 -0.08352991 0.10397013 0.17814896 0.16509981 0.083377734
0.21854344 0.09508351 -0.03313649 -0.3134348 -0.3126968 0.17668483 -0.10018791 0.12398549
0.018220255 -0.15071851 -0.0851771 0.026992403 0.04326404 -0.01998062 0.06876619 0.05721503
-0.030508248 -0.035598673 -0.06990661 0.0587656 0.069072686 -0.14723353 -0.042611454 0.048788484
-0.12567943 -0.10926559 -0.04986213 0.16878231 0.033932146 0.025288854 -0.048422545 -0.042996816
-0.054590717 -0.026658788 -0.066079885 0.085880764 -0.08953412 0.114124686 -0.045153875 -0.03054806
-0.01655635 -0.04554938 -0.10682291 0.00583683 -0.0079573635 -0.10373961 -0.085702956 -0.0039401692
-0.031834286 0.032171432 -0.015350225 -0.10890576 -0.07641671 -0.041978452 0.03323787 0.03788054
0.036209542 -0.050639883 0.054078307 -0.089342095 -0.04543163 -0.10601812 -0.07736667 -0.027315134
00000000: 5956 ed3e 4693 173f adf4 c93c 3763 373e
00000010: 81ac adbe 878e 7dbe fe02 153e 2311 d6bc
00000020: 39a1 933e 3d84 e5bc 8eaf a93c e3c1 50be
00000030: 1ad4 20bd 106b f43d 0491 2abd fff3 3dbd
00000040: a476 153f b9f8 ff3e ec69 a63e 85d1 86bd
00000050: 34cf 2c3b 9ba2 e6bc 1f57 683d 9203 323e
00000060: 48f4 713d 3276 3ebe 861a 77be 9909 363d
00000070: ef0c 27bd 9282 f13d 7ba1 3b3d 13ce 123e
00000080: df5a 28be cf4b 3abe 040d 82be 3e9c 803b
00000090: 5be9 17bd 2166 e3bd 310b 4dbc 465f cd3d
000000a0: d674 1dbd d297 b93d 18b0 edbb 0bdc e5bb
000000b0: c1f3 b43d 3ac8 4c3e 5078 00bc fc52 ec3d
000000c0: 02bb 923d a01d 3a3c 10fb f6bc 0905 00be
000000d0: fe94 04bd 32fa 053c 382f 493d 5bce f53c
000000e0: cf11 573d 4456 0f3c 773a e83b 79e3 5a3d
000000f0: 68b8 f33d 1cd0 78bb cf90 b0bd d27f de3d
00000100: bd87 fa3d 18f8 96be cb37 b5be 953d 21bd
00000110: 1c46 973e 3d25 4ebe 40e4 abbe 4877 9bbd
00000120: 4f4f 8fbe ca1d 92bc b247 113b 130c b6bd
00000130: f8e8 703c 093e 55be 3cd4 89bd 6f66 1bbe
00000140: 0b79 723c 3622 213e 2722 283e 9cab 3c3c
00000150: 4ed9 b4be ccfe 1e3e 200a 88bc 83e7 e5bb
00000160: 6b3e 3a3e 75e6 5e3d f89b 3cbe 2d77 ffbd
00000170: 2663 e1bd 7db3 b63e 46a5 d03c 479a 91bd
00000180: bae1 1f3e 3ec6 c4bd 24b5 fc3d f48e a93d
00000190: adc2 2bbd 9bc6 65bd 8016 a23c 2929 6e3c
000001a0: 8cb9 30bd b97a 9239 5ca1 3f3d 2875 95bd
000001b0: 2383 49bd c73d e5bd 7fc1 eabd b9cf 27bd
000001c0: ac97 ac3b 6478 33bb 3f2a 513c 737e 003d
000001d0: 4176 423d 3d30 d8bc 15e0 6b3d 794e d43c
000001e0: 5365 86bc ec9c 023b e47d 9ebc b164 213d
000001f0: f46e aebd c9dc b3bc 64dd bdbd 0207 8a3c
00000200: f915 0cbe 9ea1 a9bc c9f5 a53d 9a27 143e
00000210: 72ef 763e 5da6 89be 761b 163e ca72 d53e
00000220: b8a7 2ebe 8c39 9e3e b32f 6dbd e513 08bd
00000230: bdb0 ffbc 4839 f7bd fa4e e13d 34b4 183e
00000240: fc23 f53c 8883 96bd 0162 89be bea0 dcbe
00000250: 4f08 2f3e da33 903e d905 bbbe e398 3f3e
00000260: a8e1 29bd 25da 05be 23d4 45bd 390e 6a3e
00000270: bddd 093e 8681 733d aa99 78be 09b5 9b3d
00000280: 3a71 bfbc a90e c73b 22ab 153e 6b18 6dbe
00000290: 64af 183e 65ef c43c dc15 3c3a 157a 98bd
000002a0: f564 a03d e9ad 9d3c 5fc0 dc3d 54b4 863d
000002b0: 5d68 a23d bf67 093d 481b 82bd 44af 1dbd
000002c0: 14f3 243d 9944 d93d a1b4 81bd 4d87 04be
000002d0: b070 883d c211 0cbe ed70 8dbd 7f1d 8a3d
000002e0: 22ff 9cbc 8e95 283d 6006 8fbd bb11 abbd
000002f0: 4bee d43d ae6c 363e ed0f 293e f2c1 aa3d
00000300: dac9 5f3e 25bb c23d 21ba 07bd 877a a0be
00000310: cc19 a0be deec 343e 522f cdbd 1bec fd3d
00000320: a542 953c f455 1abe 5571 aebd 2c1f dd3c
00000330: a235 313d 66ae a3bc 4ad5 8c3d 4f5a 6a3d
00000340: 6fec f9bc eacf 11bd 322b 8fbd 33b4 703d
00000350: fb75 8d3d 63c4 16be 5989 2ebd 6fd6 473d
00000360: 1cb2 00be a3c6 dfbd 3c3c 4cbd 45d5 2c3e
00000370: 6ffc 0a3d 922a cf3c b856 46bd 6e1d 30bd
00000380: 849a 5fbd 8863 dabc e454 87bd 41e2 af3d
00000390: aa5d b7bd 34ba e93d 45f3 38bd ed3f fabc
000003a0: 2fa1 87bc fd91 3abd f8c5 dabd e142 bf3b
000003b0: 9a5f 02bc 6f75 d4bd 0885 afbd 891c 81bb
000003c0: ab64 02bd 31c6 033d 837f 7bbc fc09 dfbd
000003d0: 5d80 9cbd 99f1 2bbd 6f24 083d a028 1b3d
000003e0: 7550 143d c46b 4fbd 3781 5d3d fdf8 b6bd
000003f0: 8416 3abd 0720 d9bd 6b72 9ebd fdc3 dfbc

bias f4 [65]
-0.33959836 -0.085710004 0.37812373 -0.024643183 -0.069448866 0.055045556 0.07031786 0.0446688
-0.02707766 -0.037680358 -0.04478111 -0.20408887 -0.012779603 -0.084567785 -0.11454266 -0.39110804
-0.061289005 -0.082663015 0.3866891 -0.10249419 -0.019100118 0.07315799 -0.12746093 -0.022645688
0.07050149 0.5937264 -0.060348544 -0.05391114 -0.07542735 0.3013329 0.0067525846 -0.05475325
-0.03718963 0.022936484 -0.07149675 -0.024871664 0.264775 -0.05938881 0.035116605 0.0064470624
0.021540612 -0.06640043 0.0961935 0.6260314 -0.030003026 0.014446437 -0.005979302 -0.05335598
-0.052414637 -0.016832354 -0.03498102 0.06430512 0.23515777 -0.049527213 0.4778463 -0.13191049
-0.023324309 -0.4585432 -0.072047934 -0.08574194 0.8239237 -0.11800774 -0.035921503 -0.02555153
-0.0460466
00000000: d6df adbe ba88 afbd 6f99 c13e 80e0 c9bc
00000010: 353b 8ebd 7377 613d cf02 903d a2f6 363d
00000020: f8d1 ddbc b856 1abd 666c 37bd acfc 50be
00000030: 8a61 51bc e031 adbd 5895 eabd 503f c8be
00000040: 2e0a 7bbd 3a4b a9bd 1dfc c53e 79e8 d1bd
00000050: da77 9cbc dbd3 953d 1e85 02be 7383 b9bc
00000060: 1663 903d 74fe 173f 0930 77bd edd1 5cbd
00000070: a879 9abd 4e48 9a3e c944 dd3b f244 60bd
00000080: 2754 18bd 4be5 bb3c e36c 92bd a9bf cbbc
00000090: 9790 873e ae41 73bd 6ed6 0f3d e141 d33b
000000a0: f075 b03c f3fc 87bd 1901 c53d 9843 203f
000000b0: e8c8 f5bc c0b0 6c3c 05ee c3bb cd8b 5abd
000000c0: bbb0 56bd 01e4 89bc 4248 0fbd 67b2 833d
000000d0: 33cd 703e 0cdd 4abd 45a8 f43e 8b13 07be
000000e0: 9f12 bfbc 2dc6 eabe de8d 93bd 7899 afbd
000000f0: aaec 523f 0bae f1bd 6d22 13bd 7151 d1bc
00000100: 5c9b 3cbd

weight f4 [65, 65]
0.32488516 0.05602165 0.07785289 0.0679602 0.033054184 0.042359605 -0.0014593925 -0.019675989
0.07606966 0.048839174 0.059703 0.09289616 -0.011374615 0.06762626 0.06185883 0.0074157156
-0.019669704 -0.029019833 -0.1393235 0.0013879137 0.082956925 -0.0026830125 0.043076176 -0.017796967
0.035453737 -0.32053876 0.0014178769 0.010197729 0.03451178 -0.23032038 -0.00769145 0.04778384
-0.10705284 0.036016885 0.031548887 0.02218782 -0.09722287 0.0750356 -0.0110214045 0.012603662
0.048243877 0.031547073 -0.08711779 -0.26029557 0.05536117 0.02945603 0.012262669 0.0044866716
0.03799211 0.05139806 -0.031282194 -0.13795681 -0.2727199 0.06569517 -0.39090145 0.048635345
0.0147397015 0.48711988 0.09622184 0.20792079 -0.3890338 0.045321297 0.06607079 0.046792522
0.0011858246 0.1495646 -0.21270438 0.042241376 -0.06116709 -0.01827948 0.0651499 -0.1366818
-0.013054069 -0.1725205 -0.088888675 0.0051136953 0.22039123 -0.02413564 -0.26451454 -0.016705561
0.20938966 -0.08219654 0.023989135 -0.031763718 -0.040047336 -0.01372524 -0.012284162 -0.101354524
0.025868379 -0.27085096 -0.10277276 0.009084788 -0.087502055 -0.1876012 0.0077407076 -0.030988086
0.16428047 -0.061005704 -0.1364177 -0.028368995 -0.1116808 -0.11042643 -0.12377252 0.019642213
-0.023005724 -0.105930105 -0.28729868 -0.05110358 -0.07236985 0.035077527 -0.02118786 0.040959466
0.045626964 0.052473385 -0.042092524 -0.13714777 0.079326935 -0.14744574 0.009461926 -0.13027248
-0.038609922 0.0066926447 0.33638296 -0.015393333 0.06985074 -0.05427595 -0.063753195 -0.011537804
0.009797053 0.0018938523 0.21719696 -0.0018722757 0.06219541 0.04893379 -0.025982521 -0.019617569
-0.0065068468 0.06633043 0.0113222785 0.0031650746 0.031354625 0.090176746 -0.027191818 0.124800466
0.05136232 0.10646937 -0.06011368 0.006136433 -0.03787999 -0.002838496 0.018883098 0.03216585
0.030375266 -0.10228201 0.011276965 -0.2812736 0.0074178497 0.061496355 -0.0028869128 -0.009938955
0.010933979 -0.07233151 0.2047149 -0.013379452 -0.03187422 0.013771832 -0.15704754 0.028319448
0.023186453 -0.020994453 -0.018950686 0.040057156 -0.21924041 -0.23339045 0.074149 -5.9782964e-05
-0.04037026 -0.0030804188 0.044222552 0.007151993 0.0094084935 0.18254831 -0.047377452 0.004349721
-0.08141761 0.014288728 0.025066938 0.09762318 0.05528773 0.027382981 -0.45050818 0.007622556
-0.008806964 0.04564447 0.032678086 0.1152621 0.14917931 -0.073346935 0.066045344 -0.006108106
-0.070317715 -0.016670968 -0.025473306 -0.0597507 -0.2359165 0.01709444 0.15442917 0.0025135782
0.11757472 0.039940692 0.010606875 0.04687001 -0.00795175 -0.039081436 0.031311486 -0.035897966
-0.028114265 -0.0038982446 -0.0039001964 0.03301732 0.1092502 -0.018092515 0.031663872 -0.021189708
0.064431615 0.021500705 -0.112843096 0.08668495 -0.08550166 0.02212823 -0.07404856 0.013165892
-0.036555413 -0.00065555435 0.026329912 -0.011767089 0.032777853 -0.06365809 0.012532879 0.025907291
-0.012691253 -0.02048135 -0.005093258 -0.03386007 0.005400455 -0.011052267 0.083381765 0.07450013
-0.270649 -0.008276082 0.0046755634 0.006331714 0.17011188 -0.004841617 0.24430339 -0.04900328
00000000: 5957 a63e f576 653d 5671 9f3d b82e 8b3d
00000010: d363 073d 4481 2d3d 1649 bfba 8a2f a1bc
00000020: 69ca 9b3d 960b 483d 228b 743d 5840 be3d
00000030: 985c 3abc a37f 8a3d af5f 7d3d 88ff f23b
00000040: 5c22 a1bc 00bb edbc d2aa 0ebe a8ea b53a
00000050: 52e5 a93d 7bd5 2fbb a570 303d f2ca 91bc
00000060: f037 113d a81d a4be 0ed8 b93a 6014 273c
00000070: 395c 0d3d 1bd9 6bbe 8f08 fcbb fdb8 433d
00000080: 853e dbbd 7186 133d 6839 013d 3bc3 b53c
00000090: c91c c7bd 44ac 993d 1f93 34bc 977f 4e3c
000000a0: 5f9b 453d 8137 013d d06a b2bd 7645 85be
000000b0: 65c2 623d c64d f13c 5de9 483c ee04 933b
000000c0: 9d9d 1b3d c686 523d c221 00bd 8d44 0dbe
000000d0: f1a1 8bbe 308b 863d 3c24 c8be db35 473d
000000e0: ca7e 713c c767 f93e f50f c53d 30e9 543e
000000f0: 702f c7be d3a2 393d 1f50 873d 84a9 3f3d
00000100: ac6d 9b3a 7627 193e 2dcf 59be 4b05 2d3d
00000110: 588a 7abd d9be 95bc 506d 853d 50f6 0bbe
00000120: bce0 55bc 37a9 30be 440b b6bd c990 a73b
00000130: 3dae 613e 1bb8 c5bc 736e 87be 1ada 88bc
00000140: 3e6a 563e a956 a8bd dd84 c43c ac1a 02bd
00000150: ad08 24bd d4df 60bc 8343 49bc f692 cfbd
00000160: ece9 d33c faac 8abe 867a d2bd 5dd8 143c
00000170: 4734 b3bd 871a 40be c3a5 fd3b bada fdbc
00000180: 2439 283e 1ee1 79bd 15b1 0bbe 1866 e8bc
00000190: e7b8 e4bd 4127 e2bd 727c fdbd b5e8 a03c
000001a0: 8076 bcbc e2f1 d8bd d018 93be fd51 51bd
000001b0: a536 94bd 74ad 0f3d 2a92 adbc 1dc5 273d
000001c0: 57e3 3a3d 55ee 563d 3669 2cbd 7770 0cbe
000001d0: 2976 a23d 04fc 16be 3206 1b3c 2666 05be
000001e0: 7025 1ebd f94d db3b 633a ac3e 5134 7cbc
000001f0: e80d 8f3d 7550 5ebd 0991 82bd 0f09 3dbc
00000200: d283 203c 233b f83a e168 5e3e 2667 f5ba
00000210: 9dc0 7e3d cc6e 483d 4cd9 d4bc 06b5 a0bc
00000220: 6337 d5bb 40d8 873d 1481 393c 246d 4f3b
00000230: b56d 003d 96ae b83d 60c1 debc 6397 ff3d
00000240: 4c61 523d 9d0c da3d c339 76bd 2214 c93b
00000250: 0c28 1bbd 0f06 3abb bab0 9a3c 57c0 033d
00000260: 8dd5 f83c 3b79 d1bd 05c3 383c 1803 90be
00000270: 6f11 f33b 9ae3 7b3d 5c32 3dbb 00d7 22bc
00000280: 6f24 333c 8b22 94bd c8a0 513e 7d35 5bbc
00000290: 8b8e 02bd 40a3 613c 12d1 20be 30fe e73c
000002a0: 84f1 bd3c 8ffc abbc 783e 9bbc f912 243d
000002b0: 8f80 60be e8fd 6ebe 6edb 973d 78bf 7ab8
000002c0: 495b 25bd dae0 49bb b522 353d 445b ea3b
000002d0: 1526 1a3c f2ed 3a3e dc0e 42bd 1b88 8e3b
000002e0: 47be a6bd 451b 6a3c 2e59 cd3c a9ee c73d
000002f0: 6375 623d 4652 e03c 02a9 e6be a2c6 f93b
00000300: 164b 10bc b2f5 3a3d 75d9 053d 890e ec3d
00000310: 76c2 183e eb36 96bd c842 873d 8226 c8bb
00000320: bc02 90bd 8e91 88bc 65ad d0bc 26bd 74bd
00000330: 1894 71be a409 8c3c ae22 1e3e d8ba 243b
00000340: 04cb f03d da98 233d 75c8 2d3c c5fa 3f3d
00000350: 0f48 02bc db13 20bd 7940 003d bf09 13bd
00000360: e34f e6bc b179 7fbb 709a 7fbb 2b3d 073d
00000370: 92be df3d c136 94bc fab1 013d 0a96 adbc
00000380: b9f4 833d 3f22 b03c 481a e7bd e187 b13d
00000390: 7f1b afbd 4346 b53c c5a6 97bd c1b5 573c
000003a0: 21bb 15bd 82d9 2bba d4b1 d73c c0ca 40bc
000003b0: 1242 063d 2c5f 82bd b456 4d3c 873b d43c
000003c0: f9ee 4fbc 81c8 a7bc 58e5 a6bb dbb0 0abd
000003d0: 4df6 b03b 9114 35bc 0fc4 aa3d 8693 983d
000003e0: 8192 8abe 6798 07bc 7835 993b 447a cf3b
000003f0: cf31 2e3e 6da6 9ebb ab2a 7a3e aab7 48bd

bias f4 [65]
-0.14640683 -0.21967101 -0.100932725 -0.39207652 -0.11309083 -0.053459987 -0.15882841 -0.10283901
-0.090062745 -0.17244965 -0.18839884 -0.10406233 0.11180376 0.67790246 0.17871653 -0.096917234
-0.05560447 -0.09904521 0.11150707 0.02877818 0.5122357 -0.11451018 -0.017211461 -0.045566525
-0.044786036 0.078889176 0.103588976 0.07959568 -0.04922613 0.31935006 -0.08489991 -0.13047881
-0.0032391287 -0.05730127 -0.04102436 -0.0064800777 -0.06673502 0.79002595 -0.04614924 0.01615677
0.055806197 0.041147403 -0.06525184 0.056032423 0.02131723 0.14029431 0.059467148 -0.00012207904
0.3933852 -0.05059168 -0.019661479 0.4502642 -0.051084556 -0.079084486 -0.04728494 -0.038878147
-0.0965031 0.3524873 -0.07600178 0.35155943 0.7267409 -0.050809458 0.5501597 -0.042897083
0.11088058
00000000: aceb 15be 70f1 60be d1b5 cebd 41be c8be
00000010: 2a9c e7bd dcf8 5abd eaa3 22be 429d d2bd
00000020: d172 b8bd a496 30be a0eb 40be a21e d5bd
00000030: 5ff9 e43d 048b 2d3f 7701 373e 8b7c c6bd
00000040: 83c1 63bd 37d8 cabd d25d e43d 38c0 eb3c
00000050: e121 033f 5084 eabd 0dff 8cbc f7a3 3abd
00000060: 9071 37bd a690 a13d 7526 d43d 0f03 a33d
00000070: 57a1 49bd da81 a33e 01e0 adbd 3d9c 05be
00000080: 9047 54bb bdb4 6abd 2909 28bd d556 d4bb
00000090: 5fac 88bd 243f 4a3f fc06 3dbd 345b 843c
000000a0: 0a95 643d 2e8a 283d c2a2 85bd 4182 653d
000000b0: 79a1 ae3c 50a9 0f3e d393 733d 5802 00b9
000000c0: c969 c93e 3939 4fbd 1c11 a1bc 0789 e63e
000000d0: 0a3e 51bd 0cf7 a1bd daad 41bd b13e 1fbd
000000e0: 6ba3 c5bd 3779 b43e d2a6 9bbd 99ff b33e
000000f0: b10b 3a3f 941d 50bd 44d7 0c3f dab4 2fbd
00000100: 5c15 e33d

weight f4 [64, 64]
0.0026469524 -0.05734029 -0.19714685 0.09275252 0.20294167 -0.0003493351 -0.189552 -0.21485741
0.19005358 0.039173905 -0.04140188 0.10339052 -0.12440316 0.04587991 -0.05235866 0.16084597
0.12530945 0.02564121 0.11718407 -0.14299716 -0.18410827 0.12916988 0.07480958 -0.13226457
0.00442787 0.37126654 0.03938558 0.04585939 0.27619073 -0.049039476 0.18457136 -0.24951047
-0.04143778 0.11336409 0.058880888 -0.1387269 0.16489455 -0.28881612 0.14982526 0.016859544
0.052122492 -0.15396166 0.05661328 0.100668706 0.07781589 -0.082668416 -0.15080592 -0.21678403
0.060947776 -0.3905018 0.13464224 0.010141886 0.39056242 0.044584367 0.03968711 0.2375235
-0.069748685 -0.21516146 0.05138844 0.019954473 0.040406164 0.19429663 0.110051945 -0.14771226
0.108010635 -0.044868786 0.14254126 0.03134794 0.040116258 0.14762814 0.15258454 -0.094766885
0.20003572 0.1517076 -0.043464653 0.41561794 -0.14161201 0.051755343 0.11920276 0.16975206
0.26706392 0.05222227 0.20426363 -0.07979475 -0.03874815 0.123566784 -0.036732275 0.26363763
-0.22409305 -0.110705756 -0.11849071 0.32963455 0.074309796 -0.095188245 0.06608093 -0.20578335
0.16369916 0.10899902 0.11535054 -0.03944357 -0.1551761 0.0059865857 0.29060796 0.07460625
0.31375676 -0.17404765 0.0692964 0.11427847 0.18957089 0.1238412 0.04484439 -0.41012716
0.07542072 0.07127873 0.26723367 -0.024372825 0.25910905 0.1142209 0.15103519 0.21542759
-0.009708594 -0.090739846 -0.05948238 0.055389658 0.0713972 0.18283889 0.017296612 0.19488338
0.07310491 0.051140595 -0.22475514 -0.18839003 0.1143202 -0.20947416 -0.12836675 0.15093222
0.048766676 0.37448174 -0.29268327 0.17469127 0.08713661 0.048386473 -0.15646856 -0.045736264
-0.1764943 0.071374476 -0.15386614 0.043138888 -0.16951936 -0.16556147 -0.33867782 -0.15128879
0.04703301 0.3521848 0.055390146 -0.028988801 -0.002119211 -0.06418058 -0.11998549 -0.38521022
-0.103409395 0.18469967 -0.009197587 0.17899759 -0.15575792 -0.09311388 0.11700156 -0.2692512
-0.120951444 0.0007135828 0.29365265 0.43188217 -0.15998092 -0.17435998 -0.033123452 0.07858787
-0.2672391 0.023936298 -0.123558916 -0.16909944 -0.0094424505 -0.25303254 -0.031014688 0.011450074
0.19320893 -0.20314004 0.16784845 0.043318074 -0.25866178 -0.18629134 0.14448781 -0.05859947
0.046187405 -0.040738493 -0.15679128 -0.18213418 0.14623542 0.25595793 0.022045406 -0.20195103
-0.08654849 -0.258089 -0.17514457 0.51643497 -0.082030885 -0.0036397239 -0.11955018 0.22994511
0.03811318 0.117181875 0.17011945 -0.27878365 -0.29373577 0.2536364 0.26700655 -0.06670322
-0.16490583 -0.04995725 -0.069509156 0.14384009 0.21934561 -0.27549854 0.20889635 -0.04676866
0.032733846 -0.12222627 0.17291866 -0.23615113 0.318629 0.0053701946 0.2642363 0.2730039
0.07460026 0.10222573 0.144195 -0.42470676 0.109514415 0.10445943 -0.11967472 -0.16594525
0.15751922 0.23113644 0.05030707 0.21186736 0.32469514 0.10607769 -0.119491234 -0.07891988
-0.032577336 0.21555589 -0.019663401 -0.18658032 0.13477549 -0.015473235 -0.10409013 -0.23029852
00000000: 7e78 2d3b a7dd 6abd dde0 49be 09f5 bd3d
00000010: f1cf 4f3e f726 b7b9 eb19 42be 9503 5cbe
00000020: 689d 423e d174 203d 0595 29bd 69be d33d
00000030: 15c7 febd 93ec 3b3d 0976 56bd ceb4 243e
00000040: 1f51 003e 840d d23c 34fe ef3d d96d 12be
00000050: e186 3cbe 1c45 043e c435 993d 5d70 07be
00000060: aa17 913b a616 be3e c652 213d 0ed7 3b3d
00000070: df68 8d3e 9edd 48bd 4600 3d3e ac7f 7fbe
00000080: a9ba 29bd 6f2b e83d 162d 713d 6d0e 0ebe
00000090: 1eda 283e b5df 93be cb6b 193e 071d 8a3c
000000a0: 657e 553d 20a8 1dbe 54e3 673d 652b ce3d
000000b0: f05d 9f3d 0f4e a9bd de6c 1abe a2fc 5dbe
000000c0: 60a4 793d daef c7be a8df 093e 272a 263c
000000d0: ccf7 c73e 199e 363d f38e 223d 5c39 733e
000000e0: 66d8 8ebd 4953 5cbe af7c 523d 9077 a33c
000000f0: ef80 253d b2f5 463e ea62 e13d e241 17be
00000100: ae34 dd3d 55c8 37bd 56f6 113e b366 003d
00000110: f250 243d d52b 173e 1f3f 1c3e 2415 c2bd
00000120: 2ad6 4c3e 3d59 1b3e fe07 32bd e0cb d43e
00000130: bd02 11be 69fd 533d 9420 f43d 7cd3 2d3e
00000140: 9abc 883e 05e7 553d 7c2a 513e 6e6b a3bd
00000150: 61b6 1ebd 9510 fd3d 9574 16bd 83fb 863e
00000160: a678 65be b3b9 e2bd 42ab f2bd dcc5 a83e
00000170: bc2f 983d 0ef2 c2bd 7055 873d dfb8 52be
00000180: c1a0 273e e13a df3d e73c ec3d 958f 21bd
00000190: 7ce6 1ebe 1f2b c43b 91ca 943e 29cb 983d
000001a0: baa4 a03e 8c39 32be 45eb 8d3d d50a ea3d
000001b0: df1e 423e 74a0 fd3d c0ae 373d 30fc d1be
000001c0: 2e76 9a3d 95fa 913d dad2 883e 85a9 c7bc
000001d0: f1a9 843e a6ec e93d f8a8 1a3e 0d99 5c3e
000001e0: cb10 1fbc d0d5 b9bd cca3 73bd 44e0 623d
000001f0: b238 923d 1e3a 3b3e a0b1 8d3c 828f 473e
00000200: 07b8 953d cd78 513d 3626 66be 51e9 40be
00000210: b620 ea3d 6580 56be 9372 03be fa8d 1a3e
00000220: 91bf 473d 12bc bf3e 95da 95be 45e2 323e
00000230: ae74 b23d e530 463d 4b39 20be f355 3bbd
00000240: ecba 34be c82c 923d 168f 1dbe 67b2 303d
00000250: 7c96 2dbe f288 29be 2e67 adbe 73eb 1abe
00000260: afa5 403d 9151 b43e c7e0 623d ec79 edbc
00000270: 76e2 0abb 1c71 83bd f4ba f5bd 463a c5be
00000280: 4ec8 d3bd e921 3d3e 7ab1 16bc 254b 373e
00000290: 017f 1fbe 7db2 bebd 849e ef3d 4bdb 89be
000002a0: 64b5 f7bd bb0f 3b3a a459 963e a91f dd3e
000002b0: 0ad2 23be 6c8b 32be 75ac 07bd adf2 a03d
000002c0: 90d3 88be 0e16 c43c 750c fdbd 6728 2dbe
000002d0: 82b4 1abc 7b8d 81be 8412 febc 1799 3b3c
000002e0: 90d8 453e f103 50be 77e0 2b3e 4b6e 313d
000002f0: 516f 84be 28c3 3ebe 9df4 133e ff05 70bd
00000300: 012f 3d3d 68dd 26bd e58d 20be 6281 3abe
00000310: bdbe 153e eb0c 833e 9198 b43c 40cc 4ebe
00000320: 5640 b1bd 3e24 84be 1959 33be 1535 043f
00000330: cfff a7bd 6f88 6ebb bad6 f4bd bb76 6b3e
00000340: 911c 1c3d 0dfd ef3d cb33 2e3e bbbc 8ebe
00000350: 8964 96be a1dc 813e 15b5 883e b39b 88bd
00000360: 13dd 28be f99f 4cbd d15a 8ebd d14a 133e
00000370: 239c 603e 250e 8dbe ede8 553e 7f90 3fbd
00000380: ed13 063d c451 fabd 9711 313e 9ad1 71be
00000390: 5723 a33e 75f8 af3b fb49 873e 2bc7 8b3e
000003a0: 05c8 983d b95b d13d dba7 133e 2a73 d9be
000003b0: 1849 e03d d3ee d53d 0518 f5bd 8ded 29be
000003c0: b84c 213e 08af 6c3e c90e 4e3d c2f3 583e
000003d0: 713e a63e 433f d93d d2b7 f4bd bfa0 a1bd
000003e0: d06f 05bd afba 5c3e 2415 a1bc e90e 3fbe
000003f0: 9602 0a3e 7483 7dbc 352d d5bd 60d3 6bbe

bias f4 [64]
-0.22571665 -0.36489412 -0.07546693 -0.10238249 -0.44783834 0.100895904 -0.22635409 -0.026615765
-0.5797638 -0.3845177 -0.26915675 0.06955232 -0.273566 -0.31488356 -0.4676423 -0.1005736
-0.33433187 -0.39331132 -0.28016865 -0.28740326 0.16105682 -0.06122801 -0.10041516 -0.62852246
-0.124250464 -0.11989608 -0.15860902 -0.062518634 -0.46308994 0.06871788 0.013360491 -0.23282078
-0.30738625 -0.44014546 -0.71190846 -0.17488864 0.23400043 -0.4225195 -0.17884709 -0.088342845
-0.112822875 -0.15019149 -0.13089542 -0.11179997 -0.48538426 0.060455244 -0.4970226 -0.2877913
-0.110803545 -0.404385 -0.21886435 -0.30632916 -0.3058842 -0.32152808 -0.07909061 -0.37296593
-0.16260497 -0.051020402 0.26549456 -0.15981595 -0.098855935 -0.18239155 -0.14931716 0.15496786
00000000: 4422 67be 67d3 babe 688e 9abd e9ad d1bd
00000010: 114b e5be 83a2 ce3d 5ec9 67be 4e09 dabc
00000020: 676b 14bf 81df c4be eace 89be 7271 8e3d
00000030: d810 8cbe 6b38 a1be d06e efbe 88f9 cdbd
00000040: 8c2d abbe 1a60 c9be 4472 8fbe 8526 93be
00000050: 14ec 243e 39ca 7abd 77a6 cdbd d9e6 20bf
00000060: 0777 febd 138c f5bd 676a 22be c509 80bd
00000070: 201a edbe f6bb 8c3d f6e5 5a3c 9268 6ebe
00000080: bb61 9dbe bf5a e1be a23f 36bf 0216 33be
00000090: cf9d 6f3e 7a54 d8be b123 37be 18ed b4bd
000000a0: ae0f e7bd cccb 19be 7309 06be 62f7 e4bd
000000b0: 4984 f8be eb9f 773d bf79 febe 6259 93be
000000c0: f8ec e2bd 8d0b cfbe fa1d 60be 2dd7 9cbe
000000d0: db9c 9cbe 549f a4be 42fa a1bd 64f5 bebe
000000e0: eb81 26be c5fa 50bd e7ee 873e cba6 23be
000000f0: fb74 cabd dac4 3abe 99e6 18be e5af 1e3e

weight f4 [64, 64]
0.06022275 0.1424147 0.09313219 -0.04992425 0.08552832 0.102889374 -0.052239355 0.11197436
0.052056927 0.010572651 0.016819846 0.09784782 -0.22382481 -0.057172447 -0.014061978 -0.10112465
-0.007949201 -0.10435204 -0.18932936 -0.05200342 0.16720048 -0.1366707 0.03869433 -0.22904909
0.143542 -0.0035567118 0.10023427 0.06687644 -0.07753456 0.32410204 0.20144624 0.05134966
0.100217134 -0.042874705 -0.12513888 -0.056623776 0.07110382 -0.0054188347 0.1644568 -0.16629362
-0.13445193 -0.31604192 0.007256138 -0.3311074 -0.008254963 -0.020810071 -0.088844776 -0.0038486721
0.056802135 -0.10831328 -0.062317394 -0.052658066 0.1144539 -0.3245454 0.18460505 -0.1992469
-0.0031349987 -0.23248933 0.10488954 -0.007595359 -0.28964305 0.029100448 0.18228565 0.15386678
-0.016030733 -0.112716086 -0.33617002 -0.13065565 -0.03346513 0.10607708 -0.06445577 -0.3040159
0.116071045 -0.025966497 -0.15387224 -0.3865636 0.0655691 -0.06294548 -0.117518015 0.2893342
-0.01105048 -0.099857815 -0.1546301 -0.11031482 -0.25453672 0.16304967 0.009520612 -0.19823116
0.25592485 -0.13978714 -0.117462434 -0.087414525 0.070156604 -0.28373793 -0.032968905 -0.043866873
0.073759064 -0.12459941 -0.03227907 -0.14643309 -0.15875578 -0.109283715 -0.0395256 -0.12370835
-0.12677957 -0.07786743 -0.4300364 -0.28269094 -0.111434795 -0.00512317 -0.2756244 -0.109042965
0.001203405 -0.12598497 0.04111448 0.06441406 0.010663259 -0.20518784 -0.25466272 0.032080784
0.057357926 -0.050201606 -0.1904429 -0.0770041 0.12393529 -0.16106 -0.3866049 0.020555131
-0.08885291 0.07932017 -0.07118934 -0.11388524 -0.0067287106 0.03647317 0.105930805 -0.11614471
0.10861242 -0.06841122 -0.15614368 -0.22312269 -0.25756004 -0.25751778 -0.046923853 -0.04040468
0.042758018 -0.0538669 -0.28677225 -0.2927352 -0.17073001 -0.091821544 -0.060137425 -0.08877483
0.12105467 -0.20860702 -0.16232549 0.08879883 -0.11382612 -0.21759245 -0.061663654 0.031169735
-0.04176845 -0.031508166 -0.107891954 0.051745627 -0.08417228 0.054615527 -0.18128198 -0.15026625
-0.14800051 -0.11109746 -0.24243283 -0.030025443 -0.2016267 -0.2225857 -0.1343087 0.060284913
-0.023272984 -0.3102206 -0.07942244 -0.06434646 -0.044299122 -0.051463265 -0.16325094 0.19733457
-0.18863901 -0.061128296 0.14844759 -0.07031035 -0.08566954 -0.057700165 -0.39006433 -0.16378811
0.075798415 0.21018183 -0.030140998 -0.20478837 0.34822085 -0.0013034436 -0.024428407 -0.06037802
0.26707682 0.021600781 0.31089938 0.12498954 0.08043995 0.07754816 0.01983963 -0.13425025
-0.016931279 0.033727054 0.29481897 -0.24566609 0.18083124 -0.47788486 -0.032178678 0.06726494
0.0013294297 -0.13142362 0.19679292 0.01380356 0.11234625 0.1344354 0.08812296 -0.25388902
0.05153559 0.095310144 0.09876469 -0.29129428 -0.047034096 0.14598125 0.04172479 0.22450964
0.059235446 -0.17608747 -0.042833403 -0.16994534 -0.31132254 -0.08485508 0.123435 0.07849114
-0.10236704 0.13078722 0.047253713 0.027260674 -0.014477472 -0.21477 0.02222102 0.45467177
-0.018469943 -0.10079591 -0.17264728 0.19182746 -0.073971726 -0.0270207 0.15221807 0.025962869
00000000: 21ac 763d 29d5 113e 17bc be3d 5f7d 4cbd
00000010: 7929 af3d aab7 d23d eff8 55bd d052 e53d
00000020: a539 553d ea38 2d3c c6c9 893c 7064 c83d
00000030: 5532 65be a82d 6abd 3664 66bc 711a cfbd
00000040: 5e3d 02bc 86b6 d5bd 8edf 41be 8a01 55bd
00000050: 9a36 2b3e 67f3 0bbe f27d 1e3d d88b 6abe
00000060: adfc 123e b917 69bb a047 cd3d 84f6 883d
00000070: 70ca 9ebd b4f0 a53e ec47 4e3e 0554 523d
00000080: a43e cd3d 639d 2fbd 6824 00be 55ee 67bd
00000090: e19e 913d 7b90 b1bb 5d67 283e e048 2abe
000000a0: c4ad 09be 3fd0 a1be e6c4 ed3b e986 a9be
000000b0: d33f 07bc e279 aabc 40f4 b5bd 013a 7cbb
000000c0: 5ba9 683d 5ad3 ddbd 8640 7fbd fcaf 57bd
000000d0: ce66 ea3d d12a a6be 1b09 3d3e 6107 4cbe
000000e0: 8d74 4dbb af11 6ebe 54d0 d63d 7de2 f8bb
000000f0: 184c 94be 1064 ee3c 17a9 3a3e 418f 1d3e
00000100: e252 83bc b1d7 e6bd 7a1e acbe 98ca 05be
00000110: bb12 09bd f13e d93d 6301 84bd f9a7 9bbe
00000120: a8b6 ed3d b1b7 d4bc af90 1dbe aaeb c5be
00000130: 1849 863d 8fe9 80bd 49ad f0bd 9d23 943e
00000140: 130d 35bc 4182 ccbd 5a57 1ebe bdec e1bd
00000150: a352 82be 7ef6 263e 57fc 1b3c 1cfd 4abe
00000160: 9508 833e 5c24 0fbe 2590 f0bd 6306 b3bd
00000170: 44ae 8f3d 1946 91be 670a 07bd c0ad 33bd
00000180: fe0e 973d fa2d ffbd 0f37 04bd 8ef2 15be
00000190: e090 22be 24d0 dfbd 98e5 21bd ce5a fdbd
000001a0: 81d2 01be f678 9fbd bb2d dcbe debc 90be
000001b0: ed37 e4bd 44e0 a7bb a41e 8dbe eb51 dfbd
000001c0: 92bb 9d3a 3402 01be a867 283d 85eb 833d
000001d0: f3b4 2e3c c31c 52be 2763 82be 2467 033d
000001e0: 25f0 6a3d 33a0 4dbd 7703 43be 53b4 9dbd
000001f0: c9d1 fd3d eaec 24be 14f1 c5be 3c63 a83c
00000200: 84f8 b5bd 9d72 a23d b7cb 91bd aa3c e9bd
00000210: 847c dcbb e464 153d 40f2 d83d 47dd edbd
00000220: 3070 de3d 2f1b 8cbd 21e4 1fbe 467a 64be
00000230: e9de 83be 5fd9 83be 3a33 40bd 617f 25bd
00000240: 0823 2f3d 8aa3 5cbd d0d3 92be 63e1 95be
00000250: d9d3 2ebe ef0c bcbd a952 76bd 94cf b5bd
00000260: 83eb f73d 149d 55be a738 26be 29dc b53d
00000270: ab1d e9bd 8ed0 5ebe 0793 7cbd ac57 ff3c
00000280: 6515 2bbd b50e 01bd 75f6 dcbd 39f3 533d
00000290: 8462 acbd 88b4 5f3d fca1 39be 65df 19be
000002a0: 728d 17be 1187 e3bd 5040 78be ebf7 f5bc
000002b0: 3b77 4ebe 81ed 63be 3888 09be 50ed 763d
000002c0: fca6 bebc 3cd5 9ebe 3ba8 a2bd 14c8 83bd
000002d0: ff72 35bd 25cb 52bd 412b 27be 1312 4a3e
000002e0: 962a 41be aa61 7abd a502 183e dffe 8fbd
000002f0: 8373 afbd 0257 6cbd 83b6 c7be 12b8 27be
00000300: 333c 9b3d e839 573e 41ea f6bc 0bb4 51be
00000310: 014a b23e 4fd8 aaba 151e c8bc f14e 77bd
00000320: 4bbe 883e 1ff4 b03c 342e 9f3e 84fa ff3d
00000330: b3bd a43d 92d1 9e3d b886 a23c e678 09be
00000340: 77b3 8abc 6125 0a3d 83f2 963e e48f 7bbe
00000350: d32b 393e 53ad f4be cacd 03bd 33c2 893d
00000360: 4240 ae3a ea93 06be 1584 493e 5428 623c
00000370: ca15 e63d 6fa9 093e cf79 b43d befd 81be
00000380: fc16 533d f731 c33d 2445 ca3d 8624 95be
00000390: d3a6 40bd 1c7c 153e 9de7 2a3d dbe5 653e
000003a0: dea0 723d 4650 34be 1472 2fbd 2706 2ebe
000003b0: ab65 9fbe 80c8 adbd 7dcb fc3d f6bf a03d
000003c0: d0a5 d1bd 16ed 053e 1c8d 413d c751 df3c
000003d0: eb32 6dbc abec 5bbe db08 b63c bdca e83e
000003e0: 474e 97bc 166e cebd 73ca 30be 6b6e 443e
000003f0: 7d7e 97bd 845a ddbc 0edf 1b3e 15b0 d43c

bias f4 [64]
-0.102426775 -0.06717816 -0.014863226 -0.42725888 0.0004438611 -0.34983778 0.08921004 -0.1447735
0.0009276154 0.28698945 0.28432593 -0.16066457 -0.060994036 -0.18973017 -0.07480877 -0.13725217
-0.08648577 -0.13812055 0.13846608 0.25634798 -0.058536746 0.14349672 -0.23259401 -0.13899362
-0.314306 0.073446475 -0.51366884 -0.42116675 0.20243424 -0.0958187 0.43723455 0.2883374
0.44451705 0.1878235 0.29034624 0.14589347 -0.022233184 0.4219147 0.05899657 -0.34198847
0.259547 -0.20859292 -0.1392735 0.23378697 0.14229773 0.17927733 -0.30518714 -0.06077954
-0.23957065 0.077247895 0.09544443 0.07753065 -0.008193334 0.16348858 0.044278912 0.621338
-0.3562132 -0.20392562 -0.29177782 -0.26045802 -0.0036583045 -0.008424163 0.15186548 0.1400595
00000000: 21c5 d1bd b494 89bd e384 73bc adc1 dabe
00000010: 07b6 e839 f01d b3be c1b3 b63d 813f 14be
00000020: 372b 733a 48f0 923e 2b93 913e 4185 24be
00000030: e2d4 79bd a048 42be 5735 99bd d58b 0cbe
00000040: 741f b1bd 796f 0dbe 0dca 0d3e 0b40 833e
00000050: 3ac4 6fbd cef0 123e 202d 6ebe 5854 0ebe
00000060: b7ec a0be 1b6b 963d cd7f 03bf 2ba3 d7be
00000070: ec4a 4f3e 983c c4bd 35dd df3e f6a0 933e
00000080: bd97 e33e ce54 403e 43a8 943e 1965 153e
00000090: 5e22 b6bc 3405 d83e 63a6 713d 1d19 afbe
000000a0: 58e3 843e 6299 55be b69d 0ebe da65 6f3e
000000b0: 7fb6 113e 7a94 373e 7d41 9cbe f8f3 78bd
000000c0: 0252 75be 2534 9e3d 5f78 c33d 64c8 9e3d
000000d0: 553d 06bc 8d69 273e ce5d 353d 0210 1f3f
000000e0: 9461 b6be e1d1 50be e763 95be c15a 85be
000000f0: 2ac0 6fbb 8005 0abc a082 1b3e c26b 0f3e

weight f4 [48, 48]
-0.056333482 0.25321084 -0.3207325 0.012861908 0.0021305897 0.116062574 -0.07472086 0.090028256
0.2534551 0.05559754 -0.20472781 -0.11779374 0.066528015 -0.15416461 -0.05478153 -0.14925055
-0.062190197 0.20104626 -0.13735385 0.24424101 -0.14692189 -0.29664755 -0.03896159 -0.14159386
-0.43296745 -0.048221108 0.4213805 -0.09755377 -0.025006104 -0.28961024 -0.06473039 0.43621725
-0.08957672 -0.5185265 0.20239079 -0.17735691 -0.022133054 0.27226654 0.36093447 -0.119350836
-0.20893769 0.11112555 0.06691038 0.034400698 0.00824424 -0.11961979 0.047466442 -0.1813081
-0.3709672 -0.15353492 -0.09458831 -0.03021316 -0.2893758 0.1480108 -0.2659991 -0.19929783
-0.09843959 -0.06886427 -0.2660942 -0.03164707 -0.19475813 -0.17217611 -0.30929267 -0.003776323
0.009055553 0.042612065 -0.15623856 0.0757207 0.017074302 0.19113737 0.1484014 -0.06441708
-0.22772065 -0.15750962 0.025290577 -0.4119831 0.08607007 -0.12195001 0.039918873 0.32050225
0.043608457 0.332024 0.17680296 0.22624543 0.067320675 0.21115007 0.09145716 0.041770864
-0.08916651 0.13383561 -0.012973829 0.17085259 -0.14069508 0.2587971 -0.112473525 0.2138357
-0.22340223 0.055709936 0.12063349 -0.36806062 -0.18201485 0.26415473 0.25067857 0.075608484
0.058718435 -0.15235941 0.0062012738 -0.13542804 0.06427126 -0.59516746 0.0702723 0.03666776
-0.04117386 -0.12902124 -0.3712787 0.12569293 -0.019092856 0.085496515 -0.11130097 -0.020541146
-0.26187164 0.29577288 -0.2003438 0.08783866 0.0074530775 0.12436267 -0.6019446 0.15608136
0.024865508 0.055429664 -0.3493581 0.0071431207 0.03035836 -0.29225922 -0.086446084 -0.36614653
0.16827814 -0.36303326 0.054973636 0.29984254 0.04569448 -0.03935789 -0.14585014 -0.16155238
0.06585947 0.23429719 0.33725187 0.06704085 0.06367655 0.028315436 -0.09319865 0.016664874
-0.17156546 -0.14977339 -0.098134525 0.24557382 -0.07987632 0.384889 -0.12816499 -0.32242545
0.26579386 -0.0852181 0.0507632 -0.0203219 -0.058953412 0.142504 -0.15927215 0.001484844
-0.32218608 0.2725065 -0.40434527 0.007920663 -0.30135757 0.05050658 0.110632166 -0.033882152
0.16850537 -0.17232765 -0.060648907 -0.6199327 -0.10240015 0.054018434 -0.30823782 0.17828485
-0.2483881 0.11801009 -0.28392047 -0.10219524 0.04905727 -0.009785605 -0.0632154 -0.2663161
-0.2569931 -0.14379312 -0.32400674 -0.13225125 -0.2748894 0.074475065 0.057826824 -0.13955839
-0.24754594 -0.36206692 -0.22372203 -0.54040295 0.2677015 -0.26291388 -0.43458247 -0.092118114
-0.18512733 -0.22129396 -0.14861344 -0.101762675 -0.06401909 0.14502278 0.008469815 0.011283932
0.15131158 -0.1346655 -0.31981173 -0.5056023 0.052335616 -0.2524975 -0.15849105 -0.116281115
-0.2571138 0.18501762 0.14878358 -0.3685806 -0.013141977 0.008896048 -0.076494195 -0.106477015
-0.060723864 -0.30269146 0.0018875545 -0.021077616 -0.26482207 -0.111302175 0.017690305 0.04896203
-0.08188507 0.12393011 0.11242995 -0.1731818 -0.22200346 -0.078328095 -0.30108094 0.35609895
-0.0014192597 -0.21178848 -0.13990985 -0.02901175 -0.19259302 0.05887323 0.11407231 0.3653558
00000000: f0bd 66bd daa4 813e 0d37 a4be c1ba 523c
00000010: 5da1 0b3b 37b2 ed3d 4007 99bd bc60 b83d
00000020: dec4 813e 3fba 633d 2ba4 51be d83d f1bd
00000030: d73f 883d 54dd 1dbe 9962 60bd 23d5 18be
00000040: 26bb 7ebd 12df 4d3e 7da6 0cbe 511a 7a3e
00000050: b172 16be 30e2 97be 3096 1fbd fbfd 10be
00000060: e9ad ddbe 7f83 45bd 2fbf d73e 45ca c7bd
00000070: 9ad9 ccbc cb47 94be 5e91 84bd de57 df3e
00000080: 0074 b7bd 27be 04bf 883f 4f3e 0d9d 35be
00000090: 6150 b5bc 8566 8b3e 67cc b83e 366e f4bd
000000a0: c3f3 55be cb95 e33d 4f08 893d bfe7 0c3d
000000b0: d912 073c 38fb f4bd 2c6c 423d d5a8 39be
000000c0: 6aef bdbe 4238 1dbe 84b7 c1bd 9781 f7bc
000000d0: 1129 94be 2590 173e 0931 88be bb14 4cbe
000000e0: b29a c9bd b608 8dbd 803d 88be 5ca0 01bd
000000f0: ad6e 47be ef4e 30be 9c5b 9ebe 307c 77bb
00000100: be5d 143c fd89 2e3d 00fd 1fbe 7413 9b3d
00000110: 68df 8b3c 84b9 433e 89f6 173e 1aed 83bd
00000120: 9a2f 69be 344a 21be 2f2e cf3c 73ef d2be
00000130: 8145 b03d edc0 f9bd f981 233d df18 a43e
00000140: c89e 323d 0dff a93e d60b 353e e2ac 673e
00000150: 6cdf 893d b937 583e e44d bb3d ed17 2b3d
00000160: ee9c b6bd 340c 093e 2f90 54bc fbf3 2e3e
00000170: 5f12 10be 0e81 843e 8558 e6bd bff7 5a3e
00000180: 8ec3 64be 1a30 643d b10e f73d 7172 bcbe
00000190: 1a62 3abe 4a3f 873e f158 803e 9fd8 9a3d
000001a0: be82 703d 1b04 1cbe 0e34 cb3b a6ad 0abe
000001b0: a6a0 833d e55c 18bf ecea 8f3d ef30 163d
000001c0: eca5 28bd 251e 04be 3e18 bebe a6b5 003e
000001d0: 9f68 9cbc cc18 af3d c3f1 e3bd e845 a8bc
000001e0: 0a14 86be 8b6f 973e ed26 4dbe c1e4 b33d
000001f0: f238 f43b dbb1 fe3d 0b19 1abf cbd3 1f3e
00000200: c0b2 cb3c 370a 633d 11df b2be d710 ea3b
00000210: 18b2 f83c 00a3 95be a50a b1bd 8f77 bbbe
00000220: 1b51 2c3e 7fdf b9be 092c 613d f684 993e
00000230: 232a 3b3d bd35 21bd bd59 15be fd6d 25be
00000240: 54e1 863d 9aeb 6f3e 47ac ac3e b74c 893d
00000250: da68 823d c6f5 e73c efde bebd c684 883c
00000260: dbae 2fbe 325e 19be c1fa c8bd b477 7b3e
00000270: 3296 a3bd 2c10 c53e af3d 03be f314 a5be
00000280: 2216 883e d486 aebd 13ed 4f3d 1d7a a6bc
00000290: 2279 71bd 92ec 113e 3d18 23be 199f c23a
000002a0: 93f5 a4be f985 8b3e 5806 cfbe abc5 013c
000002b0: 8a4b 9abe fddf 4e3d 1e93 e23d 03c8 0abd
000002c0: ac8c 2c3e a976 30be fd6a 78bd e9b3 1ebf
000002d0: 2bb7 d1bd 6f42 5d3d 59d1 9dbe 4e90 363e
000002e0: 7359 7ebe 46af f13d 065e 91be bd4b d1bd
000002f0: 47f0 483d cd53 20bc 1377 81bd 955a 88be
00000300: 9994 83be 813e 13be 36e4 a5be df6c 07be
00000310: 4ebe 8cbe 6286 983d d2db 6c3d 65e8 0ebe
00000320: af7c 7dbe d660 b9be 6317 65be d957 0abf
00000330: 2c10 893e a69c 86be 9881 debe 6ca8 bcbd
00000340: 0592 3dbe e29a 62be 1f2e 18be f368 d0bd
00000350: 711c 83bd da80 143e fbc4 0a3c 3ee0 383c
00000360: 6cf1 1a3e c1e5 09be 5dbe a3be 276f 01bf
00000370: df5d 563d 5a47 81be 7a4b 22be cb24 eebd
00000380: 6ca4 83be 4275 3d3e b95a 183e 99b6 bcbe
00000390: 7251 57bc bbc0 113c fda8 9cbd 9f10 dabd
000003a0: 96b9 78bd 60fa 9abe d267 f73a f7aa acbc
000003b0: c296 87be 65f2 e3bd 42eb 903c 698c 483d
000003c0: 5cb3 a7bd 12cf fd3d ac41 e63d 9256 31be
000003d0: e054 63be 7b6a a0bd 4827 9abe 9a52 b63e
000003e0: 7406 baba 14df 58be 8744 0fbe 0daa edbc
000003f0: 1b37 45be 0e25 713d be9e e93d ea0f bb3e

bias f4 [48]
-0.23382697 -0.038013164 -0.5382558 0.17197378 -0.1480436 -0.07516743 -0.3333094 0.002020904
-0.22232604 -0.15251766 -0.5074813 0.17006029 -0.30749327 -0.21070434 -1.0092018 0.14601748
-0.047200255 -0.22239985 0.03011362 -0.04001905 -0.22531646 -0.058694903 -0.01515955 -0.24921668
-0.099637024 -0.080743834 -0.26120004 0.027183123 -0.22972378 -0.37493056 -0.22205423 -0.029793922
0.059770606 -0.18951967 0.0017534022 -0.21875948 -0.28011823 -0.17042479 0.26087275 -0.42781824
-0.2437963 -0.2160816 -0.046510085 -0.20063661 -0.2242194 -0.39037716 -0.5091455 -0.63899195
00000000: 5670 6fbe b1b3 1bbd 22cb 09bf e519 303e
00000010: be98 17be 62f1 99bd 88a7 aabe 2571 043b
00000020: 70a9 63be 972d 1cbe 4bea 01bf 4924 2e3e
00000030: c26f 9dbe e1c2 57be 862d 81bf 9b85 153e
00000040: 0e55 41bd c9bc 63be d7b0 f63c 04eb 23bd
00000050: 5cb9 66be 116a 70bd c35f 78bc a832 7fbe
00000060: 7f0e ccbd 065d a5bd 03bc 85be 24af de3c
00000070: b63c 6bbe e6f6 bfbe 2f62 63be 6212 f4bc
00000080: 06d2 743d 7211 42be 6ad2 e53a 7c02 60be
00000090: a86b 8fbe d683 2ebe 1d91 853e fe0a dbbe
000000a0: bda5 79be 7f44 5dbe 5c81 3ebd af73 4dbe
000000b0: c599 65be 84df c7be 5c57 02bf fa94 23bf

weight f4 [48, 48]
-0.31125668 0.03168643 -0.15730798 -0.2592177 -0.05485894 -0.31542054 -0.1771507 -0.06549863
-0.016878214 0.08804683 -0.38890955 -0.14665155 -0.13368112 -0.052389026 -0.331125 -0.32199565
-0.029107522 0.012299216 0.06021989 0.055941835 -0.03800141 -0.0879111 0.09122322 -0.033484504
0.07912607 -0.14011921 -0.3321333 -0.31364477 -0.24121782 -0.15759708 -0.12370092 -0.13710417
-0.28524408 0.011348693 -0.28112596 0.11549792 0.088838905 -0.2879803 0.034270745 -0.20337357
-0.12230589 -0.25449726 -0.10943033 0.12749101 0.00086972385 0.074722156 -0.15153028 -0.059998605
-0.056143634 0.013807049 0.03754491 0.06194654 -0.05702863 -0.23345041 0.027129037 0.008762301
0.120551094 0.30248022 -0.06665196 0.2381944 -0.16817038 0.06578397 -0.0030598736 0.31298247
-0.177706 -0.6529369 0.095429316 0.030010324 0.13822207 0.008158838 -0.0031109946 -0.16763087
0.1695576 -0.12825932 0.29857615 -0.0057111285 -0.16511722 -0.02968789 0.157388 0.14575975
0.12528098 -0.06958135 -0.15451087 -0.0012404236 -0.37673762 -0.08168573 0.27386427 -0.5790267
-0.36355203 -0.23901291 -0.3871247 0.31437194 -0.037166994 -0.32343355 -0.27440533 -0.27193522
-0.031758357 -0.12661858 -0.34159234 0.091400646 0.08652975 0.23817584 -0.21028417 -0.31377184
0.115988165 0.101362444 -0.1300143 0.09797889 -0.21447909 -0.20172967 0.043309934 0.17062032
-0.08063278 -0.15620895 0.027888883 0.037257075 -0.17825995 -0.6107345 0.14295945 -0.05045833
-0.34968767 -0.086067215 0.29493693 -0.18792854 -0.070594355 0.048984118 -0.26755863 -0.04034468
-0.06920556 -0.68938416 0.04925885 -0.2867013 -0.2858136 -0.13706277 -0.14153378 -0.3170335
0.27231747 -0.054883335 0.295625 -0.26124737 -0.46603727 -0.24430148 0.18109484 0.2808613
0.008888263 -0.22432409 -0.11580374 0.31502613 0.008677992 -0.71707225 -0.07674886 0.23791817
0.038437806 0.19656995 0.015486986 -0.29305282 0.2161884 0.018760214 -0.01784262 -0.30393758
0.17053801 -0.456341 0.09924906 -0.22063115 0.041015588 0.057428226 -0.25528944 0.505209
-0.6520066 -0.41122404 0.25742418 -0.039840292 -0.5025816 0.1342807 0.11274379 0.27071145
0.1969595 0.15353847 -0.2952662 0.4691901 -0.14252925 -0.26831406 0.031501144 0.256714
0.17774473 0.0827071 -0.32621315 -0.12682241 -0.78940344 -0.12158971 -0.03360138 0.0371732
0.08831709 0.0515952 0.14200644 0.07590747 0.07991822 -0.18019724 -0.017503535 -0.32397985
0.00435686 -0.09157543 0.067742676 -0.26484215 -0.405507 0.034757823 -0.7268758 -0.06888588
0.12699905 0.23306398 -0.058758907 0.22663958 0.20207489 -0.31773928 0.01529761 0.028710919
0.05186175 -0.051880263 0.056795694 -0.27895293 0.0107239485 -0.10382444 -0.25930867 -0.8237273
-0.39137402 -0.016188594 0.1746543 -0.3488153 0.061998516 0.18256788 -0.046253096 0.107606314
0.122766726 -0.053155664 0.12709764 0.04031532 0.27322719 0.06730928 0.1316227 -0.28813982
0.103982806 -0.3945115 0.2582343 -0.0017184503 0.10236487 0.4054892 -0.052579768 -0.33579755
-0.18368962 0.21179274 -0.16025196 0.14555275 -0.23819116 0.13990475 -0.06258023 0.02831465
00000000: 095d 9fbe a1c9 013d 5815 21be 2fb8 84be
00000010: c5b3 60bd cd7e a1be fe66 35be 2524 86bd
00000020: 2e44 8abc e551 b43d 271f c7be d32b 16be
00000030: b4e3 08be e095 56bd 3789 a9be 9ddc a4be
00000040: e672 eebc a782 493c 22a9 763d 4423 653d
00000050: 5ea7 1bbd bc0a b4bd 3dd3 ba3d 0c27 09bd
00000060: d90c a23d 697b 0fbe 600d aabe 0c96 a0be
00000070: ce01 77be 2161 21be e856 fdbd 0965 0cbe
00000080: 830b 92be deef 393c beef 8fbe 2c8a ec3d
00000090: 2cf1 b53d 2772 93be 7b5f 0c3d 2941 50be
000000a0: 837b fabd 774d 82be 021d e0bd 018d 023e
000000b0: 2efe 633a ee07 993d c12a 1bbe 19c1 75bd
000000c0: def6 65bd f636 623c b1c8 193d a8bb 7d3d
000000d0: da96 69bd a00d 6fbe b73d de3c c18f 0f3c
000000e0: 7ee3 f63d b0de 9a3e d380 88bd 3ce9 733e
000000f0: db34 2cbe bfb9 863d 2988 48bb 3d3f a03e
00000100: 90f8 35be df26 27bf 7270 c33d 36d8 f53c
00000110: 168a 0d3e a6ac 053c d4e1 4bbb 6da7 2bbe
00000120: 82a0 2d3e 6956 03be f9de 983e 6b24 bbbb
00000130: 7d14 29be 0534 f3bc 522a 213e 0b42 153e
00000140: a849 003e ab80 8ebd 1938 1ebe b695 a2ba
00000150: c1e3 c0be d94a a7bd f037 8c3e 183b 14bf
00000160: 7e23 babe cdbf 74be 3535 c6be 5cf5 a03e
00000170: 6b3c 18bd 1599 a5be db7e 8cbe 183b 8bbe
00000180: 0d15 02bd 4da8 01be 31e5 aebe 4330 bb3d
00000190: 8236 b13d 5ee4 733e bc54 57be b4a6 a0be
000001a0: 348b ed3d 1d97 cf3d 7822 05be 28a9 c83d
000001b0: 68a0 5bbe 3992 4ebe c265 313d 18b7 2e3e
000001c0: cd22 a5bd 3df5 1fbe 3a77 e43c e09a 183d
000001d0: c789 36be 1959 1cbf f663 123e 65ad 4ebd
000001e0: 430a b3be 0244 b0bd f901 973e 5770 40be
000001f0: c693 90bd 92a3 483d 72fd 88be 7740 25bd
00000200: a5bb 8dbd 7b7b 30bf a6c3 493d 83ca 92be
00000210: 2956 92be 2f5a 0cbe 3bee 10be 3752 a2be
00000220: 326d 8b3e 59cd 60bd 295c 973e 37c2 85be
00000230: 709c eebe 2b2a 7abe ed70 393e 0dcd 8f3e
00000240: 14a0 113c 37b5 65be 832a edbd 1b4b a13e
00000250: 232e 0e3c 0c92 37bf 822e 9dbd d2a0 733e
00000260: f670 1d3d a249 493e 21bd 7d3c 050b 96be
00000270: 7e60 5d3e 05af 993c b02a 92bc b59d 9bbe
00000280: 84a1 2e3e 87a5 e9be 1743 cb3d 22ed 61be
00000290: f6ff 273d dc39 6b3d 4cb5 82be 6155 013f
000002a0: e8e9 26bf f58b d2be 1acd 833e 932f 23bd
000002b0: 30a9 00bf e180 093e 37e6 e63d b19a 8a3e
000002c0: c0af 493e 3039 1d3e 222d 97be af39 f03e
000002d0: 30f3 11be 7660 89be 5807 013d 0470 833e
000002e0: b702 363e 5762 a93d 6905 a7be bcdd 01be
000002f0: 5816 4abf 0704 f9bd 9aa1 09bd ed42 183d
00000300: 97df b43d 7d55 533d 236a 113e 6075 9b3d
00000310: 2aac a33d a085 38be 9363 8fbc b0e0 a5be
00000320: fec3 8e3b e68b bbbd acbc 8a3d 6499 87be
00000330: 9d9e cfbe 385e 0e3d 8814 3abf 0a14 8dbd
00000340: 0a0c 023e 53a8 6e3e 2ead 70bd 3514 683e
00000350: b8ec 4e3e b9ae a2be d4a2 7a3c 2933 eb3c
00000360: fd6c 543d 6680 54bd 9aa2 683d ebd2 8ebe
00000370: 80b3 2f3c e8a1 d4bd 1bc4 84be cbdf 52bf
00000380: 2d62 c8be f19d 84bc 94d8 323e eb97 b2be
00000390: 28f2 7d3d 13f3 3a3e e373 3dbd b360 dc3d
000003a0: 1f6d fb3d c1b9 59bd e225 023e ad21 253d
000003b0: 6fe4 8b3e 73d9 893d 1ac8 063e 1087 93be
000003c0: f0f4 d43d 69fd c9be 4937 843e a03d e1ba
000003d0: aca4 d13d 489c cf3e e25d 57bd a8ed abbe
000003e0: 2219 3cbe 32e0 583e 1719 24be c80b 153e
000003f0: 62e8 73be 3143 0f3e 102a 80bd 20f4 e73c

bias f4 [48]
-0.10329727 0.047773033 -0.08566868 0.08533131 0.27676046 -0.2866361 -0.07908002 -0.057233993
0.2728396 0.07400785 -0.08951064 0.34375995 -0.24683739 0.2520645 0.032897566 -0.08973171
-0.33619523 -0.0045590657 0.23013611 -0.0026372932 0.15461242 -0.10738932 -0.18500967 0.6851537
-0.0942438 0.39638388 0.12953119 0.32943934 -0.10869305 0.19905627 0.38383216 0.3091735
0.072498575 -0.20648289 -0.11109782 -0.07269666 0.30340517 0.300688 -0.17557919 -0.033394285
-0.033192884 -0.056821547 0.27897713 0.18612453 -0.2535436 -0.0552596 0.26502395 -0.20246115
00000000: 858d d3bd a8ad 433d 1073 afbd 2fc2 ae3d
00000010: 8cb3 8d3e f8c1 92be b5f4 a1bd 316e 6abd
00000020: a2b1 8b3e 6d91 973d 5b51 b7bd 4e01 b03e
00000030: f1c2 7cbe 990e 813e 99bf 063d 42c5 b7bd
00000040: c821 acbe 3764 95bb cda8 6b3e 70d6 2cbb
00000050: b852 1e3e efee dbbd 2d73 3dbe 3c66 2f3f
00000060: e502 c1bd d4f2 ca3e d3a3 043e 46ac a83e
00000070: 769a debd 68d5 4b3e a685 c43e fd4b 9e3e
00000080: 227a 943d 4070 53be 4187 e3bd fde1 94bd
00000090: ec57 9b3e c7f3 993e 08cb 33be 72c8 08bd
000000a0: 43f5 07bd b6bd 68bd 17d6 8e3e 6e97 3e3e
000000b0: 77d0 81be e457 62bd 38b1 873e fa51 4fbe
