trained_models/net_1/dense_Supervised_WAE_net_1.pt (torch, 291135 bytes, 120 tensors)

weight f4 [65, 65]
000000 46 4b 0c 3e e0 97 5b 3e d8 ff ed bc 2c db 70 3c
       0.1370059 0.21444654 -0.02905266 0.014700692
000010 1e 45 a6 bd 42 04 a7 bd 3f 77 f3 3d d9 16 93 3d
       -0.08118652 -0.08155109 0.11887979 0.07182092
000020 19 a9 74 3e 31 a6 f4 3d 64 4e 1a 3d 57 26 12 bc
       0.2389263 0.11945761 0.037672415 -0.008920274
000030 8b e6 f3 bb 2b f6 0d 3e 67 37 03 bd cb a1 d6 bd
       -0.0074432543 0.13863437 -0.032035258 -0.10480078
000040 6c 55 7d 3e 54 2d b6 3e e2 e7 4f 3e e3 33 f8 bd
       0.24739617 0.35581458 0.203033 -0.121192716
000050 af ea c9 bc cc 59 f5 bd 1e 8b 7e bd 9a 0e d8 3d
       -0.024648039 -0.11980018 -0.06214439 0.1054966
000060 70 9d a1 bd 4f 92 39 be 31 97 61 be ce 6e 97 3d
       -0.07891357 -0.18122219 -0.22030331 0.07394181
000070 18 ee 2f be 72 f9 dc 3d 8a 6d 37 3d 1b 05 34 3e
       -0.1718067 0.107897654 0.0447822 0.17580073
000080 86 38 20 be 1d a0 16 be 5b a0 80 bd d6 3c 92 3d
       -0.15646562 -0.14709516 -0.062805854 0.0714051
000090 e4 9e eb 3c 80 42 89 bd 33 3b d6 bb 6c a7 cf 3d
       0.028762288 -0.06702137 -0.006537819 0.10139355
0000a0 5d b7 2a bd 02 50 ac 3d df b1 85 bc c0 98 98 bc
       -0.041678775 0.08413698 -0.016320167 -0.018627524
0000b0 bd 97 9a 3d 1f 04 24 3e e6 0f ce bc 01 5a db 3d
       0.07548473 0.16017197 -0.025154065 0.10710526
0000c0 2a b5 37 3d d0 a4 4e 3c 93 17 aa bc ce 85 a8 bd
       0.044850506 0.012612537 -0.020763194 -0.08228646
0000d0 b8 fc 0f bb 5b f2 21 3c c1 04 54 3d 9c 49 59 3d
       -0.00219707 0.009884442 0.051762346 0.053048715
0000e0 3c 41 8c 3d ac 97 1c 3c b7 63 a7 bc 01 4f cb 3d
       0.0684838 0.009557646 -0.02043329 0.09927178
0000f0 8a 2f 1f 3e c9 e1 15 3d ce 82 5a bd d2 62 03 3e
       0.15545478 0.03659228 -0.0533474 0.12830666
000100 37 1a ed 3d 05 8f d1 bd 4b 77 3e be 22 a1 1b 3c
       0.11577266 -0.10232357 -0.18600194 0.009498866
000110 3f 71 3e 3e 0d f7 46 be b2 d8 29 be 35 e1 76 bb
       0.18597887 -0.1943018 -0.16586569 -0.0037670855
000120 88 80 8f be 60 0f 33 bd d0 24 b8 3d cb 71 af 3d
       -0.2802775 -0.043715835 0.089913964 0.08566626
000130 3d b9 2f 3c b0 fd 6c be 1e ae 5e bc bf ac 18 be
       0.010725317 -0.23143649 -0.013591317 -0.14909647
000140 2f bd bd bd a3 f0 3d 3d 84 a2 d9 3c bd 69 9c bd
       -0.092645995 0.046372067 0.026566751 -0.076373555
000150 d0 9b 89 be 95 e0 e2 3d dc 44 8d bd bb 4c 9b 3c
       -0.26876688 0.11077992 -0.068978995 0.018957486
000160 f8 15 ac 3d 82 f3 ca bd dd 16 16 be 45 e9 75 bd
       0.08402628 -0.09909727 -0.14657159 -0.060036916
000170 c8 6d 0e be 5e 40 16 3e 8a 8d 47 3d f4 37 12 be
       -0.13909066 0.14672992 0.048718967 -0.14279157
000180 0c 80 e6 3d a9 ed b2 bd a6 38 92 3d 63 c4 9b 3d
       0.11254892 -0.08736736 0.07139711 0.07605817
000190 24 b2 ac bd 28 74 93 bd 89 17 66 3d ba 7d 53 3d
       -0.08432415 -0.071998894 0.05617479 0.051633574
0001a0 00 b4 c6 bc 73 87 14 3d 47 6f cd 3d bd 9e 66 bd
       -0.024255753 0.036261987 0.1003099 -0.05630373
0001b0 da 84 cf bc d9 4b d9 bd e0 26 c8 bd 99 18 24 bc
       -0.025331903 -0.1061017 -0.0977304 -0.01001563
0001c0 17 48 5d 3d 2d 39 d3 3c 48 28 30 bc a9 a5 c3 3b
       0.05402383 0.0257841 -0.010751791 0.005970676
0001d0 38 c5 82 3c 72 98 48 bd c1 5f c8 3d 40 f4 9c 3d
       0.015963182 -0.04897351 0.097838886 0.076637745
0001e0 97 40 85 bc 12 f4 cd 3c 00 2e b9 3b 97 ff b3 3d
       -0.01626615 0.025140796 0.0056512356 0.08788984
0001f0 39 3a 23 bd 16 c8 fd 3c a6 3f 55 bd 9e 80 d4 3d
       -0.039850447 0.030979197 -0.052062653 0.10376094
000200 96 8f e1 bd 3a fe 56 3c 37 d3 5e bd 2c c9 ee 3c
       -0.11013715 0.013122136 -0.05440065 0.02914866
000210 d2 d7 31 3e 60 ee b5 bb a9 f8 4d 3d c8 da 51 3e
       0.17367485 -0.005552098 0.05028597 0.20493615
000220 6a 71 56 bd f6 89 5c 3e ad e3 0c 3e df f8 d6 3c
       -0.052354254 0.21537003 0.13758726 0.026241718
000230 28 cb 39 3e 2d 64 e3 3c 6a 75 c1 bd b4 15 d4 3d
       0.18143904 0.027757728 -0.09446223 0.10355702
000240 49 c2 0e 3d 39 ed 7d 3d 1b 85 dd bd 42 22 61 be
       0.034853254 0.06199381 -0.108164035 -0.21985725
000250 e7 b8 51 3e 9a aa e0 3d 59 d3 aa be 62 75 be 3d
       0.20480691 0.1097004 -0.3336437 0.09299733
000260 d8 c0 0d bd 9c 83 7d bd 2a fd fe 3c 64 86 db 3d
       -0.03460774 -0.06189309 0.031126577 0.10718992
000270 da 65 b7 3d 05 a7 51 3d 1c d5 fb bd a4 e1 1c bd
       0.089549735 0.051184673 -0.12296507 -0.038301125
000280 23 32 15 bd 23 5d e1 3d 42 f3 1c bd 9b bf 9c be
       -0.036424767 0.110040925 -0.038317926 -0.30614933
000290 ed 30 02 3e 9f fa 98 3d 68 63 ae 3c fd 99 a1 bd
       0.12713976 0.07469677 0.021287635 -0.07890699
0002a0 e2 88 a7 3d 07 9c af 3c 29 b5 da 3d 7e 82 7d 3d
       0.08180405 0.021436704 0.10679085 0.061892025
0002b0 4b fd 96 3d cf 51 a9 3c 0c da ae bd b8 d3 96 bd
       0.073725305 0.020668892 -0.08537683 -0.07364601
0002c0 a5 4c 5c 3d f6 10 e3 3d 43 2c 4d bd 28 76 6c bd
       0.05378403 0.110872194 -0.05009104 -0.05772987
0002d0 16 02 15 3e 9a c6 52 bd 0e 89 01 bd b6 0b ae 3d
       0.14551577 -0.051458932 -0.031624846 0.084983274
0002e0 f2 83 56 bc e4 3d 7f 3d 07 ed 79 bd e6 56 9e bd
       -0.013092982 0.062314883 -0.061017063 -0.07731418
0002f0 25 23 e0 3d 91 ce 0a 3e 00 88 12 3e a1 aa 57 3d
       0.10944203 0.13555361 0.14309692 0.05265296
000300 d0 ea 38 3e 5e 61 93 3d 3c a2 e4 bc 5a 6f 53 be
       0.18058324 0.07196306 -0.02790939 -0.20647946
000310 25 7c 4b be f3 6c f7 3d db 22 25 bd 29 ec 58 3d
       -0.19871576 0.12081327 -0.040316444 0.052959595
000320 14 4c 91 bc 5e 50 34 be 9b c8 0c be d3 29 6f bd
       -0.017736472 -0.17608783 -0.137484 -0.058389496
000330 d6 a0 a6 bd 0b 35 0e bd 07 d1 0b 3c c1 1d 8e 3c
       -0.08136146 -0.034718554 0.008533723 0.017348172
000340 99 57 ad bc d8 98 5c 3d 87 55 e6 bd 95 47 87 3d
       -0.021159934 0.0538567 -0.11246782 0.0660545
000350 3c 69 a4 bc d0 fa 03 be 13 b9 92 bd 06 31 38 3d
       -0.02006971 -0.12888646 -0.07164206 0.044968627
000360 63 25 1f be f0 3d 2e 3d 9d 66 91 bc 50 a1 44 3e
       -0.15541606 0.042539537 -0.017749125 0.19202161
000370 17 53 f6 3d 54 82 4f 3d b2 25 1c ba e3 b6 cd bd
       0.12027567 0.0506614 -0.0005956545 -0.100446485
000380 6e b4 a8 bd f7 e1 d1 3c 96 97 ac bd dc e3 de 3d
       -0.08237539 0.025620444 -0.0842735 0.108833045
000390 ee 79 19 be e8 1a 5a 3d 9e 30 51 bd 1b e0 cb bc
       -0.14987919 0.053248316 -0.051071756 -0.024887135
0003a0 93 c3 9e 3a c5 b1 f8 bc 43 78 f6 bd f8 20 36 3d
       0.0012112729 -0.030358205 -0.12034657 0.044465035
0003b0 e2 60 cb 3c 2a 50 eb bd af 96 aa bd 70 a1 25 3d
       0.02482647 -0.114898995 -0.08329522 0.040437162
0003c0 00 9c 19 3c 88 c5 c0 3d 58 76 ee 3c 52 9b f9 bd
       0.009375572 0.09412676 0.029109165 -0.12187828
0003d0 ee 59 ba bd e4 28 b1 bc 5c 04 b6 3d 9a 1e 93 3d
       -0.09099184 -0.021625943 0.0888755 0.07183571
0003e0 73 88 a4 3d e3 2d 35 bd 50 a2 b9 3d 7d 1b e6 bd
       0.08033838 -0.044233214 0.09064162 -0.11235712
0003f0 c0 35 25 bd 56 ae e9 bd 7a a5 92 bd de ea 2a bc
       -0.040334463 -0.11410205 -0.071604684 -0.010431973

bias f4 [65]
000000 76 fb 26 3e f4 c3 80 bd e6 c0 fc bc ba 46 ed 3c
       0.16306862 -0.06287375 -0.0308537 0.02896439
000010 52 e6 6f bd c3 87 91 3d 72 ba 50 3d 17 20 fe 3c
       -0.05856926 0.071059726 0.050959058 0.031021161
000020 a5 ca 91 bd 0d c2 0e be 5d 3e a0 3c d1 9f 73 3d
       -0.071187295 -0.13941212 0.019560987 0.059478585
000030 4e 67 d8 39 da 6d 01 bd 2c ff 51 bd b1 bb 90 ba
       0.00041275698 -0.031598903 -0.05126874 -0.0011042265
000040 d7 79 26 be 30 4c 62 bd 7f 47 a7 3d 77 2a ee bd
       -0.16257416 -0.05524844 0.08167934 -0.11629193
000050 33 bc a4 3d 94 1a ef 3d fb 18 34 be 59 7e 9d bd
       0.08043709 0.11674991 -0.17587654 -0.076901145
000060 c1 01 ab 3d 26 52 2e 3e 0c be 16 bd 0d 05 ef bc
       0.08349944 0.17023525 -0.036802337 -0.029177213
000070 91 82 d9 bd 61 24 73 3e 96 88 ac 3d 33 4b 5d bc
       -0.10620607 0.23744346 0.08424489 -0.013506698
000080 49 f7 20 bb 64 8a 8b bc ca d7 c6 bc 5e 36 a2 bd
       -0.0024561456 -0.017033763 -0.024272818 -0.07920526
000090 58 66 55 3e 77 ec 40 bc 1d 30 98 3d 7b d9 7e 3d
       0.20839822 -0.011775128 0.07431052 0.062219124
0000a0 5c 67 87 3d 55 44 7c bd 19 36 9f 3d ed 04 4f 3e
       0.06611511 -0.061588604 0.0777399 0.20216723
0000b0 a6 34 c7 3d 90 1e ea 3c 40 df 17 3d 6d 2e 15 bd
       0.09726839 0.028579026 0.037078142 -0.03642123
0000c0 8d c8 6a bd a5 8a db bc 1d da af bd a2 27 f4 3c
       -0.057320166 -0.02679951 -0.08586524 0.029804055
0000d0 68 b7 2d 3e db 76 99 bd 78 b1 b0 3d c7 6b 24 be
       0.16964495 -0.07493373 0.086275995 -0.16056739
0000e0 dd 57 55 bb 82 a5 7b 3c 47 5d d6 bd c8 20 3b 3e
       -0.0032553591 0.015359284 -0.1046701 0.18274224
0000f0 43 51 12 3e 47 89 bf bd 2c a7 d8 3c 3f 0f 80 3c
       0.14288811 -0.093523555 0.026446901 0.01563227
000100 be 0c 5a bd
       -0.05323481

weight f4 [65, 65]
000000 d0 9a 50 3e ac df 32 3d 8c 0e 0d 3e ad 05 89 3d
       0.20371556 0.04367034 0.1377508 0.06690536
000010 8f ba 6e 3c 2b 87 de 3c ea bb 83 bd 26 5c c7 bd
       0.014570846 0.027164062 -0.06432326 -0.09734373
000020 b1 26 a1 3d 28 04 84 3d d0 39 63 3d de be 80 bd
       0.07868708 0.06446105 0.055475056 -0.06286405
000030 dc 54 94 bd 24 39 1d 3d 3d 09 4e 3d 6f c8 2a 3d
       -0.07242748 0.03838457 0.05030178 0.041695055
000040 d9 51 d5 bd 38 b1 9f bd d2 82 06 bd 73 f6 11 bc
       -0.10416002 -0.07797474 -0.032839604 -0.008908856
000050 49 0e af 3d d2 cc 5e bd 5f c1 0f 3b 9f be a8 3d
       0.085476466 -0.05439455 0.0021935327 0.08239483
000060 10 f1 36 3c 07 29 3d be 04 bc 4d bd 3e 72 85 bd
       0.011165872 -0.18472682 -0.050228134 -0.065159306
000070 b9 b5 bf 3b 9e f2 0d be b3 4f 81 bd ca 1e e9 3c
       0.0058505205 -0.13862082 -0.063140295 0.028457064
000080 ae ec f5 bd 3e e9 9c 3d b4 36 5a 3c 05 c0 9e 3a
       -0.12008034 0.07661675 0.013318706 0.001211167
000090 c5 bf d2 bd 53 45 15 3d d2 97 8e bd 98 a9 90 bb
       -0.102904834 0.036443066 -0.06962551 -0.0044147484
0000a0 53 dd 71 3c 30 84 61 bc e3 61 1b 3d 55 0a bd bd
       0.01476224 -0.013764426 0.03793515 -0.09230486
0000b0 c8 e9 c9 3c f7 36 b6 3b 7c 93 77 bb f8 ae 2f bd
       0.024647608 0.0055607515 -0.0037777117 -0.042891473
0000c0 13 67 1f 3d 49 58 7d 3d 9e 07 0e be ca 43 bb bd
       0.03891666 0.061851773 -0.13870093 -0.09143789
0000d0 61 13 3c be d6 3f 93 3d d9 ba 1b be 0b 60 9a 3c
       -0.18366767 0.0718991 -0.15207995 0.018844625
0000e0 89 6d ce bc 4a bb 2d 3e 44 02 3c 3d ff 31 2f 3e
       -0.025198715 0.16965976 0.0459006 0.17108916
0000f0 39 bf f8 bd 5b 11 2d 3b 27 43 a7 3d 3c 91 3b 3c
       -0.12145848 0.002640805 0.08167105 0.011448201
000100 be 46 33 bd ca 2d 03 3e 6f 51 2b be 34 72 de bc
       -0.043768637 0.12810436 -0.16730283 -0.027154066
000110 04 2d c2 bd e6 7a ab bb 33 b7 37 3d d6 c9 bc bd
       -0.09481242 -0.0052331565 0.044852447 -0.09218185
000120 f9 51 e4 bc 5f 7e 09 be 7f d5 a8 bd e1 dc 07 bc
       -0.027871119 -0.13427113 -0.08243846 -0.008292408
000130 87 fc a9 3d 44 fd 76 3c 0c 52 03 be 34 a8 36 3d
       0.08300119 0.015075032 -0.12824267 0.044594005
000140 3d 03 1c 3e 3a 84 c3 bd 94 9f 43 3d 71 b6 2d bb
       0.1523561 -0.095467046 0.047759607 -0.0026506449
000150 f7 78 39 3c 37 5c d6 3c 40 94 8c bc 07 c1 d3 bd
       0.011320344 0.026167018 -0.017160535 -0.103395514
000160 8c e9 26 3d d5 8b 15 be af b5 6e bd 21 e2 64 3d
       0.04075007 -0.14604123 -0.058278736 0.055879716
000170 67 df ee 3a 60 ff da bd f6 46 5b 3d 22 1d 1e bd
       0.0018224538 -0.1069324 0.05353447 -0.038602002
000180 33 74 23 3d 93 fa 21 bd ea 89 b1 bd e4 27 bd 3c
       0.039905738 -0.039545607 -0.08668883 0.02309031
000190 5a dd ca bd ff 0a 89 bc 9a f1 98 bd d7 c0 fa bc
       -0.09905501 -0.016728876 -0.07467957 -0.030609531
0001a0 ae 63 15 3d 32 65 ab bd 29 ec 06 be d7 7f 77 bd
       0.036472015 -0.08368911 -0.13176025 -0.060424652
0001b0 10 3e 32 bd a2 a8 85 3c 66 78 3a 3a a5 d3 6a 3d
       -0.04351622 0.016315762 0.00071132777 0.057330746
0001c0 34 58 4e 3d bc 2a 4c 3d 7f 85 eb 3b d2 38 3a be
       0.050377086 0.049845442 0.007187545 -0.18185738
0001d0 71 96 45 3d df 07 d6 3c 66 25 08 3d b9 df 8a bd
       0.048239175 0.0261268 0.03323879 -0.06780953
0001e0 ff dc 4f bb e3 8d 05 bc 0c 90 25 3e e1 76 98 bd
       -0.0031717417 -0.008151504 0.16168231 -0.07444549
0001f0 3d 8f 62 3d 2f e6 47 bd 72 e7 b2 bd 9b db 87 bc
       0.055312384 -0.048803505 -0.08735551 -0.016584208
000200 80 41 ef ba 01 02 71 3c d3 78 48 3e c2 76 96 3b
       -0.0018253773 0.01470995 0.19577341 0.0045917938
000210 92 3f 32 3d 36 6f db 3d 0e f3 51 bd 71 ae 58 bd
       0.043517657 0.10714571 -0.051257186 -0.052900735
000220 a6 72 c9 bb 10 4f 0c 3e 29 94 04 3d fa 24 ff 3c
       -0.0061477004 0.13702035 0.03236786 0.031145561
000230 6d 7d 8a 3d 4c 56 51 3d d2 4d 50 bd 59 cd 7b 3e
       0.06762204 0.05110769 -0.050855465 0.24590053
000240 af c6 d9 3d 62 bb 0b 3e bf ff 02 be 75 e0 6c 3c
       0.10633599 0.136457 -0.12792872 0.014457812
000250 95 1c 6d bc b4 31 bf bb 66 00 39 3b 70 42 9e 3d
       -0.0144721465 -0.0058347825 0.0028228997 0.07727516
000260 c0 a5 7c 3d 52 84 f9 bc ff e5 dd 3c d7 95 40 be
       0.06168151 -0.030458603 0.02708721 -0.1880716
000270 5f 48 12 3c c3 86 19 3e e9 ca e8 ba 74 98 f4 3d
       0.008928387 0.14992814 -0.0017760667 0.119431406
000280 ee 7d 05 3d 2a fd 21 be cb c2 f1 3d f0 aa f2 3c
       0.0325908 -0.1581923 0.11804732 0.029622525
000290 ae ed 2f bd 49 3e 43 3d 8f 32 40 be d7 d1 11 3d
       -0.04295128 0.04766682 -0.18769287 0.03560051
0002a0 fb 88 70 3d c1 6d ed bc 06 c9 2c bd 12 86 a7 3d
       0.058724385 -0.028982999 -0.0421839 0.08179869
0002b0 19 8f ea bd 67 07 54 be 50 a7 ed 3d e5 00 45 ba
       -0.11453075 -0.20705949 0.11604178 -0.0007515087
0002c0 9d 81 a0 bd 2e 27 97 bc 78 30 b3 3d 58 99 fc 3b
       -0.07837222 -0.0184513 0.08749479 0.0077087097
0002d0 db 14 68 3b 8b c2 ca 3d cf ff 64 bd af 8d b4 3b
       0.0035412821 0.099003874 -0.05590802 0.005510054
0002e0 ec 2a 5a bd 14 81 ea 3c c4 71 56 3d 86 75 f1 bc
       -0.05326359 0.028626002 0.05235459 -0.029474985
0002f0 58 72 0c 3d fa 77 8b 3d 91 eb 9a be 67 85 6e 3c
       0.034288734 0.06809993 -0.30257848 0.014558173
000300 f7 11 f3 bc 4a 5a ac 3d ca 08 ad 3d ac 99 c7 3d
       -0.029671652 0.08415659 0.08448942 0.097461075
000310 02 da 10 3e 16 f2 24 bd b1 99 95 3d bc 3f 5d bd
       0.14145663 -0.040269934 0.07304705 -0.05401586
000320 38 ae 9e bd 9e 5b 85 bd b3 9c 0c bc 7a be 81 bd
       -0.07748073 -0.06511615 -0.008582282 -0.06335159
000330 09 92 13 be 81 5c 59 bd 50 9e f3 3d 17 22 4e bc
       -0.14411177 -0.053066734 0.1189543 -0.01258137
000340 81 f8 b4 3d c7 4c 73 3d db c6 34 3d 16 52 89 3d
       0.08836461 0.059399392 0.044134956 0.0670511
000350 ee a1 8e 3c ac 15 64 bd 7f 5d 52 3c 07 15 a9 bc
       0.017411198 -0.05568473 0.012839674 -0.02063991
000360 b1 f0 bc 3c 20 52 38 3c 5c 6d 99 3b 2b 5e 09 3d
       0.02306399 0.011250049 0.004682226 0.03353707
000370 77 10 72 3d 1f d2 c0 39 81 d4 2b bd 20 bf 69 bd
       0.059097733 0.00036777646 -0.041950706 -0.057067037
000380 eb 0a 54 3c 0b 7d 5f bc be e6 bb bd 1b 06 dc 3d
       0.012942056 -0.013640652 -0.0917487 0.10743352
000390 db 5e 3a bd 1f db c3 bc 40 77 fe bd cd 3f d2 bc
       -0.045500617 -0.023908196 -0.12425089 -0.025665188
0003a0 83 f8 11 3c 67 71 42 bd ef 37 f4 3c e9 58 a1 bd
       0.0089093475 -0.04747143 0.029811827 -0.078782864
0003b0 24 7b 03 bc eb 60 7f bd 91 78 02 3d a1 e9 8f 3c
       -0.0080249645 -0.062348288 0.031853262 0.017567458
0003c0 16 6b 4d bd c7 9b a7 bd 55 4d 08 bd ce c6 34 bd
       -0.050150953 -0.08184009 -0.033276875 -0.044134907
0003d0 05 2b 7b 3b 04 4a 96 3d a6 ec a0 bd 2d 18 31 3d
       0.0038325202 0.07338336 -0.07857637 0.043235946
0003e0 53 e0 18 be 21 a1 01 bd 80 e9 1d 3d 7e 6b f9 3c
       -0.14929323 -0.031647805 0.03855276 0.030446764
0003f0 33 ff df 3d 01 c1 aa 3c b9 25 0c 3e 70 f7 c1 bd
       0.10937347 0.020843985 0.13686265 -0.09471023

bias f4 [65]
000000 6e 7c a7 3c 4a ac b7 3e 40 d2 86 bd f2 88 13 3e
       0.020445075 0.35873634 -0.06583071 0.14407709
000010 5c 1b d6 bd 0a 98 c7 3c aa fc d4 bd e4 19 99 bd
       -0.10454437 0.02436449 -0.10399754 -0.07475641
000020 ef 27 ec bc bd 5c 50 be 02 7f 66 be 5f 1c 2e be
       -0.028827636 -0.20347877 -0.22509387 -0.1700301
000030 b3 a1 cf 3d 39 fe 29 3e af a9 67 3e 19 3b db bc
       0.101382636 0.16600884 0.22623323 -0.026761578
000040 74 80 28 be df c2 14 be 5f 38 16 3d 33 a4 3c 3c
       -0.16455251 -0.14527462 0.036674853 0.0115137575
000050 57 dd 3d 3e a4 61 ca bd 98 d2 e3 3d 7e 54 35 3e
       0.18541466 -0.09881905 0.11124152 0.17708012
000060 9e 9e af bd 51 a1 d9 bd a8 d5 4b 3d f4 f9 b9 3d
       -0.08575176 -0.10626472 0.049764305 0.09080878
000070 47 61 8b 3d aa 91 2d 3e e4 df 7a bd 74 6d f8 bd
       0.068056636 0.16950098 -0.061248675 -0.121302515
000080 70 c5 91 3c 5a 12 0f 3d 8d eb 3f be 01 f2 c8 3c
       0.01779434 0.03492961 -0.18742199 0.024529459
000090 03 fe c7 bd df db 59 3d 97 88 eb bd ef b2 f1 bd
       -0.09765246 0.0531882 -0.11500662 -0.11801707
0000a0 b2 3a a4 bc 87 a7 cd bb 2c fd 0d be c4 26 ab bd
       -0.02004752 -0.0062760743 -0.13866109 -0.08357003
0000b0 1a 4b 03 be bb af 38 3d d1 80 cf bc aa 10 33 bd
       -0.12821618 0.045089465 -0.02532998 -0.043717064
0000c0 0f ae 43 3e 6a f3 e1 bd e6 60 dd bd c3 17 1b bc
       0.19109367 -0.11032756 -0.108094975 -0.009466114
0000d0 ee ab 02 be 7a a1 37 be be 78 fb bd cf bd 97 bd
       -0.12760898 -0.17932692 -0.12278889 -0.0740925
0000e0 a3 b0 fa bd ab 98 a0 3c fa eb 35 be 0a 05 b4 3d
       -0.12240722 0.019604048 -0.17765799 0.087900236
0000f0 46 3c 27 3e b5 9a 0d be e9 49 06 3e ac 7d 3b bd
       0.16331586 -0.13828547 0.13114132 -0.045774147
000100 f0 7b 15 bd
       -0.03649515

weight f4 [64, 64]
000000 2a 5c 43 3d 14 ea 9b bc 9f 41 3a be c8 9f bc 3d
       0.047695316 -0.019032516 -0.18189095 0.09210163
000010 34 62 48 3e e6 5e a3 bd f1 b7 68 bd 4e 90 cc bd
       0.19568712 -0.07977085 -0.056816045 -0.099884614
000020 1c 70 2d 3d b9 5f 94 bb 7a 70 4d 3c f9 40 38 3d
       0.042343244 -0.0045280126 0.0125390235 0.044983838
000030 7c 8b 4d 3d ee 64 ca 3d 07 5d ae 39 60 e7 74 3c
       0.05018185 0.09882532 0.00033257177 0.014947742
000040 98 74 69 3e bf 66 24 3e 69 28 3d 3d b4 42 17 be
       0.22798383 0.1605482 0.046181116 -0.14771539
000050 27 75 e4 bd 3e 6d e1 3c 34 1d 86 3d a6 21 2a be
       -0.111551575 0.027517911 0.06548539 -0.16614398
000060 9f 93 1a 3d 2a 7b 91 3e a8 c2 e6 3c 10 bb c1 bc
       0.03773844 0.2841428 0.028168991 -0.023648769
000070 b0 32 62 3e 7f 4a 2f bd 0f cb ea 3d 7b 28 55 be
       0.22089648 -0.042795654 0.114645116 -0.20816223
000080 ee 9a 54 bd 0c 36 24 3d 2f 8f 4a 3d 03 25 d7 bd
       -0.051905565 0.040090606 0.049452957 -0.10505106
000090 da cc 45 bc 3b 32 b0 be b5 3e 3c 3e 4d 70 6d bd
       -0.012072766 -0.34413323 0.18383296 -0.057968426
0000a0 4e 41 9e 3d 34 48 8a bd 57 76 a8 3c 17 ac 60 3e
       0.077273 -0.06752053 0.020564241 0.21940647
0000b0 05 ee 5e 3c ee 3f 41 bd 91 28 82 bd 63 20 ec bd
       0.013606553 -0.04718011 -0.06355394 -0.11529615
0000c0 67 67 18 3d 39 fe a3 be 6e b4 06 3e 58 f5 15 bd
       0.037207987 -0.32029894 0.13154766 -0.03661093
0000d0 f0 ef 43 3e 31 6a 9c bc 86 0d 4d 3b 22 17 00 3e
       0.19134498 -0.019093605 0.0031288578 0.12508824
0000e0 6e 90 37 3d c8 78 26 be 87 04 0f 3d 28 23 57 3d
       0.044815473 -0.16257012 0.034916427 0.052523762
0000f0 f5 43 21 bd 3f a8 d5 3d 1b 21 b6 3d 9b 77 25 bd
       -0.03937145 0.10432481 0.08893033 -0.040397268
000100 bb 7e 98 3c 3d 4a 0d 3e b8 5a 48 3e 92 1e 83 bd
       0.018615117 0.13797851 0.19565856 -0.06402315
000110 f2 43 ab 3d 20 f6 b0 3d 9f 93 e5 3d 2d a4 58 bd
       0.08362569 0.086406946 0.11209797 -0.052890945
000120 fb 01 14 bd b1 6b 5f 3e 3a b1 78 bd b4 4a 64 3e
       -0.0361347 0.21818425 -0.06071589 0.22294122
000130 91 0f c4 3c d6 d2 9d 3d fc 00 13 3e 9a 56 e7 3d
       0.023933204 0.077062294 0.14355844 0.11295815
000140 d9 f4 2a 3e 43 02 15 3e fc 52 66 3c e1 fb cb bd
       0.16694964 0.14551644 0.014057871 -0.099601515
000150 66 65 d6 bc 20 0f 72 3d 86 6c 11 bd 29 18 aa bc
       -0.026171397 0.059096456 -0.035503887 -0.020763474
000160 b1 13 49 3c 7a 83 00 be 37 84 58 3d a8 9b 07 3e
       0.012272761 -0.12550154 0.052860465 0.13242972
000170 cf 76 1c 3d de bb 3c bd 4a f1 dc 3b a9 7c 1b be
       0.038199242 -0.0460776 0.006742631 -0.15184273
000180 b9 76 37 3e c2 4c c2 3d 6d 96 f4 3d 77 da 82 bd
       0.17916383 0.09487297 0.11942754 -0.06389325
000190 a8 dd 66 be fe a9 9d 3d 99 ea c0 3d 99 94 bb 3d
       -0.22545493 0.07698439 0.09419746 0.09159202
0001a0 50 2b 8d 3e f9 f2 e0 bb 56 c1 c3 3c d9 b9 4a 3c
       0.27572107 -0.006864902 0.0238959 0.012373411
0001b0 82 59 31 3e 54 be 3c 3e 74 87 c7 3c 12 70 33 be
       0.17319301 0.1843198 0.024356581 -0.1752322
0001c0 c1 8c f4 3d f7 aa 4a 3e af 40 35 3e 73 0d 47 bc
       0.11940909 0.1979178 0.17700456 -0.012149203
0001d0 15 d0 64 3e b9 28 dc 3d 50 7f c4 3d 7d f9 25 3d
       0.22345002 0.10749955 0.095945954 0.040521134
0001e0 8c a0 0a 3d cc 0f ce bd 4b 91 c4 bc 03 66 ae 3d
       0.033844516 -0.10061607 -0.023995062 0.08515551
0001f0 92 c3 cc 3d 1b 98 1c 3e e5 c9 62 3c ba ac 57 3e
       0.099982396 0.15292399 0.013842081 0.21061984
000200 3e dc 07 3e 4a 83 51 3d 93 fd 18 be aa 61 13 be
       0.1326761 0.051150598 -0.14940481 -0.14392725
000210 fd b4 85 3c 55 da 1d be 1c 3d 99 bd d3 0b ad 3d
       0.016321654 -0.15415318 -0.07482359 0.08449521
000220 64 38 ef 3d aa 08 97 3e b9 be 4f be 36 8b e7 3d
       0.116806775 0.29498798 -0.20287599 0.11305849
000230 be 61 16 3e a1 70 ca 3d bf a7 9a bd 9f a5 92 bb
       0.14685723 0.098847635 -0.07551526 -0.00447531
000240 77 88 02 be 8f 39 9d 3d ee 74 06 be bf 0b 87 bc
       -0.1274737 0.07676994 -0.13130543 -0.016485093
000250 fe a5 45 be f9 44 ee bd c8 34 75 be 6b b2 05 3c
       -0.19301602 -0.11634249 -0.23945916 0.008160214
000260 5b c2 6f bd 21 46 83 3e 8c 4c 1b bc 23 f0 e7 bc
       -0.05853496 0.25639442 -0.009478699 -0.028312748
000270 88 4d e9 3c 42 e1 90 bc 80 db 5f bd 2c 09 80 be
       0.028479353 -0.017685536 -0.05465269 -0.25006998
000280 10 85 3f bd 1c 63 a5 3d 19 dc a6 3d 35 a3 e1 3d
       -0.046757758 0.08075544 0.08147449 0.110174574
000290 91 49 dd bd 28 e1 cf bc c7 9e 1e 3d 48 87 22 be
       -0.10805047 -0.025375918 0.03872564 -0.15871918
0002a0 d0 c7 7f bd c8 a0 b4 3b f3 f1 1d 3e f1 f2 96 3e
       -0.062446415 0.0055123307 0.15424328 0.29482225
0002b0 3b 28 05 be cc bc d5 bd 7b 12 63 bd c7 ab f5 bc
       -0.13003628 -0.10436401 -0.055437546 -0.029989136
0002c0 61 f2 2b be 2a e5 e3 3d 97 19 b3 bd 4d 5d 8e bd
       -0.16791679 0.11127694 -0.08745115 -0.069513895
0002d0 d4 51 a2 3c cd 09 18 be 67 a3 5c bd b0 cc 02 bc
       0.01981441 -0.14847489 -0.05386677 -0.007983372
0002e0 32 f3 35 3e 76 76 14 be c0 be f6 3d dd 30 b9 bc
       0.17768553 -0.14498314 0.120481014 -0.022606308
0002f0 83 c1 1b be 81 fe 0a be dd f5 9d 3d 53 84 a4 bd
       -0.15210538 -0.13573648 0.0771291 -0.08033051
000300 a5 12 1b 3d ed 5e a6 bd d8 dd 0f be 88 26 b6 bd
       0.037859578 -0.081235744 -0.1404947 -0.08894068
000310 dc 3b 8e 3d ed eb 05 3e 65 21 b6 3d a8 6e 14 be
       0.06945011 0.1307828 0.08893088 -0.14495337
000320 d0 18 9e bd f3 5d 70 be 18 6a d3 bd e2 6c 70 3e
       -0.07719576 -0.23473339 -0.1032297 0.23479035
000330 e2 16 97 bd 15 f6 05 3d 7b 6b af bd 23 d4 82 3d
       -0.073774114 0.032705385 -0.08565422 0.06388118
000340 37 69 40 3d 3f 27 7c 3d e2 96 e1 3c db f7 82 be
       0.04697534 0.061560865 0.027537767 -0.25579724
000350 6d 1c a4 be 84 85 94 3d 2d cd 19 3e 71 51 b7 3c
       -0.32052937 0.072520286 0.15019675 0.022377701
000360 55 ae 7c bd 46 8b 4f bd 1d 62 2a 3c 55 18 21 3d
       -0.061689693 -0.05066993 0.010399369 0.039329845
000370 5f cd 17 3e 94 c8 82 be d9 18 0e 3e 3b 29 5a 3d
       0.14824437 -0.25543654 0.13876666 0.053261977
000380 5d 12 83 3d 14 62 07 be 38 55 fa 3d 74 2f 50 be
       0.06399987 -0.13221008 0.122232854 -0.20330602
000390 76 e7 86 3e b9 7d 64 3c 1d 16 db 3d 78 55 40 3e
       0.26348466 0.01394599 0.10697577 0.18782604
0003a0 50 71 13 3c a1 91 26 3d 7e 0e ea 3d 2f 0b 88 be
       0.008999184 0.040666226 0.114285454 -0.26571032
0003b0 94 bb 58 3d 2f 15 c8 3d ac 24 dd bd 3c a5 b9 bd
       0.052913263 0.097696654 -0.1079801 -0.09064719
0003c0 3b 1d c5 3d de 0a 64 3e f0 77 9e 3d 05 5c 2a 3e
       0.09624716 0.2226977 0.0773772 0.16636665
0003d0 38 4a 33 3e b6 a2 1a 3d a6 c6 1f be 70 c2 01 bd
       0.17508781 0.03775283 -0.15603122 -0.03167957
0003e0 9a 70 2d 3e 2c e1 d9 3d 2f cc be bc 29 e5 00 be
       0.16937485 0.10638651 -0.023290722 -0.12587418
0003f0 53 95 a1 3d 20 fa 74 bd a3 46 65 bc ac ed cb bd
       0.078898095 -0.05980885 -0.013993892 -0.09957442

bias f4 [64]
000000 13 99 1b be 7c 6b 09 be c8 be 1a be ef 7d 43 bd
       -0.15195112 -0.13419908 -0.1511184 -0.04772752
000010 21 c6 6d be f3 6a ef 3d d6 ad e5 3c 56 90 ea 3c
       -0.23220111 0.11690321 0.028036993 0.028633278
000020 b0 c7 98 be a1 2b 95 be fd 01 64 be 3b 08 4f 3d
       -0.2983985 -0.2913485 -0.22266383 0.05054496
000030 19 ea 60 be 5f d0 2f be d3 3e c1 be 31 c2 bb bd
       -0.21964301 -0.17169331 -0.37743244 -0.091678984
000040 70 78 1d be 78 eb 43 be 1a 87 0c be ec c0 ab bd
       -0.15377975 -0.19132793 -0.13723412 -0.08386406
000050 29 3e 55 3c d4 59 9a bc a6 0b 05 3d ad bd f8 be
       0.013015308 -0.018841662 0.032481812 -0.4858221
000060 08 ae a1 bd e3 1b 3c 3c 02 9f 8f bd 3a 04 fa 3d
       -0.07894522 0.011481258 -0.0701275 0.122078374
000070 a8 15 86 be d7 f3 a3 bd c7 0b 82 3d 56 e6 71 be
       -0.26188397 -0.08005493 0.063499026 -0.23623022
000080 09 28 4d be 56 be 7e be 8d 5d d9 be d5 3a d1 bd
       -0.20034803 -0.24877295 -0.42454186 -0.102162994
000090 ad 51 60 3e 14 3b 96 be b6 20 ca bd 07 b6 f2 bc
       0.21906157 -0.29341948 -0.0986952 -0.029627813
0000a0 ee cc 07 be 14 d7 29 be d8 da 20 be 4f b6 a7 bd
       -0.13261768 -0.16585952 -0.15708482 -0.081890695
0000b0 b0 b3 bc be a7 dc 8d 3c 08 37 f6 be 01 37 63 be
       -0.3685584 0.01731713 -0.4808886 -0.22188951
0000c0 e0 c0 52 3c d6 60 95 be 86 ad 3d be 36 b4 93 be
       0.012863368 -0.29175442 -0.18523225 -0.28848428
0000d0 34 c6 c3 bd 38 fe 59 bd f9 5d 20 bd 53 55 8f be
       -0.095592886 -0.053220958 -0.03915212 -0.27994785
0000e0 c6 30 8a bd d7 f1 a1 bd 32 b6 aa 3e 0e 5a 59 be
       -0.06747584 -0.079074554 0.3334213 -0.2122576
0000f0 ef 2d d4 bd e7 52 04 be 40 ea fd bd 23 7a 69 3e
       -0.10360324 -0.1292225 -0.12398195 0.22800498

weight f4 [64, 64]
000000 33 a3 b6 bb 7b 34 95 ba 56 69 11 3e 5b 60 58 be
       -0.005573654 -0.0011383438 0.14200339 -0.21130507
000010 2c b4 91 bd 52 27 ce bc 8c 7e 18 be 4e 9a 90 3d
       -0.07114443 -0.025165234 -0.14892024 0.07060681
000020 e1 49 a5 39 51 d4 fb 3c 03 3f 8a 3d e0 aa 84 3d
       0.00031526297 0.030740889 0.067503 0.06477904
000030 a2 67 82 be a1 92 af bd 7c 9d fa 3c 7f 48 8d bc
       -0.2546969 -0.08572889 0.030592673 -0.017246483
000040 89 8f c3 3c 1e 4d bd 3d 55 38 15 3d 18 4d e5 bc
       0.023872154 0.092432246 0.036430676 -0.027990863
000050 d3 7a 16 3e 86 75 84 3d 51 de b6 3d 3a 61 5b be
       0.14695291 0.06467728 0.08929122 -0.21423808
000060 8d 8e 7f bd d5 f4 2e be 2d 90 8f bc 6f 98 81 bd
       -0.062391806 -0.17085584 -0.017524803 -0.063279025
000070 12 52 07 3e ed f8 47 3e c6 7a 6f 3c f3 e2 c2 3d
       0.13214901 0.19528551 0.014616674 0.095159434
000080 50 a6 7f 3d 79 96 88 3d 02 8f e7 bd 36 0d aa 3c
       0.062414467 0.066693254 -0.113065735 0.020758253
000090 b7 9b dd bd 46 c2 f1 3d c7 0c cd 3d 90 64 5b be
       -0.10820716 0.11804633 0.10012203 -0.2142508
0000a0 42 c1 b9 bc 4c 71 3d be e5 89 05 be 0d 19 36 be
       -0.02267516 -0.1850025 -0.13040884 -0.17782994
0000b0 0e 3e 8d 3d 51 66 6d bd be 58 f9 bd 72 07 8a 3d
       0.068966016 -0.057958905 -0.12175129 0.06739701
0000c0 2e 79 84 bd c0 aa 1a be da 84 e0 3b ee 56 3b be
       -0.06468426 -0.15104198 0.0068517746 -0.1829488
0000d0 05 76 32 3e fb 41 bc bc 11 c0 0c 3e 0b 57 db bd
       0.17427833 -0.02298068 0.13745143 -0.107099615
0000e0 cf f0 f3 bc fb 48 93 bd 6e 0e 1c be d9 90 28 3c
       -0.029777912 -0.07191654 -0.1523988 0.010288441
0000f0 c4 13 86 be b5 31 12 3e 18 27 84 3d 7f 8f 19 3e
       -0.26186955 0.14276774 0.06452769 0.14996146
000100 e3 4c ab bd 03 b5 74 be 87 f8 42 be 0e 3a bd bd
       -0.08364274 -0.23897175 -0.19040118 -0.09239589
000110 db 04 6d bc 9c ed 22 3e c5 f4 1f bd ef 16 49 be
       -0.01446649 0.15910953 -0.03905179 -0.19637655
000120 f4 40 23 3d 21 f5 ec bc ab 79 d9 bd 60 75 92 be
       0.039856866 -0.02892548 -0.106189094 -0.28605175
000130 a4 fe 08 3e b6 9d bb ba a1 c3 10 be d3 5e 90 3e
       0.13378388 -0.0014313969 -0.14137127 0.28197345
000140 c9 f8 c3 bd 9d 09 42 3d 13 9a 83 be 30 b7 fd bc
       -0.095689364 0.04737245 -0.25703487 -0.03097114
000150 95 d3 7a be 42 a7 27 3e d0 90 84 bd a4 ac c1 bd
       -0.24494775 0.16372398 -0.06472933 -0.09456757
000160 f1 bf da 3d 53 85 18 be 88 4f fd bd ad 65 02 bd
       0.10681141 -0.14894609 -0.12368685 -0.031835247
000170 ef 90 05 bd a7 53 12 be 3a 34 88 ba a5 68 c1 bd
       -0.032608923 -0.14289723 -0.0010391541 -0.094437875
000180 f2 40 e8 3d 16 d2 df bd 6c 12 a4 3b cd df 6c be
       0.11340512 -0.109287426 0.005007079 -0.23132248
000190 c0 70 18 bd 3c 94 84 be 9b 78 2a bd 19 07 d3 bd
       -0.0372169 -0.25894344 -0.041618925 -0.10304088
0001a0 c5 a6 d2 bd 8e d1 b6 bd d0 44 a3 be 65 8a c2 be
       -0.10285715 -0.08926688 -0.31888437 -0.37996212
0001b0 c0 b6 d6 3c e0 a1 d1 3c 5c 98 99 be 25 8b 60 be
       0.026210189 0.025589883 -0.29999053 -0.2192808
0001c0 75 ed 1b 3d 39 eb 96 be 90 1d 94 3d 6a fc bd bd
       0.038068254 -0.29476336 0.07232201 -0.0927666
0001d0 63 17 6d 3c ce ed 8b bd 42 1e 5f be 79 fe e7 bc
       0.014470908 -0.06832467 -0.21788886 -0.028319584
0001e0 3c 22 03 3e a8 2b 72 3d 13 38 1e be b5 dc 22 bd
       0.12806028 0.059123665 -0.15451078 -0.039761264
0001f0 26 39 3c 3e 06 ba ae bd 32 34 47 be 6f 83 80 bc
       0.18381175 -0.08531575 -0.19453505 -0.015687672
000200 9b 23 f8 bd ac 5c ab 3d 35 18 2f 3e 8d c3 98 bd
       -0.12116166 0.08367285 0.17099078 -0.07459173
000210 d8 06 91 bd b6 c3 19 3d bb 10 53 3d 99 cc 23 3d
       -0.070813835 0.03754016 0.051529627 0.03999004
000220 66 89 30 3d 3c 21 87 3d 7b f7 03 be f1 a7 15 be
       0.043099783 0.06598136 -0.12887375 -0.14614846
000230 fb 05 5d 3c c5 88 43 be 95 2d d8 bc d4 86 26 bd
       0.013490195 -0.19095142 -0.026388923 -0.040655926
000240 39 78 6c 3d 55 c8 88 3d f4 58 12 be 80 50 8d bd
       0.05773184 0.06678835 -0.14291745 -0.0690012
000250 c8 13 19 be 55 c3 0b bd 92 2d da bd 80 37 1e be
       -0.14948952 -0.03412183 -0.10653223 -0.15450859
000260 ed dc 3d 3c 43 10 10 be e0 28 02 be 5a 60 f1 3d
       0.011588317 -0.14068703 -0.12710905 0.11785956
000270 f1 66 8f bd 5e bd ac bd e0 b2 f6 bc 0f 30 47 3d
       -0.070020564 -0.084345564 -0.030114591 0.048629817
000280 48 f3 c4 3c a6 2b b7 3d 8f 11 d4 bc 84 72 a9 3d
       0.024041787 0.08943872 -0.025887279 0.08273795
000290 ea 17 69 bc e8 2f f0 b7 cb 5e ab bc 08 7d 44 be
       -0.014226893 -2.8632538e-05 -0.020919224 -0.1918832
0002a0 9a 81 2c be 3d a3 00 be 26 bd 48 bd 8b ce dc 3b
       -0.16846314 -0.1256227 -0.04900851 0.006738489
0002b0 27 33 5a be fe 69 48 be 78 59 53 bd 01 60 c5 3c
       -0.21308576 -0.19571683 -0.051598996 0.02409363
0002c0 70 b7 c6 bc 26 14 b4 be 2f c8 23 be bf 36 d0 bd
       -0.024257392 -0.35171622 -0.15994333 -0.10166692
0002d0 fe d5 07 3d 94 67 7e 3d ee 5e 52 bd 09 1c 1a 3e
       0.033163063 0.0621105 -0.051360063 0.15049757
0002e0 82 49 ad bd b9 97 34 3c 3f 2a 60 3d 00 36 33 3c
       -0.08461286 0.011022502 0.05472779 0.010938168
0002f0 e1 9e a4 bd 08 44 fb bc 47 92 36 be be 2b fd bd
       -0.08038116 -0.030672088 -0.17829238 -0.12361859
000300 8c 95 0f 3e 27 35 6a 3e f5 96 89 3d fc 59 6f be
       0.14021891 0.22871839 0.06718246 -0.2337417
000310 3f 8d e5 3d ec 1c 8d bd b8 5f 6c 3d d6 15 60 bd
       0.11208581 -0.06890282 0.057708472 -0.054708324
000320 82 15 a1 3e d8 b7 79 3e 5f f9 92 3e b5 05 c8 3d
       0.31461722 0.24386537 0.2870588 0.097667135
000330 1a 2a 51 3d 05 1c d8 3d 61 33 27 3d 3e c2 ad bd
       0.05106554 0.10552219 0.040820483 -0.084843144
000340 8e 00 b4 3d 18 2a 2f 3c 7b 92 93 bd 7f 24 5b bd
       0.08789168 0.010691188 -0.07205673 -0.053501602
000350 95 39 32 3e a4 28 f0 bd 18 43 84 3c 76 3a de 3d
       0.17404778 -0.117265016 0.016145274 0.10850994
000360 b2 11 78 bd 51 bc d3 bd 27 90 36 3c e5 ef 86 3d
       -0.06056375 -0.10338653 0.011142767 0.06588725
000370 a3 97 23 3d 17 07 f5 3d 55 37 98 bd 53 21 c8 bd
       0.039939534 0.11964243 -0.07432429 -0.09771981
000380 18 80 c8 3d 26 85 0d bd 7e b5 fb 3d ba 6e 3b be
       0.09790057 -0.03455081 0.12290476 -0.18303958
000390 48 0e 6e bc de 0e 44 3e c9 8c 5b bd cf b1 a1 3e
       -0.014529772 0.19146296 -0.05360106 0.3158097
0003a0 bf f3 ac 3c 36 53 20 be fc 86 97 3d 87 19 26 bd
       0.021112321 -0.15656742 0.07398793 -0.04055169
0003b0 56 fe c7 bd 8b 06 1d be 66 0e 65 3e 90 a0 9a 3d
       -0.097653076 -0.15334527 0.22368774 0.07550156
0003c0 bb 18 7e bd 75 d8 87 3e 9e 0f 9e 3d c7 92 ff bd
       -0.062035304 0.2653233 0.077178225 -0.124791674
0003d0 41 7a 73 3d 7b df 48 3d d9 8e 0e bd 7a 46 d2 3e
       0.059442762 0.049041253 -0.0348042 0.41069394
0003e0 5f 6a 28 3d a1 f8 c4 3d 3c 3f 82 be eb dd 61 3e
       0.04111707 0.09617735 -0.2543887 0.22057311
0003f0 9e 7e 1d be ec 2d 8e 3d 9c 7f f1 bc 02 6f 78 3d
       -0.15380332 0.06942353 -0.029479794 0.06065274

bias f4 [64]
000000 b6 6a e7 bd 40 84 16 bd 5b fe c9 bd 68 2a 9b be
       -0.1129965 -0.036747217 -0.098629676 -0.3030579
000010 04 78 81 3d 22 86 ba be b2 63 b9 3d d8 29 66 bd
       0.06321719 -0.3643046 0.090522185 -0.05619225
000020 5b a7 9b 3d f7 7e 42 3e 53 51 50 3e e9 ea 6d 3d
       0.0760028 0.18993746 0.20343523 0.058085356
000030 46 cf 3e bc bb e2 2f be d2 a0 a7 bd 57 97 17 bd
       -0.0116460975 -0.17176335 -0.08184971 -0.037009563
000040 1e a9 27 be 22 fd 8b bd b4 bc 20 3d dd ca 69 3e
       -0.16373107 -0.068353906 0.03924246 0.22831292
000050 13 64 d2 3d 5b 09 a2 3d d1 6c 24 bd 36 66 31 3d
       0.10272994 0.07911941 -0.040142838 0.043310367
000060 90 53 f8 bd 92 c4 02 3e 52 31 97 be 80 2c 8b be
       -0.12125313 0.12770298 -0.29529816 -0.27182388
000070 81 8e f6 3d 93 c9 80 3d 18 98 a0 3e b8 ad 5d 3e
       0.12038899 0.06288447 0.31366038 0.216483
000080 8a b1 52 3e dc 70 ef 3d 3b 2b 13 3e 3b 3e 4b 3e
       0.20575538 0.11691448 0.1437196 0.19847958
000090 a7 3c c3 3d d9 f6 6b 3e d0 56 98 3d 34 d8 13 be
       0.09533053 0.23043384 0.07438433 -0.14437944
0000a0 a7 48 81 3e 04 2c 48 be ab 85 25 3c 0b e3 71 3e
       0.25250742 -0.1954804 0.01010267 0.23621766
0000b0 2f e8 e1 bd f6 f7 40 3e 1f ac 0a be d0 b3 9c bd
       -0.11030614 0.1884459 -0.13542221 -0.07651484
0000c0 85 b8 ff bd a8 f7 87 3e d0 c1 95 3b 69 d5 90 3d
       -0.12486366 0.26556134 0.0045702234 0.07071955
0000d0 30 4e d1 3d 08 d0 b6 3d 34 fb df 3d 9c 5b c4 3e
       0.10219991 0.089263976 0.10936585 0.38351142
0000e0 cb 0b e2 bd 8d ab 44 be 23 2c 05 be b1 16 11 bd
       -0.110374056 -0.19206066 -0.13005118 -0.03542203
0000f0 af 08 b9 3d 5a e9 0a bd e8 c8 8c 3d ca 89 f8 3d
       0.090348594 -0.033913948 0.06874257 0.12135656

weight f4 [48, 48]
000000 58 77 14 be 2b e3 2a 3e 9b d7 01 be e8 9b 27 bd
       -0.14498651 0.1668822 -0.12679903 -0.04092017
000010 32 ec 1b 3e 65 a4 92 bb ba 94 62 bd 4d 80 ba bc
       0.1522682 -0.0044751638 -0.055317618 -0.022766257
000020 6f f4 fe 3d 28 33 ec bd b5 6c 8c bd 5c a8 55 be
       0.12448966 -0.11533195 -0.06856672 -0.20865005
000030 2e 79 b9 bd 75 bb bc bd e0 c8 19 be c1 b8 ae bd
       -0.09056316 -0.09215442 -0.15018034 -0.08531333
000040 3d 38 f2 bd f1 da 42 3d 2f 7e 9c 3d 58 fb 08 3e
       -0.11827133 0.04757208 0.07641255 0.1337713
000050 ed a3 2b bc 20 42 42 be 94 96 42 3d 43 73 3f bd
       -0.010476095 -0.18970537 0.047506884 -0.04674078
000060 bd d2 5e be 61 2d dd bd 4d d5 9e 3e 88 cc ec bc
       -0.21760078 -0.10799671 0.3102211 -0.028906122
000070 55 9f 0e 3e 9c 76 43 be 61 26 2a bc 54 90 8a 3e
       0.13927968 -0.19088215 -0.010385127 0.2706324
000080 2e f2 be bd a6 bd 89 be 59 7d 0b 3e eb ca 4c be
       -0.09323536 -0.26902503 0.13622035 -0.19999282
000090 c8 39 13 bc e8 d6 89 3d 02 f4 f7 3d 9a 62 37 be
       -0.008985944 0.06730443 0.12107088 -0.17908707
0000a0 d6 ca ea bd 9e cd 09 3e 6f f3 80 3e c9 c1 25 3e
       -0.11464469 0.13457343 0.25185725 0.16187204
0000b0 f9 72 0e 3e 4a ed ec bd 9a e3 96 bc 4c 05 1a be
       0.13911046 -0.11568697 -0.018419076 -0.15041083
0000c0 f4 58 6c be ce 57 85 bd a1 ee 37 bd 2b 8c 87 bd
       -0.23080808 -0.06510888 -0.04490531 -0.06618532
0000d0 82 e1 28 be fc c9 75 3d ce 62 0b bc 74 b3 27 be
       -0.16492274 0.06000708 -0.008507444 -0.1637705
0000e0 fe 24 de bc dc e8 5e be 8a 5e 80 be c8 1c 82 3d
       -0.027117249 -0.21768516 -0.25072128 0.06353146
0000f0 d6 da 4f be df 4d f9 bd 49 02 96 be 24 ae ac bc
       -0.20298323 -0.12173056 -0.29298618 -0.02107913
000100 6e e4 dd bc 1d cb b0 3d c7 98 bf bd aa 65 cb 3d
       -0.027086463 0.08632491 -0.09355312 0.099315
000110 cb 21 10 bd 3a 07 8a 3d bf 52 98 bc 33 16 0e 3b
       -0.035188477 0.067396596 -0.018594144 0.0021680712
000120 7e 73 cf bd 67 2a 71 be 9e 17 eb bd b2 41 24 be
       -0.1012945 -0.23551331 -0.11479114 -0.16040686
000130 9a f1 90 bd b0 95 0e be 92 ee c8 3d bd c3 50 3e
       -0.07077332 -0.13924289 0.09811129 0.20387168
000140 18 cf c9 bc fe 83 5f 3e fd 6e 2b 3d 6d ac b0 3d
       -0.024634883 0.21827695 0.041853894 0.086266376
000150 c6 f3 00 bd 8d 58 49 3e 7c 09 5a 3e 15 34 5a 3d
       -0.03148248 0.19662686 0.2129268 0.053272326
000160 c2 bc bf 3d 2e 31 0c 3d 4c 50 ba bd b4 4e 13 3e
       0.093621746 0.03422659 -0.09097347 0.14385492
000170 4f 2e 25 be f5 de 3d 3e 8e d7 ac bd 8d 87 27 3e
       -0.16130947 0.18542083 -0.08439551 0.16360302
000180 29 90 4d be 4a ac 8a 3d 3c 40 2d 3e 7d 2c 7a be
       -0.20074524 0.06771143 0.16919035 -0.24431033
000190 e7 dc 08 be cd c2 9e 3e 45 fe 43 3e 77 c8 88 3c
       -0.13365518 0.31007996 0.19139965 0.016697152
0001a0 06 34 22 bc df d2 3b be d1 3b 9e 3c 30 2a 3b be
       -0.009900099 -0.1834216 0.019315632 -0.18277812
0001b0 16 2b 05 3e 4a 6f 7d be 23 67 db 3c d1 02 17 bd
       0.13004717 -0.24749485 0.026782578 -0.03686792
0001c0 e8 e5 8a bd 64 22 04 be ce 38 59 bd d9 e1 94 3c
       -0.067821324 -0.12903744 -0.05303269 0.018174099
0001d0 c3 c5 44 3d 23 e7 e5 3b c9 a7 0e be 72 dc 94 3d
       0.048040163 0.007016079 -0.13931192 0.07268609
0001e0 c6 45 ce bd 3c 35 45 3e 29 bb 5d be 53 09 f4 3d
       -0.10071902 0.19258589 -0.21653427 0.11915841
0001f0 86 65 b5 3c b6 cd d2 3d ed 85 4f be 84 91 f0 3d
       0.022143137 0.102931425 -0.20265932 0.11746505
000200 9e 73 11 3d dc 73 21 3e 0e 63 a3 be 27 67 ec 39
       0.03551065 0.15766853 -0.3191151 0.00045090282
000210 d2 95 70 3d 87 a2 a0 be 0d 7d 0c be 7a de 7c be
       0.05873663 -0.31374 -0.13719578 -0.24694243
000220 c3 b5 b6 3d 43 02 85 be 42 4b 98 b9 91 59 fd 3d
       0.08921387 -0.25978288 -0.0002904777 0.12370599
000230 18 5c fb 3c e3 14 09 be 41 84 97 bc 57 cd f2 bd
       0.030683562 -0.13386874 -0.01849568 -0.11855572
000240 4e 82 f7 3d 5d 82 14 3e 3b 06 94 3e c0 71 44 bc
       0.120854005 0.14502855 0.28911003 -0.011990011
000250 47 7c 33 3e c6 fb 07 3e 65 09 c3 bd 2c e7 11 3c
       0.17527877 0.13279638 -0.09523276 0.008905213
000260 e4 5d 72 be 99 cb 97 bd f8 4f d8 bd 8d 90 11 3e
       -0.23668629 -0.0741188 -0.10562128 0.14215298
000270 34 a3 55 bd ec 98 08 3e ab eb 31 be 9b 6e 86 be
       -0.052157596 0.13339585 -0.17375056 -0.2625626
000280 09 9a 5e 3e 0b e9 eb bd d1 8c 4f bb 7a ef 32 bd
       0.21738447 -0.11519059 -0.0031669626 -0.043685414
000290 97 b2 b9 bd 45 e0 dc 3d 75 7b ca bd d6 59 d8 bc
       -0.090672664 0.107849635 -0.09886829 -0.026410025
0002a0 85 58 bd be c6 94 d8 3d c0 2f e9 be 18 17 2d 3c
       -0.36981598 0.10575251 -0.45544243 0.010564588
0002b0 2b c8 0b be d1 d5 82 3d 6e 69 39 3e 8c d4 5c 3d
       -0.13650577 0.063884385 0.18106624 0.053913638
0002c0 94 b6 c6 3d 42 17 7e be 42 c1 db 3c 23 55 cf be
       0.09702793 -0.2481356 0.026825551 -0.40494642
0002d0 f3 7b 18 be 46 b9 0d 3d 59 06 87 be 8b 06 15 3e
       -0.14891033 0.03460052 -0.2637203 0.14553277
0002e0 02 26 84 be 80 e2 22 3e 29 07 50 be 86 d7 b9 3d
       -0.25810248 0.15906715 -0.20315231 0.09074311
0002f0 da 88 49 3c 0d 9e ba bd 3e e9 a5 bd 25 a1 5b be
       0.012300694 -0.09112177 -0.08101128 -0.2144819
000300 03 71 64 be 7c 62 1c be ee ef 63 3d a0 de 1c be
       -0.22308736 -0.15271944 0.055648737 -0.153193
000310 5b d2 b8 bc 2b f8 b6 bb 84 e9 42 3d 54 5b 93 bd
       -0.022561243 -0.005583783 0.04758598 -0.07195154
000320 ec 76 39 be 5c 70 43 be 26 a9 67 bd 8b 32 97 be
       -0.18111771 -0.1908583 -0.056557797 -0.2953075
000330 9c a4 42 3e f7 94 a1 be 0a a9 75 be d3 58 1c bb
       0.19008106 -0.31558964 -0.23990265 -0.0023856654
000340 2b 54 c8 bd 16 a3 40 3d 41 5e 1a 3b 16 e2 0b be
       -0.09781679 0.04703053 0.0023554715 -0.13660464
000350 23 70 dc bc e4 23 cf 3d d1 be eb 3d 87 3a 13 3c
       -0.02690894 0.101142675 0.11511005 0.008986122
000360 3e 79 14 3e b1 27 16 bd 32 ea f3 3c 58 50 4f be
       0.14499375 -0.036658946 0.029774759 -0.20245492
000370 ca e5 4e 3d b0 ec fb bd 49 4f 81 bd 36 cb 5a bd
       0.050512113 -0.12301004 -0.063139506 -0.053416453
000380 59 6c 88 be 47 76 a3 3d 58 46 4e 3d 79 f2 ba be
       -0.26645163 0.07981544 0.050360054 -0.36513117
000390 1b d6 9e 3d 72 c9 37 bb 73 a4 8d bd 4a 71 d6 bd
       0.07755681 -0.0028043655 -0.06916132 -0.10470827
0003a0 95 3a e5 bd e4 4d 38 be 90 43 54 bd c9 cd bc bc
       -0.11192814 -0.17998463 -0.051822245 -0.023047345
0003b0 2f 17 eb 3c 7a 0e 8a bd ad ef 96 3d c8 6f 1e 3d
       0.028697578 -0.067410424 0.07369933 0.03868082
0003c0 8d 0e d4 bd 19 9d d4 3d 43 a8 8e 3d eb cc 3b be
       -0.10354338 0.103815265 0.06965687 -0.18339889
0003d0 3e b1 29 be 93 34 8e bd 9b 14 a5 be 3e a7 6e 3e
       -0.16571519 -0.069436215 -0.32242283 0.23305985
0003e0 8d 2d 34 3c 89 46 1c be dd 16 f8 bd 65 38 a4 bd
       0.010997188 -0.15261282 -0.12113736 -0.08018569
0003f0 bc 33 c5 ba 34 b9 1c 3e 35 b6 89 bc a6 db 99 3e
       -0.0015045325 0.15305024 -0.016810516 0.3005039

bias f4 [48]
000000 69 ab 9e bd 1b 08 7a 3d 68 37 7f be 59 c0 35 3e
       -0.07747538 0.061042886 -0.2492348 0.17749156
000010 72 9c 60 bc 4c 49 be bd bb c0 02 be 32 dd 21 bd
       -0.0137091745 -0.09291324 -0.12768833 -0.03951759
000020 3e 10 b4 bd ef 8e 66 be cf 1b 81 be 85 52 f8 3d
       -0.087921605 -0.22515462 -0.2521653 0.12125114
000030 91 1a 03 be 8a 79 30 be 32 3b dc be ba 3b 03 3e
       -0.12803103 -0.17233863 -0.43013912 0.12815753
000040 26 f9 2b bc dc 35 1e be 12 0a 23 3e b4 1c 4d 3d
       -0.010496413 -0.15450233 0.1592181 0.0500762
000050 4a ca a7 bd a2 ff 69 bd 29 09 47 bc f7 a9 5b be
       -0.081928805 -0.057128556 -0.01214818 -0.21451555
000060 eb f1 09 bd 6e 5c d2 3d a9 b9 8e be 88 b5 23 3e
       -0.033677977 0.10271536 -0.27876022 0.15987217
000070 1a 33 57 be 74 87 92 be 22 88 0a be 94 07 14 3e
       -0.21015587 -0.28618968 -0.13528493 0.14456016
000080 11 66 81 3d 06 02 b2 bd db a5 46 bd 9f 9f 38 be
       0.06318296 -0.08691792 -0.048498016 -0.1802964
000090 e6 ae 38 be 6f 67 23 bd fc 64 78 3e 8d 9c 93 be
       -0.18035468 -0.039893564 0.24257272 -0.28830376
0000a0 17 47 f0 bd 31 a2 15 be 8f df 35 bc 3c de c9 bd
       -0.11732309 -0.14612652 -0.011100664 -0.09856841
0000b0 bf fb d1 bd 9d d3 fd bd 98 ea b6 be 93 a4 8b be
       -0.10253095 -0.12393878 -0.35725856 -0.27273998
