trained_models/net_1/GAN_net_1.pt (torch, 318289 bytes, 245 tensors)

weight f4 [34, 4]
00000000: e9e3 36be 8b99 e0be 491d 8a3d 2b93 833e
00000010: 7f52 03bf ab93 32bd 3d8d b13e b56d a6bf
00000020: f860 43be 57dc 09be 67ef de3d 2d3f d0bf
00000030: 65fb 01bf 669d 213f 195e 63ba 3966 01be
00000040: fa37 34bf 0998 253f d395 2abe 4885 9d3e
00000050: e509 3fbf 19c7 643f 689d fa3e e1c4 963d
00000060: b27f cebb e274 913f 1224 103f decb 46bf
00000070: 2180 14bd c966 6c3f 7f56 7fbd 9dfc 85be
00000080: b66b 253e e98a 5c3f 1daf 37bf 88b6 a9bd
00000090: 5a90 bfbe cd66 a23d b18d e93c 77eb 7abf
000000a0: 7a44 3abf 6053 403e d9c7 4fbf 5523 de3e
000000b0: 2b6c 2abd 9069 5a3f 5a40 c7bb 1641 d2be
000000c0: 872d 8fbe 62f5 01be 905a 0abe 63bc a7bf
000000d0: c87d 973d 1a04 603f 4a34 28bf bd9d 69bc
000000e0: 3def f43d 9837 8b3f a050 003e 7207 08bf
000000f0: 0f59 a2be 4d22 683d 0a35 16be 01f1 75bf
00000100: d87d 42be 8d13 9b3e c16f 9e3e cc02 a3bf
00000110: d8f7 cdbe 419b 043f cae7 9d3e fcd2 33bf
00000120: 5757 13bf b7c5 b2be 4480 41bf b7e9 21bf
00000130: 7f8f 66be 7101 683f c870 c5be aee2 4f3e
00000140: 6776 38bf 3f3a 853e 70bd 8bbe 3ab1 eabc
00000150: 3741 41be 3601 4f3f 8a77 38bd c26c 97be
00000160: 0b34 d9be a19c 1a3f b9fa 0dbe 2c6d e4bd
00000170: 81ae bebe ee0f 133f 5684 c9be aa59 eb3c
00000180: b747 c2be 6ef4 c7bd 019c 39bf d96a 22bf
00000190: e354 2ebf 38b5 0b3f 777a bd3c 6808 5e3c
000001a0: c68a eebe 3638 003e 25cb 33be b14c 1bbf
000001b0: 5f17 28bf 2ff0 023f 8249 473d c457 fabd
000001c0: 849d 44be e8d1 fc3e 0605 9bbf abe9 be3e
000001d0: e98c 2cbd 92bb 363f 1311 59bf 2123 5a3e
000001e0: 8832 04be 5c21 2d3f 5109 54bf d451 293e
000001f0: 325a a1be c372 123f 1c7d 3bbf 7741 3d3e
00000200: 8f79 95be 639b ab3e 5ed0 ddbe 4f06 9cbe
00000210: fa1b d1be c783 f03e 42af 03be fa26 72be
-0.17860378 -0.43867144 0.06743867 0.25698218 -0.51297754 -0.04359786 0.3467807 -1.300223
-0.1907996 -0.13462959 0.10885506 -1.626928 -0.5077422 0.63130796 -0.00086733844 -0.12636651
-0.70397913 0.6468511 -0.16658716 0.30765748 -0.7462447 0.893663 0.48948216 0.073617704
-0.0063018436 1.1363795 0.5630504 -0.77654827 -0.036255006 0.9234434 -0.06233835 -0.2616929
0.1615437 0.8614946 -0.71751577 -0.08286768 -0.3741482 0.07929764 0.028509947 -0.9801554
-0.72760737 0.18781805 -0.8116432 0.4338633 -0.041607063 0.85317326 -0.0060806694 -0.41065282
-0.27964422 -0.12691262 -0.1351111 -1.3104366 0.07397038 0.8750626 -0.65704787 -0.014258799
0.119596936 1.0876341 0.12530756 -0.5313636 -0.3170857 0.056673337 -0.1466867 -0.9607087
-0.18993318 0.30288354 0.30944636 -1.2735229 -0.40228152 0.517994 0.30840904 -0.7024381
-0.57555145 -0.3491647 -0.7558634 -0.63247246 -0.22515677 0.906272 -0.38562608 0.20301315
-0.7205567 0.26021 -0.27292967 -0.028648961 -0.18872534 0.8086122 -0.045035876 -0.29575163
-0.42422518 0.60395247 -0.13865174 -0.111536354 -0.3724251 0.5744618 -0.39358777 0.028729279
-0.3794534 -0.09763418 -0.7250367 -0.63444287 -0.68098277 0.5457339 0.023129685 0.013551809
-0.4659025 0.12521443 -0.17557962 -0.60663897 -0.6566066 0.5114774 0.048654087 -0.12223771
-0.19200712 0.49378896 -1.2110908 0.3728765 -0.04212657 0.7137996 -0.8479168 0.21302463
-0.12909901 0.6762903 -0.82826716 0.16535121 -0.31514126 0.5720636 -0.73237777 0.18482004
-0.29194304 0.33516988 -0.43323034 -0.30473563 -0.40841657 0.46975538 -0.12859824 -0.23647681

weight f4 [24, 4]
00000000: 91ca c9bd 1fd1 d2bf fd0d 53bf 7d88 7ebe
00000010: 5395 85be 1da0 99bf 2369 10bf 6c92 3bbf
00000020: 90d3 a5bd 4071 e03f a23c 083f f8ae 1dbd
00000030: eeb4 8cbe 2a8f 0e3d d315 3f3f 1bec a8be
00000040: 7821 8cbe 8b01 cdbc 5e1f 8c3f 07ed 32be
00000050: 82ca b13e 22f3 c03f 5f31 583e 365f 8bbe
00000060: 4451 40be 4f9d edbe 9a6f c8be 8d0e b1bf
00000070: 0efa f13e 57e5 c3bf e0b1 133f 65e2 943c
00000080: 8391 c13f 7f61 ccbf b966 a53f d1b4 a4bd
00000090: 72b0 223f 1508 dfbf 722a 013f 48e0 61bf
000000a0: ca76 72bf f3dc 0ac0 4a85 fe3f abb4 3940
000000b0: 3d59 863f 3b68 5cbe a27d f63f 7374 2b3f
000000c0: 39a0 493f b381 d9bf bbed 473e ab95 aabe
000000d0: ac5d efbf bc64 493f ae01 94bf 0bfb 63bf
000000e0: fcb7 1bbf b1a2 53be 72a9 23c0 297d 28be
000000f0: 9539 1b3f d24e 68bf c418 bb3f ed23 613e
00000100: cd44 1dc0 1ae3 0740 1cad 19bf 63b4 43bf
00000110: 0ff1 c23f 6a10 05bf 35fe 8b3f 6ea4 72bf
00000120: dec1 9d3f aef7 2d3f e7a1 79be 02b3 113f
00000130: 9d39 95bf 0514 b3be 16fc e5bf 3c52 81bf
00000140: 996d 183f 085a b7bf f745 273f cdba ac3c
00000150: e12b c83e 7970 12bf eb16 8c3f e9fb 993e
00000160: 55e4 943e 1ecf 2fbe 8b4e 88be 5ff3 13bf
00000170: 9d39 143f 4f42 763f f967 063e c21e b5be
-0.098530896 -1.6470069 -0.8244322 -0.24856754 -0.26090488 -1.2001988 -0.56410426 -0.732703
-0.08096993 1.7534561 0.5321752 -0.03849694 -0.27481788 0.0348045 0.74642676 -0.32992634
-0.27369285 -0.02502515 1.0947073 -0.17473231 0.34724814 1.5074198 0.21112584 -0.27221078
-0.18781 -0.4640908 -0.39147645 -1.3832566 0.4726109 -1.5304364 0.5769329 0.01817436
1.5122532 -1.5967253 1.2921973 -0.080423005 0.63550484 -1.7424341 0.5045539 -0.8823285
-0.9471251 -2.1697357 1.9884427 2.901652 1.0495983 -0.21524136 1.925709 0.6697456
0.78760105 -1.6992706 0.1952428 -0.33317313 -1.8700461 0.78669333 -1.1563013 -0.89054936
-0.6082761 -0.2066753 -2.5572171 -0.16453995 0.6063474 -0.9074527 1.4616933 0.21986361
-2.4573243 2.1232362 -0.6002977 -0.76447123 1.5229815 -0.5197817 1.0936953 -0.9478215
1.2324789 0.67956054 -0.24378167 0.5691377 -1.1658207 -0.3497621 -1.7967556 -1.0103221
0.5954223 -1.432435 0.6534113 0.021085167 0.39095977 -0.5720287 1.0944494 0.30075005
0.29080454 -0.17168853 -0.26622424 -0.5779323 0.5790041 0.9619493 0.131256 -0.3537503

weight f4 [4, 8]
00000000: b815 8b3d f5e8 85bd 65f8 4c3d c339 4f3d
00000010: 574b 04bf 6bc7 fd3e a56b babe c032 4e3c
00000020: 248a dabc 4e6f dd3c 22e9 87bc 5eab 59bc
00000030: 6642 8a3e 0ed2 fbbe ac09 773e d8e2 683e
00000040: d84e 533d b346 2ebd df0b 0a3d 0e69 a13c
00000050: 9e21 383e dae6 b9be ce80 9a3e 510b 84bd
00000060: 0e00 0abe cd69 df3d 4254 b8bd eb7c b2bd
00000070: 3e03 ef3e 99f2 acbe aeb3 8c3e ac57 aebc
0.06791252 -0.06538574 0.050041575 0.050592195 -0.5167746 0.49566206 -0.3641025 0.012585342
-0.026677199 0.027030613 -0.016590659 -0.013285486 0.27003783 -0.49183697 0.24124783 0.22742784
0.051588863 -0.042547893 0.033702727 0.019703414 0.17981574 -0.36308938 0.30176395 -0.06447471
-0.13476583 0.10908852 -0.09000446 -0.087152325 0.4668216 -0.33778837 0.27480835 -0.02128204

bias f4 [4]
00000000: de65 1fbf 7988 143f c1fe a33e 2e4b 403e
-0.6226481 0.5802074 0.320303 0.18778679

weight f4 [65, 1, 1]
00000000: 7486 b33f b720 94be 4c0c ac3e adf8 5d3d
00000010: 27f6 a83f eae5 20bc 496f 403f 5da2 51be
00000020: 3f6b 17bf b4a8 fe3d abf8 dcbe f3b8 9dbf
00000030: 957f 373e 369d afbf d237 94bf da05 3b3f
00000040: c12b 333f 1617 c23e 941a 5f3e 0fe5 79bf
00000050: 50b3 a3be a9e5 253f acad db3d b170 f53e
00000060: ee1e 883c 2357 6abf ee3e aabe 9e57 023e
00000070: 9eac c13d 4967 833f f9e0 943e 2383 083f
00000080: 4de4 be3f a4cc 5f3f a03b 86be 7eb7 05bf
00000090: 1c59 413f 8d5c 543e 03fe f5be ce26 24bf
000000a0: 3f5e 91be 757f 183c 200f d2be 08bc c63b
000000b0: 616b 153f e24b 133f f7ad 43bf 555c 7a3f
000000c0: de7e 803e 580a 923d 2cfd b73d 3ae6 0abf
000000d0: 119a 16bf e498 3ebf ce96 ac3e 40a2 aabf
000000e0: 7a24 903d 9ba7 f03e 3782 4f3f 5c85 973f
000000f0: c07d 7bbe fcf7 0b3e 6761 3abc abc6 d83e
00000100: e96a e73d
1.4025407 -0.2893121 0.33603132 0.054192234 1.320012 -0.009820441 0.7516981 -0.20472093
-0.5914802 0.12434521 -0.4315847 -1.2322067 0.17919762 -1.3719852 -1.1579535 0.73055804
0.6998864 0.37908238 0.21787483 -0.9761514 -0.31972742 0.6480356 0.10726485 0.4793754
0.01661631 -0.9153921 -0.33251137 0.12728736 0.09456752 1.0265895 0.2907789 0.533251
1.4913422 0.8742163 -0.26217365 -0.5223311 0.75526595 0.2073843 -0.48045358 -0.6412171
-0.28392217 0.009307732 -0.41027164 0.0060648955 0.5836697 0.57537663 -0.76437324 0.9779714
0.25096792 0.07130879 0.089838356 -0.5425755 -0.58828837 -0.7445204 0.33708805 -1.3330765
0.07038207 0.47002873 0.8105807 1.1837573 -0.24559689 0.13668817 -0.011375762 0.42339072
0.11299688

bias f4 [65]
00000000: 4103 693f b87a a5be b081 f43e 0b7a 153f
00000010: b1a2 653f 03c6 10be c903 9dbe 644d 003f
00000020: 8162 703f 6bab 41bc c15b 81bf 438d 353f
00000030: e22a 96bf 1b82 563f fb81 8abe a968 72bf
00000040: f240 8d3e 318a 19bf 3812 b7be 806c 63bf
00000050: 925d 38be bd95 bcbb 4050 053f 9310 47bf
00000060: 65fb 643e 130e fabe 585e e83c 331a 313f
00000070: c882 f43e dc97 813e 63b2 c1bf cfeb 1bbf
00000080: 2e33 d23e 1ce1 163e 7f71 1abd cc34 51bc
00000090: 4462 30bf 98ce 93bf e19f a0bf ce50 283f
000000a0: 5085 d53e 32a8 9a3e 85ed 9dbe 081b 4c3e
000000b0: ff7e 623e fb15 973e 101f 253f 4d4c 413f
000000c0: 7bc7 d4be 6ac9 2c3f e528 13be c567 21be
000000d0: dbbb 62be 65f1 0a3d 6e98 9abe 07aa 1e3f
000000e0: a483 64bf 9c99 6ebe a08d 5f3e 1518 583f
000000f0: eedd 513f a1f8 7abf 5189 223e 1b1d 06bf
00000100: c7f8 743d
0.9102059 -0.3232019 0.47755194 0.5838935 0.8970137 -0.14138035 -0.3066695 0.5011809
0.93900305 -0.011820654 -1.0106126 0.70918673 -1.1731837 0.83792275 -0.27052292 -0.9469095
0.27588612 -0.5997649 -0.35756087 -0.8883743 -0.18004444 -0.005755155 0.52075577 -0.77759665
0.22361524 -0.48838863 0.0283653 0.691806 0.47756028 0.25311172 -1.5132564 -0.6090669
0.41054672 0.1473431 -0.037705895 -0.012768935 -0.6889994 -1.1547422 -1.2548791 0.657483
0.41703272 0.30206448 -0.30845276 0.19932187 0.22118758 0.29508957 0.6450052 0.7550705
-0.41558442 0.67494833 -0.14371069 -0.15762241 -0.22141974 0.033921618 -0.3019442 0.6197819
-0.8926337 -0.23300785 0.2183137 0.84411746 0.8197926 -0.9803563 0.15872695 -0.5238816
0.059807565

pe f4 [1, 1000, 4]
00000000: 0000 0000 0000 803f 0000 0000 0000 803f
00000010: a46a 573f 4151 0a3f 57d6 233c b9fc 7f3f
00000020: b7c7 683f 3311 d5be 3ed4 a33c e5f2 7f3f
00000030: c381 103e 2670 7dbf 1fb9 f53c 83e2 7f3f
00000040: cfbd 41bf 3055 27bf dbcb 233d 94cb 7f3f
00000050: 107c 75bf 2c3c 913e f4b6 4c3d 19ae 7f3f
00000060: 8c0f 8fbe b8cd 753f d19c 753d 128a 7f3f
00000070: 4630 283f bdff 403f 323e 8f3d 815f 7f3f
00000080: 9546 7d3f f6fd 14be 50aa a33d 652e 7f3f
00000090: 3201 d33e d53f 69bf 3e12 b83d c2f6 7e3f
000000a0: f844 0bbf 64cd 56bf 7675 cc3d 98b8 7e3f
000000b0: 5cff 7fbf 7205 913b 72d3 e03d e873 7e3f
000000c0: d85c 09bf d006 583f ac2b f53d b528 7e3f
000000d0: 2220 d73e 6f4e 683f d0be 043e 00d7 7d3f
000000e0: 7298 7d3f d704 0c3e 64e4 0e3e cc7e 7d3f
000000f0: 4479 263f e87a 42bf 4f06 193e 1a20 7d3f
00000100: 1068 93be 2c29 75bf 5024 233e edba 7c3f
00000110: 251e 76bf 36e2 8cbe 233e 2d3e 494f 7c3f
00000120: b340 40bf 840a 293f 8753 373e 2edd 7b3f
00000130: 6979 193e bf1b 7d3f 3a64 413e a164 7b3f
00000140: c8b6 693f 22f0 d03e f86f 4b3e a5e5 7a3f
00000150: 102f 563f fc37 0cbf 8376 553e 3c60 7a3f
00000160: 1505 11bc 6ffd 7fbf 9677 5f3e 6ad4 793f
00000170: e6a1 58bf bf67 08bf f072 693e 3442 793f
00000180: fcd3 67bf fe2d d93e 5168 733e 9ba9 783f
00000190: 3887 07be 78bf 7d3f 7757 7d3e a50a 783f
000001a0: 0837 433f 819c 253f 10a0 833e 5665 773f
000001b0: 0ed5 743f 3893 95be 0591 883e b1b9 763f
000001c0: 2ab4 8a3e 576d 76bf 7d7e 8d3e bb07 763f
000001d0: e9e3 29bf b380 3fbf 5468 923e 794f 753f
000001e0: a4ef 7cbf 18f4 1d3e 6c4e 973e ef90 743f
000001f0: 06de cebe 8e2c 6a3f a530 9c3e 22cc 733f
00000200: 4d2a 0d3f a98f 553f de0e a13e 1801 733f
00000210: 39fa 7f3f b786 59bc f7e8 a53e d52f 723f
00000220: f771 073f e73b 59bf d2be aa3e 5f58 713f
00000230: c23a dbbe 5f58 67bf 4d90 af3e bb7a 703f
00000240: 38e5 7dbf ea08 03be 495d b43e ef96 6f3f
00000250: eabe 24bf 2df2 433f a925 b93e 01ad 6e3f
00000260: 9fbd 973e b57f 743f 4ae9 bd3e f7bc 6d3f
00000270: 4bbb 763f 6c85 883e 0ea8 c23e d7c6 6c3f
00000280: bcbf 3e3f 74bc 2abf d761 c73e a7ca 6b3f
00000290: fb6d 22be 44c2 7cbf 8616 cc3e 6ec8 6a3f
000002a0: 28a1 6abf e0ca ccbe fac5 d03e 32c0 693f
000002b0: 30ef 54bf e81b 0e3f 1670 d53e fbb1 683f
000002c0: a103 913c bbf5 7f3f bd14 da3e ce9d 673f
000002d0: d0d4 593f 817b 063f cdb3 de3e b483 663f
000002e0: 9adb 663f 6e46 ddbe 2a4d e33e b263 653f
000002f0: e813 fd3d b209 7ebf b6e0 e73e d23d 643f
00000300: 56ac 44bf 80e0 23bf 526e ec3e 1912 633f
00000310: 2229 74bf 44e7 993e e0f5 f03e 91e0 613f
00000320: ff55 86be 0408 773f 4477 f53e 40a9 603f
00000330: 2494 2b3f d1fd 3d3f 5ef2 f93e 2f6c 5f3f
00000340: a093 7c3f 0ee7 26be 1267 fe3e 6629 5e3f
00000350: b4b6 ca3e 9514 6bbf a26a 013f ede0 5c3f
00000360: cd0c 0fbf a64d 54bf 6a9e 033f cc92 5b3f
00000370: f4ef 7fbf 2c43 b53c d5ce 053f 0c3f 5a3f
00000380: 5e84 05bf a26c 5a3f d2fb 073f b6e5 583f
00000390: fd50 df3e ac5d 663f 5325 0a3f d386 573f
000003a0: e72c 7e3f b714 f43d 4c4b 0c3f 6b22 563f
000003b0: 4301 233f 8365 45bf ad6d 0e3f 87b8 543f
000003c0: 2310 9cbe 56d1 73bf 688c 103f 3249 533f
000003d0: 7f53 77bf e625 84be 71a7 123f 74d4 513f
000003e0: f23a 3dbf f76a 2c3f b8be 143f 575a 503f
000003f0: 4b5f 2b3e b863 7c3f 31d2 163f e4da 4e3f
0.0 1.0 0.0 1.0 0.84147096 0.54030234 0.009999833 0.99995
0.9092974 -0.41614684 0.019998666 0.9998 0.14112 -0.9899925 0.0299955 0.99955004
-0.7568025 -0.6536436 0.039989334 0.9992001 -0.9589243 0.2836622 0.049979165 0.99875027
-0.2794155 0.96017027 0.059964005 0.99820054 0.6569866 0.75390226 0.06994285 0.997551
0.98935825 -0.14550003 0.07991469 0.9968017 0.4121185 -0.91113025 0.089878544 0.9959527
-0.5440211 -0.8390715 0.099833414 0.9950042 -0.9999902 0.004425698 0.1097783 0.9939561
-0.53657293 0.84385395 0.119712204 0.99280864 0.42016703 0.9074468 0.12963414 0.9915619
0.9906074 0.13673721 0.13954312 0.990216 0.65028787 -0.7596879 0.14943813 0.9887711
-0.2879033 -0.9576595 0.15931821 0.98722726 -0.96139747 -0.27516335 0.16918235 0.9855848
-0.75098723 0.6603167 0.17902957 0.9838437 0.1498772 0.9887046 0.1888589 0.9820042
0.9129453 0.40808207 0.19866931 0.9800666 0.8366556 -0.54772925 0.2084599 0.9780309
-0.008851309 -0.99996084 0.21822962 0.97589743 -0.8462204 -0.53283304 0.22797751 0.9736664
-0.9055784 0.42417902 0.23770262 0.971338 -0.13235176 0.99120283 0.24740396 0.9689124
0.76255846 0.6469193 0.25708055 0.96639 0.95637596 -0.29213881 0.2667314 0.9637709
0.2709058 -0.9626059 0.27635565 0.96105546 -0.6636339 -0.74805754 0.2859522 0.9582439
-0.9880316 0.15425146 0.2955202 0.9553365 -0.40403765 0.91474235 0.30505863 0.95233357
0.5514267 0.83422333 0.31456655 0.94923544 0.99991184 -0.013276747 0.324043 0.94604236
0.5290827 -0.8485703 0.3334871 0.9427547 -0.42818266 -0.9036922 0.3428978 0.9393727
-0.99177885 -0.12796369 0.3522742 0.9358968 -0.6435381 0.76541406 0.36161545 0.93232733
0.29636857 0.95507365 0.37092048 0.9286646 0.96379536 0.26664293 0.3801884 0.92490906
0.74511313 -0.66693807 0.38941833 0.921061 -0.15862267 -0.98733926 0.39860934 0.9171208
-0.91652155 -0.3999853 0.40776044 0.9130889 -0.8317747 0.5551133 0.41687077 0.90896577
0.017701926 0.9998433 0.42593947 0.90475166 0.8509035 0.525322 0.43496552 0.90044713
0.90178835 -0.43217796 0.4439481 0.8960525 0.123573124 -0.99233544 0.45288628 0.8915683
-0.76825464 -0.64014435 0.46177918 0.8869949 -0.95375264 0.30059254 0.47062588 0.88233286
-0.26237485 0.96496606 0.47942555 0.87758255 0.6702292 0.7421542 0.48817724 0.8727445
0.9866276 -0.16299078 0.4968801 0.8678192 0.39592516 -0.9182828 0.50553334 0.8628071
-0.5587891 -0.8293098 0.51413596 0.8577087 -0.99975514 0.022126757 0.52268726 0.8525245
-0.521551 0.8532201 0.5311862 0.8472551 0.43616477 0.8998668 0.539632 0.841901
0.99287266 0.119180135 0.54802394 0.8364627 0.636738 -0.7710802 0.556361 0.83094066
-0.3048106 -0.95241296 0.5646424 0.8253356 -0.9661178 -0.25810164 0.57286745 0.819648
-0.7391807 0.67350715 0.58103514 0.8138785 0.1673557 0.9858966 0.58914477 0.8080275

weight f4 [4, 4]
00000000: 55ae fc3e 03ba 99be e8b4 05be 2bea 00bf
00000010: d2da 433f d4b4 08bf e754 0e3e ee08 263e
00000020: c878 603e 5a80 2f3f e214 26be 0e1d 99be
00000030: 6b07 c83e cddc 053f 96c1 b93e 4235 94be
0.49351755 -0.30024728 -0.13057292 -0.5035731 0.7650577 -0.5340092 0.13899575 0.16214344
0.21921074 0.68555224 -0.16218904 -0.2990498 0.3906816 0.5229004 0.36280507 -0.28946882

weight f4 [4, 4]
00000000: 0ea0 e4be 67ed ff3e c9f3 64be b2fd 94be
00000010: 354d 1abf d4a5 893e 596e f4bd 61c3 5d3f
00000020: 247f 4f3d b455 623f d561 af3e bca8 e5bd
00000030: 693b 9dbc 11e2 063f 78e6 403f c53b 8d3e
-0.44653362 0.4998581 -0.22358622 -0.29099804 -0.6027406 0.2688433 -0.1193511 0.8662625
0.05065836 0.8841202 0.34254327 -0.11213824 -0.019193368 0.526887 0.7535167 0.27584663

weight f4 [4, 4]
00000000: 5621 ef3e 85c4 d23e 0d79 c8be fc8a 93be
00000010: 96be 983e b881 e8be c1c8 b5bd 0452 b2be
00000020: 796d ac3e 2436 ae3c 86f4 01bf 80b0 67bd
00000030: 475c ce3e b411 fabe c0e2 8a3d 9b2b 753d
0.4670512 0.41165558 -0.39154854 -0.28816974 0.29832906 -0.45411468 -0.088761814 -0.34828198
0.3367727 0.02126605 -0.5076374 -0.056564808 0.40304777 -0.4884163 0.067815304 0.05985604

weight f4 [4, 4]
00000000: 446b b8be 821e 8cbe ee66 16bd 3dac b03c
00000010: 4144 3abe 10a1 49be 82b0 2abf c8ec bdbd
00000020: c9f6 ccbc f7b0 ed3e 37a8 853e a9ac de3b
00000030: 52e8 a0be eefe 203e 28bc 08bd 0fb7 35bf
-0.36019337 -0.27367026 -0.036719255 0.021566505 -0.181901 -0.19690347 -0.6667558 -0.09273678
-0.02502002 0.46424076 0.261049 0.006795485 -0.31427246 0.15722248 -0.033382565 -0.7098245

bias f4 [4]
00000000: f50d a63d 5748 793d 1048 993e c683 b3bd
0.08108131 0.060860004 0.29937792 -0.08765368

weight f4 [4, 4]
00000000: 24ec 693f c0af bfbe fd69 0ebf 1479 cbbd
00000010: bea4 c13f 82b8 73bf f0cd 16bf 161a 5a3e
00000020: c209 7cbf 7694 d83e 6f3e e0be 385d a6be
00000030: 9490 2d3f f3a1 fe3c 2db4 cd3e 4c2a 1c3f
0.91375947 -0.37438774 -0.55630475 -0.09935203 1.51284 -0.9520341 -0.58907986 0.21299013
-0.9845239 0.42300767 -0.43797633 -0.32492995 0.67798734 0.031083083 0.40176526 0.6100204

bias f4 [4]
00000000: f89c 863d d4ca dd3d 703d 383f 1137 06bd
0.06572908 0.10829702 0.71968746 -0.03276736

weight f4 [4, 4]
00000000: 7237 d13e 4e41 053f 7f08 2a3e 8027 7b3e
00000010: 5443 753f 6649 973f 5bd9 c9bf 019c a53e
00000020: 8027 583f 6272 ad3e b1f1 113f abc0 acbd
00000030: 78a3 55be 08ea 8bbf 0414 2b3f e7a2 7abf
0.40862614 0.5205277 0.16604804 0.24526787 0.9580586 1.1819274 -1.5769457 0.32345584
0.8443527 0.3387633 0.57009417 -0.08435186 -0.2086314 -1.0930796 0.66827416 -0.9790482

bias f4 [4]
00000000: 97be 053e 61dc a73e b1dd e9be daab 083f
0.13060986 0.32785323 -0.4567695 0.53387225

weight f4 [4]
00000000: 26d6 1b40 99cf b63d 0ca2 f73e 45b6 b63e
2.4349456 0.08926315 0.4836582 0.35685936

bias f4 [4]
00000000: adb4 5c3d 3401 e0be d327 3ebe ec4c 153e
0.053883243 -0.43750918 -0.18569879 0.14580125

weight f4 [4]
00000000: 84fb c23f 51ab 5d3f 3ccc 443f b7bf c33f
1.5233006 0.86589533 0.76874137 1.5292882

bias f4 [4]
00000000: 12c1 3dbe 2491 d5be 6ea6 aa3e ffa7 fabe
-0.18530682 -0.41712296 0.333301 -0.48956296

weight f4 [4, 4]
00000000: c534 b2bf 7327 4cbf d7ee 6a3f bd88 903e
00000010: 54fc 273f 1781 c6be da4a ac3e bee0 2abf
00000020: 627f a0be 0b91 aebe 27b9 cd3e b905 9b3f
00000030: 0018 753f 5752 2e3f 6455 a9bf c52d 9a3d
-1.3922354 -0.79747695 0.9177069 0.28229323 0.656194 -0.38770363 0.33650857 -0.6674918
-0.31347185 -0.34095034 0.40180323 1.2111121 0.95739746 0.6809439 -1.3229184 0.07528261

weight f4 [4, 4]
00000000: 5725 3e3f cd58 e0be 06cb abbf d491 5bbf
00000010: 4707 55bd 2214 b73d e63a a63f 8e4c cb3e
00000020: c6f5 d1bc df88 9ebf e0cd 033f 1f35 1c3f
00000030: 5100 b0bf 3221 3e3f d60a 5d3e 2e4f 123e
0.74275726 -0.4381775 -1.3421333 -0.8576939 -0.052008893 0.08939387 1.2986724 0.39706844
-0.02562989 -1.238552 0.51486015 0.61018556 -1.3750097 0.742694 0.21586165 0.14288017

weight f4 [4, 4]
00000000: 2388 e33e cca0 413c cae2 64bd 0f58 10bf
00000010: 8ea1 b03e 32a9 8cbe 87c9 90bd 995d c73e
00000020: bed0 7d3e eb13 713e 5567 cfbe 8900 c6be
00000030: 3d55 fb3c 4f73 e0bf 1478 203f 9a4e b6bd
0.44439802 0.011818122 -0.055880345 -0.56384367 0.34498256 -0.27472836 -0.07069688 0.38938597
0.2478666 0.23542754 -0.40508524 -0.38672283 0.030680293 -1.7535189 0.62683225 -0.08901711

weight f4 [4, 4]
00000000: 0e10 c9be 885f f3be 5cbc a33e 614f 47bf
00000010: b8fd f83d c74a 24bf 01cc a1be 3857 6c3f
00000020: 01b4 2dbf c5dc 193e 1e45 29bf 0e79 3bbe
00000030: dd51 163f fe2e 3cbc a6c7 1fbe cd6b 52bf
-0.3927006 -0.47533822 0.31979644 -0.778555 0.12157768 -0.641766 -0.31600955 0.92320585
-0.6785279 0.15025623 -0.6612109 -0.18307897 0.58718663 -0.011485813 -0.15603504 -0.8219574

bias f4 [4]
00000000: 87a1 abbe df74 3b3f 88d2 3e3f 0660 0fbd
-0.33521673 0.73225206 0.74539995 -0.035003684

weight f4 [4, 4]
00000000: 7c9b 773e 8ed7 68bf ba93 933e cf55 36bf
00000010: 9c48 5a3f 3572 c3bc a14c 543f 04c1 22bf
00000020: 971b a53e 7fa7 15bf 6eca fd3e 0d23 48bf
00000030: 1f85 b9be 2b91 9d3f f229 bd3e 4240 7abf
0.24180406 -0.9095391 0.28823644 -0.71224684 0.85267043 -0.02385817 0.82929426 -0.6357577
0.32247612 -0.58458704 0.49568504 -0.78178483 -0.36234376 1.2309927 0.36946064 -0.977543

bias f4 [4]
00000000: 11e0 193e f3d0 c83e b636 ef3d 0045 c13e
0.15026881 0.39221916 0.11680357 0.37747955

weight f4 [4, 4]
00000000: 2e02 893f f9c2 d93e af09 063f 2fe6 1f3d
00000010: 0bc3 5bbe 1644 b13e b4d2 1e3f 9fbf 0ebf
00000020: 8aab 263e a14e d13d a7ce 4cbe d5eb d63f
00000030: 744c 483f b07c d63e e54d 313f 937c 503f
1.070379 0.42531565 0.52358526 0.03903788 -0.21461122 0.34622258 0.6204026 -0.5576114
0.16276374 0.102200754 -0.20000707 1.679072 0.7824166 0.41892004 0.6925948 0.81440085

bias f4 [4]
00000000: d764 e5bd 6e78 15be 5dee 6a3e b0f9 01bf
-0.11200874 -0.14596722 0.22942491 -0.5077162

weight f4 [4]
00000000: a158 bf3f 2354 093f 69a1 223f a6bb ca3f
1.4948922 0.5364401 0.6352754 1.5838516

bias f4 [4]
00000000: b2ef 08bf 8c77 c23e f859 6f3b 6f43 2cbf
-0.53490746 0.37981832 0.0036522131 -0.67290395

weight f4 [4]
00000000: 3cb0 d93f f41c 0540 6130 6a3f 1afd 9a3f
1.7006907 2.0798922 0.9148007 1.210849

bias f4 [4]
00000000: 5f95 53be 1320 e03c 9da1 4dbf d42d aebe
-0.2066245 0.027359044 -0.8032473 -0.3401934

weight f4 [4, 1]
00000000: bec5 bcbd 9eaa a83e c4c1 bd3e e93f 1bbe
-0.09217404 0.3294267 0.37061894 -0.15161099

bias f4 [4]
00000000: 6857 9b3e 98df bc3f 6398 103f 3d3a e33e
0.30340123 1.4755735 0.56482524 0.4438037

pe f4 [1, 65, 4]
00000000: 0000 0000 0000 803f 0000 0000 0000 803f
00000010: a46a 573f 4151 0a3f 57d6 233c b9fc 7f3f
00000020: b7c7 683f 3311 d5be 3ed4 a33c e5f2 7f3f
00000030: c381 103e 2670 7dbf 1fb9 f53c 83e2 7f3f
00000040: cfbd 41bf 3055 27bf dbcb 233d 94cb 7f3f
00000050: 107c 75bf 2c3c 913e f4b6 4c3d 19ae 7f3f
00000060: 8c0f 8fbe b8cd 753f d19c 753d 128a 7f3f
00000070: 4630 283f bdff 403f 323e 8f3d 815f 7f3f
00000080: 9546 7d3f f6fd 14be 50aa a33d 652e 7f3f
00000090: 3201 d33e d53f 69bf 3e12 b83d c2f6 7e3f
000000a0: f844 0bbf 64cd 56bf 7675 cc3d 98b8 7e3f
000000b0: 5cff 7fbf 7205 913b 72d3 e03d e873 7e3f
000000c0: d85c 09bf d006 583f ac2b f53d b528 7e3f
000000d0: 2220 d73e 6f4e 683f d0be 043e 00d7 7d3f
000000e0: 7298 7d3f d704 0c3e 64e4 0e3e cc7e 7d3f
000000f0: 4479 263f e87a 42bf 4f06 193e 1a20 7d3f
00000100: 1068 93be 2c29 75bf 5024 233e edba 7c3f
00000110: 251e 76bf 36e2 8cbe 233e 2d3e 494f 7c3f
00000120: b340 40bf 840a 293f 8753 373e 2edd 7b3f
00000130: 6979 193e bf1b 7d3f 3a64 413e a164 7b3f
00000140: c8b6 693f 22f0 d03e f86f 4b3e a5e5 7a3f
00000150: 102f 563f fc37 0cbf 8376 553e 3c60 7a3f
00000160: 1505 11bc 6ffd 7fbf 9677 5f3e 6ad4 793f
00000170: e6a1 58bf bf67 08bf f072 693e 3442 793f
00000180: fcd3 67bf fe2d d93e 5168 733e 9ba9 783f
00000190: 3887 07be 78bf 7d3f 7757 7d3e a50a 783f
000001a0: 0837 433f 819c 253f 10a0 833e 5665 773f
000001b0: 0ed5 743f 3893 95be 0591 883e b1b9 763f
000001c0: 2ab4 8a3e 576d 76bf 7d7e 8d3e bb07 763f
000001d0: e9e3 29bf b380 3fbf 5468 923e 794f 753f
000001e0: a4ef 7cbf 18f4 1d3e 6c4e 973e ef90 743f
000001f0: 06de cebe 8e2c 6a3f a530 9c3e 22cc 733f
00000200: 4d2a 0d3f a98f 553f de0e a13e 1801 733f
00000210: 39fa 7f3f b786 59bc f7e8 a53e d52f 723f
00000220: f771 073f e73b 59bf d2be aa3e 5f58 713f
00000230: c23a dbbe 5f58 67bf 4d90 af3e bb7a 703f
00000240: 38e5 7dbf ea08 03be 495d b43e ef96 6f3f
00000250: eabe 24bf 2df2 433f a925 b93e 01ad 6e3f
00000260: 9fbd 973e b57f 743f 4ae9 bd3e f7bc 6d3f
00000270: 4bbb 763f 6c85 883e 0ea8 c23e d7c6 6c3f
00000280: bcbf 3e3f 74bc 2abf d761 c73e a7ca 6b3f
00000290: fb6d 22be 44c2 7cbf 8616 cc3e 6ec8 6a3f
000002a0: 28a1 6abf e0ca ccbe fac5 d03e 32c0 693f
000002b0: 30ef 54bf e81b 0e3f 1670 d53e fbb1 683f
000002c0: a103 913c bbf5 7f3f bd14 da3e ce9d 673f
000002d0: d0d4 593f 817b 063f cdb3 de3e b483 663f
000002e0: 9adb 663f 6e46 ddbe 2a4d e33e b263 653f
000002f0: e813 fd3d b209 7ebf b6e0 e73e d23d 643f
00000300: 56ac 44bf 80e0 23bf 526e ec3e 1912 633f
00000310: 2229 74bf 44e7 993e e0f5 f03e 91e0 613f
00000320: ff55 86be 0408 773f 4477 f53e 40a9 603f
00000330: 2494 2b3f d1fd 3d3f 5ef2 f93e 2f6c 5f3f
00000340: a093 7c3f 0ee7 26be 1267 fe3e 6629 5e3f
00000350: b4b6 ca3e 9514 6bbf a26a 013f ede0 5c3f
00000360: cd0c 0fbf a64d 54bf 6a9e 033f cc92 5b3f
00000370: f4ef 7fbf 2c43 b53c d5ce 053f 0c3f 5a3f
00000380: 5e84 05bf a26c 5a3f d2fb 073f b6e5 583f
00000390: fd50 df3e ac5d 663f 5325 0a3f d386 573f
000003a0: e72c 7e3f b714 f43d 4c4b 0c3f 6b22 563f
000003b0: 4301 233f 8365 45bf ad6d 0e3f 87b8 543f
000003c0: 2310 9cbe 56d1 73bf 688c 103f 3249 533f
000003d0: 7f53 77bf e625 84be 71a7 123f 74d4 513f
000003e0: f23a 3dbf f76a 2c3f b8be 143f 575a 503f
000003f0: 4b5f 2b3e b863 7c3f 31d2 163f e4da 4e3f
0.0 1.0 0.0 1.0 0.84147096 0.54030234 0.009999833 0.99995
0.9092974 -0.41614684 0.019998666 0.9998 0.14112 -0.9899925 0.0299955 0.99955004
-0.7568025 -0.6536436 0.039989334 0.9992001 -0.9589243 0.2836622 0.049979165 0.99875027
-0.2794155 0.96017027 0.059964005 0.99820054 0.6569866 0.75390226 0.06994285 0.997551
0.98935825 -0.14550003 0.07991469 0.9968017 0.4121185 -0.91113025 0.089878544 0.9959527
-0.5440211 -0.8390715 0.099833414 0.9950042 -0.9999902 0.004425698 0.1097783 0.9939561
-0.53657293 0.84385395 0.119712204 0.99280864 0.42016703 0.9074468 0.12963414 0.9915619
0.9906074 0.13673721 0.13954312 0.990216 0.65028787 -0.7596879 0.14943813 0.9887711
-0.2879033 -0.9576595 0.15931821 0.98722726 -0.96139747 -0.27516335 0.16918235 0.9855848
-0.75098723 0.6603167 0.17902957 0.9838437 0.1498772 0.9887046 0.1888589 0.9820042
0.9129453 0.40808207 0.19866931 0.9800666 0.8366556 -0.54772925 0.2084599 0.9780309
-0.008851309 -0.99996084 0.21822962 0.97589743 -0.8462204 -0.53283304 0.22797751 0.9736664
-0.9055784 0.42417902 0.23770262 0.971338 -0.13235176 0.99120283 0.24740396 0.9689124
0.76255846 0.6469193 0.25708055 0.96639 0.95637596 -0.29213881 0.2667314 0.9637709
0.2709058 -0.9626059 0.27635565 0.96105546 -0.6636339 -0.74805754 0.2859522 0.9582439
-0.9880316 0.15425146 0.2955202 0.9553365 -0.40403765 0.91474235 0.30505863 0.95233357
0.5514267 0.83422333 0.31456655 0.94923544 0.99991184 -0.013276747 0.324043 0.94604236
0.5290827 -0.8485703 0.3334871 0.9427547 -0.42818266 -0.9036922 0.3428978 0.9393727
-0.99177885 -0.12796369 0.3522742 0.9358968 -0.6435381 0.76541406 0.36161545 0.93232733
0.29636857 0.95507365 0.37092048 0.9286646 0.96379536 0.26664293 0.3801884 0.92490906
0.74511313 -0.66693807 0.38941833 0.921061 -0.15862267 -0.98733926 0.39860934 0.9171208
-0.91652155 -0.3999853 0.40776044 0.9130889 -0.8317747 0.5551133 0.41687077 0.90896577
0.017701926 0.9998433 0.42593947 0.90475166 0.8509035 0.525322 0.43496552 0.90044713
0.90178835 -0.43217796 0.4439481 0.8960525 0.123573124 -0.99233544 0.45288628 0.8915683
-0.76825464 -0.64014435 0.46177918 0.8869949 -0.95375264 0.30059254 0.47062588 0.88233286
-0.26237485 0.96496606 0.47942555 0.87758255 0.6702292 0.7421542 0.48817724 0.8727445
0.9866276 -0.16299078 0.4968801 0.8678192 0.39592516 -0.9182828 0.50553334 0.8628071
-0.5587891 -0.8293098 0.51413596 0.8577087 -0.99975514 0.022126757 0.52268726 0.8525245
-0.521551 0.8532201 0.5311862 0.8472551 0.43616477 0.8998668 0.539632 0.841901
0.99287266 0.119180135 0.54802394 0.8364627 0.636738 -0.7710802 0.556361 0.83094066
-0.3048106 -0.95241296 0.5646424 0.8253356 -0.9661178 -0.25810164 0.57286745 0.819648
-0.7391807 0.67350715 0.58103514 0.8138785 0.1673557 0.9858966 0.58914477 0.8080275

weight f4 [4, 4]
00000000: 3930 f03e 3f68 303f bcde 2dbf 3a6e 6abe
00000010: b7d4 52bf 275f a2be b4ca 33bf 5e5e 843f
00000020: d9ee 2a3e 239b f43e ef46 453f a105 dabe
00000030: b86e 6f3e 28e3 77be 6b84 123f 7587 63bf
0.4691179 0.68909067 -0.6791799 -0.2289361 -0.8235583 -0.3171322 -0.70231175 1.0341299
0.16692676 0.4777461 0.7706136 -0.4258242 0.2338208 -0.24207747 0.57233304 -0.88878566

weight f4 [4, 4]
00000000: 72d0 063f dfd6 a6be b6e4 513f bbd0 fa3e
00000010: f5eb 493f 21de 90bf 0202 71be 47ff 403d
00000020: 9cf2 39bc 43b8 24bf fcfe 9e3e 9f34 04bf
00000030: edb3 78be 861e 3abf dc83 4cbe de0c 96be
0.5266181 -0.3258581 0.8198961 0.48987374 0.78875667 -1.1317788 -0.23535922 0.04711845
-0.0113493465 -0.6434366 0.31053913 -0.51642793 -0.24287386 -0.72702825 -0.19972175 -0.29306692

weight f4 [4, 4]
00000000: f134 2cbf 1bc8 b1be 0373 303e 1191 0abf
00000010: 8add f73e 5b10 23bf ddab 9f3f 3fab cbbe
00000020: 9fbd c1bd 18ec 7a3f 18e8 a3be bc1f 1b3e
00000030: e569 0d3f a7a4 94bf 0465 063f 4ec8 1abf
-0.6726828 -0.3472298 0.17231373 -0.54127604 0.48411208 -0.6369683 1.2474324 -0.39779088
-0.094599955 0.980165 -0.3201301 0.15148824 0.5523971 -1.1612748 0.5249789 -0.6046189

weight f4 [4, 4]
00000000: bc4c 03bf 78ea 1c3f 9375 223f 5c97 6dbf
00000010: 0718 4a3e 09a9 653f ad28 63be 7f40 6b3e
00000020: 6558 8abe 58d3 3fbf 8647 943e b86e fdbe
00000030: dea1 a63e a8db 30bf 6bbc 6abf 3512 413f
-0.5128896 0.6129527 0.63460654 -0.9280908 0.19735728 0.8971105 -0.22183485 0.22973822
-0.27020565 -0.7493186 0.28960818 -0.49498534 0.3254537 -0.6908517 -0.91693753 0.75418407

bias f4 [4]
00000000: 8af1 403e 0b64 c93e df25 04be 5d4d f7be
0.1884214 0.3933414 -0.12905072 -0.4830121

weight f4 [4, 4]
00000000: 26c3 acbe abc2 553f 0eea debf 35bd c83e
00000010: 2d7f a6bf f366 613f 5580 b0be 057d 2cbe
00000020: bc12 953e db30 a13e a8cb 88bf 2f8e 0e3f
00000030: ce71 7f3c 144e 84bf d3e4 88be 591e 563f
-0.33742636 0.83500165 -1.7415178 0.39206854 -1.3007561 0.88047713 -0.3447291 -0.16844566
0.29115856 0.31482586 -1.0687151 0.55685705 0.015591098 -1.0336328 -0.2673708 0.83640057

bias f4 [4]
00000000: ebbf 483f 0f79 103f 7a0c 7dbd 79ce 813f
0.78417844 0.5643472 -0.061779477 1.0141135

weight f4 [4, 4]
00000000: 0533 b93e 5010 823f 1859 2fbf 02fd b1be
00000010: 4610 c43e afb8 93bf b8b1 393f f457 a83f
00000020: f96c a53f a487 813f 2fdc a8be d855 4b3f
00000030: aedd 5cbf 49db 5b3e d5a8 b93d da05 1bbf
0.36171737 1.0161228 -0.6849532 -0.34763342 0.38293666 -1.1540736 0.725368 1.3151841
1.2923881 1.0119519 -0.32980487 0.7942786 -0.86275756 0.2147037 0.09065405 -0.60555804

bias f4 [4]
00000000: 73c0 223d 64b2 68be 0b9c 833f 9bd9 09bf
0.039734315 -0.227243 1.0281996 -0.53847665

weight f4 [4]
00000000: c960 cf3f fee6 503f 11d1 cc3f 43c9 8a3f
1.6201411 0.81602466 1.6001302 1.084267

bias f4 [4]
00000000: fdad cabe 50d0 193d c7bf bb3e 8e98 46be
-0.39585868 0.037552178 0.36669752 -0.19394132

weight f4 [4]
00000000: 80be 9a3f 04b1 813f e8d6 9f3f d6b3 763f
1.2089386 1.0132146 1.2487459 0.9636816

bias f4 [4]
00000000: 39f8 e3bd 59ab ae3d 4b8b 7bbb e995 aabe
-0.11131329 0.08528776 -0.0038382586 -0.33317497

weight f4 [4]
00000000: 3aa3 b03f d6dd 9b3f 23ef 833f 9111 a63f
1.3799813 1.2177074 1.0307354 1.2974111

bias f4 [4]
00000000: c4e0 543e c888 3abf 5321 e23e d6dd 36be
0.20788866 -0.7286496 0.4416605 -0.17858061

weight f4 [32, 260]
00000000: 5f5a 62bd 5c61 eabd d29d c23e 40f6 763e
00000010: fd80 e1bd 572b 87be bc10 9a3e b902 c53e
00000020: 69bc 17bf 7423 c43e 7f5d 9dbe ab5d d33e
00000030: 5403 81be 323e 0b3f efe4 49be 6bbb 4f3e
00000040: ed60 833e 0b1f 133e 12d8 303e 3333 87be
00000050: d0a0 03bf e866 143e 0e0b 813e 83fc 353f
00000060: aaeb 1abd 5c08 7f3d 4f5c 963e 28f1 ad3e
00000070: 2780 cd3d 768d 50be 821f c63e 7322 00be
00000080: bf67 1cbf bef9 8bbc 4527 883e 9040 983e
00000090: b802 a6be b721 0e3f 8f89 ffbd 9f37 05bd
000000a0: f944 04be 6b1c 973e cc84 853e 2af8 7c3d
000000b0: fceb 81be 9e44 44bd 9279 d93e 3037 ad3e
000000c0: f6d5 1cbf 0dcb 953d 04af 0e3f 7b90 d1bc
000000d0: b55d 97be d5b3 3d3e b8d1 433e 3ebc 8e3e
000000e0: 8d31 3fbf 5f39 25bd 8245 613e 33dc 9c3e
000000f0: e095 e3be fa06 023f 263e 9f3d 2e47 64bd
00000100: aa44 ddbd d632 17be d716 6f3e e795 d23e
00000110: 1a43 c9be f974 53be e25c 0abd 1ce4 5b3e
00000120: a4c6 42bc 7d18 9cbe e685 e43e b7ac 733e
00000130: 3928 703e eb10 e2be 7cb6 a63e eda0 793e
00000140: fde1 a7be cc0d 673e a5ad 0c3c c7f9 a63e
00000150: 7939 97bd c45a 373e 85ce 97bd 050e 97bd
00000160: ebc9 eabe b703 3b3f 00ba e8bd 4fa6 4c3d
00000170: 1fda 8abe febb 063e b3fa 8b3e 9ad5 d33c
00000180: 1605 24bf a6fa 0fbe 4922 dd3e 3052 6f3f
00000190: 2798 3a3e 534b ddbe 5705 693e fb1b b8be
000001a0: 2e86 653e eab9 86be 55e4 743e c87f 65bd
000001b0: 9e36 57bf b9fa eebe 4176 083f 09ad bc3e
000001c0: 1690 1bbf 0708 cb3e 6cf4 ab3e 30f6 b8bd
000001d0: 9de2 b2be e367 8f3e b147 1e3e 8c88 923d
000001e0: 948c b6be 4138 e83e 374d a1bd a0dd 003f
000001f0: 4595 ffbe 5191 173e 0091 0a3e 476d c03e
00000200: 9c7e 0e3d 155d 0bbe f68d 213e d66e a8bd
00000210: 91c6 bd3e a3ba 1dbf 2852 053e f3be 0b3e
00000220: ff4f ccbe b18a 223e e7cc 653d 1e27 123e
00000230: afc1 55bd f9d1 c73e 5929 32bd 2df5 b33d
00000240: b84d c9bc ce73 373d a658 06be c9b4 293f
00000250: 6549 3ebd 0fb3 ad3e e954 29be bf93 81bc
00000260: 21f3 63bf 129b 253e a86a c83e 89ef a83e
00000270: 7114 64bf b7e4 993e d7f4 673e 4672 47be
00000280: 418d adbc f696 2ebe 5774 a73e b271 d4bd
00000290: 74e6 11bf 3760 d83e 5d3f 903c f7e2 cf3b
000002a0: 7d02 e0be 34a0 5e3e 16da 2dbd 1a96 e2ba
000002b0: d693 67be bf6b 213b d1cf 83be 978f 653d
000002c0: 786c 47bf 009c b83e 821d c63e efa1 863e
000002d0: 63a3 b2be 7040 9dbe 5213 1a3f 0f0c 87bd
000002e0: 2b30 9dbe 8e8e bcbc 9c00 b73d db96 adbb
000002f0: 4c88 47be 38e3 953e 49af 1fbd 217a 9d3e
00000300: a3fc c4be d9fe fd3e 2351 adbe b56a c63c
00000310: 57a8 9d3e fcf8 2bbe 8834 4bbe 7546 633d
00000320: 9dc8 603e b7eb 873e 1d56 e7bd 98bd 403f
00000330: cc24 26bf 1c69 b33d d662 ab3d bb15 0a3f
00000340: 7ad9 dfbe 8175 c03d 4049 76bd b58b 853b
00000350: af5d cfbe 8653 793e e616 b53d c856 3b3f
00000360: a0aa bdbe d631 153f 22ad 553e de77 49be
00000370: 33cd f8bd 69e0 493e efaa 72be 4726 103d
00000380: 863f bdbe 2120 c7bc b209 a33d 3e0d be3e
00000390: 7438 42bf a726 233e 0277 d93e c8f0 853d
000003a0: de88 fabd d715 b63e 7f5a 23bd 8e2a 253c
000003b0: 3143 0cbe 4d73 313d 6c50 fbbd 9c74 933e
000003c0: 1755 36bd 5f14 9e3e 209b 2a3e 8422 26be
000003d0: a180 3ebe 6ef8 ea3e 5375 56be 7ce6 1fbf
000003e0: 9aca de3d 14c3 af3e 2156 c3be cb8b bb3e
000003f0: fff6 2cbf 0433 1c3f 4126 d6bd d04a af3e
-0.055261966 -0.11444351 0.38011032 0.24117374 -0.11010931 -0.26400253 0.30090892 0.3847864
-0.59271866 0.383083 -0.30735394 0.412824 -0.25197852 0.5439178 -0.19716237 0.20286338
0.25659886 0.1436731 0.17269924 -0.2640625 -0.51417255 0.1449238 0.25203747 0.7108843
-0.037822403 0.06226383 0.293673 0.3397305 0.10034209 -0.20366463 0.38695914 -0.12513141
-0.61095804 -0.01708686 0.2659246 0.29736757 -0.3242395 0.55520195 -0.12477409 -0.032523748
-0.12916936 0.2951387 0.26077878 0.061760105 -0.25375354 -0.047917 0.42475563 0.33831167
-0.6126398 0.073141195 0.557358 -0.025581589 -0.2956368 0.18525632 0.1912297 0.27877992
-0.74684983 -0.040337916 0.21999171 0.3063675 -0.44450283 0.50791895 0.07775526 -0.055731945
-0.10804112 -0.14765486 0.23348556 0.4112999 -0.39309007 -0.2065009 -0.033779986 0.21473736
-0.01188818 -0.30487433 0.44633406 0.23796354 0.23452844 -0.44153532 0.325611 0.24377795
-0.32789603 0.22563857 0.008586322 0.3261244 -0.07384009 0.17905718 -0.07412437 -0.07375721
-0.45857176 0.73052543 -0.11363602 0.04996329 -0.27119538 0.13157651 0.27339706 0.02585869
-0.6407026 -0.14060459 0.4319022 0.93484783 0.18222104 -0.4322153 0.22755943 -0.35958847
0.22414467 -0.26313716 0.23915227 -0.056030065 -0.84067714 -0.4667566 0.5330544 0.36850765
-0.6076673 0.39654562 0.33584917 -0.090313315 -0.34938517 0.28008947 0.15457036 0.071549505
-0.35654128 0.45355418 -0.07876056 0.5033817 -0.4991857 0.14801528 0.13531876 0.37583372
0.034788713 -0.13609727 0.1577681 -0.08224265 0.37065557 -0.6161291 0.13019621 0.1364706
-0.39904782 0.15873219 0.056103613 0.14272735 -0.052186664 0.39027384 -0.043496463 0.08786998
-0.024573192 0.044788174 -0.13119754 0.6629148 -0.046456713 0.33925673 -0.16536297 -0.015817521
-0.8904286 0.16172436 0.39143872 0.3299525 -0.8909369 0.30057308 0.22651993 -0.19477186
-0.02118552 -0.17049775 0.32705948 -0.10373248 -0.5699227 0.42260906 0.017608339 0.006344195
-0.43751898 0.217408 -0.04244431 -0.0017287165 -0.22614989 0.0024630872 -0.2574449 0.05604514
-0.77899885 0.3605652 0.38694388 0.2629542 -0.3489028 -0.30713224 0.6018573 -0.06594097
-0.30700812 -0.023017194 0.08935663 -0.0052975244 -0.19485587 0.29274917 -0.038985524 0.3075724
-0.38473997 0.49608496 -0.33850965 0.024220804 0.30792496 -0.16794199 -0.19844258 0.055487115
0.21951528 0.26547024 -0.11295722 0.752893 -0.648999 0.087602824 0.08368461 0.5393941
-0.4372061 0.09397412 -0.06012845 0.0040754923 -0.40501162 0.24348268 0.08842258 0.7317929
-0.3704424 0.5827917 0.20866826 -0.19674632 -0.12148514 0.19714512 -0.23698018 0.035192754
-0.36962527 -0.024307312 0.079608336 0.37119478 -0.7586739 0.15932713 0.42473608 0.06540066
-0.122331366 0.35563537 -0.039881226 0.010080947 -0.13697506 0.04332285 -0.12271199 0.28799903
-0.04451474 0.30874917 0.16660738 -0.16224104 -0.18603756 0.45892662 -0.20943193 -0.62461066
0.10878487 0.3432852 -0.3815165 0.3663009 -0.67564386 0.61015344 -0.10456515 0.34236765

bias f4 [32]
00000000: f9bf 863c 0ba4 ab3c 1aaf ecbe 5db0 02be
00000010: 853e 8b3d eb2b b0be cad9 a53d 4791 88bc
00000020: aea6 d8be 7920 e1be 4b84 7a3e 0a38 14bf
00000030: 6a46 efbe 3eeb cf3d 985f aebc 5dcf e33d
00000040: 7a62 613e b8ed 073f 60c7 ad3d aea0 ef3d
00000050: 01a1 0cbd 0c72 b5bd 731e 0bbd b10d 953e
00000060: 0119 afbe 7299 083e 14f0 023e bfe9 91bd
00000070: 1ef7 d0be 7b33 263f 4050 1a3e 5de4 b1be
0.016448962 0.020952245 -0.46227342 -0.1276259 0.06799034 -0.34408507 0.080981806 -0.016670836
-0.42314667 -0.43970087 0.24464528 -0.5789801 -0.4673341 0.10152291 -0.021285817 0.11123536
0.22010222 0.53097105 0.084852934 0.11700569 -0.034333233 -0.08859643 -0.033964586 0.29112008
-0.34198764 0.13339785 0.12786895 -0.07124662 -0.40813535 0.649223 0.15069675 -0.3474454

weight f4 [8, 32]
00000000: 99f6 973e 02d7 c4be 78a7 d53d 3efb 8abf
00000010: b2db 713b 14cf a1be 48ae 2abf d27f 19bd
00000020: 444c b8bd a459 a5bd 15e8 0c3f f43e 1abf
00000030: 1994 4bbf a8c3 0c3e 44fe 593d b4d5 4dbf
00000040: 4c56 293e 2e0f 9a3f b214 d03e 7849 aa3f
00000050: 4885 cd3a d3df 6fbf 69a1 cabe cbbb fd3d
00000060: d70c 53be 69c8 8fbf adbd 003f dcbf dabd
00000070: 9ab6 5bbf 0664 7b3d 9a75 873d 7b93 a23e
00000080: bd10 11bc 2414 693e 8704 6bbf 62a3 5ebf
00000090: 27b9 a9bd a612 63bf 0699 f6be be28 9abd
000000a0: b507 c9be 3bd8 f9be cb1a 4f3f a278 0ebf
000000b0: ca37 29bf fcb8 b93e 74aa 40bd 6721 8abd
000000c0: fb16 ec3e 9258 d53e 3ab1 a43e ca41 20be
000000d0: b6dc 0a3d 4786 adbf e45d 143f 9f8b 8c3e
000000e0: 7129 ecbe fa8f b63e 4e40 dc3d dda1 d5be
000000f0: 8806 963c 04fe 333f ce62 fb3e de62 00bf
00000100: 64e7 88be 5f69 0d3f 52af 39be 1a79 a1bf
00000110: ccdc 4dbf 21bd 793e 1786 d93e 3980 82bf
00000120: 638d 53bf 7ccc f3be 3ca4 b33e 5ae4 6f3e
00000130: 0cab a5bd a4c1 f53e f674 d53e 766b f73d
00000140: d707 1f3f 5f40 bd3e 4997 8a3e c62a e33f
00000150: a8a1 493e 06d5 7abf c7df 7bbf f5fe c8bd
00000160: b1ae bdbf 2564 2d3d ad02 a4be f2c8 da3e
00000170: 33cc 83bf 5040 d93d fe67 823e add7 aabc
00000180: 4925 41be 044b cb3e 7098 07be dc2c 963f
00000190: 06c9 1d3d 6ce6 4a3e 0fbc 603d 9536 323f
000001a0: 01ff 00bf 90c5 053e 31d7 dbbd ab41 f5bc
000001b0: c20e 4cbe 050d 3e3f a18b 22be 2343 d43e
000001c0: c771 9dbe 03c5 d93c a16c 96bd 414a 4fbf
000001d0: 8ae5 80be 4a6c 99be 5a9a 2e3e 2484 853d
000001e0: 94b6 403f e55d 27bf fa07 06bf 467a 16be
000001f0: 21a9 08be f6e9 733d 0514 cdbe 3db7 8cbe
00000200: 8881 cfbe 40dd 28bf 8ca4 0d3f 8b0d 1dbe
00000210: 7346 c3be a4e0 b9be 434a 253e 1c99 63bf
00000220: 36e2 fd3d ebfb d33e 5c8c 8f3e 4bcf 633c
00000230: e90e 4f3f 0579 03bf 0ac0 213f 7281 313f
00000240: a81f 74be d5a1 dc3c ae5c 223e 7608 09bd
00000250: c6e6 d4bd bc9e 07bf beb8 60bf 8990 62bd
00000260: 851d 0b3f fe27 043d c2e0 01be c9b0 88bd
00000270: 03d8 90be 85da 87be 1070 0b3f 9415 da3e
00000280: 0678 823e d118 ffbe 5fd3 00bf fa07 073f
00000290: df13 0fbf 7d96 7c3e 1e05 8b3f 717f 003e
000002a0: ed79 7dbb fa58 35bf d576 a53e a208 aebe
000002b0: b797 eebe 3942 0a3f 9f47 0abf 1cff febd
000002c0: 467d 413d b9ce f33e b552 12be 9095 20bf
000002d0: 18be 1cbe 2907 1abf 40ad 3ebf 9e25 423f
000002e0: 0002 d1be f5ff 023f 5744 ddbd e840 9ebe
000002f0: 42c6 90bf bc9d 94be 3bc0 ad3b c50f 7dbe
00000300: a892 34bf 61db 28be 158d 58bf 1984 043f
00000310: be57 f33e 498f a0bd daeb 163f 7bad 1f3e
00000320: bc5a bcbe cb37 04bf 8e2a e1bb 81b3 8fbf
00000330: a34e 83be b8a9 9bbd 8790 48bf e756 873e
00000340: 4f6e a5bd db42 3c3f b706 51bf 1b05 63bd
00000350: 8f25 4fbf fadc eabb 1866 39be 38a1 2c3f
00000360: f35e 02bf ecf1 853e dd93 953e e224 883e
00000370: a435 6fbf 198f 3e3f b7cf 85bf 4c5d 3abf
00000380: 1717 3cbc b5fb 20bf e664 833f 5dc8 31bf
00000390: d4a9 d2bf 30c0 ebbe ead9 173d db9c bebe
000003a0: 72ff 003f 63c8 253f a419 98bf 459d 42be
000003b0: f3c1 703f 99bd 06be 3aa6 c73e 0717 0bbf
000003c0: ee0f 5cbf 8555 963d a651 bdba d7dd 1b3f
000003d0: 4c3a c63c 0ad6 253e 6ef7 9fbf 6e64 de3e
000003e0: cd23 a1bd 3086 e2be c4bd 22bf db1f 9c3e
000003f0: d76e 95bf ca63 81bf debb 093f a52b 95bd
0.29680327 -0.38445288 0.10432333 -1.0857923 0.003690463 -0.316033 -0.6667218 -0.037475415
-0.089989215 -0.08073738 0.5504163 -0.6025231 -0.79522854 0.13746512 0.053221002 -0.8040421
0.16536826 1.2035882 0.4064079 1.3303671 0.001567998 -0.93700904 -0.3957627 0.12389334
-0.20610367 -1.1233035 0.5028942 -0.106811255 -0.858255 0.061374687 0.066142276 0.31753144
-0.008854088 0.2276159 -0.91803783 -0.8696805 -0.08287268 -0.8870033 -0.48163623 -0.07527302
-0.39263692 -0.48797783 0.8090026 -0.5565282 -0.6610075 0.36273944 -0.047037557 -0.06744652
0.46111283 0.41669136 0.32166463 -0.15650097 0.033901893 -1.3556603 0.57955766 0.27450272
-0.46125367 0.3565672 0.10754453 -0.41725054 0.018313661 0.7030947 0.4909882 -0.5015086
-0.26739037 0.5523891 -0.18133286 -1.2615082 -0.80415034 0.24388553 0.42485115 -1.019538
-0.82637614 -0.47616947 0.35086238 0.23426953 -0.08089265 0.479993 0.41690797 0.120810434
0.6212134 0.36963174 0.27068546 1.7747428 0.19690573 -0.979813 -0.9838833 -0.09814254
-1.4818937 0.042331833 -0.3203329 0.42731434 -1.0296692 0.1060797 0.25469965 -0.020854795
-0.1886188 0.3970567 -0.13241744 1.173244 0.03852179 0.19814461 0.054866847 0.69614536
-0.50389105 0.13063645 -0.10734404 -0.02993854 -0.19927505 0.74238616 -0.15873577 0.4145747
-0.30750868 0.0265832 -0.07344938 -0.8097268 -0.25175124 -0.2996543 0.17051068 0.065193444
0.7527859 -0.65377647 -0.5235592 -0.14695081 -0.13345768 0.059549294 -0.40054336 -0.2748355
-0.40528512 -0.659626 0.55329204 -0.15337197 -0.38139686 -0.363042 0.1614161 -0.889055
0.12396662 0.41403136 0.28036773 0.013904403 0.80882126 -0.51356536 0.63183653 0.6933814
-0.23840201 0.026932636 0.15855667 -0.033455335 -0.10395579 -0.52976584 -0.87781894 -0.05531362
0.5434192 0.032264702 -0.12683395 -0.06674344 -0.28289804 -0.26533905 0.5446787 0.42594588
0.25482196 -0.4982362 -0.50322527 0.52746546 -0.55889696 0.24666782 1.0860937 0.12548615
-0.003867741 -0.7083889 0.32317224 -0.3399096 -0.46600124 0.540073 -0.54015535 -0.12451002
0.04723861 0.47618654 -0.14289363 -0.62728214 -0.1530689 -0.60167176 -0.7448311 0.7583865
-0.40821838 0.5117181 -0.108040504 -0.30908895 -1.1310503 -0.29026592 0.0053024567 -0.24713047
-0.7053628 -0.16489936 -0.84590274 0.51764065 0.4752788 -0.078398295 0.5895363 0.15593521
-0.36787975 -0.51647633 -0.006871528 -1.1226655 -0.25645933 -0.07600731 -0.7834553 0.2643349
-0.0807768 0.73539513 -0.8165087 -0.05542479 -0.80916685 -0.0071674557 -0.18105352 0.674335
-0.5092613 0.26161134 0.29214373 0.2659064 -0.93441224 0.744371 -1.0454015 -0.7279861
-0.011480114 -0.62884074 1.0265167 -0.69446355 -1.6458077 -0.46045065 0.037073053 -0.37229046
0.5038978 0.6475889 -1.1882825 -0.19005306 0.94045943 -0.13158263 0.38994008 -0.5433201
-0.85961807 0.0734053 -0.0014443889 0.60885376 0.02419772 0.1619493 -1.2497385 0.43435997
-0.078681566 -0.44243002 -0.6357081 0.30493054 -1.1674451 -1.0108578 0.5380229 -0.07283715

bias f4 [8]
00000000: 8940 e8be b63f d23e b0f8 163d cdea 503d
00000010: eb45 afbe b053 113e 2c5a a63e c45e 33bf
-0.45361736 0.41064233 0.03685826 0.051005173 -0.3423303 0.1419208 0.3249067 -0.70066476

weight f4 [4, 1]
00000000: a27e 003e 0379 21bf 33f6 53bf 308d 723f
0.12548307 -0.63075274 -0.82797545 0.94746685

bias f4 [4]
00000000: 41a3 3b3f 1b67 53be 1ff7 2f3f 6754 72bf
0.7329598 -0.206448 0.6873645 -0.9466004

pe f4 [1, 8, 4]
00000000: 0000 0000 0000 803f 0000 0000 0000 803f
00000010: a46a 573f 4151 0a3f 57d6 233c b9fc 7f3f
00000020: b7c7 683f 3311 d5be 3ed4 a33c e5f2 7f3f
00000030: c381 103e 2670 7dbf 1fb9 f53c 83e2 7f3f
00000040: cfbd 41bf 3055 27bf dbcb 233d 94cb 7f3f
00000050: 107c 75bf 2c3c 913e f4b6 4c3d 19ae 7f3f
00000060: 8c0f 8fbe b8cd 753f d19c 753d 128a 7f3f
00000070: 4630 283f bdff 403f 323e 8f3d 815f 7f3f
0.0 1.0 0.0 1.0 0.84147096 0.54030234 0.009999833 0.99995
0.9092974 -0.41614684 0.019998666 0.9998 0.14112 -0.9899925 0.0299955 0.99955004
-0.7568025 -0.6536436 0.039989334 0.9992001 -0.9589243 0.2836622 0.049979165 0.99875027
-0.2794155 0.96017027 0.059964005 0.99820054 0.6569866 0.75390226 0.06994285 0.997551

weight f4 [34, 4]
00000000: 6621 333e f264 7cbe ea0c c0be c82b 87be
00000010: e7d4 40be ce57 2abc 9603 61bf 4576 0e3f
00000020: 8499 a1be 741f c7bd 59c5 e5be e1f5 4b3f
00000030: 11ab 3cbe ffa1 1fbe 9b70 9abf e40d 0a3e
00000040: 8e11 8dbe 5b30 20be fc34 a9bf 65f5 c13c
00000050: 9ee1 55bf c659 08bf ec06 80bf ad87 c5be
00000060: 6f21 adbe fa98 523d 2e6e e4be 371e 5d3f
00000070: d304 e8be 0c87 60be e38f 75bf c1bc 6a3e
00000080: 2f81 f8be bcf6 c43b a357 b4bd 3144 643f
00000090: a222 e3be a203 d5be f029 95be 305f 0c3f
000000a0: ea15 b2be 11f8 06bf a6b0 333f dd30 8f3f
000000b0: 7ee5 c8be 48b6 40bf dfcb cb3d 5d69 fa3e
000000c0: 5946 45bf e220 ccbe 737d 49be 200c ef3e
000000d0: d109 2ebf bd32 583c 0c4a b2be 20a3 1a3f
000000e0: 77b7 42bf 884e 86bf c464 abbe 8f34 17be
000000f0: edb0 2cbf 5f1f 5cbf dfd1 b7be 1388 403d
00000100: f63c edbe 9172 07be 6e7c 06bf 4519 173f
00000110: f208 09bf f320 9cbe 65e3 3dbf 448d 943e
00000120: be92 94be b369 833d ab25 d93e 4213 ca3f
00000130: a362 85be c283 19bd 52aa 21bf b46c 343f
00000140: 227e 53be de61 8ebe 6bbc 5abf 0430 be3e
00000150: 9ac5 87be e88e 06bf 46aa a1be a97f 0a3f
00000160: fe62 efbe 0880 14bf 274b 95bf 6d49 37be
00000170: 6bb1 51be a607 74be 82cd b6be 0afa 4e3f
00000180: a59e b6be 389a 70bf 1554 71be 7d5a a33e
00000190: e296 67bd 7640 3ebf 55d8 d1bd 75b6 283f
000001a0: 069b d8be f8a0 9cbf e330 503d 85ca 033e
000001b0: 8e7a 1cbf e7e5 dcbf 22f4 61be 7ad1 07bf
000001c0: cce1 1abf 8e69 32bf 2617 f03e ed24 593f
000001d0: b886 f9be a155 d1be f703 ce3f 8da1 db3f
000001e0: 8e8b 2abe ee39 81bf 66db 833f 4c19 a83f
000001f0: 5a2a bbbd 8c0a bbbf 9674 423e 4f7f c53e
00000200: cf23 92be 6a71 b9bf eaf3 e53d fae5 f13d
00000210: 73a6 a4be 7d40 73bf edef 90bd 7580 a43e
0.17493209 -0.24647883 -0.37509853 -0.2640059 -0.18831216 -0.010396911 -0.87896097 0.55649215
-0.31562436 -0.09722796 -0.44877127 0.79672056 -0.18424632 -0.1558914 -1.2065614 0.13481861
-0.27552456 -0.15643446 -1.3219295 0.023676584 -0.8354739 -0.53261983 -1.0002112 -0.38580075
-0.3381457 0.05141542 -0.4461531 0.8637423 -0.4531618 -0.21926516 -0.9592268 0.22923566
-0.4853606 0.0060108583 -0.08805778 0.8916655 -0.4436236 -0.41604334 -0.29133558 0.54832745
-0.34782344 -0.5272227 0.7019142 1.1186787 -0.3923759 -0.7527814 0.09950995 0.4890851
-0.77060467 -0.39868838 -0.19676761 0.46688938 -0.6798373 0.013195691 -0.34822118 0.6040516
-0.76061195 -1.0492716 -0.33475316 -0.14766143 -0.6745747 -0.8598537 -0.35902306 0.04700477
-0.46335572 -0.13227297 -0.52533615 0.59022933 -0.53529274 -0.30493888 -0.741751 0.29014027
-0.29018205 0.06416645 0.4241155 1.5787127 -0.26051816 -0.03747917 -0.63150513 0.7047837
-0.20653585 -0.27809042 -0.85443753 0.37146008 -0.26517946 -0.5256181 -0.3157522 0.54101044
-0.46755213 -0.5800786 -1.166356 -0.17899103 -0.20477836 -0.23831043 -0.35703665 0.8085028
-0.3566791 -0.9398532 -0.23567231 0.31904975 -0.056540377 -0.7431711 -0.1024634 0.6590341
-0.42305773 -1.2236624 0.050827872 0.12870224 -0.61124504 -1.7257661 -0.22065786 -0.5305401
-0.6050079 -0.69692314 0.4689266 0.8482197 -0.48735595 -0.40885642 1.609496 1.7158676
-0.16654798 -1.0095804 1.030133 1.313272 -0.09138937 -1.4612594 0.18989787 0.3857369
-0.28542945 -1.4487736 0.112281635 0.11811443 -0.3215824 -0.95020276 -0.07077012 0.32129255

weight f4 [24, 4]
00000000: 9f38 d73d b1db 0c3f 09c2 d0be edca 523e
00000010: 5510 023e 2b43 a13f 6eed b63e 5370 11bd
00000020: 7d65 153f 7c6b 9d3f fed2 603e bf16 c1be
00000030: ae2c 9d3f 5910 4d3f 4402 643f 7d54 ccbd
00000040: 43fa 763f 2738 863f 7826 f13e 0d8b 43be
00000050: b890 0b3f 091d a03f 8e62 673d 69b9 01bf
00000060: eeda d83e 2511 923f ba07 2c3f a2e8 2a3e
00000070: c8ac 88bf b341 8bbf 82c0 80be b588 773e
00000080: 0e2f dfbf 85d4 ba3e 277c 1a40 48bd bd3f
00000090: e55c 83bf 5df9 98bf e1f4 4b3f bda0 293f
000000a0: 2224 7bbf eb86 8fbf 9dba 383f 8565 2e3f
000000b0: 769d a1bf b80b 91bf 2ee8 073f ca47 1a3f
000000c0: 9cfb 53bf b789 b2bf 82e9 49bd 0d77 e23e
000000d0: 5f16 3ebf 68c7 7abf 1c0c b0be ed3e 613f
000000e0: 664e 82bf e024 80bf b4a5 1dbf d133 f53e
000000f0: 358b d1bf bec3 69bf adab 99be 3519 3f3e
00000100: 0397 47bf 3b37 b2bd ec82 7bbe 4ed1 933f
00000110: 0631 0ebf d1b4 c33e 55fd 1cbf e53b de3f
00000120: fdbb f2bf 2ec1 3a3f 8d73 f2bf e974 a83e
00000130: a160 723e 6d85 873e 59e4 1fbf 174c 0340
00000140: 4eb1 d8be a7b6 59bf 4842 24bf 164d 853f
00000150: 2e5a d93e 80a2 e5be 574a 97bf c69b f93f
00000160: 77e8 c2bd 7a01 d13e 12a8 bb3e 4971 913e
00000170: 63cb a73e 3270 3a3e 16a7 d83e 084a e13e
0.105088465 0.5502272 -0.40773037 0.20585223 0.12701543 1.2598623 0.3572802 -0.03550751
0.58357984 1.2298427 0.21955487 -0.37712666 1.227926 0.8010307 0.8906596 -0.09977052
0.9647562 1.0485886 0.47099662 -0.19096012 0.545177 1.2508861 0.056490473 -0.5067354
0.4235453 1.1411482 0.6719929 0.16690305 -1.0677729 -1.0879425 -0.25146872 0.24173243
-1.7436235 0.36490265 2.4138277 1.4823389 -1.0262724 -1.19511 0.7967053 0.6626089
-0.9810201 -1.1213049 0.7215975 0.68123657 -1.2626178 -1.1331701 0.53088653 0.6026579
-0.828058 -1.3948277 -0.049294956 0.44231454 -0.74252886 -0.9796052 -0.3438424 0.8798664
-1.0180175 -1.0011253 -0.6158097 0.47891095 -1.6370608 -0.91314304 -0.3001379 0.1866196
-0.779648 -0.087019406 -0.24561661 1.154825 -0.55543554 0.3822389 -0.61324054 1.7362028
-1.896362 0.7295102 -1.8941513 0.32901695 0.23669674 0.26468983 -0.62457806 2.0515192
-0.42322773 -0.8504433 -0.6416364 1.041415 0.42451614 -0.4485054 -1.1819562 1.9500663
-0.095169954 0.4082144 0.36651665 0.28406742 0.3277236 0.18206862 0.42314976 0.44001794
