trained_models/net_1/Supervised_WAE_net_1.pt (torch, 246971 bytes, 174 tensors)

weight f4 [4, 1]
000000 9d 15 19 3f 35 77 2a be a1 26 3a bf ad cc 84 3f
       0.59798604 -0.16647036 -0.72715193 1.0374962

bias f4 [4]
000000 36 a5 02 3d 38 90 ee be 6f 10 10 3f 46 20 e6 3e
       0.03189584 -0.46594405 0.56275076 0.44946498

pe f4 [1, 65, 4]
000000 00 00 00 00 00 00 80 3f 00 00 00 00 00 00 80 3f
       0.0 1.0 0.0 1.0
000010 a4 6a 57 3f 41 51 0a 3f 57 d6 23 3c b9 fc 7f 3f
       0.84147096 0.54030234 0.009999833 0.99995
000020 b7 c7 68 3f 33 11 d5 be 3e d4 a3 3c e5 f2 7f 3f
       0.9092974 -0.41614684 0.019998666 0.9998
000030 c3 81 10 3e 26 70 7d bf 1f b9 f5 3c 83 e2 7f 3f
       0.14112 -0.9899925 0.0299955 0.99955004
000040 cf bd 41 bf 30 55 27 bf db cb 23 3d 94 cb 7f 3f
       -0.7568025 -0.6536436 0.039989334 0.9992001
000050 10 7c 75 bf 2c 3c 91 3e f4 b6 4c 3d 19 ae 7f 3f
       -0.9589243 0.2836622 0.049979165 0.99875027
000060 8c 0f 8f be b8 cd 75 3f d1 9c 75 3d 12 8a 7f 3f
       -0.2794155 0.96017027 0.059964005 0.99820054
000070 46 30 28 3f bd ff 40 3f 32 3e 8f 3d 81 5f 7f 3f
       0.6569866 0.75390226 0.06994285 0.997551
000080 95 46 7d 3f f6 fd 14 be 50 aa a3 3d 65 2e 7f 3f
       0.98935825 -0.14550003 0.07991469 0.9968017
000090 32 01 d3 3e d5 3f 69 bf 3e 12 b8 3d c2 f6 7e 3f
       0.4121185 -0.91113025 0.089878544 0.9959527
0000a0 f8 44 0b bf 64 cd 56 bf 76 75 cc 3d 98 b8 7e 3f
       -0.5440211 -0.8390715 0.099833414 0.9950042
0000b0 5c ff 7f bf 72 05 91 3b 72 d3 e0 3d e8 73 7e 3f
       -0.9999902 0.004425698 0.1097783 0.9939561
0000c0 d8 5c 09 bf d0 06 58 3f ac 2b f5 3d b5 28 7e 3f
       -0.53657293 0.84385395 0.119712204 0.99280864
0000d0 22 20 d7 3e 6f 4e 68 3f d0 be 04 3e 00 d7 7d 3f
       0.42016703 0.9074468 0.12963414 0.9915619
0000e0 72 98 7d 3f d7 04 0c 3e 64 e4 0e 3e cc 7e 7d 3f
       0.9906074 0.13673721 0.13954312 0.990216
0000f0 44 79 26 3f e8 7a 42 bf 4f 06 19 3e 1a 20 7d 3f
       0.65028787 -0.7596879 0.14943813 0.9887711
000100 10 68 93 be 2c 29 75 bf 50 24 23 3e ed ba 7c 3f
       -0.2879033 -0.9576595 0.15931821 0.98722726
000110 25 1e 76 bf 36 e2 8c be 23 3e 2d 3e 49 4f 7c 3f
       -0.96139747 -0.27516335 0.16918235 0.9855848
000120 b3 40 40 bf 84 0a 29 3f 87 53 37 3e 2e dd 7b 3f
       -0.75098723 0.6603167 0.17902957 0.9838437
000130 69 79 19 3e bf 1b 7d 3f 3a 64 41 3e a1 64 7b 3f
       0.1498772 0.9887046 0.1888589 0.9820042
000140 c8 b6 69 3f 22 f0 d0 3e f8 6f 4b 3e a5 e5 7a 3f
       0.9129453 0.40808207 0.19866931 0.9800666
000150 10 2f 56 3f fc 37 0c bf 83 76 55 3e 3c 60 7a 3f
       0.8366556 -0.54772925 0.2084599 0.9780309
000160 15 05 11 bc 6f fd 7f bf 96 77 5f 3e 6a d4 79 3f
       -0.008851309 -0.99996084 0.21822962 0.97589743
000170 e6 a1 58 bf bf 67 08 bf f0 72 69 3e 34 42 79 3f
       -0.8462204 -0.53283304 0.22797751 0.9736664
000180 fc d3 67 bf fe 2d d9 3e 51 68 73 3e 9b a9 78 3f
       -0.9055784 0.42417902 0.23770262 0.971338
000190 38 87 07 be 78 bf 7d 3f 77 57 7d 3e a5 0a 78 3f
       -0.13235176 0.99120283 0.24740396 0.9689124
0001a0 08 37 43 3f 81 9c 25 3f 10 a0 83 3e 56 65 77 3f
       0.76255846 0.6469193 0.25708055 0.96639
0001b0 0e d5 74 3f 38 93 95 be 05 91 88 3e b1 b9 76 3f
       0.95637596 -0.29213881 0.2667314 0.9637709
0001c0 2a b4 8a 3e 57 6d 76 bf 7d 7e 8d 3e bb 07 76 3f
       0.2709058 -0.9626059 0.27635565 0.96105546
0001d0 e9 e3 29 bf b3 80 3f bf 54 68 92 3e 79 4f 75 3f
       -0.6636339 -0.74805754 0.2859522 0.9582439
0001e0 a4 ef 7c bf 18 f4 1d 3e 6c 4e 97 3e ef 90 74 3f
       -0.9880316 0.15425146 0.2955202 0.9553365
0001f0 06 de ce be 8e 2c 6a 3f a5 30 9c 3e 22 cc 73 3f
       -0.40403765 0.91474235 0.30505863 0.95233357
000200 4d 2a 0d 3f a9 8f 55 3f de 0e a1 3e 18 01 73 3f
       0.5514267 0.83422333 0.31456655 0.94923544
000210 39 fa 7f 3f b7 86 59 bc f7 e8 a5 3e d5 2f 72 3f
       0.99991184 -0.013276747 0.324043 0.94604236
000220 f7 71 07 3f e7 3b 59 bf d2 be aa 3e 5f 58 71 3f
       0.5290827 -0.8485703 0.3334871 0.9427547
000230 c2 3a db be 5f 58 67 bf 4d 90 af 3e bb 7a 70 3f
       -0.42818266 -0.9036922 0.3428978 0.9393727
000240 38 e5 7d bf ea 08 03 be 49 5d b4 3e ef 96 6f 3f
       -0.99177885 -0.12796369 0.3522742 0.9358968
000250 ea be 24 bf 2d f2 43 3f a9 25 b9 3e 01 ad 6e 3f
       -0.6435381 0.76541406 0.36161545 0.93232733
000260 9f bd 97 3e b5 7f 74 3f 4a e9 bd 3e f7 bc 6d 3f
       0.29636857 0.95507365 0.37092048 0.9286646
000270 4b bb 76 3f 6c 85 88 3e 0e a8 c2 3e d7 c6 6c 3f
       0.96379536 0.26664293 0.3801884 0.92490906
000280 bc bf 3e 3f 74 bc 2a bf d7 61 c7 3e a7 ca 6b 3f
       0.74511313 -0.66693807 0.38941833 0.921061
000290 fb 6d 22 be 44 c2 7c bf 86 16 cc 3e 6e c8 6a 3f
       -0.15862267 -0.98733926 0.39860934 0.9171208
0002a0 28 a1 6a bf e0 ca cc be fa c5 d0 3e 32 c0 69 3f
       -0.91652155 -0.3999853 0.40776044 0.9130889
0002b0 30 ef 54 bf e8 1b 0e 3f 16 70 d5 3e fb b1 68 3f
       -0.8317747 0.5551133 0.41687077 0.90896577
0002c0 a1 03 91 3c bb f5 7f 3f bd 14 da 3e ce 9d 67 3f
       0.017701926 0.9998433 0.42593947 0.90475166
0002d0 d0 d4 59 3f 81 7b 06 3f cd b3 de 3e b4 83 66 3f
       0.8509035 0.525322 0.43496552 0.90044713
0002e0 9a db 66 3f 6e 46 dd be 2a 4d e3 3e b2 63 65 3f
       0.90178835 -0.43217796 0.4439481 0.8960525
0002f0 e8 13 fd 3d b2 09 7e bf b6 e0 e7 3e d2 3d 64 3f
       0.123573124 -0.99233544 0.45288628 0.8915683
000300 56 ac 44 bf 80 e0 23 bf 52 6e ec 3e 19 12 63 3f
       -0.76825464 -0.64014435 0.46177918 0.8869949
000310 22 29 74 bf 44 e7 99 3e e0 f5 f0 3e 91 e0 61 3f
       -0.95375264 0.30059254 0.47062588 0.88233286
000320 ff 55 86 be 04 08 77 3f 44 77 f5 3e 40 a9 60 3f
       -0.26237485 0.96496606 0.47942555 0.87758255
000330 24 94 2b 3f d1 fd 3d 3f 5e f2 f9 3e 2f 6c 5f 3f
       0.6702292 0.7421542 0.48817724 0.8727445
000340 a0 93 7c 3f 0e e7 26 be 12 67 fe 3e 66 29 5e 3f
       0.9866276 -0.16299078 0.4968801 0.8678192
000350 b4 b6 ca 3e 95 14 6b bf a2 6a 01 3f ed e0 5c 3f
       0.39592516 -0.9182828 0.50553334 0.8628071
000360 cd 0c 0f bf a6 4d 54 bf 6a 9e 03 3f cc 92 5b 3f
       -0.5587891 -0.8293098 0.51413596 0.8577087
000370 f4 ef 7f bf 2c 43 b5 3c d5 ce 05 3f 0c 3f 5a 3f
       -0.99975514 0.022126757 0.52268726 0.8525245
000380 5e 84 05 bf a2 6c 5a 3f d2 fb 07 3f b6 e5 58 3f
       -0.521551 0.8532201 0.5311862 0.8472551
000390 fd 50 df 3e ac 5d 66 3f 53 25 0a 3f d3 86 57 3f
       0.43616477 0.8998668 0.539632 0.841901
0003a0 e7 2c 7e 3f b7 14 f4 3d 4c 4b 0c 3f 6b 22 56 3f
       0.99287266 0.119180135 0.54802394 0.8364627
0003b0 43 01 23 3f 83 65 45 bf ad 6d 0e 3f 87 b8 54 3f
       0.636738 -0.7710802 0.556361 0.83094066
0003c0 23 10 9c be 56 d1 73 bf 68 8c 10 3f 32 49 53 3f
       -0.3048106 -0.95241296 0.5646424 0.8253356
0003d0 7f 53 77 bf e6 25 84 be 71 a7 12 3f 74 d4 51 3f
       -0.9661178 -0.25810164 0.57286745 0.819648
0003e0 f2 3a 3d bf f7 6a 2c 3f b8 be 14 3f 57 5a 50 3f
       -0.7391807 0.67350715 0.58103514 0.8138785
0003f0 4b 5f 2b 3e b8 63 7c 3f 31 d2 16 3f e4 da 4e 3f
       0.1673557 0.9858966 0.58914477 0.8080275

weight f4 [4, 4]
000000 c0 aa f7 3e ae 0c b1 be f4 1d cf be cb ac b8 3e
       0.4837246 -0.34579986 -0.4045254 0.3606933
000010 a1 13 d7 be 5a 4d 12 bf 96 11 c5 be ab cd d9 3e
       -0.42007163 -0.5714928 -0.3848998 0.42539725
000020 ca 14 8e be 69 fa f8 be 58 94 cf be 08 32 0a 3f
       -0.27750236 -0.48628548 -0.40542865 0.5398259
000030 59 dc 0d 3f f8 a9 60 3f 65 5b 9c 3e 20 d9 a3 3e
       0.5541435 0.8775935 0.30538478 0.3200159

weight f4 [4, 4]
000000 c7 32 96 be 2c 9d 5e 3e f5 3b 97 be ee a2 87 be
       -0.29335615 0.21739644 -0.2953793 -0.26491493
000010 08 28 d3 be c4 f3 27 bc a9 1f d9 3e e6 de 39 bf
       -0.4124148 -0.010250989 0.42406967 -0.7260574
000020 fc e0 8e 3d de 7f 48 bf f3 51 d7 3e 13 93 b0 3e
       0.06976506 -0.7832011 0.4205471 0.3448721
000030 e0 57 d2 be b3 73 a3 bd 04 c1 a5 3f c0 cc 2d bf
       -0.41082668 -0.07981052 1.2949529 -0.6789055

weight f4 [4, 4]
000000 10 23 cb be 4b 60 4f bd 00 08 3e 3e ae 09 d5 be
       -0.39675188 -0.05062894 0.1855774 -0.41608948
000010 f6 43 1c 3e a7 53 04 3f a0 6e f8 bd 46 ad bd 3e
       0.152603 0.51690143 -0.12130475 0.3704626
000020 42 79 3e be 11 54 17 3f d4 08 30 3e 10 bd d5 bd
       -0.18600944 0.5911265 0.17190868 -0.104364514
000030 0d 50 9a 3d 92 f4 53 bf 11 47 fb ba 09 1d cd bd
       0.075348 -0.8279506 -0.001917096 -0.10015304

weight f4 [4, 4]
000000 6e 9a 84 3e 7d 5c fa 3e 90 35 12 3e 5d c2 ef 3e
       0.2589907 0.48898688 0.14278245 0.46827975
000010 24 a5 2c be 23 b1 94 3e 3c 2a b0 3d 62 7a b7 3e
       -0.16859871 0.29041395 0.086018056 0.35835558
000020 ae 66 12 bf 78 c3 ae ba 27 39 d7 3e 7e 05 cc 3d
       -0.57187927 -0.0013333401 0.4203579 0.09961985
000030 72 3e 68 3c bd 90 2e bf 36 d4 27 3e af 18 aa 3d
       0.014175044 -0.68189603 0.16389546 0.08305489

bias f4 [4]
000000 ea 90 9c be 8c 76 c1 be 09 2a 82 3c f1 1a 31 3e
       -0.3057931 -0.37785757 0.015889185 0.17295434

weight f4 [4, 4]
000000 25 67 11 be 1b 48 0d 3e fa 69 34 be 9b 3b fa be
       -0.14199503 0.13797037 -0.17618552 -0.488736
000010 15 35 be 3e 48 93 27 3f 8a 2e 22 3e 57 00 c8 3c
       0.37149873 0.6545911 0.15838066 0.024414225
000020 66 da 19 3e 4a 93 8c be bc c9 47 3f 31 fa 57 be
       0.15024719 -0.27456123 0.780422 -0.21091534
000030 b8 91 27 3d 7f 08 ec 3d f1 09 f7 be a4 24 ed 3e
       0.040910453 0.11525058 -0.48249772 0.46317017

bias f4 [4]
000000 c7 94 e6 be 2d a3 12 bf 96 4f 0d be 5f d8 b3 3e
       -0.45035383 -0.57280236 -0.13799891 0.35126016

weight f4 [4, 4]
000000 8f ef c7 be 3f 64 09 bf a1 05 a6 be 8e 40 93 3e
       -0.39049956 -0.5366859 -0.3242617 0.2876019
000010 3d ab 33 be 74 cd 6e be 31 08 0b 3f 88 c7 ee 3e
       -0.17545791 -0.23320562 0.54309374 0.46636605
000020 f3 2a 2c be fe 84 f5 be 4b 0f 54 3e 60 7d b5 be
       -0.16813259 -0.47953027 0.20708959 -0.35447216
000030 4c 35 bc bd 83 5e b2 3d c9 84 6b 3d 8d 5f 05 be
       -0.09189853 0.08709433 0.05749968 -0.13024731

bias f4 [4]
000000 eb b1 67 3d ed f6 91 3e c6 d5 6c 3b 8b e4 64 be
       0.05656616 0.28508702 0.003613816 -0.22352807

weight f4 [4]
000000 6f 00 76 3f e0 df 3f 3f 7a 9d a2 3f 0f 8e 6a 3f
       0.9609441 0.7495098 1.2704308 0.91623014

bias f4 [4]
000000 98 cb 84 3e 18 02 36 3d 07 90 47 bd 3a 16 25 be
       0.2593658 0.04443559 -0.04872134 -0.1612176

weight f4 [4]
000000 d5 75 70 3f 70 62 5c 3f c1 75 b1 3f b0 7f 42 3f
       0.939298 0.86087704 1.3864061 0.75976086

bias f4 [4]
000000 4f 18 11 3e f7 2c a1 3d 82 c8 4d bd 74 b4 b4 be
       0.14169429 0.078699045 -0.050240047 -0.35293925

weight f4 [32, 260]
000000 2b 0a c8 bc a8 06 a3 3d 8b 9b 1c 3d 16 a4 c2 bc
       -0.024418911 0.07960254 0.038234275 -0.023759883
000010 a1 e1 b6 bd 72 56 5f 3c 1e e3 c9 3c 1b 69 06 3d
       -0.08929754 0.01363145 0.02464443 0.03281508
000020 09 97 02 3e 7b 7e 84 3d 05 c8 7e be 02 1a 18 3a
       0.12752928 0.06469437 -0.24880989 0.00058022153
000030 45 8c d7 3c 04 a6 b9 bc 06 be b5 bd 22 1f 5d 3d
       0.026312003 -0.02266217 -0.08874135 0.05398477
000040 fc 46 7c bc 6d 19 02 bc 68 76 31 3c 01 30 b5 3c
       -0.015397783 -0.007940632 0.010831453 0.022117617
000050 65 5a 89 bd 55 8a b0 3d 14 89 63 be 0a 72 12 3e
       -0.067066945 0.08620135 -0.2222026 0.14301315
000060 73 a6 58 bd 42 08 14 3d c0 ff 88 be 11 55 8c 3d
       -0.052893113 0.036140688 -0.26757622 0.06852163
000070 29 92 b4 3d 16 d9 f6 bc 4d e0 ed bd 6d b0 9c bc
       0.0881694 -0.030132812 -0.116150476 -0.019127095
000080 99 90 95 3d a0 d7 0c bc 9f 6d f0 bd a8 50 b6 3c
       0.073029704 -0.008596331 -0.117396586 0.022255257
000090 b3 5e f6 3d 8a 88 5a bc c6 58 ad bd f1 66 b0 bc
       0.12029781 -0.0133382175 -0.08464198 -0.021533461
0000a0 ad 1d 15 3c ab 2e cb bc 10 f9 1d 3d be 91 2a bd
       0.009101314 -0.024802526 0.038567603 -0.041642897
0000b0 09 9c c2 3c 0e 87 9b 3c 81 76 29 be 67 c7 12 3e
       0.023756044 0.018985298 -0.16549112 0.14333878
0000c0 01 b5 53 bc dd 95 a2 3d b1 f6 3e 3e 14 a3 5c bc
       -0.012921573 0.079387404 0.18648793 -0.013466615
0000d0 60 e2 38 be be 1d a5 3c 53 3c 92 3d 7e be 71 3d
       -0.18055105 0.020155784 0.07140412 0.059019558
0000e0 9d a5 34 be c4 a0 8d bd a2 93 7c bb 57 cb 33 3d
       -0.17641301 -0.06915429 -0.0038540144 0.04389509
0000f0 e2 a4 00 be 55 9e 91 bd 0c f3 12 3f 05 f5 97 bc
       -0.12562898 -0.071102776 0.5740211 -0.018549452
000100 c0 f8 54 3d 5d 01 31 bd 01 ab 5c be d9 db 16 3d
       0.05199504 -0.04321419 -0.21549608 0.036830757
000110 ae e6 25 bd 2b 1d 0c 3d d5 ba 78 3d 16 3e 1e 3d
       -0.040503196 0.034207504 0.060725052 0.03863343
000120 53 ef 19 bd 72 50 33 3d b4 12 e1 3e 68 87 3f bd
       -0.037581753 0.04377789 0.43959582 -0.046759993
000130 9a 4e 7b bc ac ef 73 3d 92 6f 48 3e 39 3d ec bd
       -0.015338564 0.05955474 0.1957381 -0.11535115
000140 99 d3 ab bd 43 47 1e be 7f e8 a6 3c 48 da 72 3c
       -0.083899684 -0.15456872 0.020374535 0.01482255
000150 be 46 26 3e e3 80 30 bd f6 ed b9 be 15 b6 ec 3c
       0.16237924 -0.043091666 -0.36314362 0.028895417
000160 3b e9 2d be 6b 42 35 3d 28 6c 68 3e 70 34 86 3a
       -0.16983502 0.044252794 0.22697508 0.0010239016
000170 b4 b8 ae bd cd 37 11 bd 7a 13 ca 3d f5 63 a5 3c
       -0.08531323 -0.035453606 0.09866996 0.020189265
000180 9c 67 4f 3c 80 76 8e 3c 70 17 59 bd fa bf 28 3e
       0.01265898 0.01739049 -0.053000867 0.16479483
000190 32 9e a2 bd a2 95 e4 3d f4 9d 96 3d 3c 84 f9 3c
       -0.079403296 0.11161353 0.07354346 0.030458562
0001a0 d3 50 77 be 0a 6f 57 be b1 78 29 bc be 7b 16 3e
       -0.24151926 -0.21038452 -0.0103437165 0.14695641
0001b0 33 aa c5 be 05 fe 81 bd 2b 13 9a 3e a0 14 8e bd
       -0.38606414 -0.063472785 0.3009275 -0.06937528
0001c0 47 3f 27 bc 06 5e 9b bd 8d bd 3d 3e b7 9a b7 bc
       -0.010207958 -0.07586293 0.18529339 -0.022412641
0001d0 fd 5f 6d 3c 08 4f 75 bc c5 1c d2 3c 60 c2 64 3d
       0.014488217 -0.014972456 0.025648484 0.055849433
0001e0 b2 ea 0c bc 5f 58 e5 3b b5 8b fe 3d f8 ab c5 bc
       -0.008600878 0.00699906 0.12428991 -0.024129853
0001f0 b2 ff 70 bd e0 2a e3 3c 1d 97 12 3c de fe 67 bc
       -0.0588376 0.027730405 0.008947161 -0.014159886
000200 b7 f9 ef bd 41 58 6a 3d dc 0b 84 3d 37 4f b3 3d
       -0.11717551 0.05721307 0.064475745 0.087553434
000210 30 7b be bc 5e 41 8a bc 03 fc 1a 3e 44 4f 07 be
       -0.0232521 -0.016876873 0.15135197 -0.13213831
000220 69 62 e7 3d 85 cd 9e bb 48 38 bf bd f1 54 0b 3d
       0.11298067 -0.004846277 -0.09336907 0.034016553
000230 58 50 04 ba 2c 77 7e bd bd 5a 8e bd 26 cf 1f 3c
       -0.00050473725 -0.06212537 -0.06950901 0.009753978
000240 4d c3 9a bc cb a9 b1 bd e9 8a 00 bd 22 fa 9f 3d
       -0.018891955 -0.086749636 -0.031382475 0.07811381
000250 63 27 15 bd b3 00 97 bc b8 d3 4d 3d d5 bc 21 3d
       -0.036414515 -0.01843295 0.05025074 0.039486725
000260 f5 4e 14 bb fa 77 27 3d bf f1 af 3c 6b 3a 86 3d
       -0.002263007 0.040885903 0.021477578 0.06554111
000270 7c 39 5a bd e0 74 3c bd 58 6c 48 3d 3c 43 a4 3c
       -0.053277478 -0.0460099 0.04893145 0.020051591
000280 f3 0a 42 bb a9 c0 8a bd d7 8c 9e 3d cf 6a c5 bb
       -0.0029608577 -0.06775028 0.07741707 -0.0060246955
000290 c7 05 86 3c 47 f5 82 bc 06 69 30 3b 0b 37 b1 bc
       0.016360177 -0.015986098 0.0026918068 -0.021632692
0002a0 80 d0 14 bd 56 c5 b6 bd f4 4b 20 3d 80 b9 01 bc
       -0.036331654 -0.089243576 0.039134935 -0.007917762
0002b0 3f 66 70 3c 21 16 d6 bc 16 26 58 3c 65 46 a2 3c
       0.014672815 -0.026133599 0.013192674 0.019808957
0002c0 79 65 84 3b 0e f9 02 3d fc 0a 95 3c 1e b2 84 3c
       0.004040417 0.0319758 0.018193714 0.016198214
0002d0 a3 67 c0 bd 39 80 28 be 93 22 81 3d 30 27 18 bd
       -0.09394767 -0.16455163 0.06305423 -0.037146747
0002e0 89 50 80 3d 39 b9 f9 3c 3b 5b 2d bd 61 43 a6 bc
       0.06265361 0.030483829 -0.042323332 -0.0202958
0002f0 35 e9 a0 3d 77 72 74 bc e4 ab 4e bc 0a 28 43 bd
       0.07856981 -0.014919869 -0.012614224 -0.047645606
000300 ae 1b d1 bc c7 13 8b 3c f0 cf 70 bd 78 18 3c 3d
       -0.025525894 0.016977204 -0.058792055 0.045921773
000310 af 25 22 bd d7 34 37 3a f6 4b 4b 3d af 6d 1b 3d
       -0.03958672 0.000698877 0.04963299 0.0379464
000320 5d d5 ac bd b6 c1 b3 bb cc 48 92 3d 5c c2 b0 3c
       -0.08439133 -0.0054857386 0.07142791 0.021577053
000330 65 26 42 3c ad be 4b 3c 7a 24 44 3c 0a 01 6d bb
       0.011849974 0.012435597 0.011971587 -0.003616395
000340 1f 1c df 3c 88 b8 72 bc 50 e3 1a bd 06 7e 04 3d
       0.027235089 -0.0148145035 -0.03781444 0.032346748
000350 64 89 19 3e 90 29 9e 3b ff aa 2b be 82 99 7b 3c
       0.14993817 0.004826732 -0.16764449 0.015356423
000360 07 ec 91 3c 20 55 60 bd 8d 33 2e bd fa b9 27 3d
       0.017812742 -0.05476868 -0.04252963 0.040948845
000370 1a c8 99 bc 77 d1 86 bd 09 de ab bd 1a 7b 9b 3c
       -0.018772174 -0.06582921 -0.08391959 0.018979598
000380 5e 1d 7e bd 01 cf 8a 3c ec d8 eb bc 2b a3 65 3d
       -0.062039725 0.01694441 -0.02878996 0.056063812
000390 be 44 d0 bc 7a 7b 45 bd a2 8c 15 bd aa 1b 09 3c
       -0.025423404 -0.04821346 -0.03651107 0.008368412
0003a0 af 3d b5 3c 14 92 86 bb b5 73 af bd 02 7d 01 bc
       0.02212414 -0.0041067693 -0.08566991 -0.007903339
0003b0 39 90 09 3e 5a 49 0f 3d a5 01 a3 bd 73 ef 5a 3d
       0.13433923 0.034982063 -0.07959298 0.053451013
0003c0 c1 d9 15 3d f1 d1 97 3b 87 c1 af bc ab 01 85 3c
       0.03658462 0.0046331813 -0.021454586 0.016236147
0003d0 76 54 07 bd 37 d0 c8 bc c9 04 60 bc c1 5a a1 bc
       -0.033039533 -0.024513347 -0.013673016 -0.019696595
0003e0 bb 89 86 bd be cf 80 3c 5b dc c0 bd 05 1e cb 3c
       -0.06569239 0.01572406 -0.094170295 0.024794588
0003f0 9e 42 ea bb 84 0a 05 3d 2c 9a 23 be 9c 69 8a 3d
       -0.0071490547 0.03248073 -0.1597678 0.06758425

bias f4 [32]
000000 c0 07 5c 3d 8d f8 9d 3c 45 75 0f 3d 8a 95 fc 3a
       0.05371833 0.019283557 0.035023946 0.001927064
000010 8c 81 62 3d fc 0a 22 bd fe 2d a9 bb e9 fa 0c 3d
       0.055299327 -0.039561257 -0.0051629534 0.034418974
000020 d2 0f 82 3d b3 34 45 3d 80 ef 8a 3d ed 2a a5 bc
       0.06350674 0.04814596 0.06783962 -0.02016207
000030 9d 33 d5 bb 80 e8 22 3d 3f 2c c1 3c 66 e2 8a 3d
       -0.006506397 0.03977251 0.023580668 0.06781463
000040 f4 47 2d bc fe 17 3a 3d c9 2b ff bb e6 88 08 bc
       -0.010576237 0.045433037 -0.007787202 -0.00833342
000050 c1 a4 05 bc 87 c3 60 3d 19 a9 8c 3d 58 50 97 bc
       -0.008156956 0.05487397 0.0686819 -0.018470928
000060 1e d5 ba bc 75 f5 ec bc 0c 4c 36 3a bf 62 f1 bc
       -0.0228067 -0.028925637 0.0006954081 -0.029466031
000070 4b be 49 bc 95 2e 3b 3d 8a e9 91 3d 13 9a 92 bd
       -0.012313436 0.04569872 0.07124622 -0.071582936

weight f4 [8, 32]
000000 b2 9a eb 3c 86 f7 96 3d d5 b9 91 3d ef a8 0d be
       0.028760288 0.0737143 0.07115523 -0.13833974
000010 62 ef 74 3e 3a b9 c5 bd 09 6a f6 3c 0e b8 45 be
       0.23919442 -0.0965447 0.030079858 -0.19308493
000020 83 6d 16 3c 1d 2f 61 3e 4e 73 9d 3e b6 c9 55 3e
       0.009181383 0.21990629 0.30752033 0.20877728
000030 e6 ce 1f be 8e 30 b1 bd 33 9c 15 bc 07 01 25 3d
       -0.15606269 -0.08651839 -0.009131479 0.040284183
000040 be 86 7e 3e d0 24 9a bd d2 2c ec bb 33 15 2c be
       0.24856088 -0.07526553 -0.0072074914 -0.16804962
000050 69 4b 84 bd 3b ed c0 bd a1 f3 36 be 28 43 9a bd
       -0.06459696 -0.09420248 -0.17866375 -0.0753234
000060 0f 4d 0c 3e 14 3b 1b bc d5 b0 02 be c2 5e 4b bd
       0.1370127 -0.009474535 -0.12762769 -0.049650915
000070 d1 d5 2b be a8 e0 b4 3d 08 69 9d 3b 7d 71 57 3c
       -0.16780783 0.08831912 0.0048037805 0.013149616
000080 a9 6e cc bd 1a 28 ba bd a3 c7 82 3d 58 5a 39 3e
       -0.09982044 -0.0908968 0.06385734 0.1810087
000090 29 f7 43 3d a3 08 59 bd bb 2c 4e 3d 46 93 51 3d
       0.047843132 -0.052986752 0.050335627 0.05116584
0000a0 b4 d4 46 3e 00 42 d2 3c 46 d6 11 bc 9b 97 5b 3d
       0.19417077 0.025666237 -0.008901184 0.05361138
0000b0 d6 d0 a7 bc 53 8b 13 be 32 d2 31 3e c9 98 1f 3e
       -0.020485323 -0.14408617 0.1736534 0.15585627
0000c0 2a 42 29 3d 75 a8 22 be 5f 6f fa bc e2 1f e3 bd
       0.041322865 -0.15884574 -0.030570684 -0.110900655
0000d0 e5 98 3f 3d 18 e2 f7 bd 9f 76 7f bd 55 09 31 be
       0.04677667 -0.12103671 -0.062368985 -0.17288716
0000e0 25 ad 28 3e 50 71 9f bd f6 54 98 3d ab ce 3b 3e
       0.164723 -0.077852845 0.0743808 0.18340556
0000f0 16 f8 8b bb d5 0e 1b be 22 a0 43 3e 1e d7 ad bc
       -0.0042715175 -0.15142377 0.19104055 -0.02122074
000100 e3 ef 41 3e a5 b6 b2 bd 75 d1 9e 3d b7 12 02 3e
       0.18939166 -0.08726243 0.077547945 0.12702452
000110 85 bc 9f 3d a6 0d 6e 3d 20 a2 ec bc 8f 9a 3e 3d
       0.07799629 0.058118485 -0.028885901 0.046534117
000120 13 da 70 bc b4 92 6f 3e a2 83 ab 3e 2b 1b be 3e
       -0.01470043 0.23395807 0.33498865 0.37130103
000130 ef f4 25 bd ed 53 db bc 8b d4 94 3d 5b f2 d2 bd
       -0.04051679 -0.026773417 0.07267102 -0.10300132
000140 d1 88 31 3e a8 c5 19 be bd dc d7 3b 96 d9 8b 3d
       0.17337348 -0.15016806 0.0065875934 0.068286106
000150 0a 62 db 3c 24 91 26 be c4 52 9c 3d 9a fa f8 bd
       0.026780147 -0.16266304 0.07632974 -0.121571735
000160 9c 8a 2b 3d a3 0e 07 3e 2d 9f 87 3e 9b 43 b2 bd
       0.041880235 0.13189177 0.2648863 -0.08704301
000170 ea 4b 08 be dd 4b af ba c9 6e b9 3d 6c 72 d2 3d
       -0.13310209 -0.001337405 0.09054334 0.102757305
000180 db 3d f3 bd 4a 53 74 3d 03 f5 16 be 35 da f5 3e
       -0.11877032 0.059649743 -0.14741902 0.4801804
000190 dd ec 8e 3e f8 be 03 be a3 ca 60 3e 41 77 e6 3d
       0.27915087 -0.12865818 0.219523 0.11253215
0001a0 43 14 93 3e 65 c7 e7 3d 7d d1 97 bd e0 d7 25 3e
       0.28726396 0.11317328 -0.074130036 0.16195631
0001b0 57 0f 6a 3d 45 2c 6e 3e 8a 9a af bc 3d d5 5e bb
       0.057143535 0.23259075 -0.021435995 -0.0034001612
0001c0 04 10 71 3e 45 56 47 be f5 e5 47 3e ed ef d1 3d
       0.23541266 -0.19466503 0.19521315 0.1025084
0001d0 a8 1f 5e 3e f4 d0 93 3d bd a1 b0 3e 81 a6 52 3e
       0.21691763 0.07217589 0.34498397 0.20571329
0001e0 fd c6 a9 bc ff af 42 bc 39 d6 85 3e 23 73 c6 bd
       -0.020724768 -0.011882781 0.2614 -0.09689929
0001f0 f2 a8 4b be 93 6a 02 3e 8d 9b 89 3e 9a 62 8b bd
       -0.19888666 0.12735967 0.26876488 -0.06805916
000200 02 ef 7c 3e cf e9 4a be 18 d1 91 bd dd 9c b2 bd
       0.24700549 -0.19815753 -0.071199596 -0.087213255
000210 ca de 78 bc 6a bb c3 3c b8 35 ac 3c 4e c0 58 3c
       -0.015189836 0.023893077 0.021021709 0.013229443
000220 8e e5 8e 3e 5a 75 3c 3e b2 1c 9e bd b4 51 97 3d
       0.2790951 0.18404141 -0.07720317 0.073886305
000230 11 24 b5 3d b5 6f 51 bd 27 67 bb bc 19 95 e6 3c
       0.0884477 -0.051131923 -0.022876335 0.028147267
000240 33 35 4d be 77 ab fa 3c 00 d4 a0 3b 83 9b 4a be
       -0.20039825 0.030599339 0.004908085 -0.19785886
000250 01 ec 82 bd 9e a0 bd 3e c3 ef c2 3c c2 d3 13 3d
       -0.063926704 0.37036604 0.023795968 0.03609062
000260 eb 68 0c bd fd 97 f5 bd 40 ef 12 bd 97 1b 24 be
       -0.034279745 -0.1199188 -0.035872698 -0.1602615
000270 5a c2 cc bd 78 42 85 bc 95 eb 5c 3d a9 52 19 be
       -0.09998007 -0.016267046 0.053935606 -0.14972939
000280 e8 3f c1 3d 42 e2 b6 be 95 e4 2f bc 45 17 a8 bc
       0.09436017 -0.35719496 -0.010735651 -0.020518908
000290 19 21 17 3e 6d 3f 28 be c8 b0 05 bd ed d6 b6 3e
       0.1475872 -0.16430445 -0.032639295 0.3571085
0002a0 36 12 30 3d 84 5e 96 3d 58 ef 1c 3c ed 11 25 bd
       0.042986117 0.07342246 0.009578548 -0.0403003
0002b0 da 07 25 be 94 77 58 3e d8 aa b9 bb 07 35 dd bc
       -0.16116276 0.21139365 -0.005666118 -0.027002824
0002c0 f0 46 cd 3b ea e2 d0 bd 71 cd 97 3e e3 97 cb bb
       0.00626456 -0.101995304 0.29648927 -0.0062131747
0002d0 ca a1 49 3e c5 5c 13 3e d0 ad a0 3e 6c f9 90 3e
       0.19690624 0.14390858 0.31382608 0.28315294
0002e0 08 4a 1e 3d 76 03 ae bd 9e 62 a5 bd 6e d2 1f 3d
       0.03864482 -0.08496754 -0.0807545 0.03901904
0002f0 50 bb 49 bd 03 fb 88 3e 28 b7 c1 bc 8d 85 e3 bd
       -0.0492509 0.26754007 -0.023646906 -0.11109457
000300 cb 32 45 3e da b4 6f ba ae 92 a9 3d 7f 4a a3 3d
       0.19257657 -0.00091440754 0.0827993 0.079731934
000310 13 2f 8d 3d fb eb d9 3c fa 15 82 3d be 67 13 3e
       0.06893744 0.026601782 0.06351848 0.14395043
000320 63 2c dd 3d 5f 2e d2 3c dc ae 01 3e f4 7a 43 bd
       0.10799482 0.025656877 0.1266436 -0.04772468
000330 a3 b8 4f bd 93 10 b8 3b 13 6a b4 3e 51 62 81 3e
       -0.050713193 0.00561721 0.35237178 0.25270322
000340 3b 4e 1e bc 12 f0 48 be 81 66 78 3d e6 4f 91 bd
       -0.009662206 -0.1962283 0.06064463 -0.070953175
000350 ab b4 da 3d 7a 79 0b be ae b7 d5 bd 50 76 02 bd
       0.10678991 -0.13620558 -0.10435425 -0.031851113
000360 26 74 52 3e 6c 73 b2 3c 03 f2 dc 3e 00 83 b6 3d
       0.2055212 0.021783553 0.4315339 0.08911705
000370 5d 66 ef bd f4 ec d4 bd 31 11 a6 3a 1a 0d 81 3d
       -0.11689446 -0.10396758 0.0012669918 0.06301327
000380 a0 72 fe 3b 15 f4 3b bd a3 ba a8 3e 33 1b 9a be
       0.007765129 -0.04588707 0.32954893 -0.30098876
000390 99 9a a1 bd 3a ce 21 be 28 cd fe bd 4f fe e9 3c
       -0.07890815 -0.15801325 -0.12441474 0.028563647
0003a0 a4 8f 35 be bf 79 b0 bd 33 99 66 be f0 72 a7 be
       -0.17730576 -0.08616971 -0.22519378 -0.32704878
0003b0 5e 11 2a 3e 32 8c 03 3e f1 05 c9 3c ce a6 2c 3e
       0.16608188 0.12846449 0.024538966 0.16860506
0003c0 99 d2 f3 bd ff ca 87 bc c8 23 72 3c 91 1c 11 3e
       -0.11905403 -0.016576288 0.014779039 0.14171053
0003d0 a6 52 f9 3d 94 4d 4f 3e 90 20 56 3e f7 bb 1a bd
       0.12173967 0.20244437 0.20910859 -0.037776913
0003e0 ca 9b 11 be 10 6b 42 be 53 32 80 be 45 e1 45 be
       -0.14219585 -0.18986154 -0.25038394 -0.19324215
0003f0 29 11 d8 3d b6 cb 1d bc 9a f5 24 bd a9 19 26 3d
       0.10550148 -0.009631088 -0.040273286 0.040551815

bias f4 [8]
000000 3e 09 eb 3d cf 69 96 bd 58 8e ce 3d 33 7f 0f bb
       0.11476372 -0.073444 0.10085744 -0.0021895885
000010 04 d0 7f 3e b4 f6 82 3e da 86 b4 3c bb 5c ac 3d
       0.24981695 0.25578845 0.022036958 0.084161244

weight f4 [4, 1]
000000 75 53 86 3f 33 bb 8b bf 9e 3c 94 be 3e 6c 30 3d
       1.0494219 -1.0916504 -0.28952497 0.043071978

bias f4 [4]
000000 01 01 07 3f 02 63 73 3f 99 a1 57 bd 98 9d 15 3f
       0.52735907 0.9507295 -0.052644346 0.58443594

pe f4 [1, 8, 4]
000000 00 00 00 00 00 00 80 3f 00 00 00 00 00 00 80 3f
       0.0 1.0 0.0 1.0
000010 a4 6a 57 3f 41 51 0a 3f 57 d6 23 3c b9 fc 7f 3f
       0.84147096 0.54030234 0.009999833 0.99995
000020 b7 c7 68 3f 33 11 d5 be 3e d4 a3 3c e5 f2 7f 3f
       0.9092974 -0.41614684 0.019998666 0.9998
000030 c3 81 10 3e 26 70 7d bf 1f b9 f5 3c 83 e2 7f 3f
       0.14112 -0.9899925 0.0299955 0.99955004
000040 cf bd 41 bf 30 55 27 bf db cb 23 3d 94 cb 7f 3f
       -0.7568025 -0.6536436 0.039989334 0.9992001
000050 10 7c 75 bf 2c 3c 91 3e f4 b6 4c 3d 19 ae 7f 3f
       -0.9589243 0.2836622 0.049979165 0.99875027
000060 8c 0f 8f be b8 cd 75 3f d1 9c 75 3d 12 8a 7f 3f
       -0.2794155 0.96017027 0.059964005 0.99820054
000070 46 30 28 3f bd ff 40 3f 32 3e 8f 3d 81 5f 7f 3f
       0.6569866 0.75390226 0.06994285 0.997551

weight f4 [4, 4]
000000 c6 cd 0b bd f6 02 80 be 50 37 d1 be a2 f5 13 bf
       -0.034131788 -0.2500226 -0.40862513 -0.5779668
000010 6b 5a 5c 3f ea 9e 7d bd 02 59 31 be 2d 04 77 3e
       0.86075467 -0.06191913 -0.1731911 0.24122687
000020 81 75 45 3e f1 88 10 be be 9a 85 3e 62 03 60 3e
       0.19283105 -0.14114739 0.2609462 0.2187629
000030 7b 32 c2 3e ec 95 01 bf f4 e9 0b be 91 07 3f 3d
       0.3792914 -0.5061939 -0.13663465 0.046638075

weight f4 [4, 4]
000000 52 ed 02 bf b5 13 a0 be fc 45 8d 3d 8c 70 b0 bc
       -0.5114337 -0.31265035 0.06898114 -0.021538042
000010 5f ae 47 be 30 f3 32 3f 62 55 6b be dd 12 8c be
       -0.19500111 0.69902325 -0.2298179 -0.27358142
000020 c1 79 9f 3e 5c a3 22 be 6f 89 d9 be f2 a7 b4 be
       0.31147578 -0.15882629 -0.42487666 -0.35284382
000030 a2 02 9a bd 51 3a ee 3d be 2e 3d 3e 47 17 19 bd
       -0.075200334 0.11632217 0.18474862 -0.037375715

weight f4 [4, 4]
000000 54 9b 23 3e ec 1b 63 be af 79 93 bd f0 d2 24 bf
       0.15977222 -0.2217862 -0.07200944 -0.64384365
000010 6e 5f 03 3e 29 26 80 be 7d 0a 2a 3e ab 41 34 3e
       0.12829372 -0.25029114 0.16605563 0.17603175
000020 02 68 b7 be 64 ad 89 bc 01 b1 4d 3d 55 f3 01 bf
       -0.3582154 -0.016806312 0.050217632 -0.5076192
000030 f2 00 c4 be 8f d4 b5 bd 23 1d 1a 3d 0e 9b f0 be
       -0.3828197 -0.08878433 0.037625443 -0.46993297

weight f4 [4, 4]
000000 21 8a fd 3e 08 eb 23 be 8d 51 d5 bd 8f fc 08 3f
       0.49519446 -0.16007626 -0.10415945 0.53510374
000010 ce b3 15 3e 13 d3 ec 3c c3 e1 c6 be 37 7d eb be
       0.14619371 0.028909242 -0.38844118 -0.4599397
000020 f2 93 3b 3b 6f 7b 97 3e e2 5a e7 be 87 76 ab 3e
       0.0028622118 0.2958636 -0.45186526 0.33488867
000030 02 97 e2 be fd 34 af be 68 ad 16 bd 36 92 e4 3d
       -0.44255835 -0.34220114 -0.036786467 0.111607

bias f4 [4]
000000 4a b0 13 3e 3d 9b b4 bd a0 5a ec be 61 28 fb 3e
       0.14422718 -0.08818672 -0.4616289 0.49054244

weight f4 [4, 4]
000000 3c 71 4a 3e 04 d6 e1 3d fc f5 ce 3d 82 db 7e bd
       0.19769758 0.11027148 0.101055115 -0.062221058
000010 ed ae f0 be 75 f5 c3 bd 7c 7f b5 be c5 5e b5 3e
       -0.47008458 -0.095683016 -0.35448825 0.35423866
000020 c0 b3 0d bc 82 da 2f 3c 5e 30 25 3f 75 9a b4 3d
       -0.008648813 0.010733249 0.6452693 0.08818523
000030 ed f3 28 bf 63 fc 87 be d2 4f 3e 3f df 6c 84 be
       -0.659972 -0.26559743 0.74340546 -0.25864312

bias f4 [4]
000000 f2 d7 41 be 8a 66 81 be 47 63 33 bf d4 62 0f bf
       -0.18930033 -0.25273544 -0.7007336 -0.56010175

weight f4 [4, 4]
000000 96 9e f1 bc 2f 04 96 be 7c a2 9f be 85 63 d3 be
       -0.029494565 -0.29300067 -0.31178653 -0.41286865
000010 10 9e c9 be 5a bb 86 be 1a fd a1 3e 40 9f d0 be
       -0.39378405 -0.26314813 0.31638414 -0.40746498
000020 97 b8 85 be 6a 61 09 3f a9 26 ce be 6a 34 69 be
       -0.26117393 0.5366427 -0.4026387 -0.227739
000030 eb 8e 03 be d1 d1 58 3e ed a5 61 3e a2 65 d6 bd
       -0.12847488 0.21173789 0.22035952 -0.10468604

bias f4 [4]
000000 39 e2 b0 3e bb 5c b6 3e ab 7e bf 3e 62 39 18 be
       0.34547594 0.35617623 0.37401327 -0.1486564

weight f4 [4]
000000 9b 85 81 3f 59 23 85 3f 38 3d 7e 3f fc b6 77 3f
       1.0118898 1.0401412 0.9931216 0.96763587

bias f4 [4]
000000 09 86 ce bd 70 a9 2d bd cc fa 30 3e 45 85 d5 bd
       -0.10084159 -0.042397916 0.17283171 -0.1042581

weight f4 [4]
000000 5d 81 82 3f be a8 99 3f 02 9b 97 3f dd 2a 79 3f
       1.0195729 1.2004621 1.184418 0.9733103

bias f4 [4]
000000 cb f7 d0 3d c9 40 8d bc 2b 2c a9 3d 2f 0b d1 bd
       0.10203513 -0.017242806 0.082603775 -0.10207211

weight f4 [4, 4]
000000 09 ef 94 3f d0 b1 b2 3c ab 85 52 bf 6a c8 16 be
       1.1635448 0.021813303 -0.8223521 -0.1472489
000010 a7 18 83 bf 7c 28 24 be bb 76 9b 3f d3 51 8c 3e
       -1.0241898 -0.16031069 1.2145609 0.27406177
000020 ed 31 db 3d 9d d8 98 be e5 c6 be be c4 0c 4f 3f
       0.10702882 -0.29852763 -0.3726112 0.80878854
000030 f6 68 80 3e 94 c5 77 be fa 8b 2b bf 78 61 05 3f
       0.2508008 -0.24196464 -0.6701046 0.5210185

weight f4 [4, 4]
000000 a8 fc 96 be 8c 5a 94 3f b4 cf 95 bf b3 89 b6 be
       -0.29489636 1.1590133 -1.1704011 -0.3565193
000010 76 30 3b 3f d0 f5 a3 bf b7 01 ba 3f ad da e3 3e
       0.7312082 -1.2809391 1.4531773 0.44502774
000020 ab d4 48 bd a7 db ca 3e e7 2b 93 3e 11 45 70 bf
       -0.04903094 0.39620706 0.28744432 -0.93855387
000030 9b 9b 8c bd c6 3d 35 3e ad dd 23 3f 32 6e 17 bf
       -0.06865617 0.17699346 0.64010125 -0.5915252

weight f4 [4, 4]
000000 ed 76 fc bc cb 6b 3e bf 17 e0 1c 3f 2e af ee bc
       -0.030818427 -0.7438323 0.61279434 -0.029136267
000010 62 a4 a4 3d 49 e8 32 3f 8a 3a 16 3f 16 91 58 be
       0.08039166 0.6988569 0.58683074 -0.21149096
000020 18 ac ca bc 28 0f 32 3d 2c 38 f1 bb e1 2d af 3d
       -0.024740264 0.043471485 -0.0073614325 0.085536726
000030 c7 c3 6e 3e e8 6a 4d be ed 88 db be b9 1c e0 3d
       0.2331687 -0.20060313 -0.42877904 0.109429784

weight f4 [4, 4]
000000 ac eb d5 3e d7 91 50 be 87 5b a0 be ae a8 7d be
       0.41781366 -0.20368133 -0.3131983 -0.24771377
000010 41 09 a8 3d 18 8b bf 3e b3 38 f3 be 2f e8 ba be
       0.0820489 0.37410808 -0.47504196 -0.36505267
000020 02 61 ab be 60 8a 11 3f 37 23 36 3d e4 6c 7b 3e
       -0.3347245 0.5685177 0.044467177 0.24553257
000030 05 68 e4 be 15 e9 1a bd 6c 44 af bd de 5f 17 be
       -0.4461061 -0.03781994 -0.08557972 -0.14782664

bias f4 [4]
000000 11 9c 8c be fc e9 a4 3e 70 72 f6 3c ea 64 03 bf
       -0.2746282 0.32209766 0.030083865 -0.5132586

weight f4 [4, 4]
000000 e6 34 91 3e 50 69 ca be 57 37 87 3d 25 b2 6a 3f
       0.2836067 -0.39533472 0.06602352 0.91678077
000010 39 34 39 3f 5c ca 34 bf 6f 37 0e 3e 7e ac f3 be
       0.7234531 -0.70621276 0.13888334 -0.4759254
000020 0d 12 20 3f 97 65 5d bd 05 92 0b bf 41 e1 68 3e
       0.62527543 -0.05405196 -0.54519683 0.22742178
000030 a3 2a f5 3d f4 ba 21 bf d7 07 c5 be 6c f1 d1 3e
       0.11971023 -0.6317589 -0.38482544 0.41004503

bias f4 [4]
000000 5d 9a aa be 88 c9 66 be ae e4 a5 3e bf 80 81 3e
       -0.33320895 -0.22537816 0.3240103 0.25293538

weight f4 [4, 4]
000000 e4 ef cb 3e bf b4 86 bd 36 c9 dd 3e c6 f8 bf 3e
       0.3983146 -0.06577443 0.43317574 0.37494487
000010 6e a3 b7 3e 8c a4 b3 be 09 2a f6 be f5 d4 0f 3f
       0.35866874 -0.35086477 -0.48078945 0.5618432
000020 81 e0 93 bf 4b 54 79 3e 68 c8 0b bf 75 67 36 3d
       -1.1552888 0.24348561 -0.5460267 0.044532258
000030 65 f1 01 3f 8d c6 a5 be a4 42 ef bc 08 8e 2c be
       0.50758964 -0.32378045 -0.029206581 -0.16851056

bias f4 [4]
000000 09 5a fd 3d 79 a3 f2 be 69 ef 3b 3f 79 f4 4a 3d
       0.123706885 -0.47390345 0.73412186 0.049549554

weight f4 [4]
000000 72 60 77 3f 42 f5 77 3f 84 df 96 3f 1d ea 8b 3f
       0.9663154 0.9685861 1.1786962 1.0930821

bias f4 [4]
000000 fe 55 ba bd bb 39 c1 bd ff 80 50 3e 14 bb 21 be
       -0.09098433 -0.09434839 0.20361708 -0.15794021

weight f4 [4]
000000 9a 4a be 3f af d6 b9 3f 3c a3 e3 3f c7 9d f4 3f
       1.4866517 1.4518641 1.778419 1.911065

bias f4 [4]
000000 9e 59 14 3b 52 36 14 be b8 2e 2a 3b 07 47 17 bd
       0.0022636424 -0.14473847 0.0025967788 -0.03693297

weight f4 [8, 32]
000000 e5 06 c5 3c b5 ac a3 be 36 98 65 3c 98 4a ab 3c
       0.02405114 -0.31967703 0.014013341 0.020909593
000010 72 3b 08 3f 4c 41 06 bf 62 c3 dc 3e 7a ca fe bd
       0.53215706 -0.52443385 0.43117815 -0.12440963
000020 1c cf 63 3e 22 92 4d be 91 99 4c 3e e4 77 96 be
       0.22246975 -0.20075276 0.19980456 -0.29388344
000030 5b 35 78 bc 41 66 91 bc ee 9b 7c 3c fb c0 89 3d
       -0.01514944 -0.017748954 0.015418036 0.06726261
000040 07 a1 87 3e 48 51 f9 bd 91 d2 6b 3e 06 49 1a be
       0.26490042 -0.12173706 0.23029543 -0.15066919
000050 2c 79 0d bf ca 04 aa 3e 56 c3 c4 3e 18 9f 77 bf
       -0.5526302 0.3320678 0.3843028 -0.9672713
000060 f3 0b 1b 3f 6a c8 b9 bd 80 34 cd be 87 8b 31 3e
       0.6056511 -0.09071429 -0.40079117 0.17338382
000070 09 93 c0 3e 77 32 f4 be 28 50 dd 3e 46 27 bd be
       0.3761218 -0.47694752 0.43225217 -0.36944026
000080 f0 21 f7 bd 6d ee 1f 3f e6 d0 34 bf ec 06 e6 3d
       -0.1206702 0.62473184 -0.70631254 0.11231789
000090 c4 8b ba 3e 0d 5a 0d be 85 3c d6 be ce 6f 85 3e
       0.36434758 -0.13803883 -0.41843048 0.26061863
0000a0 8d d0 19 3e 54 53 39 be 77 5a a2 3c e4 fa dc 3e
       0.15020962 -0.18098193 0.019818528 0.43160164
0000b0 73 7d 9b 3d 50 a7 cb bd 3a fc 23 3e ac bb e0 3d
       0.07592287 -0.09944022 0.16014186 0.109732956
0000c0 a0 c8 1d 3f 95 b1 87 be 1d f5 02 3f e5 6a eb be
       0.61634254 -0.26502672 0.51155263 -0.45979992
0000d0 ba 33 5c bd 1f b3 17 bd 15 1b 8f be 49 3a d9 3e
       -0.053760268 -0.037036058 -0.2795035 0.4242728
0000e0 51 1d b3 be f8 fa 04 3e f7 2a 5e bc e1 6f 5a bc
       -0.34983304 0.12986362 -0.013560048 -0.013332338
0000f0 bc 9c 34 be 7e 02 c2 3e 43 c3 4a 3e bf 12 e5 bd
       -0.17637914 0.37892526 0.19801049 -0.11185216
000100 26 f8 35 bd 22 3d 1a 3e 98 70 0a bf a8 8e 03 3f
       -0.044426106 0.15062383 -0.54078054 0.5138955
000110 b0 8f 48 3f 03 10 1b bf 02 70 49 be f6 2b ac 3e
       0.7834425 -0.60571307 -0.19671634 0.3362729
000120 fd 3f ed 3e 2b ef 8e be 53 40 5d 3d d3 80 08 3f
       0.46337882 -0.27916846 0.054016422 0.5332157
000130 aa 75 b4 bd 09 c8 ae 3d e0 d7 12 be b1 5a 9e 3e
       -0.08811505 0.085342474 -0.14340162 0.30928567
000140 c6 e1 a5 be 65 2c a2 3e 29 ba 0c bf e0 e1 b2 3e
       -0.32398814 0.31674495 -0.5497156 0.34937954
000150 6a 29 a8 be 26 08 d4 3e e8 35 22 be 51 fc 52 be
       -0.32844096 0.41412467 -0.15840876 -0.20604064
000160 ac 5d ea 3e 4e 61 49 bd f3 48 0a bf 79 c6 1f 3f
       0.4577459 -0.049165063 -0.5401756 0.6241222
000170 03 c0 9b be af 86 05 3c 4c 13 eb 3e 29 e0 47 3d
       -0.3041993 0.008149787 0.4591316 0.04879776
000180 8d f4 a3 3c 14 26 0a 3b ed 57 52 bd fc 95 30 be
       0.020014072 0.0021079825 -0.051353384 -0.17244714
000190 ad a6 22 be 8b 76 9e 3e c2 90 cc 3d 9d 68 91 bd
       -0.15883894 0.30949816 0.09988548 -0.071000315
0001a0 64 9e b0 bd a1 ba 87 3e a7 55 4a be 8d 09 96 3e
       -0.086239606 0.26509574 -0.19759236 0.29304162
0001b0 e7 66 43 bd a0 b5 47 be b1 ff 1b 3e 60 3c 48 be
       -0.047705557 -0.19502878 0.15234257 -0.19554281
0001c0 34 3a d1 3b 26 a2 b3 be ed f2 39 3d c2 ea 62 bd
       0.006385112 -0.35084647 0.045397688 -0.055399664
0001d0 cc 33 d1 3c 45 d3 05 be 7c 51 b9 3d dc 15 52 3d
       0.025537394 -0.13068874 0.09048745 0.051290378
0001e0 b3 ae 18 be f2 6d f8 bd 3f 20 69 3e 18 9c 1d be
       -0.14910392 -0.121303454 0.22766207 -0.15391576
0001f0 a1 fc d4 3d 10 3a c7 bd 6c 2a 0e be 8d a7 03 3e
       0.10399748 -0.097278714 -0.1388337 0.12856884
000200 d4 ed 66 3e c3 a7 0f 3d b1 34 27 3e 5d 12 30 3d
       0.22551662 0.0350721 0.16328694 0.042986263
000210 32 20 22 3d 12 e1 9a bd d8 40 2a 3e 19 8f a6 bd
       0.039581485 -0.0756246 0.16626298 -0.081327625
000220 a0 b1 83 bd 83 a8 57 3d bf a4 33 bd 8f 17 31 3d
       -0.06430364 0.05265094 -0.043858286 0.043235358
000230 40 b1 4b bd 0f d9 a2 bd df 40 c4 bc 33 d3 26 3e
       -0.049729586 -0.07951557 -0.023956714 0.16291504
000240 b2 24 c5 3e df ef 70 be 61 05 bb 3e d4 8d ad 3d
       0.3850456 -0.23529004 0.3652754 0.08474317
000250 80 70 dc bd 29 8a a5 3d 60 fd 43 3e 7b 8a e8 bd
       -0.10763645 0.080829926 0.19139624 -0.11354538
000260 ae 14 1d 3e b3 41 81 be ac 6e 1c 3e af e0 f8 bd
       0.1533992 -0.25245437 0.15276593 -0.1215223
000270 6c e5 69 3e ab 6b 4b bd 16 56 b3 bd 64 33 7f bd
       0.22841424 -0.049663227 -0.08756654 -0.06230487
000280 9d 93 08 3d 71 ac 72 3e 64 e7 c9 be 6a 3b 43 be
       0.0333439 0.23698594 -0.3943435 -0.19065633
000290 f9 09 01 bf 33 af 9e be 5e 5e fe 3e 6b e6 4f be
       -0.5040584 -0.3099304 0.4968137 -0.20302741
0002a0 0d b6 65 be 0b ba 8e bd 9d 9a 88 3e 2e 02 87 be
       -0.22432728 -0.06969079 0.2668046 -0.2636885
0002b0 c4 52 12 3e 7e e6 8e be 8f e5 64 3c 82 04 b5 3d
       0.14289385 -0.27910227 0.013970747 0.088387504
0002c0 0d 8b 08 bf 36 3d 26 be 4d 3e 03 3e b9 95 68 3e
       -0.53337175 -0.16234288 0.12816735 0.22713365
0002d0 52 ac e4 3d 1e d3 a0 be d4 97 ee 3d e5 1e 3c be
       0.1116568 -0.3141107 0.11650053 -0.1837116
0002e0 f9 7a 24 bf d1 06 fc 3e 15 73 58 3e 4b 70 e9 be
       -0.6425014 0.4922395 0.2113765 -0.45593485
0002f0 85 36 a1 3e b6 dd 4a be 0d 15 5f be 9b 57 0c ba
       0.31486908 -0.19811139 -0.21785374 -0.00053536304
000300 dc f7 15 3f be f5 54 be 1b 99 f3 bd 8d 78 c2 bd
       0.5858133 -0.20796868 -0.11894437 -0.094956495
000310 2b 37 b8 bc 05 53 be 3e f0 cd 17 bd 79 56 c1 be
       -0.022487244 0.37172714 -0.03706163 -0.37761286
000320 9d 5c f9 3d 32 07 25 be 6a 64 99 bd e2 67 80 3e
       0.12175868 -0.16116026 -0.074898556 0.25079256
000330 17 5e a5 bd c2 30 98 3d a4 aa 38 3e c3 0a 9e be
       -0.08074587 0.07431175 0.18033844 -0.30867586
000340 6a 46 60 3e 7d d1 b1 bc f1 98 5d be 17 79 b1 be
       0.21901861 -0.021706337 -0.21640374 -0.34662697
000350 6c 08 32 bf e5 ea e6 3e 0a 6d d4 3d 59 02 b3 3d
       -0.695441 0.45101085 0.1037236 0.08740682
000360 26 f6 39 be 67 67 92 bc 7e fa e5 3d fd 30 1b be
       -0.18160304 -0.017871572 0.11229418 -0.15155406
000370 26 70 1b 3e d3 00 89 bc 2a 24 31 3e 84 f8 8f be
       0.151795 -0.016724026 0.17298952 -0.2811929
000380 79 72 fb 3d ba 46 d2 3e a2 94 8c be 07 bb 7d be
       0.12277693 0.41069585 -0.27457148 -0.24778377
000390 b1 58 6b 3d 71 34 8a 3e a3 88 ea be 4e ee 64 be
       0.05745763 0.26993135 -0.4580737 -0.22356531
0003a0 f9 b1 48 be cb 09 1e 3e ed 59 25 3c 15 11 53 3b
       -0.19599141 0.15433423 0.010092241 0.0032206227
0003b0 66 5a e4 3d 47 6b 2e 3e 23 49 a3 3d 0b 40 9f 3c
       0.11150055 0.1703311 0.07972934 0.019439718
0003c0 87 4d 13 bf c8 23 be 3d 96 54 35 be cf 8e b6 3e
       -0.5754017 0.092841685 -0.17708048 0.3565583
0003d0 ff 69 81 be 85 c3 b1 bd 1d 7c 9f 3e 16 ce 0b 3f
       -0.2527618 -0.086798705 0.31149378 0.5461134
0003e0 3a e5 28 bd cb ce e9 3d 83 c7 02 3f 47 98 cf be
       -0.041234232 0.11416396 0.5108568 -0.40545866
0003f0 92 b1 2f 3e cb 11 8e be 44 f3 53 be 4f c2 1d be
       0.17157581 -0.2774795 -0.20698267 -0.15406154

bias f4 [8]
000000 9a 7f f7 bb 69 b9 3a 3e 30 a1 3e be 4c 16 b6 3d
       -0.007553053 0.18234791 -0.18616176 0.088909715
000010 f1 0d e5 bd d3 71 1a 3e 37 8c a6 bc dd 06 a2 bd
       -0.111843 0.15082483 -0.020330532 -0.07911465

weight f4 [34, 4]
000000 84 cd 95 3f a7 95 06 3d d0 70 92 bf 33 ea 7d bd
       1.1703343 0.032857563 -1.1440678 -0.061990928
000010 13 f2 a6 bf b0 2e 75 3f 3e 22 59 bf 0a 79 9d be
       -1.3042625 0.95774364 -0.84817874 -0.30756408
000020 74 42 97 bd 6a b1 ee 3e 5d 11 82 bf 22 29 25 be
       -0.07385722 0.4661973 -1.0161549 -0.16128972
000030 0c 82 0a bf d2 33 52 be 7f 19 f1 be 8b 30 df be
       -0.54104686 -0.2052758 -0.47089764 -0.43591723
000040 cf 23 9a be 7a 8b c9 be 5b 1f e3 be 6a 3e ad be
       -0.30105445 -0.39364225 -0.4435986 -0.3383668
000050 5d 30 6b 3f f3 b8 b4 3e 15 0d dd bf 1b 02 1f 3e
       0.9187067 0.35297355 -1.7269617 0.15528147
000060 ed c5 26 be 0c 37 07 bf 85 24 0d 3f 9f 16 43 3f
       -0.1628644 -0.5281837 0.5513385 0.7620639
000070 f9 73 86 3f bb c6 b6 be d4 e9 da 3d 4d 63 a8 3f
       1.0504142 -0.35698494 0.106891304 1.3155304
000080 81 33 5d 3f 3b 05 99 bf ae d2 44 3e 3a 8c 94 3f
       0.86406714 -1.1954721 0.19220993 1.1605294
000090 2c 8d 99 be da 08 71 3f 50 27 a2 3f eb c3 11 40
       -0.29990518 0.9415413 1.2668247 2.277583
0000a0 38 39 73 3f d2 02 62 3f 88 10 9d bd 5d 9a ad 3f
       0.95009184 0.88285553 -0.07669169 1.3562733
0000b0 64 c7 28 bc d1 ab 59 bf 45 5b b5 be e1 93 4b bf
       -0.010301445 -0.85027796 -0.35421196 -0.7952252
0000c0 ab 58 a7 be ce 9b 8d bf b0 65 5d bc 51 15 be 3f
       -0.32684836 -1.1063173 -0.013513014 1.4850255
0000d0 7d 9e 65 3f a5 d3 34 c0 db e4 ab bf e3 24 bd 3f
       0.8969496 -2.8254178 -1.3429216 1.4776882
0000e0 d5 d4 32 3d 5c d8 12 3f 6a 9d 12 bf 8b 0e f0 3f
       0.043660004 0.5736139 -0.57271445 1.8754438
0000f0 ec f0 4d 3f 89 48 c4 3e ad c2 51 40 9f 4a bd bf
       0.8044574 0.3833659 3.277507 -1.4788398
000100 d4 ef 0a bf 16 30 bd 3f 59 65 36 40 7a 60 b5 3e
       -0.542722 1.47803 2.8499358 0.35425168
000110 e1 ef 75 be f8 45 15 3e ba 77 a0 3f 24 78 b5 3f
       -0.24017288 0.14577472 1.2536538 1.4177289
000120 19 c6 72 3f 69 9e 95 3e 5b 9f a0 3d d1 2c 4d 3f
       0.94833523 0.2922242 0.07842895 0.8014651
000130 fa b7 83 3f 36 f0 8f be 69 c0 5d 3f 05 48 45 3f
       1.029052 -0.28112954 0.8662172 0.7706302
000140 27 73 fa 3e a4 a4 e2 3f a6 5d e2 be c0 be 88 bf
       0.4891598 1.7706494 -0.44212073 -1.0683212
000150 53 25 92 3f 3a b4 07 3f db b6 57 bf a2 7e 02 c0
       1.141764 0.5300938 -0.8426339 -2.038979
000160 c0 b5 e5 3e 89 56 0a 3f a5 5a 8a 3e aa 2a 48 3f
       0.44865227 0.5403829 0.2702228 0.781901
000170 6b 48 92 bf 97 0b af be 19 58 ad 3f ec 06 ae 3e
       -1.142835 -0.3418853 1.354251 0.33989656
000180 d7 77 f5 3f 87 71 ea bf 8c 65 ce 3e 82 ad 7f be
       1.9177197 -1.8315896 0.4031185 -0.24968532
000190 b2 1f ce 3e 68 0a 93 3e a2 74 37 bf ab de 02 be
       0.40258557 0.28718877 -0.7166234 -0.12780254
0001a0 8c 2f 95 bd b2 3d d6 3e 1a ca 10 be 04 dc 90 bf
       -0.072844595 0.41843945 -0.14139596 -1.1317143
0001b0 1d 03 f4 3e c3 0d ea 3f 99 a8 90 3f 48 01 8d bf
       0.47658625 1.828545 1.1301452 -1.1016016
0001c0 41 89 65 be 07 a5 28 3f 8b d3 a1 3f ca e8 1d bf
       -0.2241564 0.6587681 1.2642683 -0.6168333
0001d0 ab 74 93 bf 48 df 64 bf b5 8f 06 40 65 d0 b7 3d
       -1.1519979 -0.894032 2.1025212 0.08975295
0001e0 53 03 0f bf 91 7b 6b be 9d 8f 9d 3e 16 e3 69 3e
       -0.5586445 -0.22996356 0.3077363 0.22840533
0001f0 8d a1 bd 3d fe 67 10 bf 44 3e f6 be 16 8e aa 3e
       0.09259329 -0.5640868 -0.4809438 0.33311528
000200 0c c4 7c bf 5a fd d3 be 71 b9 09 3f a6 b3 78 3f
       -0.98736644 -0.4140423 0.53798586 0.9714912
000210 36 14 00 c0 b3 61 8a 3f 96 8c 90 bf bf 64 c0 bd
       -2.0012336 1.0811065 -1.1292903 -0.09394216

weight f4 [24, 4]
000000 c6 94 be be d8 d4 47 3f 4a 3d 96 3e f8 77 bf 3e
       -0.3722288 0.7805915 0.29343635 0.37396216
000010 f5 3e 52 bf e4 a2 56 3e 12 3b c8 3e e7 a2 f5 3e
       -0.82127315 0.20960575 0.39107567 0.47975847
000020 fd 58 3c bf e9 3c ec be 07 fc 06 bf 11 eb c7 3e
       -0.73573285 -0.4614022 -0.52728313 0.3904653
000030 46 86 5e bf af e2 49 bf e5 94 31 bf 0a 28 ce 3e
       -0.86923635 -0.78861517 -0.6936782 0.40264922
000040 a1 6a 8e bf 9b 54 4b bf 6d 45 8f bf 49 a9 0e be
       -1.112629 -0.7942597 -1.1193062 -0.13931765
000050 d0 c2 b8 be 20 e6 a1 be 49 49 75 3e 35 4a ad 3f
       -0.3608613 -0.31620884 0.23953737 1.3538271
000060 11 4d 75 bf 2d ec ee 3e 61 81 07 be b0 c6 8e be
       -0.9582072 0.46664563 -0.13232948 -0.27885962
000070 e1 ce 00 bf 41 ce 05 be 4e ef be 3e 8d f6 8b be
       -0.5031567 -0.13066961 0.3729195 -0.2733654
000080 2f 9c 8c 3f 05 66 dd 3e d4 f8 c5 be 9b 5a 69 3c
       1.0985163 0.43241897 -0.38666403 0.014242793
000090 a7 d2 37 3f d1 e4 80 be fe c9 a9 3e 68 53 4f 3f
       0.71805805 -0.25174573 0.3316192 0.8098664
0000a0 3a a4 4c be cb 32 24 3e ce a1 84 3f e8 1e 77 3e
       -0.19984522 0.16035001 1.0361879 0.24132884
0000b0 02 84 03 bf 92 3b 7d 3e 40 fd e5 3d ee a4 34 bf
       -0.513733 0.24729756 0.11229944 -0.7056416
0000c0 1c 94 48 bf ee 90 75 3e b3 87 1d 3f 39 8e 29 bf
       -0.78350997 0.23981068 0.61535186 -0.6623264
0000d0 d5 58 65 bf 9c 67 54 be ce 41 a2 be 71 85 90 bf
       -0.8958867 -0.20742649 -0.3169083 -1.1290723
0000e0 1d e2 26 3e fc 7e a1 be 49 87 ef 3d 19 b8 4d 3e
       0.16297193 -0.31542194 0.116957255 0.20089759
0000f0 19 7a 12 bf 43 02 98 be 1e 6d f6 3e 7f 4d 07 be
       -0.57217556 -0.29689226 0.48130125 -0.13213156
000100 50 2e 8f be 41 40 1a 3e de 30 e5 3e ad 34 39 be
       -0.2796502 0.15063573 0.44763845 -0.180865
000110 6c a3 a3 3e 38 0e 88 be 1f 6c 69 3f 3c e2 88 3f
       0.31960618 -0.26573348 0.91180605 1.0694041
000120 4f 87 6a bf e4 86 e8 3e c4 2b ab 3f 0e 2d db bd
       -0.91612715 0.45415413 1.3372731 -0.10701953
000130 34 c5 f2 3d f9 90 7b bd 70 72 40 bf 83 54 ed be
       0.1185402 -0.061417554 -0.7517462 -0.4635354
000140 90 71 8d 3f f2 73 13 bf d0 95 66 be e4 9e 80 3f
       1.1050282 -0.57598794 -0.22518086 1.004849
000150 3b a9 8d bf 29 77 5d 3d e0 24 77 3f 74 f7 b8 be
       -1.106727 0.054068718 0.9654064 -0.36126292
000160 08 2d 93 3e 07 80 f6 3d 4f f4 97 be a8 3e 31 3e
       0.28745294 0.12036138 -0.2967858 0.17309058
000170 ed b3 aa bc fa db 7a 3f 73 bb 5b bf 36 6a 21 bf
       -0.020837748 0.9799191 -0.858329 -0.6305269

weight f4 [4, 8]
000000 4b 90 bd 3e 39 2e ad 3e 04 0d 3f be 3c 88 51 be
       0.3702415 0.33824328 -0.18657309 -0.20462126
000010 c8 fe d6 3c 7a 51 6e bc 84 7a ac 3c 83 ba e4 bc
       0.026244536 -0.014545793 0.021054514 -0.027920967
000020 6e 29 46 3e 3a f1 ef 3d ea db c0 be 7d 22 b4 3b
       0.19351742 0.11715932 -0.3766778 0.0054972754
000030 9e c7 e2 bd 9b 44 82 3d 29 27 bb bd a8 64 f1 3d
       -0.1107323 0.06360742 -0.091383286 0.11786777
000040 00 96 b0 3b 01 a5 53 be ea 8f 2b bf df 43 0b 3f
       0.005388975 -0.20668413 -0.6701647 0.5440044
000050 c7 bf 98 3b 31 5a f0 ba 3d 48 2e 3b 66 fb 8a bb
       0.0046615335 -0.0018337426 0.002659335 -0.004241395
000060 5a a8 4d 3e 5a 8e 0f 3e 11 29 d5 be 1f 76 39 3e
       0.20083752 0.14019147 -0.41632894 0.18111466
000070 49 ea c7 bd de eb 64 3d 28 d1 aa bd cb 89 d3 3d
       -0.09761483 0.055889003 -0.08340675 0.10329016

bias f4 [4]
000000 be b8 bc bd d9 71 fb 3d 10 cd 57 3e 78 ff 1f be
       -0.09214924 0.12277574 0.21074319 -0.15624797

weight f4 [8, 1, 1]
000000 7c 2e 38 bf 75 f1 d2 be 95 53 50 3f 25 01 48 3f
       -0.7194593 -0.41199842 0.81377536 0.78126746
000010 1e 06 49 bf f4 0f 65 3f f4 bf 4c 3f cf 34 8e bf
       -0.7852496 0.8947747 0.799804 -1.1109866

bias f4 [8]
000000 fc 19 1a bf 13 3d 67 3f 58 58 0d 3e 8f 30 4f 3f
       -0.601959 0.90327567 0.13803232 0.8093347
000010 a0 9d 45 be 2e 75 49 3f b2 74 14 3f 7a 5c 06 be
       -0.1929841 0.78694427 0.5799056 -0.13121215
