trained_models/net_1/Supervised_WAE_net_1.pt (torch, 247035 bytes, 174 tensors)

weight f4 [4, 1]
0.63449395 -0.57637024 0.6538688 -0.5050497
00000000: 326e 223f 008d 13bf f263 273f f04a 01bf

bias f4 [4]
-0.93419933 -0.6752862 -0.08107865 0.28000605
00000000: b027 6fbf 8edf 2cbf 900c a6bd f45c 8f3e

pe f4 [1, 65, 4]
0.0 1.0 0.0 1.0 0.84147096 0.54030234 0.009999833 0.99995
0.9092974 -0.41614684 0.019998666 0.9998 0.14112 -0.9899925 0.0299955 0.99955004
-0.7568025 -0.6536436 0.039989334 0.9992001 -0.9589243 0.2836622 0.049979165 0.99875027
-0.2794155 0.96017027 0.059964005 0.99820054 0.6569866 0.75390226 0.06994285 0.997551
0.98935825 -0.14550003 0.07991469 0.9968017 0.4121185 -0.91113025 0.089878544 0.9959527
-0.5440211 -0.8390715 0.099833414 0.9950042 -0.9999902 0.004425698 0.1097783 0.9939561
-0.53657293 0.84385395 0.119712204 0.99280864 0.42016703 0.9074468 0.12963414 0.9915619
0.9906074 0.13673721 0.13954312 0.990216 0.65028787 -0.7596879 0.14943813 0.9887711
-0.2879033 -0.9576595 0.15931821 0.98722726 -0.96139747 -0.27516335 0.16918235 0.9855848
-0.75098723 0.6603167 0.17902957 0.9838437 0.1498772 0.9887046 0.1888589 0.9820042
0.9129453 0.40808207 0.19866931 0.9800666 0.8366556 -0.54772925 0.2084599 0.9780309
-0.008851309 -0.99996084 0.21822962 0.97589743 -0.8462204 -0.53283304 0.22797751 0.9736664
-0.9055784 0.42417902 0.23770262 0.971338 -0.13235176 0.99120283 0.24740396 0.9689124
0.76255846 0.6469193 0.25708055 0.96639 0.95637596 -0.29213881 0.2667314 0.9637709
0.2709058 -0.9626059 0.27635565 0.96105546 -0.6636339 -0.74805754 0.2859522 0.9582439
-0.9880316 0.15425146 0.2955202 0.9553365 -0.40403765 0.91474235 0.30505863 0.95233357
0.5514267 0.83422333 0.31456655 0.94923544 0.99991184 -0.013276747 0.324043 0.94604236
0.5290827 -0.8485703 0.3334871 0.9427547 -0.42818266 -0.9036922 0.3428978 0.9393727
-0.99177885 -0.12796369 0.3522742 0.9358968 -0.6435381 0.76541406 0.36161545 0.93232733
0.29636857 0.95507365 0.37092048 0.9286646 0.96379536 0.26664293 0.3801884 0.92490906
0.74511313 -0.66693807 0.38941833 0.921061 -0.15862267 -0.98733926 0.39860934 0.9171208
-0.91652155 -0.3999853 0.40776044 0.9130889 -0.8317747 0.5551133 0.41687077 0.90896577
0.017701926 0.9998433 0.42593947 0.90475166 0.8509035 0.525322 0.43496552 0.90044713
0.90178835 -0.43217796 0.4439481 0.8960525 0.123573124 -0.99233544 0.45288628 0.8915683
-0.76825464 -0.64014435 0.46177918 0.8869949 -0.95375264 0.30059254 0.47062588 0.88233286
-0.26237485 0.96496606 0.47942555 0.87758255 0.6702292 0.7421542 0.48817724 0.8727445
0.9866276 -0.16299078 0.4968801 0.8678192 0.39592516 -0.9182828 0.50553334 0.8628071
-0.5587891 -0.8293098 0.51413596 0.8577087 -0.99975514 0.022126757 0.52268726 0.8525245
-0.521551 0.8532201 0.5311862 0.8472551 0.43616477 0.8998668 0.539632 0.841901
0.99287266 0.119180135 0.54802394 0.8364627 0.636738 -0.7710802 0.556361 0.83094066
-0.3048106 -0.95241296 0.5646424 0.8253356 -0.9661178 -0.25810164 0.57286745 0.819648
-0.7391807 0.67350715 0.58103514 0.8138785 0.1673557 0.9858966 0.58914477 0.8080275
00000000: 0000 0000 0000 803f 0000 0000 0000 803f
00000010: a46a 573f 4151 0a3f 57d6 233c b9fc 7f3f
00000020: b7c7 683f 3311 d5be 3ed4 a33c e5f2 7f3f
00000030: c381 103e 2670 7dbf 1fb9 f53c 83e2 7f3f
00000040: cfbd 41bf 3055 27bf dbcb 233d 94cb 7f3f
00000050: 107c 75bf 2c3c 913e f4b6 4c3d 19ae 7f3f
00000060: 8c0f 8fbe b8cd 753f d19c 753d 128a 7f3f
00000070: 4630 283f bdff 403f 323e 8f3d 815f 7f3f
00000080: 9546 7d3f f6fd 14be 50aa a33d 652e 7f3f
00000090: 3201 d33e d53f 69bf 3e12 b83d c2f6 7e3f
000000a0: f844 0bbf 64cd 56bf 7675 cc3d 98b8 7e3f
000000b0: 5cff 7fbf 7205 913b 72d3 e03d e873 7e3f
000000c0: d85c 09bf d006 583f ac2b f53d b528 7e3f
000000d0: 2220 d73e 6f4e 683f d0be 043e 00d7 7d3f
000000e0: 7298 7d3f d704 0c3e 64e4 0e3e cc7e 7d3f
000000f0: 4479 263f e87a 42bf 4f06 193e 1a20 7d3f
00000100: 1068 93be 2c29 75bf 5024 233e edba 7c3f
00000110: 251e 76bf 36e2 8cbe 233e 2d3e 494f 7c3f
00000120: b340 40bf 840a 293f 8753 373e 2edd 7b3f
00000130: 6979 193e bf1b 7d3f 3a64 413e a164 7b3f
00000140: c8b6 693f 22f0 d03e f86f 4b3e a5e5 7a3f
00000150: 102f 563f fc37 0cbf 8376 553e 3c60 7a3f
00000160: 1505 11bc 6ffd 7fbf 9677 5f3e 6ad4 793f
00000170: e6a1 58bf bf67 08bf f072 693e 3442 793f
00000180: fcd3 67bf fe2d d93e 5168 733e 9ba9 783f
00000190: 3887 07be 78bf 7d3f 7757 7d3e a50a 783f
000001a0: 0837 433f 819c 253f 10a0 833e 5665 773f
000001b0: 0ed5 743f 3893 95be 0591 883e b1b9 763f
000001c0: 2ab4 8a3e 576d 76bf 7d7e 8d3e bb07 763f
000001d0: e9e3 29bf b380 3fbf 5468 923e 794f 753f
000001e0: a4ef 7cbf 18f4 1d3e 6c4e 973e ef90 743f
000001f0: 06de cebe 8e2c 6a3f a530 9c3e 22cc 733f
00000200: 4d2a 0d3f a98f 553f de0e a13e 1801 733f
00000210: 39fa 7f3f b786 59bc f7e8 a53e d52f 723f
00000220: f771 073f e73b 59bf d2be aa3e 5f58 713f
00000230: c23a dbbe 5f58 67bf 4d90 af3e bb7a 703f
00000240: 38e5 7dbf ea08 03be 495d b43e ef96 6f3f
00000250: eabe 24bf 2df2 433f a925 b93e 01ad 6e3f
00000260: 9fbd 973e b57f 743f 4ae9 bd3e f7bc 6d3f
00000270: 4bbb 763f 6c85 883e 0ea8 c23e d7c6 6c3f
00000280: bcbf 3e3f 74bc 2abf d761 c73e a7ca 6b3f
00000290: fb6d 22be 44c2 7cbf 8616 cc3e 6ec8 6a3f
000002a0: 28a1 6abf e0ca ccbe fac5 d03e 32c0 693f
000002b0: 30ef 54bf e81b 0e3f 1670 d53e fbb1 683f
000002c0: a103 913c bbf5 7f3f bd14 da3e ce9d 673f
000002d0: d0d4 593f 817b 063f cdb3 de3e b483 663f
000002e0: 9adb 663f 6e46 ddbe 2a4d e33e b263 653f
000002f0: e813 fd3d b209 7ebf b6e0 e73e d23d 643f
00000300: 56ac 44bf 80e0 23bf 526e ec3e 1912 633f
00000310: 2229 74bf 44e7 993e e0f5 f03e 91e0 613f
00000320: ff55 86be 0408 773f 4477 f53e 40a9 603f
00000330: 2494 2b3f d1fd 3d3f 5ef2 f93e 2f6c 5f3f
00000340: a093 7c3f 0ee7 26be 1267 fe3e 6629 5e3f
00000350: b4b6 ca3e 9514 6bbf a26a 013f ede0 5c3f
00000360: cd0c 0fbf a64d 54bf 6a9e 033f cc92 5b3f
00000370: f4ef 7fbf 2c43 b53c d5ce 053f 0c3f 5a3f
00000380: 5e84 05bf a26c 5a3f d2fb 073f b6e5 583f
00000390: fd50 df3e ac5d 663f 5325 0a3f d386 573f
000003a0: e72c 7e3f b714 f43d 4c4b 0c3f 6b22 563f
000003b0: 4301 233f 8365 45bf ad6d 0e3f 87b8 543f
000003c0: 2310 9cbe 56d1 73bf 688c 103f 3249 533f
000003d0: 7f53 77bf e625 84be 71a7 123f 74d4 513f
000003e0: f23a 3dbf f76a 2c3f b8be 143f 575a 503f
000003f0: 4b5f 2b3e b863 7c3f 31d2 163f e4da 4e3f

weight f4 [4, 4]
0.24930453 0.11602056 -0.22619486 0.22171628 -0.37434512 -0.43951678 0.37785602 0.30466503
0.29480046 -0.21575415 0.45520806 -0.10133523 -0.05107647 0.16077858 -0.013230503 0.31319278
00000000: b049 7f3e 309c ed3d a09f 67be 9809 633e
00000010: 2aaa bfbe 5808 e1be 5876 c13e 0efd 9b3e
00000020: 16f0 963e a8ee 5cbe 0811 e93e d888 cfbd
00000030: 9035 51bd 24a3 243e c0c4 58bc ce5a a03e

weight f4 [4, 4]
0.22489262 0.20939392 0.16164249 -0.46124107 -0.18343693 0.15047777 -0.27321917 -0.31755143
0.27595943 0.2001136 -0.36452937 -0.24151468 0.3821807 0.48818517 0.43869847 0.0564602
00000000: 404a 663e 5c6b 563e 9c85 253e ca27 ecbe
00000010: e4d6 3bbe d816 1a3e 62e3 8bbe 1a96 a2be
00000020: 8e4a 8d3e 94ea 4c3e 98a3 babe a04f 77be
00000030: 30ad c33e 68f3 f93e 169d e03e d042 673d

weight f4 [4, 4]
-0.0056149364 0.31055242 0.3870374 -0.038925827 0.22282708 -0.07219964 -0.12316018 -0.21043521
-0.32380754 -0.4939415 0.1620928 -0.1589055 -0.34918392 -0.16599727 0.30537432 0.024844587
00000000: 80fd b7bb ba00 9f3e c429 c63e b070 1fbd
00000010: c82c 643e 68dd 93bd 683b fcbd 547c 57be
00000020: 1aca a5be e6e5 fcbe a8fb 253e 20b8 22be
00000030: 3cc8 b2be 30fb 29be 065a 9c3e e086 cb3c

weight f4 [4, 4]
-0.024560928 -0.31808496 0.4500556 0.17641324 -0.33052975 0.03078401 -0.47462904 0.08653909
0.3852619 -0.10209793 0.05191773 -0.12323755 -0.20961738 0.15433747 -0.40567082 0.24059904
00000000: 0034 c9bc 08dc a2be b06d e63e aca5 343e
00000010: 323b a9be c02e fc3c 9402 f3be 683b b13d
00000020: 0c41 c53e b818 d1bd b0a7 543d f863 fcbd
00000030: f0a5 56be a40a 1e3e 16b4 cfbe 985f 763e

bias f4 [4]
-0.14115 0.051309526 -0.03448057 -0.16760671
00000000: a089 10be f029 523d 803b 0dbd 18a1 2bbe

weight f4 [4, 4]
0.43107212 -0.0625267 -0.43157983 0.0216465 -0.4329608 -0.028383553 -0.087827325 -0.00071007013
-0.21214855 -0.27065712 -0.07716864 -0.29165518 -0.15704286 -0.29421622 0.050834715 0.2217381
00000000: 7cb5 dc3e 000e 80bd 08f8 dcbe 0054 b13c
00000010: 0aad ddbe a084 e8bc d0de b3bd 0024 3aba
00000020: 783d 59be 9293 8abe 980a 9ebd d453 95be
00000030: d8cf 20be 82a3 96be 1038 503d 500f 633e

bias f4 [4]
-0.16433197 -0.17563003 0.3704828 0.104543984
00000000: a446 28be 5cd8 33be ecaf bd3e 281b d63d

weight f4 [4, 4]
0.18482178 0.27354932 -0.14240652 0.17750579 0.3738591 -0.05397439 -0.3810196 0.061136544
0.48365492 -0.11507797 0.4585191 0.38238156 0.23610008 0.4987607 0.42497814 0.35558414
00000000: ec41 3d3e a80e 8c3e 04d3 11be 14c4 353e
00000010: 766a bf3e 4014 5dbd 0015 c3be 506a 7a3d
00000020: 9ea1 f73e 00ae ebbd 04c3 ea3e 84c7 c33e
00000030: 38c4 713e 905d ff3e bc96 d93e 200f b63e

bias f4 [4]
0.20851803 0.41437417 -0.42937183 -0.22504961
00000000: c085 553e da28 d43e a0d6 dbbe 6873 66be

weight f4 [4]
1.0 1.0 1.0 1.0
00000000: 0000 803f 0000 803f 0000 803f 0000 803f

bias f4 [4]
0.0 0.0 0.0 0.0
00000000: 0000 0000 0000 0000 0000 0000 0000 0000

weight f4 [4]
1.0 1.0 1.0 1.0
00000000: 0000 803f 0000 803f 0000 803f 0000 803f

bias f4 [4]
0.0 0.0 0.0 0.0
00000000: 0000 0000 0000 0000 0000 0000 0000 0000

weight f4 [32, 260]
0.024759548 -0.02211402 -0.04709734 0.017134752 -0.013097365 0.056818657 -0.053543124 -0.0041341987
0.023369294 -0.010115935 -0.028772367 0.01892917 0.030806476 0.01033672 -0.015154532 -0.056325372
0.056062993 -0.048366476 0.041891817 -0.03884608 0.025654528 0.0054769535 0.0004479373 -0.058074847
-0.03285048 -0.030135985 -0.035911642 0.016858932 0.017979268 0.05082115 0.015277501 -0.007730605
-0.05979381 -0.025453985 -0.0021076244 -0.019312344 -0.02606437 0.00804699 0.023842381 -0.016298221
0.028909132 0.059588566 -0.028762313 -0.018499332 -0.026869893 0.03815032 -0.05048402 0.04839537
0.014468901 -0.049034156 -0.035882547 -0.030162934 -0.0179952 -0.03168202 -0.02192776 -0.013753203
-0.056127444 -0.052426413 -0.052264895 0.031354137 -0.043549575 0.0020300343 -0.02171496 0.007072994
-0.028945897 -0.05767098 0.023626609 0.03502438 0.055790816 -0.013993084 0.016134037 0.01577827
0.049287774 -0.017617444 0.034666594 0.031043282 -0.025015118 -0.013242979 0.008365195 0.023615496
0.010312804 0.038274355 0.03152826 0.032097325 -0.037192367 0.0010581667 0.051858824 -0.059956577
-0.031266678 -0.042501077 0.015820978 0.002958246 0.052173696 -0.0050912434 -0.048012756 0.004274822
0.009906556 -0.0015998404 0.06060205 0.0584076 0.044436797 -0.006098672 -0.06035127 -0.0604835
-0.00506797 0.02806438 0.031516097 -0.003000808 -0.033054844 -0.005896686 0.015829444 -0.023769641
0.0013835864 0.025202865 0.034762103 -0.045093603 0.010151422 0.0016024649 0.031400047 0.031270582
0.050464157 0.055267382 -0.02266455 -0.051042277 0.01459567 0.0084487805 -0.015906893 0.032530207
0.02777444 0.029912783 -0.039270286 -0.0045189625 -0.0401662 -0.021455558 -0.0068572573 0.026492959
-0.037090845 0.020995777 0.0016788425 -0.04387986 0.055313293 -0.0048329746 -0.054190002 -0.00048132427
0.05948193 0.028727219 -0.006397151 0.009456046 0.013504737 -0.037322477 -0.028436324 -0.041275658
0.013263428 0.060382955 0.033773668 0.007384108 -0.053496357 0.02184779 0.05798802 0.04067799
-0.04242893 0.009050634 0.006212902 0.025595207 0.0016645518 -0.0019371259 -0.03382272 0.014386062
0.044372916 -0.046073124 -0.03741697 0.0059732855 -0.04870906 -0.01464399 0.060075797 0.009892228
-0.058205143 0.010006414 -0.043843668 -0.045139987 -0.052133486 0.026054831 0.019339085 -0.035276134
-0.017748538 -0.023257785 0.0038566713 -0.059030265 -0.034539025 -0.056733985 0.037444085 -0.052800477
0.008083874 0.049138583 -0.044961143 0.044797156 -0.027010301 0.042680956 0.021185322 0.0016476364
-0.031069232 -0.045104478 -0.04476099 -0.02262111 0.031814642 -0.021780986 -0.00434045 -0.04919449
0.027173512 0.037920162 -0.041010678 0.03478948 -0.012662499 -0.01919983 -0.023094123 -0.018014422
0.020021368 0.043881346 0.015525722 0.031492654 -0.034019303 0.044301808 -0.030754894 0.04165189
-0.020989783 -0.006233676 -0.01823494 0.022374714 -0.045105767 -0.020554377 -0.03706566 0.01863886
-0.036807034 0.04799408 -0.04059299 0.02342653 0.031782623 0.045401827 0.060898952 0.031168336
0.010994354 -0.032715663 -0.04881019 -0.016053498 -0.058621008 0.000389133 0.037865683 -0.026984582
-0.05917522 -0.028017782 -0.046128646 -0.029288875 0.0065766247 -0.054103974 0.018114582 0.002253016
00000000: 89d4 ca3c 7628 b5bc 24e9 40bd 2e5e 8c3c
00000010: 5596 56bc aeba 683d 0950 5bbd 2c78 87bb
00000020: f670 bf3c 4ebd 25bc 07b4 ebbc 5911 9b3c
00000030: dd5d fc3c 595b 293c b74a 78bc 6fb5 66bd
00000040: 4fa2 653d ed1b 46bd c196 2b3d 111d 1fbd
00000050: 7229 d23c 0478 b33b 20d9 ea39 e4df 6dbd
00000060: 3a8e 06bd bedf f6bc 1618 13bd be1b 8a3c
00000070: 4249 933c d729 503d 7c4e 7a3c 0451 fdbb
00000080: 5bea 74bd e084 d0bc 1220 0abb ec34 9ebc
00000090: f284 d5bc 86d7 033c 1951 c33c d983 85bc
000000a0: d8d2 ec3c 2413 743d f19e ebbc e98b 97bc
000000b0: 401e dcbc 8343 1c3d 55c8 4ebd 393a 463d
000000c0: f80e 6d3c 0ad8 48bd 94f9 12bd 4218 f7bc
000000d0: ab6a 93bc 01c5 01bd d9a1 b3bc 1d55 61bc
000000e0: e4e5 65bd 14bd 56bd b713 56bd 326d 003d
000000f0: 0a61 32bd 530a 053b 92e3 b1bc 93c4 e73b
00000100: f21f edbc 6838 6cbd 978c c13c b975 0f3d
00000110: e984 643d 4043 65bc 872b 843c 6e41 813c
00000120: fae1 493d 7552 90bc 8ffe 0d3d 7b4e fe3c
00000130: 81ec ccbc 14f9 58bc 2c0e 093c 4975 c13c
00000140: 09f7 283c 92c5 1c3d c723 013d 7c78 033d
00000150: 0657 18bd 2fb2 8a3a eb69 543d 0795 75bd
00000160: 7d11 00bd 9c15 2ebd ff9a 813c 22df 413b
00000170: 16b4 553d 72d4 a6bb 06a9 44bd ce13 8c3b
00000180: 1c4f 223c bcb1 d1ba db39 783d cf3c 6f3d
00000190: 5c03 363d 5ed7 c7bb e532 77bd 8cbd 77bd
000001a0: 3711 a6bb 45e7 e53c 0617 013d 34a9 44bb
000001b0: 8464 07bd fd38 c1bb c0ac 813c 8db8 c2bc
000001c0: 7559 b53a 3d76 ce3c b562 0e3d 12b4 38bd
000001d0: 2652 263c cd09 d23a 569d 003d 9515 003d
000001e0: 81b3 4e3d 0d60 623d 02ab b9bc b511 51bd
000001f0: ad22 6f3c c16c 0a3c 2c4f 82bc 653e 053d
00000200: 3987 e33c a70b f53c e1d9 20bd ce13 94bb
00000210: 5085 24bd 91c3 afbc d8b2 e0bb c307 d93c
00000220: 92ec 17bd 56ff ab3c 9b0c dc3a 5ebb 33bd
00000230: 3190 623d ee5d 9ebb 56f6 5dbd 405a fcb9
00000240: 53a3 733d 5855 eb3c 319f d1bb 88ed 1a3c
00000250: f942 5d3c 74df 18bd 4bf3 e8bc aa10 29bd
00000260: d94e 593c 1e54 773d 4256 0a3d 63f6 f13b
00000270: ff1e 5bbd 23fa b23c d984 6d3d f79d 263d
00000280: f5c9 2dbd 1c49 143c 9995 cb3b 0aad d13c
00000290: 172d da3a 29e7 fdba b189 0abd 84b3 6b3c
000002a0: 60c0 353d 2cb7 3cbd 8942 19bd 8dbb c33b
000002b0: 2783 47bd 59ed 6fbc 0a12 763d 0313 223c
000002c0: 8468 6ebd f1f1 233c 6b95 33bd b5e4 38bd
000002d0: ec89 55bd f170 d53c 006d 9e3c b57d 10bd
000002e0: 6265 91bc 1c87 bebc 35c0 7c3b b8c9 71bd
000002f0: cb78 0dbd e561 68bd f85e 193d 5045 58bd
00000300: 3a72 043c 8a45 493d 2d29 38bd 397d 373d
00000310: b544 ddbc 3ad2 2e3d d78c ad3c 81f5 d73a
00000320: e784 febc 79bf 38bd 4d57 37bd e84f b9bc
00000330: 1250 023d 0a6e b2bc 553a 8ebb 2980 49bd
00000340: fc9a de3c 2c52 1b3d d0fa 27bd 6a7f 0e3d
00000350: 5f76 4fbc f648 9dbc e32f bdbc fb92 93bc
00000360: da03 a43c edbc 333d 995f 7e3c 71fe 003d
00000370: d357 0bbd d075 353d b0f1 fbbc 2c9b 2a3d
00000380: c4f2 abbc dd43 ccbb 7161 95bc 2d4b b73c
00000390: d3c0 38bd a761 a8bc 29d2 17bd 86b0 983c
000003a0: f9c2 16bd 7195 443d d644 26bd ffe8 bf3c
000003b0: 7f2e 023d 44f7 393d 2e71 793d bd54 ff3c
000003c0: aa21 343c dc00 06bd 32ed 47bd a082 83bc
000003d0: 951c 70bd 8c04 cc39 0c19 1b3d c50e ddbc
000003e0: b761 72bd 8c85 e5bc 64f1 3cbd 39ef efbc
000003f0: ba80 d73b 219c 5dbd 0865 943c 56a7 133b

bias f4 [32]
-0.02606927 0.051646296 0.002548272 -0.033486042 0.05905586 -0.016282452 0.033862814 -0.043656632
-0.014647369 0.0069118403 -0.03232906 0.0018657978 0.024196997 -0.037497103 -0.0003475323 -0.04931928
-0.017335584 -0.046559807 -0.020204153 -0.04170238 0.0051937555 -0.007556987 -0.032283615 -0.016266461
-0.021047434 -0.0075855018 -0.0138255805 0.05573965 -0.014184594 -0.056779217 -0.01747674 0.029767139
00000000: 398f d5bc 118b 533d e900 273b a928 09bd
00000010: 8fe4 713d c762 85bc bcb3 0a3d 4cd1 32bd
00000020: 85fb 6fbc b87c e23b 7a6b 04bd c98d f43a
00000030: c838 c63c 9096 19bd ff34 b6b9 0303 4abd
00000040: 5b03 8ebc 7fb5 3ebd 2e83 a5bc 1dd0 2abd
00000050: 6130 aa3b 9aa0 f7bb d33b 04bd 3e41 85bc
00000060: ab6b acbc cd8f f8bb b084 62bc 424f 643d
00000070: 8066 68bc 5391 68bd 612b 8fbc 37da f33c

weight f4 [8, 32]
-0.08052946 -0.025505438 0.14946905 -0.079474054 -0.097831346 -0.077429324 -0.10816765 -0.17151213
0.034069087 -0.16651204 0.14236851 -0.14942956 -0.11377451 -0.12790732 -0.16258082 -0.10865439
0.052492023 -0.08168913 0.010146938 -0.14034306 0.012071953 0.12616724 0.07803649 -0.12369084
0.03380308 0.15722266 0.07553261 -0.14682844 0.16377565 0.11000932 0.11159862 0.07618517
0.12036505 -0.07650968 -0.11386982 -0.04158364 -0.08131174 0.04492559 0.0018605094 0.15396905
0.04806732 0.051528335 0.01568476 0.1520951 0.0063711284 -0.12825593 -0.1762214 -0.16270477
0.12440927 0.010936117 0.07027496 0.028329277 0.17385529 -0.07485588 -0.14960806 -0.10349616
-0.032289416 -0.16975431 0.074056335 0.12480809 -0.16152725 -0.16477378 0.10561294 0.12489719
-0.10542338 0.010722917 0.052197352 -0.08755386 -0.09813095 -0.10118358 -0.080864646 -0.0998631
-0.13759653 0.038707603 0.004097116 0.0024245607 -0.028092686 0.0821709 -0.07715956 -0.007226351
-0.14548466 0.04291232 0.13100898 -0.12699522 -0.12528688 -0.07025612 -0.13356787 0.14559144
-0.021454137 -0.12559874 0.094949916 -0.1441426 -0.07695087 0.06729111 -0.0811326 0.1611391
0.1423831 -0.067767814 0.011441899 0.0883039 0.098198384 0.029053887 0.049992714 0.10800408
0.047431007 -0.087223954 0.09660732 0.107865565 0.06888702 -0.14454708 -0.16494067 -0.099259265
-0.026253292 0.065194264 0.047289796 0.06667903 0.15701064 0.17412038 -0.06270958 -0.048247393
-0.1516149 -0.14693289 0.06467326 0.13532406 0.06770507 -0.12821223 -0.06477547 0.13792172
0.10696716 0.14592105 -0.03513028 -0.030083746 0.09480466 -0.08871718 -0.081885554 0.011488788
-0.0251823 0.12374892 0.14039658 0.09979046 0.08681011 -0.10281371 -0.08361269 -0.11201762
0.07555628 0.107328296 -0.14797038 -0.06619797 0.098290704 0.03785986 -0.06922643 0.065919
-0.025530705 0.05435565 0.05076259 -0.008756808 -0.12290518 0.06820034 -0.02595976 0.105246514
-0.13626699 -0.11024024 0.11789936 0.06819634 -0.14836799 0.10828035 -0.172779 -0.018241536
-0.099261366 0.09832217 -0.123061866 0.071609914 0.093948126 0.091514945 -0.04831232 -0.14337924
0.025662035 0.036099933 0.014701305 -0.15389737 -0.015020125 -0.13509084 -0.002150269 -0.13818839
0.14066026 -0.15314813 0.0034127356 0.13212748 0.086260095 0.05680828 -0.15157683 -0.16227752
-0.11627706 0.0240837 0.03906389 -0.08950123 0.11610584 -0.054642882 -0.081398964 0.09297871
0.066272564 -0.013882561 -0.067741446 0.12030654 -0.019262921 -0.10622976 0.025341677 0.12056496
-0.019367004 -0.04598889 0.08406465 -0.03744193 0.10699835 -0.07481938 -0.043344196 0.06817805
-0.16658744 -0.10010081 0.072274216 -0.1318684 -0.14822768 -0.08078394 0.08526499 -0.07467992
-0.0535152 0.11805781 0.14262182 0.117036656 0.01319131 0.024893614 -0.14152662 -0.08566275
0.019435808 0.09822247 -0.14986484 0.100719504 0.1354175 0.10502967 0.026145123 0.025871126
-0.106332496 0.11631493 0.05352968 0.13181768 -0.110270254 -0.092880465 0.036115065 -0.067137375
-0.07156718 -0.10528413 0.1282356 -0.14785789 0.11305485 -0.16060096 -0.033923894 -0.17063369
00000000: a1ec a4bd c8f0 d0bc 6a0e 193e 4bc3 a2bd
00000010: cd5b c8bd 4493 9ebd 0087 ddbd e0a0 2fbe
00000020: 078c 0b3d 2282 2abe 0dc9 113e 1004 19be
00000030: 9c02 e9bd 23fa 02be 967b 26be 3186 debd
00000040: e001 573d a14c a7bd 583f 263c 17b6 0fbe
00000050: 71c9 453c fc31 013e 98d1 9f3d a051 fdbd
00000060: 1975 0a3d fafe 203e d7b0 9a3d 325a 16be
00000070: ceb4 273e 914c e13d d18d e43d f806 9c3d
00000080: f481 f63d 1bb1 9cbd 9534 e9bd 9b53 2abd
00000090: c586 a6bd e503 383d 56dc f33a 10aa 1d3e
000000a0: 3de2 443d 600f 533d 537d 803c d1be 1b3e
000000b0: e6c4 d03b 8655 03be 6273 34be 149c 26be
000000c0: 4aca fe3d 662d 333c 51ec 8f3d cd12 e83c
000000d0: 1f07 323e 0a4e 99bd db32 19be cbf5 d3bd
000000e0: e841 04bd 13d4 2dbe d9aa 973d 629b ff3d
000000f0: 6667 25be 75ba 28be 994b d83d 19ca ff3d
00000100: 37e8 d7bd 2caf 2f3c e4cc 553d 704f b3bd
00000110: e1f8 c8bd 5639 cfbd 5d9c a5bd 0685 ccbd
00000120: 1be6 0cbe dd8b 1e3d 1a41 863b 61e5 1e3b
00000130: a222 e6bc 3849 a83d d505 9ebd 07cb ecbb
00000140: eef9 14be d4c4 2f3d 3827 063e 090b 02be
00000150: 344b 00be 71e2 8fbd 04c6 08be ec15 153e
00000160: 96c0 afbc f59c 00be 1a75 c23d 1e9a 13be
00000170: 6b98 9dbd eccf 893d d928 a6bd a601 253e
00000180: e0cc 113e dac9 8abd ce76 3b3c add8 b43d
00000190: 3c1c c93d 6b02 ee3c 29c5 4c3d 3e31 dd3d
000001a0: 0447 423d 79a2 b2bd 0fda c53d 9fe8 dc3d
000001b0: a314 8d3d 2604 14be 35e6 28be 7148 cbbd
000001c0: 2511 d7bc 9284 853d f2b2 413d 048f 883d
000001d0: 66c7 203e 9d4c 323e e16d 80bd 0f9f 45bd
000001e0: f040 1bbe 9375 16be 6a73 843d 6492 0a3e
000001f0: f5a8 8a3d 114a 03be 00a9 84bd 5a3b 0d3e
00000200: 9911 db3d 546c 153e c5e4 0fbd 3072 f6bc
00000210: f228 c23d 5ab1 b5bd 9db3 a7bd 783b 3c3c
00000220: 1c4b cebc 1370 fd3d 1fc4 0f3e f15e cc3d
00000230: 80c9 b13d ff8f d2bd 213d abbd 7e69 e5bd
00000240: 40bd 9a3d f0ce db3d 8c85 17be cd92 87bd
00000250: a34c c93d f112 1b3d 96c6 8dbd 8a00 873d
00000260: c525 d1bc 08a4 5e3d 6fec 4f3d b778 0fbc
00000270: b6b5 fbbd 9fac 8b3d 90a9 d4bc 7c8b d73d
00000280: 9389 0bbe a3c5 e1bd 3875 f13d 86aa 8b3d
00000290: c7ed 17be 17c2 dd3d faec 30be 466f 95bc
000002a0: 8b49 cbbd 225d c93d dc07 fcbd 38a8 923d
000002b0: e067 c03d 306c bb3d 24e3 45bd 02d2 12be
000002c0: 3039 d23c 86dd 133d bedd 703c 4697 1dbe
000002d0: f816 76bc 4155 0abe 87eb 0cbb 4281 0dbe
000002e0: 3e09 103e ddd2 1cbe 34a8 5f3b 6d4c 073e
000002f0: 22a9 b03d cdaf 683d f536 1bbe 142c 26be
00000300: ab22 eebd 2e4b c53c 7501 203d 6c4c b7bd
00000310: e6c8 ed3d 37d1 5fbd 80b4 a6bd 9f6b be3d
00000320: e9b9 873d ae73 63bc 07bc 8abd 4663 f63d
00000330: 46cd 9dbc fd8e d9bd 5999 cf3c c3ea f63d
00000340: 8da7 9ebc d95e 3cbd 162a ac3d b65c 19bd
00000350: f321 db3d e73a 99bd af89 31bd efa0 8b3d
00000360: e695 2abe a701 cdbd 8104 943d 8308 07be
00000370: ffc8 17be 0d72 a5bd 699f ae3d c9f1 98bd
00000380: c132 5bbd 4bc8 f13d 740b 123e eab0 ef3d
00000390: 5d20 583c b1ed cb3c 5bec 10be f46f afbd
000003a0: d837 9f3c dd28 c93d 2b76 19be 0746 ce3d
000003b0: e3aa 0a3e cc19 d73d 4c2e d63c afef d33c
000003c0: dac4 d9bd 8636 ee3d f041 5b3d 37fb 063e
000003d0: 5fd5 e1bd 1d38 bebd 64ed 133d 527f 89bd
000003e0: d091 92bd 359f d7bd 3150 033e 0f68 17be
000003f0: 4d89 e73d 9474 24be c8f3 0abd 99ba 2ebe

bias f4 [8]
0.14406952 -0.10390387 0.056527562 0.15147343 0.016527297 -0.07498009 0.17121902 0.037015237
00000000: f686 133e 8dcb d4bd 7289 673d da1b 1b3e
00000010: 4164 873c 298f 99bd 0a54 2f3e 4a9d 173d

weight f4 [4, 1]
0.5114819 -0.110419035 -0.012262225 -0.82444656
00000000: 7af0 023f 6023 e2bd 80e7 48bc ee0e 53bf

bias f4 [4]
0.71328557 0.91914165 0.66578865 0.5666387
00000000: e299 363f de4c 6b3f 2071 2a3f 3c0f 113f

pe f4 [1, 8, 4]
0.0 1.0 0.0 1.0 0.84147096 0.54030234 0.009999833 0.99995
0.9092974 -0.41614684 0.019998666 0.9998 0.14112 -0.9899925 0.0299955 0.99955004
-0.7568025 -0.6536436 0.039989334 0.9992001 -0.9589243 0.2836622 0.049979165 0.99875027
-0.2794155 0.96017027 0.059964005 0.99820054 0.6569866 0.75390226 0.06994285 0.997551
00000000: 0000 0000 0000 803f 0000 0000 0000 803f
00000010: a46a 573f 4151 0a3f 57d6 233c b9fc 7f3f
00000020: b7c7 683f 3311 d5be 3ed4 a33c e5f2 7f3f
00000030: c381 103e 2670 7dbf 1fb9 f53c 83e2 7f3f
00000040: cfbd 41bf 3055 27bf dbcb 233d 94cb 7f3f
00000050: 107c 75bf 2c3c 913e f4b6 4c3d 19ae 7f3f
00000060: 8c0f 8fbe b8cd 753f d19c 753d 128a 7f3f
00000070: 4630 283f bdff 403f 323e 8f3d 815f 7f3f

weight f4 [4, 4]
0.020932794 0.09900159 -0.29785734 -0.23051232 0.42156994 -0.22901982 -0.23276156 -0.2356413
-0.27475905 -0.16716754 0.4743113 0.115675986 -0.30942667 0.019474804 -0.17719162 0.1518513
00000000: 407b ab3c 58c1 ca3d c280 98be 6c0b 6cbe
00000010: 04d8 d73e 2c84 6abe 0c59 6ebe f44b 71be
00000020: 38ad 8cbe f82d 2bbe eed8 f23e 88e7 ec3d
00000030: 2c6d 9ebe a089 9f3c b871 35be e87e 1b3e

weight f4 [4, 4]
-0.44262803 0.18951237 0.44940293 -0.14485753 -0.21891576 -0.45285928 -0.1527642 -0.36828583
-0.034775972 0.084490895 0.19752127 -0.3088773 -0.44781297 0.17552382 0.15368491 0.03302419
00000000: 24a0 e2be 880f 423e 2418 e63e 8855 14be
00000010: 742b 60be 2cdd e7be 386e 1cbe f68f bcbe
00000020: 4071 0ebd 9009 ad3d 0443 4a3e 2a25 9ebe
00000030: be47 e5be 84bc 333e 945f 1d3e 6044 073d

weight f4 [4, 4]
0.19196993 -0.20854646 -0.2843315 -0.21376985 -0.1712758 0.39982665 -0.4952563 -0.27465552
0.20003122 0.23906904 0.18007386 -0.2087484 -0.42700934 0.44045222 -0.461115 -0.26976192
00000000: c493 443e 348d 55be e693 91be 7ce6 5abe
00000010: ec62 2fbe 14b6 cc3e 3c92 fdbe a69f 8cbe
00000020: fcd4 4c3e 84ce 743e 4865 383e 24c2 55be
00000030: f8a0 dabe f482 e13e 4417 ecbe 3c1e 8abe

weight f4 [4, 4]
0.048263073 0.056012332 -0.17883152 0.4178021 0.0039642453 -0.32915747 -0.308931 0.35011876
-0.4467857 -0.17434466 0.29887968 -0.062232614 0.27402598 -0.1480807 -0.17239529 -0.16369182
00000000: 80af 453d 306d 653d 9c1f 37be 28ea d53e
00000010: 80e6 813b 5487 a8be 342c 9ebe c442 b33e
00000020: 18c1 e4be 6887 32be c206 993e a0e7 7ebd
00000030: 224d 8c3e 78a2 17be 6488 30be d49e 27be

bias f4 [4]
0.01519388 -0.02880627 0.35815126 -0.43531984
00000000: c0ef 783c 20fb ebbc 9a5f b73e 3ee2 debe

weight f4 [4, 4]
-0.34448433 0.3201146 0.21512914 -0.44394934 -0.30890244 0.020851254 0.4926374 -0.3899578
0.037153065 0.2835716 -0.44974607 -0.307737 -0.23359048 0.4384275 -0.4773441 0.13209504
00000000: 4060 b0be 10e6 a33e d04a 5c3e 544d e3be
00000010: 7628 9ebe 40d0 aa3c f83a fc3e 8ca8 c7be
00000020: d02d 183d 4c30 913e 1e45 e6be b48f 9dbe
00000030: 5832 6fbe 9279 e03e 7266 f4be ec43 073e

bias f4 [4]
-0.3958233 -0.06509334 0.235744 0.41919345
00000000: 5aa9 cabe a84f 85bd e066 713e 86a0 d63e

weight f4 [4, 4]
0.14363158 -0.15193594 -0.14549106 -0.13908577 -0.31634736 0.2726454 0.3298729 0.45735455
-0.4557733 0.42912364 -0.08484602 -0.15623939 -0.49819034 0.1292361 0.36166525 0.43826103
00000000: 2814 133e 1895 1bbe 9cfb 14be 806c 0ebe
00000010: 48f8 a1be 2e98 8b3e 1ae5 a83e 602a ea3e
00000020: 1e5b e9be 18b6 db3e c0c3 adbd 38fd 1fbe
00000030: ce12 ffbe 7856 043e 302c b93e c063 e03e

bias f4 [4]
-0.10202098 -0.33192354 -0.14290011 -0.3783021
00000000: 60f0 d0bd e2f1 a9be 6854 12be d0b0 c1be

weight f4 [4]
1.0 1.0 1.0 1.0
00000000: 0000 803f 0000 803f 0000 803f 0000 803f

bias f4 [4]
0.0 0.0 0.0 0.0
00000000: 0000 0000 0000 0000 0000 0000 0000 0000

weight f4 [4]
1.0 1.0 1.0 1.0
00000000: 0000 803f 0000 803f 0000 803f 0000 803f

bias f4 [4]
0.0 0.0 0.0 0.0
00000000: 0000 0000 0000 0000 0000 0000 0000 0000

weight f4 [4, 4]
-0.19023609 -0.018845677 -0.37602317 0.0069392323 0.36763585 0.32107306 0.26725602 0.078548014
-0.21405858 0.062387288 0.28652203 -0.3561499 -0.4115743 0.09216648 0.15271837 -0.18939722
00000000: 40cd 42be 4062 9abc 1c86 c0be 8062 e33b
00000010: c43a bc3e b063 a43e c8d5 883e c8dd a03d
00000020: 2c32 5bbe d089 7f3d 04b3 923e 4859 b6be
00000030: deb9 d2be c8c1 bc3d 3462 1c3e 58f1 41be

weight f4 [4, 4]
0.26273537 -0.45645714 0.43955457 0.3771965 -0.49092102 -0.31579983 -0.23738849 0.084008336
0.3652407 0.12542164 0.43478894 -0.18071365 0.26169354 -0.44996727 0.29017514 0.18207276
00000000: 4085 863e c0b4 e9be 4c0d e13e e61f c13e
00000010: 005a fbbe 84b0 a1be f815 73be 900c ac3d
00000020: d400 bb3e 886e 003e a89c de3e 000d 39be
00000030: b2fc 853e 1c62 e6be d691 943e 4871 3a3e

weight f4 [4, 4]
-0.49868768 -0.20001489 -0.2645955 -0.32610446 0.16589487 -0.09668952 -0.27807575 0.054662526
-0.23877358 -0.25696284 0.23452222 -0.09163892 0.15806073 0.47873914 0.0044992566 -0.21436441
00000000: fe53 ffbe b4d0 4cbe 1079 87be 2af7 a6be
00000010: 58e0 293e 2805 c6bd f25f 8ebe d0e5 5f3d
00000020: 1081 74be a290 83be 9826 703e 30ad bbbd
00000030: acda 213e 4c1d f53e 806e 933b 5882 5bbe

weight f4 [4, 4]
0.43941152 0.2499364 0.36173463 -0.13622642 0.39264172 -0.20412242 -0.41785252 -0.020429611
0.20280242 0.32074398 0.20110035 0.15018332 -0.31116027 -0.39417934 -0.23209435 0.023715794
00000000: 8cfa e03e 54ef 7f3e 4835 b93e f07e 0bbe
00000010: 5608 c93e 7805 51be c4f0 d5be 005c a7bc
00000020: 70ab 4f3e 8e38 a43e 40ed 4d3e a8c9 193e
00000030: 6650 9fbe e0d1 c9be 24aa 6dbe a047 c23c

bias f4 [4]
0.038499534 0.12990618 0.41560113 0.20996994
00000000: b0b1 1d3d 2006 053e acc9 d43e 5c02 573e

weight f4 [4, 4]
0.46850008 0.27543485 0.10888982 0.21726209 -0.48540044 -0.41241962 0.13481528 -0.0666489
0.21830118 0.17804164 -0.36960948 0.23452014 0.32875597 -0.0439021 0.3670296 -0.08379054
00000000: 3edf ef3e cc05 8d3e a001 df3d f479 5e3e
00000010: 6886 f8be aa28 d3be 040d 0a3e 387f 88bd
00000020: 588a 5f3e 8c50 363e 743d bdbe 0c26 703e
00000030: b452 a83e b0d2 33bd 4eeb bb3e 609a abbd

bias f4 [4]
-0.32214332 -0.006874025 0.111392975 0.2833851
00000000: f8ef a4be 803f e1bb 0022 e43d da17 913e

weight f4 [4, 4]
-0.15061718 0.23244947 0.39291763 -0.4465055 0.2941562 0.078917086 0.19543976 -0.15849835
0.10289973 -0.23012811 -0.29478872 0.24341565 -0.2791062 0.22779489 -0.3105501 -0.31575227
00000000: 643b 1abe 3c07 6e3e 802c c93e 5e9c e4be
00000010: a49b 963e 489f a13d 5c21 483e 644d 22be
00000020: 18bd d23d b4a6 6bbe 8cee 96be f441 793e
00000030: 02e7 8ebe 1043 693e 6c00 9fbe 48aa a1be

bias f4 [4]
0.43776345 0.20557004 -0.1158908 -0.46128923
00000000: 8822 e03e f480 523e 2858 edbd 1a2e ecbe

weight f4 [4]
1.0 1.0 1.0 1.0
00000000: 0000 803f 0000 803f 0000 803f 0000 803f

bias f4 [4]
0.0 0.0 0.0 0.0
00000000: 0000 0000 0000 0000 0000 0000 0000 0000

weight f4 [4]
1.0 1.0 1.0 1.0
00000000: 0000 803f 0000 803f 0000 803f 0000 803f

bias f4 [4]
0.0 0.0 0.0 0.0
00000000: 0000 0000 0000 0000 0000 0000 0000 0000

weight f4 [8, 32]
-8.0711216e-05 -0.12818243 0.01611569 0.13102926 0.11933781 0.0014030053 -0.07443526 -0.1067393
-0.04104161 0.14295466 -0.16072774 0.06425445 -0.094865076 -0.16898824 -0.124541804 0.0951568
-0.1396504 0.033383 0.012519469 0.09212323 0.065956905 -0.00769083 -0.07342398 -0.08235692
0.09097945 -0.056808535 0.145342 -0.106999 -0.14810278 -0.15351859 -0.17518367 -0.10042795
0.0013345378 0.070357755 -0.15879604 0.17172126 0.1277014 -0.11786138 0.1221253 0.066367395
0.06422765 -0.14984302 0.13017304 -0.019562481 0.15917802 0.022588583 0.07744418 0.14869304
0.14765838 0.008418854 0.16141772 -0.07785941 0.092773914 -0.0002699084 0.030907443 0.10874673
0.04350897 0.10505955 -0.09658395 0.15729357 0.091608025 -0.109278284 -0.040503502 0.017785717
0.123857215 0.04268721 0.106903985 0.1412817 0.05919156 0.05744887 0.038480766 -0.09515561
-0.10447759 -0.13779584 -0.05939728 0.045851365 0.01014561 0.10241733 -0.16164494 -0.13486978
-0.034404155 0.039881095 -0.10327495 -0.06017963 0.020157257 0.04509955 -0.16732691 0.14903614
0.0050370963 0.11243154 -0.022676712 0.096374795 -0.004445481 -0.10722978 -0.0038449515 0.0923856
0.0027095366 0.14591245 -0.032017402 0.060219966 -0.0056965468 0.036385965 0.0237154 -0.006764864
0.015408572 0.07401903 0.13102984 0.01874795 0.09586914 0.07903598 0.042711828 -0.1321519
0.089953005 -0.03681013 0.060010474 -0.15865257 -0.045327567 0.08317447 -0.06307036 -0.003958432
0.06689316 0.023394387 0.07646669 0.016109958 -0.05907557 -0.048871253 -0.16536948 0.15329055
-0.16127232 0.12580806 -0.10407759 0.076853536 -0.02795278 0.11264923 0.04437707 -0.07741379
0.050501976 0.07145526 -0.17646188 0.16191262 -0.15549415 -0.12245571 0.08419522 0.09405153
-0.025252873 0.060030177 -0.11217398 0.13190335 -0.09156055 -0.002707092 0.02135075 0.0795334
-0.1587242 -0.051967908 -0.09266809 -0.09745917 -0.14486651 0.034936093 0.14735468 0.073781684
0.15563212 0.019734778 -0.13632019 -0.039660923 0.060342085 -0.01422003 -0.10995626 0.12257987
0.113685176 0.051857524 -0.16659932 -0.1426436 0.059691 -0.16701455 -0.17522758 0.10628725
-0.10725471 -0.06790129 -0.097296186 -0.14131394 -0.05185508 0.06930535 0.16553998 -0.088031486
-0.06748558 0.17539418 0.13346078 -0.12145217 -0.0759914 -0.12639968 -0.020965444 0.012711173
0.1511151 -0.024398431 0.05552546 -0.12718093 -0.049472243 0.069977805 0.1018172 -0.1205654
-0.17429367 -0.109156944 -0.15425013 0.04233984 -0.09119358 0.16667745 -0.15372989 0.07882047
-0.12654819 -0.14442143 -0.0059719766 0.13631782 0.15065323 0.14047827 -0.021917751 0.032697167
-0.01190111 -0.07861371 0.09241877 -0.12751563 0.07227342 0.05128513 -0.069515154 -0.16077754
0.17154741 -0.0010612787 -0.036204733 -0.09445821 0.032365702 -0.15506874 -0.052418247 -0.098492295
-0.08180185 -0.12689318 -0.16911556 0.0841603 -0.013436836 -0.14785728 -0.14778501 0.059019517
-0.046082206 0.12318179 0.0097298315 0.16110176 0.030151412 -0.015253049 0.059905548 0.04779796
-0.011413956 -0.154526 -0.13338798 0.12787268 0.049804844 0.04054535 -0.13561988 0.13809565
00000000: 8143 a9b8 4142 03be 0d05 843c 892c 063e
00000010: 6267 f43d 0ce5 b73a 8371 98bd 229a dabd
00000020: 3f1b 28bd b562 123e d095 24be d697 833d
00000030: 9f48 c2bd 410b 2dbe c60f ffbd 91e1 c23d
00000040: 8400 0fbe 9dbc 083d 751e 4d3c 1bab bc3d
00000050: 6a14 873d 5c03 fcbb 505f 96bd bfaa a8bd
00000060: 6f53 ba3d 11b0 68bd 89d4 143e 4b22 dbbd
00000070: 41a8 17be fa33 1dbe 5963 33be 2bad cdbd
00000080: a8eb ae3a ba17 903d 6e9b 22be b3d7 2f3e
00000090: 28c4 023e 4f61 f1bd d41c fa3d a1eb 873d
000000a0: c989 833d 7370 19be 154c 053e 7f41 a0bc
000000b0: 90ff 223e b10b b93c 0e9b 9e3d fd42 183e
000000c0: c233 173e 3cef 093c b04a 253e c174 9fbd
000000d0: 4000 be3d 7e82 8db9 9b31 fd3c 9bb6 de3d
000000e0: 7636 323d 7629 d73d cecd c5bd 9111 213e
000000f0: fd9c bb3d 4bcd dfbd 00e7 25bd 5ab3 913c
00000100: daa8 fd3d c9d8 2e3d 7af0 da3d 26ac 103e
00000110: d972 723d 824f 6b3d 029e 1d3d f2e0 c2bd
00000120: 59f8 d5bd 5a1a 0dbe 904a 73bd a4ce 3b3d
00000130: c639 263c 2dc0 d13d 4086 25be 4e1b 0abe
00000140: 5feb 0cbd 5c5a 233d d181 d3bd ea7e 76bd
00000150: d520 a53c 4eba 383d bf57 2bbe ee9c 183e
00000160: 3a0e a53b 8242 e63d 83c4 b9bc 2660 c53d
00000170: 66ab 91bb 499b dbbd 95fb 7bbb a934 bd3d
00000180: 7b92 313b 136a 153e ae24 03bd 36a9 763d
00000190: 19aa babb 7309 153d cc46 c23c cbab ddbb
000001a0: 3c74 7c3c 4a97 973d b02c 063e 4d95 993c
000001b0: 0a57 c43d 9edd a13d 99f2 2e3d d452 07be
000001c0: 4839 b83d 38c6 16bd 8bcd 753d d275 22be
000001d0: 66a9 39bd 6057 aa3d 082b 81bd bcb5 81bb
000001e0: 48ff 883d 96a5 bf3c 919a 9c3d 08f9 833c
000001f0: 3af9 71bd 392d 48bd 9e56 29be 33f8 1c3e
00000200: 9224 25be d4d3 003e a226 d5bd 6365 9d3d
00000210: 3afd e4bc a4b4 e63d bbc4 353d 1f8b 9ebd
00000220: 29db 4e3d 2357 923d 6cb2 34be 6ccc 253e
00000230: dc39 1fbe 0fca fabd 8b6e ac3d 179e c03d
00000240: 1ddf cebc 34e2 753d 79bb e5bd ac11 073e
00000250: 1984 bbbd 7869 31bb c5e7 ae3c 68e2 a23d
00000260: 9988 22be 4ddc 54bd c4c8 bdbd ac98 c7bd
00000270: e357 14be 2619 0f3d 25e4 163e da1a 973d
00000280: 075e 1f3e d4aa a13c 8597 0bbe 7e73 22bd
00000290: 4329 773d 21fb 68bc bf30 e1bd 280b fb3d
000002a0: c6d3 e83d 8e68 543d 0399 2abe 2a11 12be
000002b0: 8d7e 743d dd05 2bbe dc6e 33be 21ad d93d
000002c0: 5ba8 dbbd d50f 8bbd 3943 c7bd 9ab4 10be
000002d0: fe65 54bd f7ef 8d3d 5083 293e da49 b4bd
000002e0: e135 8abd 889a 333e f1a9 083e eabb f8bd
000002f0: 61a1 9bbd eb6e 01be b9bf abbc 8642 503c
00000300: ebbd 1a3e 38df c7bc aa6e 633d b83b 02be
00000310: 68a3 4abd 8650 8f3d 8985 d03d feea f6bd
00000320: 0a7a 32be ad8d dfbd bff3 1dbe 8a6c 2d3d
00000330: b3c3 babd 7ead 2a3e 5e6b 1dbe a06c a13d
00000340: d995 01be 36e3 13be 92b0 c3bb e696 0b3e
00000350: d744 1a3e 89d9 0f3e db8c b3bc 77ed 053d
00000360: e0fc 42bc 3a00 a1bd 0d46 bd3d 7593 02be
00000370: 1604 943d 5b10 523d f65d 8ebd dea2 24be
00000380: 20aa 2f3e 9b1a 8bba 6a4b 14bd 4e73 c1bd
00000390: e691 043d 57ca 1ebe 84b4 56bd 54b6 c9bd
000003a0: ba87 a7bd 49f0 01be a12c 2dbe 3c5c ac3d
000003b0: 2d26 5cbc e667 17be f454 17be 73be 713d
000003c0: b2c0 3cbd bc46 fc3d df69 1f3c dcf7 243e
000003d0: 1800 f73c ede7 79bc 855f 753d cbc7 433d
000003e0: 9a01 3bbc 103c 1ebe dc96 08be 0ef1 023e
000003f0: 2a00 4c3d e212 263d f0df 0abe f268 0d3e

bias f4 [8]
-0.08306128 -0.10087829 0.058884352 -0.12269946 -0.16457622 -0.13108744 0.1470035 0.057486087
00000000: 081c aabd 4799 cebd b830 713d db49 fbbd
00000010: ab86 28be c93b 06be 1688 163e 8876 6b3d

weight f4 [34, 4]
-0.96030253 0.44787994 -0.4981995 0.11061735 -1.8723022 -0.68132514 -0.12055359 0.42079723
0.45550394 1.3294859 -1.9912949 -0.72807896 0.14409867 1.2927727 -0.25081307 -0.6192152
0.19559915 1.6316061 0.24674365 0.4923754 -1.6123625 0.6791363 -0.9865532 0.01845258
1.1139983 0.8664006 1.605661 -0.5584604 0.6315667 0.39845347 1.2665764 -1.2372096
0.7089584 0.30237517 1.0036515 0.06663538 1.5160953 0.25853074 0.9492702 0.26487514
-1.6050303 0.24803865 0.94956636 0.76411074 0.9705956 -1.2679286 -1.387048 -0.77166456
0.1800992 1.6969879 -0.530978 -1.1767637 0.3378096 -0.70027006 1.4085335 -0.12993942
1.9763709 0.34155476 -1.4277484 -1.0425905 0.603141 0.86338365 0.5175542 -0.93758696
0.027549313 -1.4469308 0.9115011 -0.07661164 0.88851863 -0.7878758 0.07130684 -0.74590266
0.48916227 0.06191133 0.4523777 -0.62180555 -0.21679023 -0.4631835 -0.24076174 -0.45161942
1.5594976 -0.39338076 0.14293505 0.869825 0.7314695 0.9071666 -1.2052567 -1.1414622
0.33450943 -0.43875146 0.30879864 0.2967738 -0.04758764 -0.3433251 0.6372919 -0.27127796
0.15746804 -0.24615367 -1.4513292 0.41862264 0.6949814 -1.2758809 0.3101686 0.74284655
-1.5233462 -0.87471503 0.53218323 0.36178973 -0.4458232 0.112876624 -1.2902856 -0.6074765
-1.190883 -0.59565526 -0.54163 -1.8908296 -0.8728298 0.30984753 -0.98301923 1.6277872
0.4059696 -0.5326819 -0.58365846 0.15070766 -1.1313801 0.91543454 0.43161872 0.8520821
-1.0106083 -2.6286225 2.645271 0.6362237 1.4718866 -0.03765504 -0.9007768 0.4457222
00000000: 63d6 75bf 8550 e53e 0114 ffbe 598b e23d
00000010: 99a7 efbf 536b 2ebf cde4 f6bd bc72 d73e
00000020: d037 e93e 982c aa3f c0e2 febf 6263 3abf
00000030: 9a8e 133e 9379 a53f 926a 80be e384 1ebf
00000040: 254b 483e 78d8 d03f 5eaa 7c3e a118 fc3e
00000050: e561 cebf e0db 2d3f c08e 7cbf dd29 973c
00000060: 7f97 8e3f 6ecc 5d3f 4d86 cd3f 43f7 0ebf
00000070: 5bae 213f 1802 cc3e 2d1f a23f e25c 9ebf
00000080: 4c7e 353f ebd0 9a3e a777 803f 2178 883d
00000090: 690f c23f 245e 843e 5f03 733f b79d 873e
000000a0: a271 cdbf d8fd 7d3e c816 733f c39c 433f
000000b0: f478 783f 7c4b a2bf ca8a b1bf cf8b 45bf
000000c0: ed6b 383e e636 d93f 2dee 07bf 31a0 96bf
000000d0: 61f5 ac3e e644 33bf d34a b43f d70e 05be
000000e0: b9f9 fc3f 44e0 ae3e 76c0 b6bf 9b73 85bf
000000f0: 7367 1a3f b606 5d3f 6f7e 043f b305 70bf
00000100: 19af e13c 0735 b9bf 2358 693f 90e6 9cbd
00000110: f575 633f 3ab2 49bf 5209 923d 7af3 3ebf
00000120: 7a73 fa3e bc96 7d3d 0d9e e73e a62e 1fbf
00000130: 42fe 5dbe 6326 edbe 3f8a 76be a93a e7be
00000140: 9e9d c73f 3469 c9be 915d 123e daac 5e3f
00000150: 9641 3b3f 123c 683f da45 9abf 6f1b 92bf
00000160: d244 ab3e 08a4 e0be db1a 9e3e bcf2 973e
00000170: 42eb 42bd 4fc8 afbe 9025 233f f2e4 8abe
00000180: 4d3f 213e b50f 7cbe 28c5 b9bf b555 d63e
00000190: 4dea 313f 1150 a3bf 6bce 9e3e 312b 3e3f
000001a0: 02fd c2bf 53ed 5fbf 293d 083f 813c b93e
000001b0: f042 e4be dc2b e73d 1428 a5bf 9483 1bbf
000001c0: db6e 98bf dd7c 18bf 44a8 0abf b406 f2bf
000001d0: c671 5fbf 56a4 9e3e 26a7 7bbf 555b d03f
000001e0: 3fdb cf3e d75d 08bf a46a 15bf 1c53 1a3e
000001f0: 10d1 90bf eb59 6a3f 21fd dc3e 0d22 5a3f
00000200: 9d5b 81bf 5a3b 28c0 1f4c 2940 8edf 223f
00000210: c866 bc3f 2c3c 1abd 4f99 66bf b335 e43e

weight f4 [24, 4]
-0.40121594 0.38056684 0.07312159 -1.2418581 0.43144035 -1.1926507 0.01087022 -0.79655236
-1.0807233 -1.6050193 0.36322078 0.38008878 1.1575822 -1.8681246 0.15712032 -0.15249707
0.084626555 -0.4954933 -0.8092253 0.9769218 1.1073333 -0.5072101 -0.19010717 -0.75171584
-1.1687305 1.5984799 0.17901039 -0.2760349 -0.45855922 -0.029403012 0.2760638 -1.0206897
0.24961857 0.50466263 0.06791987 1.6910671 -0.64309216 -0.85496294 0.83024555 0.4567967
-0.08198027 -1.1930776 0.12009683 0.455249 -0.8918101 0.4068565 -1.179132 0.46464106
-0.9488998 1.317935 -1.8788055 -1.1447049 -0.7569547 -0.558135 -0.7733269 0.099908665
0.5858796 0.021642784 -0.18710457 0.7040614 1.5863101 0.5385753 1.3836902 0.66228455
-0.19637296 1.3069642 0.39579073 -0.545754 -1.1090347 -1.7557961 1.4832824 1.517712
0.16176248 0.9511966 0.9924121 2.2368035 -0.04364385 1.9194309 -2.1543736 -1.6558923
-1.0237988 -0.7343557 1.574464 -0.15811193 1.1131163 0.47800702 0.256174 -0.16368654
1.1542238 0.46197388 -2.2594867 1.3866768 -0.5976115 0.6107376 -0.1267095 0.28252813
00000000: 2d6c cdbe a8d9 c23e c6c0 953d 35f5 9ebf
00000010: c0e5 dc3e c7a8 98bf 0219 323c dbea 4bbf
00000020: 2455 8abf 4671 cdbf 13f8 b93e ff9a c23e
00000030: a72b 943f b51e efbf 26e4 203e 3128 1cbe
00000040: b050 ad3d 4cb1 fdbe 6429 4fbf 8c17 7a3f
00000050: 19bd 8d3f 85d8 01bf 74ab 42be 7370 40bf
00000060: f698 95bf fd9a cc3f 804e 373e 7254 8dbe
00000070: 46c8 eabe 96de f0bc 3c58 8d3e f6a5 82bf
00000080: 039c 7f3e 9231 013f 9319 8b3d e374 d83f
00000090: b0a1 24bf dade 5abf f98a 543f 42e1 e93e
000000a0: 46e5 a7bd c4b6 98bf 54f5 f53d 6616 e93e
000000b0: ab4d 64bf 7f4f d03e cced 96bf 6fe5 ed3e
000000c0: 19eb 72bf 18b2 a83f b37c f0bf b185 92bf
000000d0: c9c7 41bf efe1 0ebf c0f8 45bf ea9c cc3d
000000e0: 35fc 153f 354c b13c 5798 3fbe 5e3d 343f
000000f0: 360c cb3f 12e0 093f c31c b13f 7b8b 293f
00000100: fe15 49be 9a4a a73f 15a5 ca3e 89b6 0bbf
00000110: d9f4 8dbf edbd e0bf 33dc bd3f 6344 c23f
00000120: 10a5 253e 9f81 733f b80e 7e3f ca27 0f40
00000130: e5c3 32bd e9af f53f 42e1 09c0 47f4 d3bf
00000140: d70b 83bf bcfe 3bbf 0988 c93f 18e8 21be
00000150: 987a 8e3f 56bd f43e 3d29 833e 729d 27be
00000160: 9bbd 933f d787 ec3e 6e9b 10c0 a07e b13f
00000170: 11fd 18bf 4d59 1c3f 23c0 01be 87a7 903e

weight f4 [4, 8]
0.184181 0.12515005 -0.13947858 -0.07414393 0.021880114 0.16309828 0.04742439 0.12516509
0.35264125 -0.18320473 -0.30330634 0.075170465 -0.26391008 0.2001454 0.2157128 0.2119391
0.35249647 -0.3127047 0.23160717 -0.24492027 -0.07705341 0.10800294 0.09276859 -0.26054898
0.17943393 0.17544717 0.33306766 -0.28090373 0.20734778 0.15090577 0.08215167 0.29494342
00000000: f299 3c3e 5627 003e 79d3 0ebe c6d8 97bd
00000010: ed3d b33c 3c03 273e 1440 423d 472b 003e
00000020: 658d b43e 059a 3bbe f84a 9bbe f9f2 993d
00000030: 391f 87be eaf2 4c3e d1e3 5c3e 9006 593e
00000040: 6b7a b43e d51a a0be 6e2a 6d3e 61cc 7abe
00000050: 2ece 9dbd a530 dd3d 75fd bd3d ad66 85be
00000060: 87bd 373e 6ca8 333e d887 aa3e 9dd2 8fbe
00000070: fa52 543e 0b87 1a3e 223f a83d d302 973e

bias f4 [4]
-0.06630007 0.21497531 -0.26312113 -0.23267154
00000000: 55c8 87bd 7d22 5c3e d0b7 86be 7341 6ebe

weight f4 [8, 1, 1]
-0.6374816 -0.18654883 -0.9026588 -0.16074169 -0.5641502 -0.6242944 0.22209203 0.32398915
00000000: fe31 23bf a806 3fbe a614 67bf 7899 24be
00000010: 266c 10bf c2d1 1fbf 186c 633e e8e1 a53e

bias f4 [8]
-0.6148199 0.03658831 -0.8404573 -0.92890096 0.093835235 -0.31008983 0.7331096 -0.78231764
00000000: d664 1dbf a0dd 153d 3628 57bf 74cc 6dbf
00000010: b02c c03d 18c4 9ebe 12ad 3b3f f845 48bf

pe f4 [1, 1000, 4]
0.0 1.0 0.0 1.0 0.84147096 0.54030234 0.009999833 0.99995
0.9092974 -0.41614684 0.019998666 0.9998 0.14112 -0.9899925 0.0299955 0.99955004
-0.7568025 -0.6536436 0.039989334 0.9992001 -0.9589243 0.2836622 0.049979165 0.99875027
-0.2794155 0.96017027 0.059964005 0.99820054 0.6569866 0.75390226 0.06994285 0.997551
0.98935825 -0.14550003 0.07991469 0.9968017 0.4121185 -0.91113025 0.089878544 0.9959527
-0.5440211 -0.8390715 0.099833414 0.9950042 -0.9999902 0.004425698 0.1097783 0.9939561
-0.53657293 0.84385395 0.119712204 0.99280864 0.42016703 0.9074468 0.12963414 0.9915619
0.9906074 0.13673721 0.13954312 0.990216 0.65028787 -0.7596879 0.14943813 0.9887711
-0.2879033 -0.9576595 0.15931821 0.98722726 -0.96139747 -0.27516335 0.16918235 0.9855848
-0.75098723 0.6603167 0.17902957 0.9838437 0.1498772 0.9887046 0.1888589 0.9820042
0.9129453 0.40808207 0.19866931 0.9800666 0.8366556 -0.54772925 0.2084599 0.9780309
-0.008851309 -0.99996084 0.21822962 0.97589743 -0.8462204 -0.53283304 0.22797751 0.9736664
-0.9055784 0.42417902 0.23770262 0.971338 -0.13235176 0.99120283 0.24740396 0.9689124
0.76255846 0.6469193 0.25708055 0.96639 0.95637596 -0.29213881 0.2667314 0.9637709
0.2709058 -0.9626059 0.27635565 0.96105546 -0.6636339 -0.74805754 0.2859522 0.9582439
-0.9880316 0.15425146 0.2955202 0.9553365 -0.40403765 0.91474235 0.30505863 0.95233357
0.5514267 0.83422333 0.31456655 0.94923544 0.99991184 -0.013276747 0.324043 0.94604236
0.5290827 -0.8485703 0.3334871 0.9427547 -0.42818266 -0.9036922 0.3428978 0.9393727
-0.99177885 -0.12796369 0.3522742 0.9358968 -0.6435381 0.76541406 0.36161545 0.93232733
0.29636857 0.95507365 0.37092048 0.9286646 0.96379536 0.26664293 0.3801884 0.92490906
0.74511313 -0.66693807 0.38941833 0.921061 -0.15862267 -0.98733926 0.39860934 0.9171208
-0.91652155 -0.3999853 0.40776044 0.9130889 -0.8317747 0.5551133 0.41687077 0.90896577
0.017701926 0.9998433 0.42593947 0.90475166 0.8509035 0.525322 0.43496552 0.90044713
0.90178835 -0.43217796 0.4439481 0.8960525 0.123573124 -0.99233544 0.45288628 0.8915683
-0.76825464 -0.64014435 0.46177918 0.8869949 -0.95375264 0.30059254 0.47062588 0.88233286
-0.26237485 0.96496606 0.47942555 0.87758255 0.6702292 0.7421542 0.48817724 0.8727445
0.9866276 -0.16299078 0.4968801 0.8678192 0.39592516 -0.9182828 0.50553334 0.8628071
-0.5587891 -0.8293098 0.51413596 0.8577087 -0.99975514 0.022126757 0.52268726 0.8525245
-0.521551 0.8532201 0.5311862 0.8472551 0.43616477 0.8998668 0.539632 0.841901
0.99287266 0.119180135 0.54802394 0.8364627 0.636738 -0.7710802 0.556361 0.83094066
-0.3048106 -0.95241296 0.5646424 0.8253356 -0.9661178 -0.25810164 0.57286745 0.819648
-0.7391807 0.67350715 0.58103514 0.8138785 0.1673557 0.9858966 0.58914477 0.8080275
00000000: 0000 0000 0000 803f 0000 0000 0000 803f
00000010: a46a 573f 4151 0a3f 57d6 233c b9fc 7f3f
00000020: b7c7 683f 3311 d5be 3ed4 a33c e5f2 7f3f
00000030: c381 103e 2670 7dbf 1fb9 f53c 83e2 7f3f
00000040: cfbd 41bf 3055 27bf dbcb 233d 94cb 7f3f
00000050: 107c 75bf 2c3c 913e f4b6 4c3d 19ae 7f3f
00000060: 8c0f 8fbe b8cd 753f d19c 753d 128a 7f3f
00000070: 4630 283f bdff 403f 323e 8f3d 815f 7f3f
00000080: 9546 7d3f f6fd 14be 50aa a33d 652e 7f3f
00000090: 3201 d33e d53f 69bf 3e12 b83d c2f6 7e3f
000000a0: f844 0bbf 64cd 56bf 7675 cc3d 98b8 7e3f
000000b0: 5cff 7fbf 7205 913b 72d3 e03d e873 7e3f
000000c0: d85c 09bf d006 583f ac2b f53d b528 7e3f
000000d0: 2220 d73e 6f4e 683f d0be 043e 00d7 7d3f
000000e0: 7298 7d3f d704 0c3e 64e4 0e3e cc7e 7d3f
000000f0: 4479 263f e87a 42bf 4f06 193e 1a20 7d3f
00000100: 1068 93be 2c29 75bf 5024 233e edba 7c3f
00000110: 251e 76bf 36e2 8cbe 233e 2d3e 494f 7c3f
00000120: b340 40bf 840a 293f 8753 373e 2edd 7b3f
00000130: 6979 193e bf1b 7d3f 3a64 413e a164 7b3f
00000140: c8b6 693f 22f0 d03e f86f 4b3e a5e5 7a3f
00000150: 102f 563f fc37 0cbf 8376 553e 3c60 7a3f
00000160: 1505 11bc 6ffd 7fbf 9677 5f3e 6ad4 793f
00000170: e6a1 58bf bf67 08bf f072 693e 3442 793f
00000180: fcd3 67bf fe2d d93e 5168 733e 9ba9 783f
00000190: 3887 07be 78bf 7d3f 7757 7d3e a50a 783f
000001a0: 0837 433f 819c 253f 10a0 833e 5665 773f
000001b0: 0ed5 743f 3893 95be 0591 883e b1b9 763f
000001c0: 2ab4 8a3e 576d 76bf 7d7e 8d3e bb07 763f
000001d0: e9e3 29bf b380 3fbf 5468 923e 794f 753f
000001e0: a4ef 7cbf 18f4 1d3e 6c4e 973e ef90 743f
000001f0: 06de cebe 8e2c 6a3f a530 9c3e 22cc 733f
00000200: 4d2a 0d3f a98f 553f de0e a13e 1801 733f
00000210: 39fa 7f3f b786 59bc f7e8 a53e d52f 723f
00000220: f771 073f e73b 59bf d2be aa3e 5f58 713f
00000230: c23a dbbe 5f58 67bf 4d90 af3e bb7a 703f
00000240: 38e5 7dbf ea08 03be 495d b43e ef96 6f3f
00000250: eabe 24bf 2df2 433f a925 b93e 01ad 6e3f
00000260: 9fbd 973e b57f 743f 4ae9 bd3e f7bc 6d3f
00000270: 4bbb 763f 6c85 883e 0ea8 c23e d7c6 6c3f
00000280: bcbf 3e3f 74bc 2abf d761 c73e a7ca 6b3f
00000290: fb6d 22be 44c2 7cbf 8616 cc3e 6ec8 6a3f
000002a0: 28a1 6abf e0ca ccbe fac5 d03e 32c0 693f
000002b0: 30ef 54bf e81b 0e3f 1670 d53e fbb1 683f
000002c0: a103 913c bbf5 7f3f bd14 da3e ce9d 673f
000002d0: d0d4 593f 817b 063f cdb3 de3e b483 663f
000002e0: 9adb 663f 6e46 ddbe 2a4d e33e b263 653f
000002f0: e813 fd3d b209 7ebf b6e0 e73e d23d 643f
00000300: 56ac 44bf 80e0 23bf 526e ec3e 1912 633f
00000310: 2229 74bf 44e7 993e e0f5 f03e 91e0 613f
00000320: ff55 86be 0408 773f 4477 f53e 40a9 603f
00000330: 2494 2b3f d1fd 3d3f 5ef2 f93e 2f6c 5f3f
00000340: a093 7c3f 0ee7 26be 1267 fe3e 6629 5e3f
00000350: b4b6 ca3e 9514 6bbf a26a 013f ede0 5c3f
00000360: cd0c 0fbf a64d 54bf 6a9e 033f cc92 5b3f
00000370: f4ef 7fbf 2c43 b53c d5ce 053f 0c3f 5a3f
00000380: 5e84 05bf a26c 5a3f d2fb 073f b6e5 583f
00000390: fd50 df3e ac5d 663f 5325 0a3f d386 573f
000003a0: e72c 7e3f b714 f43d 4c4b 0c3f 6b22 563f
000003b0: 4301 233f 8365 45bf ad6d 0e3f 87b8 543f
000003c0: 2310 9cbe 56d1 73bf 688c 103f 3249 533f
000003d0: 7f53 77bf e625 84be 71a7 123f 74d4 513f
000003e0: f23a 3dbf f76a 2c3f b8be 143f 575a 503f
000003f0: 4b5f 2b3e b863 7c3f 31d2 163f e4da 4e3f

weight f4 [4, 4]
0.3655576 0.22871554 -0.01721692 0.30437785 0.118680716 -0.4583034 -0.17014766 0.36648244
-0.49888104 -0.07400608 0.3620509 0.0783658 -0.34155947 0.45409495 0.17448491 -0.19587308
00000000: 5e2a bb3e 6834 6a3e 800a 8dbc 6ad7 9b3e
00000010: e00e f33d bea6 eabe 303b 2ebe 96a3 bb3e
00000020: 566d ffbe 8090 97bd bc5e b93e 407e a03d
00000030: e2e0 aebe 227f e83e 2cac 323e f492 48be

weight f4 [4, 4]
0.27088946 0.28206015 0.13973022 0.30693603 0.28442234 0.447159 -0.14895618 0.21743774
0.019108951 0.49603122 0.41058767 -0.045401216 0.3925103 0.32975048 -0.34902775 0.49671406
00000000: 06b2 8a3e 306a 903e 7015 0f3e b826 9d3e
00000010: ce9f 913e 06f2 e43e f887 18be 00a8 5e3e
00000020: 608a 9c3c cef7 fd3e 8c38 d23e a0f6 39bd
00000030: 1cf7 c83e 0ed5 a83e c4b3 b2be 4e51 fe3e

weight f4 [4, 4]
-0.36996078 -0.3389395 -0.20552617 -0.2849118 0.017220557 0.48728722 -0.042499483 -0.35645044
-0.013623536 -0.2540217 -0.38073558 -0.4560235 -0.177463 0.46020377 -0.37700075 -0.2830202
00000000: 806b bdbe 7a89 adbe 7475 52be f6df 91be
00000010: 2012 8d3c b67d f93e f013 2ebd ac80 b6be
00000020: 4035 5fbc 220f 82be c6ef c2be ea7b e9be
00000030: dcb8 35be d49f eb3e 3e06 c1be 06e8 90be

weight f4 [4, 4]
-0.30566967 -0.025734067 0.34605807 -0.2216484 -0.35448575 -0.36875826 -0.3440646 0.09403092
-0.44663662 -0.25984466 -0.21402591 0.3516447 -0.27997255 -0.39790642 -0.21060115 0.10738033
00000000: bc80 9cbe 40d0 d2bc 862e b13e ccf7 62be
00000010: 287f b5be e2cd bcbe 3c29 b0be 4893 c03d
00000020: 8ead e4be 5c0a 85be 9c29 5bbe c60a b43e
00000030: 9058 8fbe 64ba cbbe d4a7 57be 38ea db3d

bias f4 [4]
-0.26602513 0.2757445 0.47661883 0.021798968
00000000: 7234 88be 622e 8d3e 6207 f43e c093 b23c
