trained_models/net_1/Supervised_WAE_net_1.pt (torch, 247035 bytes, 174 tensors)

weight f4 [4, 1]
000000 fd 8f 2d 3f 73 1b 8b bf 23 2e 0d 3f f3 1b 5b 3f
       0.67797834 -1.0867752 0.55148524 0.8558952

bias f4 [4]
000000 f1 a3 98 bf c6 0f 87 3f 33 d7 0c bf 42 f1 cb bb
       -1.1925031 1.0551689 -0.5501587 -0.0062238285

pe f4 [1, 65, 4]
000000 00 00 00 00 00 00 80 3f 00 00 00 00 00 00 80 3f
       0.0 1.0 0.0 1.0
000010 a4 6a 57 3f 41 51 0a 3f 57 d6 23 3c b9 fc 7f 3f
       0.84147096 0.54030234 0.009999833 0.99995
000020 b7 c7 68 3f 33 11 d5 be 3e d4 a3 3c e5 f2 7f 3f
       0.9092974 -0.41614684 0.019998666 0.9998
000030 c3 81 10 3e 26 70 7d bf 1f b9 f5 3c 83 e2 7f 3f
       0.14112 -0.9899925 0.0299955 0.99955004
000040 cf bd 41 bf 30 55 27 bf db cb 23 3d 94 cb 7f 3f
       -0.7568025 -0.6536436 0.039989334 0.9992001
000050 10 7c 75 bf 2c 3c 91 3e f4 b6 4c 3d 19 ae 7f 3f
       -0.9589243 0.2836622 0.049979165 0.99875027
000060 8c 0f 8f be b8 cd 75 3f d1 9c 75 3d 12 8a 7f 3f
       -0.2794155 0.96017027 0.059964005 0.99820054
000070 46 30 28 3f bd ff 40 3f 32 3e 8f 3d 81 5f 7f 3f
       0.6569866 0.75390226 0.06994285 0.997551
000080 95 46 7d 3f f6 fd 14 be 50 aa a3 3d 65 2e 7f 3f
       0.98935825 -0.14550003 0.07991469 0.9968017
000090 32 01 d3 3e d5 3f 69 bf 3e 12 b8 3d c2 f6 7e 3f
       0.4121185 -0.91113025 0.089878544 0.9959527
0000a0 f8 44 0b bf 64 cd 56 bf 76 75 cc 3d 98 b8 7e 3f
       -0.5440211 -0.8390715 0.099833414 0.9950042
0000b0 5c ff 7f bf 72 05 91 3b 72 d3 e0 3d e8 73 7e 3f
       -0.9999902 0.004425698 0.1097783 0.9939561
0000c0 d8 5c 09 bf d0 06 58 3f ac 2b f5 3d b5 28 7e 3f
       -0.53657293 0.84385395 0.119712204 0.99280864
0000d0 22 20 d7 3e 6f 4e 68 3f d0 be 04 3e 00 d7 7d 3f
       0.42016703 0.9074468 0.12963414 0.9915619
0000e0 72 98 7d 3f d7 04 0c 3e 64 e4 0e 3e cc 7e 7d 3f
       0.9906074 0.13673721 0.13954312 0.990216
0000f0 44 79 26 3f e8 7a 42 bf 4f 06 19 3e 1a 20 7d 3f
       0.65028787 -0.7596879 0.14943813 0.9887711
000100 10 68 93 be 2c 29 75 bf 50 24 23 3e ed ba 7c 3f
       -0.2879033 -0.9576595 0.15931821 0.98722726
000110 25 1e 76 bf 36 e2 8c be 23 3e 2d 3e 49 4f 7c 3f
       -0.96139747 -0.27516335 0.16918235 0.9855848
000120 b3 40 40 bf 84 0a 29 3f 87 53 37 3e 2e dd 7b 3f
       -0.75098723 0.6603167 0.17902957 0.9838437
000130 69 79 19 3e bf 1b 7d 3f 3a 64 41 3e a1 64 7b 3f
       0.1498772 0.9887046 0.1888589 0.9820042
000140 c8 b6 69 3f 22 f0 d0 3e f8 6f 4b 3e a5 e5 7a 3f
       0.9129453 0.40808207 0.19866931 0.9800666
000150 10 2f 56 3f fc 37 0c bf 83 76 55 3e 3c 60 7a 3f
       0.8366556 -0.54772925 0.2084599 0.9780309
000160 15 05 11 bc 6f fd 7f bf 96 77 5f 3e 6a d4 79 3f
       -0.008851309 -0.99996084 0.21822962 0.97589743
000170 e6 a1 58 bf bf 67 08 bf f0 72 69 3e 34 42 79 3f
       -0.8462204 -0.53283304 0.22797751 0.9736664
000180 fc d3 67 bf fe 2d d9 3e 51 68 73 3e 9b a9 78 3f
       -0.9055784 0.42417902 0.23770262 0.971338
000190 38 87 07 be 78 bf 7d 3f 77 57 7d 3e a5 0a 78 3f
       -0.13235176 0.99120283 0.24740396 0.9689124
0001a0 08 37 43 3f 81 9c 25 3f 10 a0 83 3e 56 65 77 3f
       0.76255846 0.6469193 0.25708055 0.96639
0001b0 0e d5 74 3f 38 93 95 be 05 91 88 3e b1 b9 76 3f
       0.95637596 -0.29213881 0.2667314 0.9637709
0001c0 2a b4 8a 3e 57 6d 76 bf 7d 7e 8d 3e bb 07 76 3f
       0.2709058 -0.9626059 0.27635565 0.96105546
0001d0 e9 e3 29 bf b3 80 3f bf 54 68 92 3e 79 4f 75 3f
       -0.6636339 -0.74805754 0.2859522 0.9582439
0001e0 a4 ef 7c bf 18 f4 1d 3e 6c 4e 97 3e ef 90 74 3f
       -0.9880316 0.15425146 0.2955202 0.9553365
0001f0 06 de ce be 8e 2c 6a 3f a5 30 9c 3e 22 cc 73 3f
       -0.40403765 0.91474235 0.30505863 0.95233357
000200 4d 2a 0d 3f a9 8f 55 3f de 0e a1 3e 18 01 73 3f
       0.5514267 0.83422333 0.31456655 0.94923544
000210 39 fa 7f 3f b7 86 59 bc f7 e8 a5 3e d5 2f 72 3f
       0.99991184 -0.013276747 0.324043 0.94604236
000220 f7 71 07 3f e7 3b 59 bf d2 be aa 3e 5f 58 71 3f
       0.5290827 -0.8485703 0.3334871 0.9427547
000230 c2 3a db be 5f 58 67 bf 4d 90 af 3e bb 7a 70 3f
       -0.42818266 -0.9036922 0.3428978 0.9393727
000240 38 e5 7d bf ea 08 03 be 49 5d b4 3e ef 96 6f 3f
       -0.99177885 -0.12796369 0.3522742 0.9358968
000250 ea be 24 bf 2d f2 43 3f a9 25 b9 3e 01 ad 6e 3f
       -0.6435381 0.76541406 0.36161545 0.93232733
000260 9f bd 97 3e b5 7f 74 3f 4a e9 bd 3e f7 bc 6d 3f
       0.29636857 0.95507365 0.37092048 0.9286646
000270 4b bb 76 3f 6c 85 88 3e 0e a8 c2 3e d7 c6 6c 3f
       0.96379536 0.26664293 0.3801884 0.92490906
000280 bc bf 3e 3f 74 bc 2a bf d7 61 c7 3e a7 ca 6b 3f
       0.74511313 -0.66693807 0.38941833 0.921061
000290 fb 6d 22 be 44 c2 7c bf 86 16 cc 3e 6e c8 6a 3f
       -0.15862267 -0.98733926 0.39860934 0.9171208
0002a0 28 a1 6a bf e0 ca cc be fa c5 d0 3e 32 c0 69 3f
       -0.91652155 -0.3999853 0.40776044 0.9130889
0002b0 30 ef 54 bf e8 1b 0e 3f 16 70 d5 3e fb b1 68 3f
       -0.8317747 0.5551133 0.41687077 0.90896577
0002c0 a1 03 91 3c bb f5 7f 3f bd 14 da 3e ce 9d 67 3f
       0.017701926 0.9998433 0.42593947 0.90475166
0002d0 d0 d4 59 3f 81 7b 06 3f cd b3 de 3e b4 83 66 3f
       0.8509035 0.525322 0.43496552 0.90044713
0002e0 9a db 66 3f 6e 46 dd be 2a 4d e3 3e b2 63 65 3f
       0.90178835 -0.43217796 0.4439481 0.8960525
0002f0 e8 13 fd 3d b2 09 7e bf b6 e0 e7 3e d2 3d 64 3f
       0.123573124 -0.99233544 0.45288628 0.8915683
000300 56 ac 44 bf 80 e0 23 bf 52 6e ec 3e 19 12 63 3f
       -0.76825464 -0.64014435 0.46177918 0.8869949
000310 22 29 74 bf 44 e7 99 3e e0 f5 f0 3e 91 e0 61 3f
       -0.95375264 0.30059254 0.47062588 0.88233286
000320 ff 55 86 be 04 08 77 3f 44 77 f5 3e 40 a9 60 3f
       -0.26237485 0.96496606 0.47942555 0.87758255
000330 24 94 2b 3f d1 fd 3d 3f 5e f2 f9 3e 2f 6c 5f 3f
       0.6702292 0.7421542 0.48817724 0.8727445
000340 a0 93 7c 3f 0e e7 26 be 12 67 fe 3e 66 29 5e 3f
       0.9866276 -0.16299078 0.4968801 0.8678192
000350 b4 b6 ca 3e 95 14 6b bf a2 6a 01 3f ed e0 5c 3f
       0.39592516 -0.9182828 0.50553334 0.8628071
000360 cd 0c 0f bf a6 4d 54 bf 6a 9e 03 3f cc 92 5b 3f
       -0.5587891 -0.8293098 0.51413596 0.8577087
000370 f4 ef 7f bf 2c 43 b5 3c d5 ce 05 3f 0c 3f 5a 3f
       -0.99975514 0.022126757 0.52268726 0.8525245
000380 5e 84 05 bf a2 6c 5a 3f d2 fb 07 3f b6 e5 58 3f
       -0.521551 0.8532201 0.5311862 0.8472551
000390 fd 50 df 3e ac 5d 66 3f 53 25 0a 3f d3 86 57 3f
       0.43616477 0.8998668 0.539632 0.841901
0003a0 e7 2c 7e 3f b7 14 f4 3d 4c 4b 0c 3f 6b 22 56 3f
       0.99287266 0.119180135 0.54802394 0.8364627
0003b0 43 01 23 3f 83 65 45 bf ad 6d 0e 3f 87 b8 54 3f
       0.636738 -0.7710802 0.556361 0.83094066
0003c0 23 10 9c be 56 d1 73 bf 68 8c 10 3f 32 49 53 3f
       -0.3048106 -0.95241296 0.5646424 0.8253356
0003d0 7f 53 77 bf e6 25 84 be 71 a7 12 3f 74 d4 51 3f
       -0.9661178 -0.25810164 0.57286745 0.819648
0003e0 f2 3a 3d bf f7 6a 2c 3f b8 be 14 3f 57 5a 50 3f
       -0.7391807 0.67350715 0.58103514 0.8138785
0003f0 4b 5f 2b 3e b8 63 7c 3f 31 d2 16 3f e4 da 4e 3f
       0.1673557 0.9858966 0.58914477 0.8080275

weight f4 [4, 4]
000000 a8 a8 7f 3f ad c2 bd 3e 84 51 cf be 9d 8a 60 3f
       0.99866724 0.37062588 -0.4049188 0.8771151
000010 07 6d 3a bd d7 ef 8d be c9 ed 62 3e d4 8b 38 bf
       -0.045514133 -0.27722046 0.2216102 -0.7208836
000020 b1 ac 1f 3e b0 fa a0 3e 4e ce 96 be a6 00 ee bd
       0.1559322 0.3144126 -0.29454273 -0.116212174
000030 07 d1 c1 3e f4 ba df 3e 0d ce 13 3e 79 40 40 3f
       0.37854788 0.4369732 0.14434071 0.7509838

weight f4 [4, 4]
000000 10 a8 84 3e 97 e7 36 3f 77 c5 a0 bf 44 00 ca bf
       0.25909472 0.7144713 -1.2560261 -1.5781331
000010 da ef 18 bf 6a de eb 3e ae e8 21 3f 1a 17 60 3f
       -0.59740984 0.46068126 0.63245666 0.8753525
000020 b5 11 a5 3e c6 b1 2e be 40 64 d8 bf b0 4d cb 3e
       0.32240072 -0.17060003 -1.6905594 0.39707708
000030 10 9e e1 3e ce be 3e bf b7 9d a8 3f 07 63 11 bf
       0.44065905 -0.74509895 1.3173131 -0.5679173

weight f4 [4, 4]
000000 2f c0 04 3e 05 d9 b5 be 4d 12 c2 be 0a b7 55 bd
       0.12963937 -0.35517135 -0.37904587 -0.052176513
000010 9e f4 af 3e 58 94 00 3e fb d7 0d bf 6e 06 bf be
       0.34366316 0.12556589 -0.55407685 -0.37309593
000020 a0 ad b6 3d 2d d0 26 bf 5c 8d 95 be 58 81 72 bc
       0.08919835 -0.651614 -0.2920941 -0.014801346
000030 7e f8 39 3f fe b2 aa bf 45 fd de bd 46 07 9d 3e
       0.72644794 -1.3335874 -0.10888151 0.30669612

weight f4 [4, 4]
000000 b8 f0 8a 3e 49 3e 70 3e f3 58 9c be a2 9f 0a bd
       0.2713678 0.2346126 -0.30536613 -0.033843644
000010 e6 8b 1b 3e 9c 01 18 bf 38 5e 1f bf a5 26 7b bd
       0.15190086 -0.59377456 -0.6225314 -0.06131615
000020 d0 84 0d 3d 49 48 b6 bd 4e 36 51 3d 5a ce 42 3f
       0.034550488 -0.08900506 0.05107718 0.7609612
000030 09 20 be 3e 65 01 1a 3f 90 0f f1 3e a1 d6 9d 3e
       0.37133816 0.6015838 0.47082186 0.3082781

bias f4 [4]
000000 d3 67 0f 3e 34 2b 01 3f 5c ab 9c 3d c1 43 a7 bd
       0.1400445 0.5045655 0.07649872 -0.0816722

weight f4 [4, 4]
000000 a2 ad 42 bf 9e 86 ae bd 4b 1a 7a 3f 7a a9 b7 be
       -0.7604619 -0.0852177 0.9769637 -0.35871488
000010 21 0f bf be 71 94 0d 3f 66 87 53 bf d7 03 02 3f
       -0.3731623 0.5530463 -0.82628477 0.5078711
000020 9b 42 78 3f 37 0e 1c bf 24 98 ab 3e c2 a4 1d bf
       0.9697663 -0.6095919 0.33514512 -0.61579525
000030 84 db 30 3f dc d5 ac bd db 92 a7 bf d8 0a 15 3e
       0.69084954 -0.08439228 -1.3091692 0.14554918

bias f4 [4]
000000 71 a3 91 be 34 c1 eb 3e d8 b1 8d be 6d 21 32 3e
       -0.28445008 0.4604584 -0.27674747 0.17395563

weight f4 [4, 4]
000000 db b3 53 3d 05 10 91 be 23 46 4f bf 40 d3 ac bf
       0.051685195 -0.28332534 -0.80966395 -1.3501968
000010 55 bd 1d 3f c1 49 77 3e fc cc 85 3e 64 f0 1e 3f
       0.6161702 0.24149229 0.26132953 0.62085557
000020 ba 87 9c bf 75 57 0d 3e 39 53 0f c0 c8 b5 62 3e
       -1.222892 0.13802893 -2.2394545 0.22139657
000030 71 f3 b3 bd 15 25 52 3f d4 36 b0 be 2f cb b9 bd
       -0.08786667 0.8208783 -0.3441683 -0.09071957

bias f4 [4]
000000 5b 5b 7c 3f 1b d4 b3 be 62 1b 44 3f 8e 72 8c be
       0.985769 -0.3512276 0.7660428 -0.27431148

weight f4 [4]
000000 dd 3e 47 3f dc 63 7d 3f e1 21 66 3f af e6 88 3f
       0.77830297 0.989805 0.89895445 1.0695399

bias f4 [4]
000000 15 20 70 3e d0 19 ae be 96 d3 b8 3e c8 5a 44 bb
       0.23449738 -0.34004068 0.36098927 -0.0029961336

weight f4 [4]
000000 82 d2 17 3f 5f 5b ea 3e 58 37 ec 3e 1d b6 84 3f
       0.59305584 0.45772836 0.46135974 1.0368077

bias f4 [4]
000000 c3 49 51 3f c0 aa 64 be 18 77 43 be f6 9d 40 bf
       0.81753176 -0.22330761 -0.190884 -0.7524103

weight f4 [32, 260]
000000 02 c2 9e 3e 81 c6 82 3c be bf 1e 3e 01 98 be bd
       0.3100739 0.015963795 0.15502831 -0.09306336
000010 63 32 3c 3f 28 02 47 3d 56 65 d4 3d 16 36 78 be
       0.73514384 0.04858604 0.10370891 -0.24239382
000020 e5 a6 25 3f ee d4 89 be a1 a8 9d 3e 53 95 c0 be
       0.64707786 -0.26920265 0.30792716 -0.37613925
000030 f5 80 fc 3e fb a3 78 be a2 ec 2d 3f f7 e0 cd 3c
       0.49317136 -0.24281304 0.679392 0.025131686
000040 6e dc b1 3e dd 6e 0e bf 0b c1 82 3d 35 3f 77 3e
       0.34738487 -0.55637914 0.06384476 0.24145205
000050 12 9b 52 3d dd a2 75 bd bb af 75 3c 5b 8f 16 3e
       0.051417418 -0.05996977 0.014995511 0.14703123
000060 57 54 a3 3d ca cb 03 bd 4e 99 9e 3c af e0 10 3e
       0.07975071 -0.03217677 0.01936021 0.1414821
000070 c0 94 34 bf de f3 9d be ca 51 11 bf 75 5f 2c 3f
       -0.70539474 -0.30850118 -0.56765425 0.67333156
000080 2b 40 85 be 00 cb 88 bd 57 ce 65 be 6e 9d 7b 3e
       -0.2602552 -0.06679344 -0.22441994 0.24571773
000090 03 81 88 be e9 c6 18 3e 76 6e 49 bf 43 40 52 3e
       -0.26660928 0.14919628 -0.78684175 0.20532326
0000a0 d5 88 0e be 6f de 0a be 5b 71 1f be 54 49 29 3e
       -0.13919385 -0.13561414 -0.15570585 0.16531879
0000b0 e7 c6 cd bd 2d 9f 2c bd 25 9b 26 be c2 c6 c3 3e
       -0.10047703 -0.04214399 -0.1627012 0.38237578
0000c0 89 97 64 3e 0b 49 b3 3e cb 74 d2 3e 95 23 3d bf
       0.22323431 0.35016665 0.4110473 -0.7388242
0000d0 cd 4e 2a be 77 d7 e0 3d 81 fc 92 3e f8 49 0a be
       -0.16631623 0.10978597 0.2870827 -0.1350478
0000e0 ad 46 89 3f a7 a1 90 3e 4c 66 96 bd 28 82 5c be
       1.0724694 0.2824833 -0.0734373 -0.21534026
0000f0 2d fa f0 bd 44 ae 05 3c a9 1e cd 3e 88 f3 7d 3e
       -0.11766467 0.008159224 0.40062454 0.24799931
000100 eb 77 e2 be 9a e5 ad 3d c2 ce 3f be a7 c4 38 bc
       -0.44232115 0.08491059 -0.18731216 -0.011277354
000110 0e 81 0b bf ca fd 63 3f aa 94 89 be a3 f7 48 be
       -0.54493797 0.89059126 -0.26871234 -0.19625716
000120 be 08 90 3d a2 f2 b7 bd c8 fc db 3d f9 13 2f 3e
       0.070329174 -0.089818254 0.107415736 0.17097463
000130 ba 74 10 3f c7 97 e2 3d e1 13 10 3f 8a 19 f7 be
       0.5642811 0.110641055 0.5628033 -0.48261672
000140 23 fc c4 3d fa 6e c9 3d 04 3a 31 be 9c 22 af be
       0.09618404 0.0983562 -0.17307287 -0.34206092
000150 99 48 75 be 85 9b 86 3d e7 cb 19 3d 10 e8 94 3c
       -0.23953475 0.06572632 0.037547972 0.018177062
000160 57 c7 4f 3d c7 68 3e be e0 8c 56 3e 77 8a 18 3e
       0.050727215 -0.18594657 0.20952177 0.1489657
000170 14 08 e2 bd bf 3f 7a bc 53 7b 24 be 1d cb 2a 3e
       -0.11036697 -0.015273987 -0.1606267 0.16679044
000180 d0 d8 3c 3e 6d e6 98 3e 8c 1a 76 3e 2d d2 07 bf
       0.18442082 0.298633 0.24033564 -0.5305508
000190 84 5e 0b bf 08 9e a9 3e cc b5 12 be 44 15 b4 be
       -0.54441094 0.3312838 -0.14327163 -0.35172474
0001a0 79 90 a0 be f8 be 1c 3d 23 89 eb bd 83 10 66 3d
       -0.31360224 0.03826806 -0.11500766 0.05616809
0001b0 78 36 23 bf fd 81 1a 3e 0d 0c 01 3e a5 61 78 3c
       -0.6375499 0.15088649 0.12602253 0.015159999
0001c0 11 9e a5 3d ba c7 ea bd 0d 82 93 3e 5f fb 69 bd
       0.080867894 -0.11463876 0.28810158 -0.05712449
0001d0 70 6a f0 be 71 34 ca 3e 4c 98 b9 3d df fa 93 be
       -0.46956205 0.39493135 0.090622514 -0.28902337
0001e0 29 49 da be 63 e6 db 3e e5 3a 86 3d a7 32 df 3e
       -0.42633942 0.4294921 0.06554202 0.43593332
0001f0 c1 9f 26 be 5e d8 46 3e b2 a8 46 3d e9 2d dc be
       -0.16271879 0.19418475 0.048500724 -0.43003777
000200 88 71 28 bf 15 8f 85 3d 32 34 a9 be 54 e3 13 3e
       -0.65798235 0.06521431 -0.33047634 0.14442188
000210 86 c8 77 3e a2 b7 97 3d cd 49 55 be 00 43 96 bd
       0.24197587 0.07408072 -0.20828934 -0.07336998
000220 e3 b8 49 bd e7 08 bc 39 4c aa e1 3c ee d8 3c 3e
       -0.049248587 0.00035864787 0.027547024 0.18442127
000230 44 b9 3c 3e e6 f6 ae 3c a0 64 4a be 25 d9 30 3b
       0.18430048 0.021357965 -0.19764948 0.0026984897
000240 2a ce be 3d 90 a2 aa bd 01 d7 da bd 09 16 54 bd
       0.093166664 -0.083317876 -0.1068554 -0.051778827
000250 bb ea 76 bc a0 b1 02 bd fe c6 fe 3c 9e 25 99 bd
       -0.015070613 -0.031907678 0.031100746 -0.07477878
000260 f0 76 54 bc 89 51 b9 3d 00 da 10 3d 60 38 15 be
       -0.01296781 0.09048755 0.03536415 -0.14572287
000270 84 5d f3 3c c5 bb 4f 3d 37 05 f6 bc 51 17 3e bd
       0.029707678 0.05071618 -0.030031784 -0.046408955
000280 87 61 9d bd a3 d5 c1 3c 8f 5f 3a 3d 74 f3 80 3e
       -0.076846175 0.02366144 0.045501288 0.2518574
000290 35 9e 32 be 44 77 90 3d 2b ff 6d bd 5e 5f 9b 3d
       -0.17443164 0.07053998 -0.058104675 0.07586549
0002a0 8e 73 45 bc 7f cd 43 3d 38 c5 c6 bd 4c ca 51 be
       -0.012051476 0.0478034 -0.09705585 -0.20487326
0002b0 5a 18 f4 3d 7f 88 90 3d 7f da ac bd 98 30 73 be
       0.11918707 0.070572846 -0.08440112 -0.23749006
0002c0 08 a4 9b 3d 63 91 e4 3d 45 61 1a 3e e8 5c 33 be
       0.07599646 0.11160543 0.15076168 -0.1751591
0002d0 ae f7 7b be ba 43 32 3d 34 eb cf bd f4 54 3d bb
       -0.24606201 0.04352162 -0.10152283 -0.0028889747
0002e0 0c 8f ab bc e0 7c 91 3d c7 91 d2 bd ab 28 b5 bd
       -0.020942234 0.07103896 -0.10281711 -0.088456474
0002f0 c0 2c 8d bd 51 b8 a2 3c 56 3d 10 bd c1 f8 03 3d
       -0.06893301 0.01986328 -0.035214745 0.032219652
000300 9b 45 5d 3d 8b 47 2a bd 90 aa 6b 3c 26 a7 69 bd
       0.05402146 -0.041572135 0.014383927 -0.05704417
000310 f1 72 90 3b 2b 8a 8c bd 56 58 1a bd d5 13 1c 3e
       0.0044082333 -0.06862291 -0.0376819 0.1524194
000320 bc a2 44 be f8 23 5f bd eb 05 95 be f2 41 ae 3e
       -0.19202703 -0.05447766 -0.29106078 0.34034687
000330 82 82 ed be 7a 88 20 be 2f 7d 24 be 48 98 1a 3f
       -0.46388632 -0.15677062 -0.16063379 0.6038861
000340 a2 b6 f6 3e d7 ca d6 be c2 36 66 3f ad 74 89 3e
       0.48186213 -0.4195163 0.89927304 0.2684683
000350 95 ef 8b 3c 58 6d a0 3b b4 e7 06 3e 64 7f d7 be
       0.017082015 0.0048958473 0.13174325 -0.4208938
000360 51 9a b9 3d 05 7e c5 3d 28 53 97 bd 1b 8f 2d be
       0.09062637 0.09643177 -0.07388908 -0.16949122
000370 28 5d 88 bc ef a7 cd bc 10 5e 66 bc 58 ed 71 bc
       -0.016645983 -0.025104491 -0.014060512 -0.01476606
000380 9b bf 6b bd 43 53 66 3d 0b f5 ac bd 24 e2 af b8
       -0.057555776 0.05623175 -0.08445176 -8.386772e-05
000390 3d ab 19 be 5b e6 fb 3d 47 d2 e4 3d 85 2b 11 bd
       -0.15006728 0.12299796 0.1117292 -0.035441894
0003a0 80 cb 8b be 8f 49 b2 3e 6b d8 a0 be 2f 64 07 be
       -0.27303696 0.34821746 -0.31415114 -0.13221811
0003b0 f6 b2 a0 3c 8f 25 0b bb 98 db a8 bd 39 94 e4 bd
       0.019616585 -0.0021232103 -0.08245009 -0.11161084
0003c0 24 89 87 3d 53 bf c0 3c 13 6d ef 3c b9 fa a9 3e
       0.066179544 0.02352873 0.029226815 0.331991
0003d0 36 e8 a1 bd fa e2 8a bd b8 b3 3c bd 22 b1 f6 3c
       -0.07905619 -0.067815736 -0.04606983 0.03011376
0003e0 da ba 28 bc f9 01 c2 3d 90 67 aa 3b 84 37 cd bc
       -0.010298455 0.094730325 0.005200334 -0.025050886
0003f0 53 25 fd 3d ac bf 21 3e a5 29 91 bc dc 75 a8 bd
       0.12360635 0.15795773 -0.017720053 -0.08225605

bias f4 [32]
000000 77 55 3b 3d 9f d3 25 bd 11 59 ff 3c 14 b6 28 3e
       0.045735803 -0.04048502 0.0311704 0.16475707
000010 92 fa de bb 14 53 b4 3b bd 22 f9 bc 24 93 76 3d
       -0.0068047727 0.0055030677 -0.030412072 0.060198918
000020 b6 8b 9b ba ae ae 41 3d e9 cb 0e 3e df 09 3d be
       -0.0011867199 0.04728573 0.13944973 -0.18460797
000030 8d bb be 3d 44 ff d0 3d a9 78 f6 3c 6e da 87 bd
       0.09313116 0.10204938 0.030086832 -0.06633459
000040 a6 1e fa bd 3c 93 2a 3d 4d de 3d 3d bb e5 2e 3e
       -0.12212877 0.04164432 0.04635458 0.17079823
000050 db e6 46 3c 20 fe d8 bc 59 7b 08 be c8 d1 29 3d
       0.012140001 -0.026488364 -0.13328303 0.04145983
000060 04 93 12 3e 65 41 f7 3d 53 02 10 bd 53 51 62 bd
       0.14313895 0.1207302 -0.035158467 -0.055253338
000070 53 4d d9 bc 58 e4 ca 3d ac 1f de 3d 79 00 e0 3d
       -0.026526129 0.09906834 0.10845885 0.1093759

weight f4 [8, 32]
000000 79 3d d3 bd 56 75 0a be 0d c7 af 3e 0c 03 67 3e
       -0.10314459 -0.13521323 0.3433155 0.22559756
000010 b2 ed 07 bf 68 da 97 be 91 d3 e8 3e cf 42 35 be
       -0.5309707 -0.29658818 0.45473912 -0.17701267
000020 7e 7f ad 3e da 6f 52 be 6e 4e 59 3e 5b 6b 07 bf
       0.3388633 -0.2055048 0.21221325 -0.52898186
000030 99 02 1e 3d 35 0b c2 3d 64 9f c5 3e 7b ed 18 3e
       0.038576696 0.09474794 0.38598168 0.14934342
000040 29 18 a1 3e d6 0d 99 3d d4 de 6c be e7 a6 03 bf
       0.31463745 0.07473342 -0.23131877 -0.5142655
000050 d5 df 01 bf 98 c7 6e bf 29 21 93 bd 18 45 94 bc
       -0.50732166 -0.93273306 -0.07184059 -0.018099353
000060 db 93 61 3e ca 85 bd 3e 54 32 d5 3e 24 6d a3 be
       0.22029059 0.37016135 0.4163996 -0.31919205
000070 d1 78 95 3f f4 69 d7 bd 64 be a4 be e3 23 5b 3e
       1.1677495 -0.10518256 -0.32176507 0.21400408
000080 4e b0 f9 3d 10 dd c9 bf 4c 55 cf be ff 63 e0 3d
       0.121918306 -1.5770588 -0.40494764 0.10956573
000090 74 ec 49 bf 98 fa a7 bf 6f d1 c5 bd 32 96 63 bf
       -0.78876424 -1.312335 -0.09659087 -0.88901055
0000a0 c5 7f 8e bf 23 4e d1 bd cb f2 80 bd c6 f4 d6 3e
       -1.1132742 -0.102199815 -0.06296309 0.41983622
0000b0 35 25 e0 bc 68 76 e8 bf 95 e8 12 bf af b6 63 3e
       -0.027361492 -1.8161135 -0.5738614 0.22237657
0000c0 e0 7c 2a 3f 73 4a 19 bf 83 a1 db bf 8d 64 93 be
       0.66596794 -0.59879225 -1.7158664 -0.28787652
0000d0 cd ab 8f bf 0c d1 8f be e1 be 38 3c 3f 21 2c 3e
       -1.1224304 -0.28089178 0.011275978 0.16809557
0000e0 39 20 d8 bd ee 81 b6 bd d8 8c 48 bf d4 fb 63 3e
       -0.10553021 -0.08911501 -0.7833991 0.22264034
0000f0 54 2b 75 bf b7 b8 79 be 4d 0d c1 bf 88 4b 04 3e
       -0.9576924 -0.2438687 -1.5082184 0.12919438
000100 47 3e f6 bd 83 a1 98 be 3f c9 92 be d3 67 7a be
       -0.12023597 -0.29810724 -0.28669164 -0.24453668
000110 a9 02 07 3e 32 1c 9a be ef d8 9d 3e b3 64 01 3e
       0.13184609 -0.30099636 0.3082957 0.1263607
000120 36 3c 76 3e f1 92 5f bf 47 11 dc be 87 c9 52 3e
       0.24046406 -0.8733359 -0.42981932 0.20584689
000130 2e 35 46 be 79 3d 89 3e f3 c7 5c bd ae 2f fd be
       -0.19356224 0.26804712 -0.053901624 -0.4945044
000140 ce 06 6c 3f 4f 46 e3 3e 84 2e 0f 3f c5 7f 17 be
       0.92197883 0.4438958 0.5593035 -0.14794834
000150 b7 a2 41 be 4c 83 be 3e 17 0c 6c 3d 42 9f 38 3d
       -0.18909727 0.37209547 0.057628717 0.045073755
000160 48 b2 ff be 9d 55 17 3f 15 72 ca 3e e5 a5 bc 3b
       -0.49940705 0.5911501 0.39540163 0.005757081
000170 fd 25 06 3f c1 08 3b 3e 4b ad 7a bd 60 a7 7a 3e
       0.52401716 0.18265058 -0.06120042 0.24477911
000180 4a f9 09 3e 68 ef 84 bf ff a2 4c be 8f 65 9e be
       0.13474002 -1.0385561 -0.19984053 -0.30936858
000190 0c be 50 3f 7c 6b b5 bd 1d 2a 44 3f 12 6e e2 3f
       0.8153999 -0.08858392 0.7662676 1.7689841
0001a0 49 a5 a2 bd aa be 7a 39 9f a7 f8 be 6d 22 87 3f
       -0.07941682 0.00023912886 -0.48565385 1.0557381
0001b0 f9 ff cf be 53 a0 97 bf b8 70 04 3f 28 80 2e bf
       -0.4062498 -1.1845802 0.51734495 -0.681643
0001c0 0c 69 35 3f 56 75 29 bf 44 46 11 bf a2 74 0e 40
       0.70863414 -0.66194665 -0.5674784 2.2258687
0001d0 79 93 4f 3f 1f 8f 1e c0 b8 47 88 3d 3b 00 63 bf
       0.810844 -2.4774854 0.06654304 -0.88672227
0001e0 68 b5 f2 be 7c 7e 8c c0 97 8b 76 bf b9 71 b3 3e
       -0.47404027 -4.39044 -0.9630675 0.350477
0001f0 19 5b b0 bf 13 89 04 3e c7 94 9e bf 94 87 ac 3e
       -1.3777801 0.12942915 -1.2389153 0.33697188
000200 d5 9a 1a be 99 3e 3f 3e a8 7f ca 3c 04 3e 2d 3f
       -0.15098126 0.18676223 0.024719074 0.67672753
000210 37 16 d1 3d bc fc 05 3e 68 39 11 3f 09 63 8c bc
       0.10209315 0.13084692 0.5672822 -0.017137067
000220 9c f0 ac bd 2e 73 6f 3e a5 be b9 3e 1d 3c 87 3d
       -0.0844433 0.23383781 0.36278263 0.066032626
000230 9f 2e 3f 3e 3d 21 e3 bd a1 aa 42 bd 07 a5 97 bd
       0.18670128 -0.11090324 -0.047526006 -0.07404523
000240 a0 d3 09 3e f1 94 ee 3e 8c 11 8e 3d 09 ef 81 be
       0.13459635 0.46598008 0.069369406 -0.25377682
000250 76 82 57 3e b2 de b0 be 69 06 c5 be 7f 1b 99 bd
       0.2104586 -0.34544903 -0.38481453 -0.074759476
000260 61 60 9e 3e 88 fa ee 3d a9 28 30 be ce 63 13 3e
       0.30932906 0.11668879 -0.1720301 0.14393541
000270 3b 57 c8 be 1c 0e 9a be eb 4d c8 3e 52 68 88 be
       -0.39129052 -0.3008889 0.39121947 -0.2664209
000280 07 61 48 3e 83 0b ba 3c 1b 8d 4b bc c9 4f 1d 3e
       0.19568263 0.022710567 -0.012423779 0.15362467
000290 43 05 69 3d 89 b6 13 be 03 c1 38 be a1 05 cb bd
       0.056889784 -0.144251 -0.18042378 -0.09913183
0002a0 3c 70 3c 3c f3 fa 56 3e bd 1e 68 3e be 02 63 be
       0.011501368 0.20994167 0.22667976 -0.22169015
0002b0 00 28 26 3e 81 cc d8 3d 20 51 12 be d6 c0 77 be
       0.16226196 0.10585881 -0.14288759 -0.24194655
0002c0 3e 64 ee be c7 c4 a0 be d5 00 52 be c9 db 32 3f
       -0.46560854 -0.3140013 -0.2050813 0.69866616
0002d0 d1 eb bd 3b 39 28 15 3e 19 52 36 bf 97 c8 06 3d
       0.005795934 0.14566125 -0.7121902 0.03290614
0002e0 3b 12 a4 3e 58 18 8b be bc 9f 26 3d bd 6e be 3e
       0.3204516 -0.2716701 0.04067968 0.37193862
0002f0 9b 41 40 bd 2b 9f 12 3f d2 bb a7 be 03 da 8a 3e
       -0.046937566 0.5727412 -0.32760483 0.27119455
000300 6b 78 90 3d 46 ae a0 bd b0 16 b4 bb 51 73 e9 3a
       0.07054218 -0.0784574 -0.0054958686 0.0017810856
000310 82 9b ec 3d 19 f4 87 3e 35 7d 9b be 0b 05 0e 3c
       0.11553098 0.2655342 -0.30368963 0.0086681945
000320 c0 f1 e1 bd 01 eb cb 3c 4c bb 4e bd e4 15 39 3e
       -0.11032438 0.024892332 -0.05047159 0.18074757
000330 25 a3 87 bd fd aa 1d 3e 96 62 26 3c b9 4e a8 bd
       -0.06622914 0.15397258 0.010155341 -0.0821814
000340 46 7f 18 3f 49 0f 1f be e4 86 0b 3e 8b f1 8e 3d
       0.59569204 -0.15533175 0.13625675 0.069796644
000350 62 c5 bd be b1 5a 0d be 60 31 30 bb 92 2e 0d 3d
       -0.37064654 -0.13804127 -0.0026884899 0.03446824
000360 66 9b f9 3d 64 1e ca bd 0e 05 8a bd af 80 da bd
       0.12187843 -0.09869078 -0.06739245 -0.10669076
000370 31 89 69 be 5e c3 91 bd ea e4 13 be db 61 1d be
       -0.2280624 -0.071173415 -0.14442793 -0.1536936
000380 cc 1b 8f 3d c5 22 27 bb 71 09 57 be 0c 25 47 bd
       0.06987724 -0.0025502902 -0.20999695 -0.048619315
000390 32 36 3b 3b 83 30 bf 3d fa 3f 02 be 5d 2d 54 3d
       0.0028566238 0.09335425 -0.12719718 0.051801074
0003a0 65 ba 16 3d b8 56 ce 3d e1 0c bd bc 1e 9f b1 bc
       0.036798853 0.10075134 -0.02307743 -0.021682318
0003b0 64 f0 a3 3e 86 46 96 bd ef 97 59 bc d7 54 cc 3d
       0.3201934 -0.0733767 -0.013280853 0.099771194
0003c0 b2 f9 39 bc 40 d6 5b 3b 8e f9 73 3e df 95 4f bd
       -0.011351036 0.003354445 0.23825666 -0.050680038
0003d0 4c 0f 88 3d bc 51 b7 bd 37 e8 e3 3d 61 22 75 3e
       0.06643543 -0.089511365 0.11128276 0.23938896
0003e0 88 85 5d 3e 8d 2e 04 3e 45 82 f7 bd ac b4 57 be
       0.2163297 0.12908383 -0.12085394 -0.21065015
0003f0 a0 ef bf 3c 29 66 ad be b9 99 e6 bd bd a2 49 3d
       0.023429692 -0.33867005 -0.11259789 0.049227465

bias f4 [8]
000000 39 a2 9b 3e 0d b0 ac be b1 5b 83 3e 57 bd 2c bf
       0.30397204 -0.33728066 0.25655892 -0.6747641
000010 fa a3 b1 3d 26 95 8f 3e 85 d5 3d 3e 98 8e a0 3d
       0.08673854 0.2804348 0.18538482 0.078396976

weight f4 [4, 1]
000000 55 4c dc 3e d0 f3 ed 3c 40 c1 61 3f 63 f4 48 3f
       0.43026987 0.029046923 0.881855 0.78497905

bias f4 [4]
000000 6b 9d 5b bf 9b af 20 bf 7f a0 0a 3f 62 9b 87 bf
       -0.85787076 -0.6276795 0.5415115 -1.0594294

pe f4 [1, 8, 4]
000000 00 00 00 00 00 00 80 3f 00 00 00 00 00 00 80 3f
       0.0 1.0 0.0 1.0
000010 a4 6a 57 3f 41 51 0a 3f 57 d6 23 3c b9 fc 7f 3f
       0.84147096 0.54030234 0.009999833 0.99995
000020 b7 c7 68 3f 33 11 d5 be 3e d4 a3 3c e5 f2 7f 3f
       0.9092974 -0.41614684 0.019998666 0.9998
000030 c3 81 10 3e 26 70 7d bf 1f b9 f5 3c 83 e2 7f 3f
       0.14112 -0.9899925 0.0299955 0.99955004
000040 cf bd 41 bf 30 55 27 bf db cb 23 3d 94 cb 7f 3f
       -0.7568025 -0.6536436 0.039989334 0.9992001
000050 10 7c 75 bf 2c 3c 91 3e f4 b6 4c 3d 19 ae 7f 3f
       -0.9589243 0.2836622 0.049979165 0.99875027
000060 8c 0f 8f be b8 cd 75 3f d1 9c 75 3d 12 8a 7f 3f
       -0.2794155 0.96017027 0.059964005 0.99820054
000070 46 30 28 3f bd ff 40 3f 32 3e 8f 3d 81 5f 7f 3f
       0.6569866 0.75390226 0.06994285 0.997551

weight f4 [4, 4]
000000 78 5c 85 3d a9 c2 a0 be ef e7 41 3f f2 3d 01 3e
       0.06511778 -0.31398514 0.7574453 0.12621287
000010 0b 70 e3 be f8 74 e4 3c 29 8c 40 be a5 df 05 bf
       -0.4442142 0.027887806 -0.18803467 -0.5229438
000020 bd 8d 0d 3f 96 c2 8b 3e 1d b5 a9 be 3f f8 00 3f
       0.552944 0.27296895 -0.3314599 0.50378793
000030 dd 49 a1 bc 66 6e 21 3e 27 8d 80 be 1d 3d ac be
       -0.019688541 0.1576477 -0.2510769 -0.33640376

weight f4 [4, 4]
000000 4a 00 af be 39 c7 0c 3f 2a 21 e2 be 23 5c fc be
       -0.34179908 0.5499149 -0.44165927 -0.49289045
000010 55 2f 53 bf cc 5c a2 be c0 78 02 3f 16 d6 84 3e
       -0.824941 -0.31711423 0.509655 0.25944585
000020 09 57 d6 3e a6 8c 8c 3f d6 ef 3b be 25 e0 1b be
       0.41863278 1.0980422 -0.18353209 -0.15222223
000030 84 bd 1c 3d a6 f8 e7 be ca dc 27 be 4c ba ab 3c
       0.038266674 -0.4530689 -0.16392818 0.020962857

weight f4 [4, 4]
000000 74 13 2b 3e 40 94 ce 3e 9f 34 ae 3d c6 8f 24 3f
       0.1670664 0.4034748 0.085061304 0.6428188
000010 a9 67 c6 be d9 a1 5b 3e 49 ad fc 3d 69 6a fc be
       -0.3875096 0.21448459 0.12337739 -0.49299935
000020 9d 7a 03 bf 79 93 0b bf bf 76 bb be 1e 09 98 3e
       -0.5135897 -0.545219 -0.36614034 0.29694456
000030 00 15 e9 3e fb 73 a3 3e 41 64 6a 3e de dd ce be
       0.45523834 0.31924424 0.22889806 -0.40403646

weight f4 [4, 4]
000000 23 75 1f 3e fd 6c 7d 3e 43 5e a4 be f4 6c 64 be
       0.15572028 0.24748607 -0.32103166 -0.22307187
000010 e9 c4 b3 bc a3 22 2c 3d 1e d5 67 3e 27 9a ad be
       -0.02194448 0.04202522 0.22639892 -0.3390667
000020 b5 40 85 be 54 8a c6 3e c3 04 02 bf 3e 75 3f 3e
       -0.2602593 0.3877741 -0.50788516 0.18697068
000030 e8 e7 48 3f 64 62 b5 be 7b 8c d8 bb 73 04 01 be
       0.7847886 -0.3542663 -0.0066085435 -0.12599353

bias f4 [4]
000000 00 0b cc bd 0d ff 9c 3e 65 b5 60 3d 1e c4 bd 3d
       -0.099630356 0.30663338 0.05486049 0.09265922

weight f4 [4, 4]
000000 d8 d1 2e 3f 4c 5b 2c bf 8a a4 90 bd 29 0f d8 3e
       0.68288946 -0.6732681 -0.07062633 0.42199066
000010 ee 72 32 3f d1 9e e6 be 48 cb be 3e 9c 91 fd 3e
       0.6970662 -0.45043042 0.37264466 0.49525154
000020 9a af 3d 3f 09 5e 4c bd 5c 1d 14 3e 6d c9 43 3d
       0.7409607 -0.049894366 0.14464325 0.047799516
000030 51 53 c6 be 94 8c f2 3e 21 60 17 3d d4 3e 01 3e
       -0.3873544 0.47372878 0.03695691 0.12621623

bias f4 [4]
000000 5b 84 ab 3d 87 96 f3 be 35 e5 7c 3e 10 39 02 3f
       0.08374854 -0.4757578 0.2469681 0.5086832

weight f4 [4, 4]
000000 69 d4 3d 3f bd 41 9b 3e 5a f9 ae 3e 6c 98 20 bf
       0.7415224 0.30323592 0.34174615 -0.6273258
000010 34 d5 ea bd 20 46 11 bf 71 29 eb be 55 84 2b 3f
       -0.114664465 -0.5674763 -0.45930055 0.669988
000020 e5 61 46 bf e5 29 8c bf 1f b3 20 bf 71 fb 88 be
       -0.77493125 -1.0950285 -0.6277332 -0.26754335
000030 fa a0 bb 3e f9 fc 79 3e a4 34 e0 bc ae f1 a7 be
       0.36646253 0.24412908 -0.027368851 -0.32801574

bias f4 [4]
000000 d0 ce 4c bd c7 54 0d 3f d5 d7 06 bd af 51 d3 be
       -0.05000192 0.55207485 -0.032920677 -0.41273257

weight f4 [4]
000000 64 d8 94 3f d5 fc 93 3f ce 34 49 3f a1 f9 6a 3f
       1.1628537 1.1561533 0.785962 0.91787153

bias f4 [4]
000000 40 e6 ec 3d 5e 22 08 3e 2b 8e b6 be 0b 40 b3 bd
       0.11567354 0.1329436 -0.3565534 -0.087524496

weight f4 [4]
000000 da eb 97 3f e7 c3 93 3f 42 fb 8b 3f 91 21 6b 3f
       1.1868851 1.154416 1.0936053 0.91848093

bias f4 [4]
000000 54 e9 76 3d e2 1a 81 3e 87 00 05 bf c5 bc 8d bd
       0.060281113 0.25215822 -0.5195393 -0.069207706

weight f4 [4, 4]
000000 7f 69 0b bf 66 59 0f 3f ea 51 f8 3e 0f 2b d0 be
       -0.5445785 0.55995786 0.48499995 -0.4065785
000010 ec 80 0a bf b5 e4 0f 3f 40 3f e2 3e 5d 53 b8 be
       -0.5410297 0.56208354 0.4418888 -0.360011
000020 92 f5 12 bf e4 85 c4 be 91 2b a6 be 74 dc b5 3e
       -0.5740596 -0.383834 -0.32455114 0.35519755
000030 3a f8 21 3e 8d 27 ea 3e 4c 62 4b be fe 3a bb 3c
       0.15817347 0.457333 -0.19861716 0.022855278

weight f4 [4, 4]
000000 08 99 3e 3e e9 47 72 bf e6 80 7a 3f 71 d9 b2 3f
       0.18613064 -0.94640976 0.97852933 1.3972608
000010 1d 3c 1a be f4 52 e4 be 4f b9 5c 3f a2 27 cb 3f
       -0.15061994 -0.44594538 0.8622026 1.587147
000020 5f c4 01 be e9 9a 09 3e 92 58 d8 be 0c f1 c0 3f
       -0.12672566 0.13438 -0.42255074 1.5073562
000030 5a ac 16 3d ae d2 e2 be fa 5f b9 bc df e7 6c be
       0.03678546 -0.4430136 -0.022628773 -0.23135327

weight f4 [4, 4]
000000 ec f6 17 bd db 18 91 be 69 de e5 3e 8e 16 f9 3c
       -0.037100717 -0.28339276 0.44896248 0.030406263
000010 36 bd e1 3e 69 67 c1 be 71 ce 36 bd 8f 81 02 3f
       0.4408967 -0.37774208 -0.04463047 0.5097894
000020 ae 13 dd bd 47 74 39 3e dc 9c 3a bf ac 27 91 bd
       -0.10794769 0.18110763 -0.728956 -0.07087645
000030 3e 90 2a bf aa 69 98 3c 93 d1 79 3e ba 18 27 bd
       -0.66626346 0.018605072 0.24396352 -0.040795065

weight f4 [4, 4]
000000 cd 65 9b be 7d e8 dc be a3 bf 03 bf 91 50 0b bb
       -0.30351105 -0.43146124 -0.5146429 -0.0021257738
000010 31 0d a2 3e a2 00 23 3f d5 a8 6e bd 2b 57 51 3e
       0.3165069 0.6367284 -0.05826648 0.20443408
000020 61 21 b7 be 5e 50 a2 3e f9 39 18 3f 6e a1 2f bf
       -0.35767654 0.3170194 0.5946346 -0.686057
000030 a3 ce 2f bd ce c6 69 bd 1f 9c 8c 3e a7 04 2a 3e
       -0.042921674 -0.05707436 0.2746286 0.16603337

bias f4 [4]
000000 aa a8 b1 3e d7 45 31 bd c2 2f 26 3e c5 72 f5 3e
       0.34698993 -0.043279495 0.16229156 0.47939125

weight f4 [4, 4]
000000 17 76 1e bf cc 19 35 bf 77 71 37 3e 3b c8 4b 3f
       -0.6189894 -0.7074249 0.17914377 0.796024
000010 1d df 9a 3e 2e 6a 5a bf 12 df 07 3e a8 62 35 be
       0.30248347 -0.8531827 0.13268688 -0.17713416
000020 d4 0f d3 3e 97 0f ea 3e 8a bf b8 3e 71 8e 9f bf
       0.41223013 0.4571502 0.36083633 -1.2465345
000030 e8 f4 88 bc c7 27 92 3f 50 1b 8b bf b1 6e 8a bf
       -0.016718343 1.1418389 -1.086771 -1.081503

bias f4 [4]
000000 b3 69 3a 3e 1b c1 cf 3e 1a 26 4d bf 66 01 7e be
       0.18204384 0.40577015 -0.80136263 -0.24805221

weight f4 [4, 4]
000000 cb 7f 3a 3f 8a ed 02 3f ce c7 7b be 86 f5 0a 3f
       0.72851247 0.51143706 -0.24587938 0.5428089
000010 02 f2 19 bf 68 68 42 3f c9 ad 57 bf 43 76 d0 be
       -0.601349 0.7594056 -0.8424955 -0.40715227
000020 4b 0e c4 be a1 cb 1a bf 78 0a 34 3f 49 e6 07 3e
       -0.38292155 -0.60466963 0.70328474 0.1327144
000030 b8 8d 0d be 45 11 3f be 42 af 26 3f f4 c6 52 bf
       -0.13823593 -0.18658932 0.6511117 -0.8233483

bias f4 [4]
000000 af ec 21 3f 79 44 84 3f 4b a0 8c be bd c7 83 bd
       0.63251776 1.0333396 -0.27466044 -0.064345814

weight f4 [4]
000000 d3 44 5f 3f 0c 72 89 3f 2e 95 85 3f 3b 78 58 3f
       0.8721439 1.0737929 1.0436151 0.8455846

bias f4 [4]
000000 c0 2c 49 3e 88 57 ce 3e 50 cd 97 be 82 0f 16 be
       0.19645977 0.40301156 -0.29648829 -0.14654353

weight f4 [4]
000000 e9 74 76 3f 15 5f 91 3f 4d 89 c1 3f be f8 cb 3f
       0.9627214 1.1357142 1.5120026 1.5935285

bias f4 [4]
000000 9d 42 67 be 11 97 87 be 77 7b 09 3f 49 1a 5e 3e
       -0.22584005 -0.26482442 0.5370402 0.21689714

weight f4 [8, 32]
000000 aa 61 34 bd 7c d3 63 3c 81 c6 bc 3c 19 c7 88 bd
       -0.044038452 0.013905402 0.023043873 -0.066786
000010 f1 c1 6d be dc a4 89 be 12 b9 17 be 39 ad e9 bd
       -0.23218514 -0.2688359 -0.14816692 -0.11409993
000020 7b a5 c7 3b 01 c3 15 3f 0f f5 49 bc bf ac 84 3e
       0.006092725 0.5850068 -0.012326493 0.25913045
000030 1f 1f 45 3d 53 18 b4 3d df f7 2e bd bd 40 3e 3d
       0.048125383 0.08793702 -0.042716857 0.046448458
000040 18 3b 86 bd e6 1d 2b bb 5c 68 19 bd a7 2c b5 bd
       -0.0655424 -0.002611035 -0.03745304 -0.088464074
000050 19 79 88 bc e5 9e a6 bc 7e 2c 9b bd 95 f0 1d 3b
       -0.016659306 -0.020339439 -0.075768456 0.0024099697
000060 c7 b9 05 3e b0 35 21 be 05 96 ba bd 7e 53 f7 bd
       0.1305915 -0.15743136 -0.09110645 -0.12076472
000070 1b f8 46 bf 26 d1 1c bf 81 5d a7 3f 9c c1 4d 3f
       -0.7772233 -0.61256635 1.307541 0.8037355
000080 cc da f7 3d 16 ec 17 3e 53 cb f4 3d 17 9f eb 3c
       0.12102279 0.14836153 0.119528435 0.028762383
000090 b9 c8 59 3d 0b eb 27 3d 60 b4 eb 3d 8a 91 db 3d
       0.05316994 0.04099564 0.11509013 0.10721119
0000a0 9e 12 26 be c1 48 ab 3f 6f a7 78 be 8b 4f 08 be
       -0.1621804 1.3381578 -0.24282621 -0.13311593
0000b0 58 b3 1b be 3f 31 cc 3e 52 7d 6a be 9f ed ce be
       -0.15205133 0.39881322 -0.22899368 -0.40415666
0000c0 e3 91 84 3e 9d c1 d6 bd 7d 30 a5 bc 64 4f a6 be
       0.25892553 -0.104861476 -0.020164723 -0.32482445
0000d0 87 3c 3a 3d aa 24 5c 3d 9f 46 3b be c9 69 bb be
       0.04546788 0.053745903 -0.18288659 -0.36604145
0000e0 40 4d 42 be 3f c5 cb bd 40 2d 02 3d 9c d8 1f be
       -0.18974781 -0.09949731 0.031781435 -0.15609974
0000f0 36 00 c9 bb 4a d9 8f 3d 21 2e 1c 3d bb 8d 27 3e
       -0.0061340583 0.070238665 0.03812993 0.1636266
000100 a7 f3 cd be 7f d2 0b bf fc 39 b3 3f c2 40 26 bf
       -0.40224954 -0.54618067 1.400207 -0.6494256
000110 4a b2 e4 3e 86 87 32 be d8 d5 32 bf a5 2f 84 3e
       0.44667274 -0.1743451 -0.6985755 0.258176
000120 0f 37 6f bc bc 32 01 40 b0 d2 a9 be 0a d1 91 3e
       -0.014600529 2.0187216 -0.33168554 0.28479797
000130 9b ba 66 3e ee 11 22 3d 08 19 bc be 01 a1 a8 bb
       0.22532122 0.03956788 -0.36737847 -0.0051461463
000140 ed b9 a2 3e 54 9b c3 3e ce 39 19 bf ae 39 7c 3d
       0.31782475 0.38204443 -0.5985383 0.061578445
000150 f7 f0 58 3f f7 58 90 3e b3 97 55 bf ec d0 a6 be
       0.84742683 0.28192875 -0.834346 -0.3258127
000160 e0 cc 89 3f 86 2c 26 bf a8 fe 15 3f 3f 9f c3 3d
       1.0765648 -0.6491169 0.585917 0.09551858
000170 12 93 b1 3e 52 92 d4 bc ef 4f 51 be 5d 4f 72 3e
       0.34682518 -0.025948677 -0.20440648 0.23663087
000180 82 45 93 be 71 25 f2 be 2e d5 79 3f 3c fe b2 be
       -0.28763968 -0.4729419 0.9759091 -0.3495959
000190 08 de 6e bf 40 8c aa be fa 4f 39 3f c1 46 e4 bd
       -0.9330754 -0.33310127 0.7238766 -0.11146308
0001a0 e0 8d 8d 3d 9b 8c 8b 3e 6a 33 93 be 38 95 58 3d
       0.06911826 0.2725571 -0.28750163 0.05287668
0001b0 09 5f 73 be 64 29 5c bc c5 8e b5 be 39 6d a3 3f
       -0.23766722 -0.013437603 -0.35460487 1.2767707
0001c0 37 46 10 3f 31 4c 76 3d 67 31 19 bf b5 df 9e 3d
       0.5635714 0.060131256 -0.59841007 0.077575125
0001d0 f0 65 75 3e 94 79 0c 3f 25 15 07 bf d8 96 ce 3e
       0.23964667 0.54873013 -0.5276664 0.4034946
0001e0 a6 b2 ce bf b7 d4 08 3f 06 73 78 be 52 37 73 3e
       -1.6148269 0.5344958 -0.24262628 0.23751572
0001f0 b9 82 05 be b9 56 07 bc 51 a0 b5 be 61 d5 70 3f
       -0.13038148 -0.008260422 -0.35473874 0.9407559
000200 a8 4b 35 3f 17 7d a4 3d 8c 60 0d bf 1d c9 ee bd
       0.7081857 0.080316715 -0.55225444 -0.11659453
000210 27 a6 0b 3f f3 28 e8 be e5 1e f8 3d 8b e0 f9 be
       0.54550403 -0.45343742 0.12115268 -0.48804125
000220 94 7a 97 3c 83 26 23 3f c7 07 2d be 90 8c 15 be
       0.018491067 0.6373064 -0.16897498 -0.14604402
000230 27 3c 3b bd ea c9 e4 be 6e 7e 86 be 74 32 a0 3f
       -0.045711663 -0.44685298 -0.26268333 1.2515397
000240 3b 43 3a 3f 97 de 04 bf 0a ce 64 be d3 86 e0 bd
       0.72758836 -0.51902145 -0.22344223 -0.10963216
000250 62 4e e2 3e fd b3 2b bf 9a 21 ba 3e 32 19 2d be
       0.44200426 -0.67071515 0.3635376 -0.16904142
000260 1d 79 d4 3f cc b9 82 be a7 44 f4 3e 47 ec 3a bf
       1.6599461 -0.25532377 0.47708628 -0.7301678
000270 72 74 a4 be a9 82 99 3d db b5 45 bf d3 98 b6 3f
       -0.3212009 0.074956246 -0.77230614 1.4265388
000280 b6 1c e4 3e 00 84 8b 3d d5 fc 76 bf a2 af ce 3d
       0.44553155 0.068122864 -0.9647954 0.10092093
000290 22 74 ee be 64 5f 13 3f c3 a9 2a bf 7d b5 5f 3e
       -0.46572977 0.5756743 -0.66665286 0.21846576
0002a0 bb 02 e3 bd a5 96 80 3d aa 50 18 be b2 b8 d3 bd
       -0.11084505 0.06278733 -0.14874521 -0.10337962
0002b0 20 5c 20 3e e3 c3 aa 3e d8 45 1f be 5e 36 c4 bf
       0.15660143 0.33352575 -0.15553987 -1.5329092
0002c0 b7 16 e1 3e b3 0b b2 3e 68 30 70 bf d0 39 cf 3d
       0.43962643 0.3477455 -0.9382386 0.10118449
0002d0 89 dd eb be 22 01 5e 3e 50 35 cb 3e 8d e4 1c bf
       -0.46067455 0.2168012 0.39689112 -0.6128624
0002e0 bc 4a 67 bf cb 93 f9 be 54 1d 25 3f 5e d7 3c 3d
       -0.9034841 -0.4874557 0.64497876 0.046103828
0002f0 93 83 09 be 35 ab 8f be 16 4b dc be 57 42 65 3f
       -0.13429098 -0.28060308 -0.43026036 0.8955435
000300 86 59 00 3a e2 32 0b 3e fb 20 4e 3e 64 cc 26 3c
       0.00048961525 0.13593629 0.20129769 0.010180566
000310 36 9e 88 bd 5b d3 ee bc b1 9c 32 3e e9 46 e0 3d
       -0.06670801 -0.029153517 0.17442586 0.10951025
000320 c7 24 3a bc 2a 10 41 bf 21 aa 97 3e 4a 49 fa 3d
       -0.011361307 -0.7541529 0.29621986 0.1222101
000330 9d eb 16 bc 09 35 00 be 62 d2 2f 3d 07 e2 2d be
       -0.009211448 -0.12520231 0.042925246 -0.16980754
000340 1d 83 a8 3d 89 a2 d2 be f4 bf 63 bd 6a 95 31 bf
       0.08228133 -0.4113963 -0.055602983 -0.6936861
000350 43 99 0d 3f 9a 5b 04 3f 61 9b de be 34 ef 34 bf
       0.55311984 0.5170227 -0.4347792 -0.70677495
000360 69 3b a5 bd b1 1e ba 3e f2 23 4f be 06 3a ac be
       -0.08067972 0.3635154 -0.20228556 -0.33638018
000370 ce 2a 49 bc 5a 68 18 3e 7c a6 f9 3c f6 d3 09 3e
       -0.012278272 0.14883557 0.030474894 0.13459763
000380 3a ae ca 3d d7 3f ff 3e 70 2f 13 bf 2c ed 18 bf
       0.09896512 0.49853393 -0.5749426 -0.59736896
000390 e6 36 69 be 4a b3 da bd 83 34 b5 3d 10 e1 cf 3e
       -0.22774848 -0.10678728 0.088479064 0.40601397
0003a0 da 86 66 3e 5e 10 01 bf 5f f3 54 be c0 30 af bd
       0.2251238 -0.504156 -0.20795964 -0.0855422
0003b0 15 a3 fb 3d 45 d3 f3 3e a0 d8 13 bf b8 5e 8f 3d
       0.12286965 0.47622123 -0.5775242 0.07000488
0003c0 66 95 61 3e aa 38 d6 3e a9 48 83 be 98 cc 79 bf
       0.22029647 0.41840106 -0.25641373 -0.9757781
0003d0 52 3b 81 bf dc db 03 bf f5 40 48 3f 9b a3 57 3e
       -1.0096228 -0.51507354 0.78224117 0.21058504
0003e0 d8 0a 57 3f 24 96 6a bb f4 28 a6 3d 77 a4 9b 3e
       0.8400092 -0.0035795057 0.0811328 0.30398914
0003f0 ce 89 58 be d3 2f 4f bd ca f4 44 be 87 98 3d 3e
       -0.21146318 -0.050582718 -0.19234005 0.18515216

bias f4 [8]
000000 32 d5 16 be c4 22 88 3d 34 13 c4 3c ea c9 de 3c
       -0.14729765 0.06647256 0.023934938 0.02719589
000010 a5 f3 ff 3d 6a 2d 3d be e5 be c7 bd 87 7d 47 ba
       0.124976434 -0.18474355 -0.09753207 -0.00076099526

weight f4 [34, 4]
000000 0e b1 df 3c cb 93 dd bb fa 59 ee bd de 13 0f bd
       0.027306106 -0.006762003 -0.116382554 -0.034931056
000010 19 e9 a3 3d 96 94 e0 bd fb b8 97 be 8c cc d6 bd
       0.08003444 -0.109658405 -0.29633316 -0.10488233
000020 65 a7 88 bf 32 86 11 3f d9 df 45 3f 01 0d a1 be
       -1.0676085 0.5684539 0.7729469 -0.31455234
000030 63 4d 76 3f fa 67 3e 3f 85 f4 6c 3f 21 bd bd be
       0.9621183 0.74377406 0.9256061 -0.37058356
000040 69 7e a3 3f 0a 8a a0 3e b3 ee e6 3e 76 53 59 bd
       1.2772952 0.31355315 0.45103988 -0.05305811
000050 41 d8 e4 be 34 20 ad 3e 7a 23 3e bd 55 4f 2a bf
       -0.4469624 0.33813632 -0.04642055 -0.665273
000060 0f 9e b4 3f de aa 12 3b 96 88 63 be 94 4c fc 3e
       1.4110736 0.0022379677 -0.22220072 0.49277174
000070 3f 05 88 3f 81 c5 94 3f a6 91 ad 3f 4a 7e 08 be
       1.0626601 1.1622773 1.3560073 -0.13329425
000080 c5 4b c7 3d 8a 15 9b 3d e4 1a c9 be 1a 6e bc bf
       0.09731249 0.075724676 -0.39278328 -1.47211
000090 c8 14 c9 bf fe da f2 3e 85 8f 0f 3f 2c 1f 09 bf
       -1.5709467 0.47432703 0.5607837 -0.5356319
0000a0 e3 44 68 3f 38 d7 2a 3e 34 6c 5b 3f 03 5b fa 3f
       0.9073011 0.16683662 0.8571198 1.9559025
0000b0 e2 06 2f 3b d8 5c d1 bf f2 a8 9c 3d 4e ca f3 bf
       0.0026706983 -1.6356459 0.07649411 -1.9046113
0000c0 23 60 6d bf 4c 9f ce 3e b4 e9 6d bf 73 61 c3 3d
       -0.9272482 0.4035591 -0.9293473 0.09540071
0000d0 c7 17 d8 3e 42 42 04 3f ab 3b 98 bf 28 95 de bf
       0.4220564 0.516636 -1.1893209 -1.7389269
0000e0 26 e7 c6 3f 32 23 d2 bf d0 20 fe bb 77 ef ef bf
       1.5539291 -1.6416991 -0.0077553764 -1.8744954
0000f0 bd d8 bc bf 27 4c a9 bf 11 6e 28 3f e2 c9 1d 3d
       -1.4753643 -1.3226365 0.6579295 0.03852261
000100 7f 28 5b be 7a 5b e8 be 33 c1 57 bf ec 1b d2 3e
       -0.21402167 -0.4538229 -0.84279174 0.41036928
000110 d6 35 da 3e 4a c5 58 be 27 99 f9 bf a1 eb df 3f
       0.426192 -0.2116901 -1.9499863 1.7493783
000120 74 13 1e be 8e 72 3e be f2 f8 0f bf c6 fc 6d 3e
       -0.15437108 -0.18598387 -0.56239235 0.23240957
000130 24 be 82 3f ae a8 01 bf 24 b1 20 3f e3 b0 f7 be
       1.0214276 -0.5064801 0.62770295 -0.4837714
000140 71 6f cf 3f fd 7c 49 3f 31 f4 e5 3e fb 0b a5 bf
       1.6205884 0.7870634 0.44912866 -1.2894281
000150 37 67 8c 3f 07 dd df 3f cf e1 97 3f 05 6b ca bf
       1.0968999 1.7489327 1.1865786 -1.581391
000160 ca 0e 8a bf 6e b6 ed 3f d5 da 13 bf 4d a7 ce be
       -1.0785763 1.8571298 -0.57755786 -0.40362015
000170 35 e1 d4 ba f2 8b cb 3d 27 f8 81 bf 4b 8c 37 3f
       -0.0016241433 0.09938802 -1.0153855 0.71698445
000180 73 6b 9e 3e 52 1c 1a 3f 81 e9 cd be bf eb 22 3e
       0.30941352 0.60199463 -0.40217212 0.15910242
000190 b4 2c b1 3f 76 dc 43 3f dd c4 c1 bf 45 a6 82 3e
       1.3841767 0.7650827 -1.5138203 0.2551748
0001a0 7e fd 89 3f f4 54 47 bf a3 43 15 c0 4b 23 5f 3f
       1.0780485 -0.77864003 -2.3322532 0.8716323
0001b0 a8 06 30 be ba 50 b4 be 21 d5 d1 3f 4b 6f 34 bf
       -0.17190039 -0.3521784 1.6393167 -0.7048232
0001c0 64 b0 c2 be 0b d1 31 bf 48 a2 b7 3f 26 cf fc 3d
       -0.380252 -0.694596 1.4346399 0.12344198
0001d0 23 f2 02 bf f3 81 06 c0 21 f0 ee be 06 83 9a 3f
       -0.5115072 -2.1016815 -0.4666758 1.2071235
0001e0 23 e3 47 3f 26 39 04 be f5 b1 77 3f 74 a3 4a 3e
       0.7808096 -0.12912425 0.96755916 0.19788915
0001f0 2c a7 48 bf 18 d7 f4 3c 3e 68 bf bf fb ed 8f bf
       -0.78380084 0.029887721 -1.4953687 -1.1244501
000200 cd 91 4a 40 82 32 09 3f da d2 e7 3f 33 6a 8d 3f
       3.165149 0.53592694 1.8111222 1.1048034
000210 cd 29 83 be 1f 3b b1 3e 7f 20 94 3e 33 6e a5 3d
       -0.2561783 0.34615418 0.28931043 0.080776595

weight f4 [24, 4]
000000 32 01 40 bc 6c d2 6d b9 28 65 2e bd 78 30 42 3d
       -0.011719035 -0.0002268047 -0.04257694 0.047409505
000010 a0 16 f9 3b 02 de 38 3d e0 5b ad bc 93 e5 af 3d
       0.007601574 0.0451336 -0.021161973 0.0858871
000020 0f 09 5c 3c 4c 34 e6 3c e4 a7 86 3c 0a 9a f1 3d
       0.013429894 0.028101109 0.016437478 0.11796959
000030 31 35 96 3c 95 70 d3 bb c9 88 e1 3c db f9 0b 3e
       0.01833591 -0.00645263 0.027531045 0.13669531
000040 b0 5f 77 bc b3 68 f6 bc 97 26 e8 3c 99 f6 0f 3e
       -0.015098497 -0.030079221 0.028338714 0.14058913
000050 c6 e1 6a bc 43 6f 26 bd 02 34 d1 3c 29 b0 0f 3e
       -0.014336055 -0.04063345 0.025537495 0.14032044
000060 8a 6e 14 bc 60 56 1d 3d c6 5b 8a bc 90 bb 9d 3d
       -0.009059558 0.03841245 -0.016889464 0.0770179
000070 4d 08 8e bc 77 ff 41 bc 7f 33 6d 3c 95 66 87 bd
       -0.017337942 -0.011840693 0.01447761 -0.06611363
000080 af 46 ca 3c 9f b8 e1 3c 48 c5 75 3d b9 6c 3c bd
       0.024691908 0.027553855 0.060002595 -0.046002124
000090 d8 88 4c bc 3c a6 14 3c 1a 46 52 3d 86 a5 86 bd
       -0.012483798 0.0090728365 0.051336385 -0.0657454
0000a0 b2 65 b0 bb 06 26 53 3c 8e 16 40 3d 07 55 83 bd
       -0.005383217 0.012887483 0.04689651 -0.06412702
0000b0 ad 9c 02 b9 0f b1 5d 3c f8 fc 1b 3d 5b e7 77 bd
       -0.00012456132 0.013530984 0.038083047 -0.060523372
0000c0 f9 f2 8c bc d6 6a dd bb e1 11 e0 3c 32 31 91 bd
       -0.017205702 -0.0067571206 0.027352275 -0.070894614
0000d0 f0 b4 38 bc 26 e9 0e bb e3 04 bd 3c 5f d4 88 bd
       -0.011273608 -0.0021806448 0.02307362 -0.066811316
0000e0 7d 43 43 bc a9 af b5 3b 0f f1 b4 3c d9 42 6f bd
       -0.011917946 0.005544622 0.022087602 -0.05841336
0000f0 ec c2 68 3b a4 9c 79 bc 92 a6 a4 3c c9 28 7e bd
       0.0035516573 -0.0152351 0.020098958 -0.062050615
000100 d9 c9 bc 39 78 e9 8a bc c7 ca 30 3c 93 4d 79 bd
       0.00036008543 -0.01695703 0.010790533 -0.060864996
000110 f9 17 7f 3c 1d 12 e0 ba 1d 9d d9 bc 70 83 5f bd
       0.01556968 -0.0017095242 -0.026564175 -0.054568708
000120 3e 2c ae 3b e2 db 28 3b 3a 63 3c bd 16 48 16 bd
       0.0053153327 0.0025765826 -0.045993067 -0.03668984
000130 a0 ce 88 3c 62 56 0a bb 14 9a 30 bd 54 c3 3b bd
       0.016700089 -0.0021108617 -0.04311569 -0.045840576
000140 7b 1a e8 bb 89 c5 1e bb 83 73 5d 3c b5 7e 86 bd
       -0.007083235 -0.0024226627 0.01351631 -0.06567136
000150 2d a7 0f 3c 96 bd 31 ba 11 ce 86 bc 36 ea 4a bd
       0.008767885 -0.00067802647 -0.016455682 -0.049539767
000160 e0 84 4e 3c 8e 7b df bb 7b c4 b3 bd 27 f9 8e bc
       0.012604922 -0.006820149 -0.0877771 -0.01745279
000170 60 2c 8d ba 3d eb f5 bc 1a ce bd bd 01 c2 90 3c
       -0.0010770671 -0.030019397 -0.092678264 0.017670633

weight f4 [4, 8]
000000 9f 9e fd 3e 42 41 0d 3e 85 f2 f8 3e 0f 1f 4d 3f
       0.4953508 0.13794425 0.48622528 0.80125517
000010 e3 d8 41 bb 56 5a 2b bc 52 6c ed ba ae 8d 61 bd
       -0.0029578737 -0.0104585495 -0.0018113947 -0.055066757
000020 a6 bc 35 be 29 f9 4d 3f 6e c4 ce bc 39 dd 22 3e
       -0.17747745 0.80458313 -0.02524015 0.15904702
000030 dd d5 f0 bb b7 5b 56 bc 91 b9 f4 bc 3d 00 86 bd
       -0.0073497132 -0.01308339 -0.029873641 -0.06543014
000040 d2 68 b0 bd da 81 9c be 40 86 2c 3f dc eb d8 be
       -0.08613743 -0.3056782 0.6739235 -0.42367446
000050 b7 a7 31 3c a4 c6 10 3c b8 13 71 bd 27 57 34 bd
       0.010843209 0.008836422 -0.058856696 -0.044028427
000060 b0 c9 51 bf 35 22 74 bf 37 4d 1a 3e 54 6f 41 3e
       -0.81948376 -0.95364696 0.15068518 0.18890125
000070 6e 11 db bb 12 ac 29 3c e2 52 c2 3c 4e 56 d4 bd
       -0.0066854274 0.010355966 0.023721162 -0.10368024

bias f4 [4]
000000 e6 88 78 be 99 b0 67 be 54 6e 1f be 37 93 5d bd
       -0.24270973 -0.2262596 -0.1556943 -0.054095473

weight f4 [8, 1, 1]
000000 41 c8 a7 bf 30 cc 88 bf 1a 67 92 be 03 b9 81 3f
       -1.3107988 -1.0687313 -0.28594285 1.0134586
000010 90 ad 9c 3f 3a dc 7a 3f 50 87 65 bf fb 58 7b 3f
       1.2240467 0.9799229 -0.89659595 0.9818265

bias f4 [8]
000000 35 e6 a8 3f 79 6c 8a 3f 9a 30 4b bf 9d b5 ef 3d
       1.3195254 1.0814353 -0.79371035 0.11704562
000010 e8 4a 1a 3e 56 55 8b bf 60 8f 81 3f 4b 28 0b 3e
       0.15067637 -1.0885417 1.012188 0.1358959
