trained_models/net_1/Supervised_WAE_net_1.pt (torch, 176662 bytes, 141 tensors)

weight f4 [4, 1]
000000 22 a7 36 3f 64 ca 11 bf ff 8e 42 3d 15 b2 9c 3e
       0.71348774 -0.5694945 0.047499653 0.30604616

bias f4 [4]
000000 36 23 d0 bd f5 8a 3e 3f 98 99 41 3f 54 60 82 3f
       -0.10162966 0.7443078 0.7562499 1.0185647

pe f4 [1, 65, 4]
000000 00 00 00 00 00 00 80 3f 00 00 00 00 00 00 80 3f
       0.0 1.0 0.0 1.0
000010 a4 6a 57 3f 41 51 0a 3f 57 d6 23 3c b9 fc 7f 3f
       0.84147096 0.54030234 0.009999833 0.99995
000020 b7 c7 68 3f 33 11 d5 be 3e d4 a3 3c e5 f2 7f 3f
       0.9092974 -0.41614684 0.019998666 0.9998
000030 c3 81 10 3e 26 70 7d bf 1f b9 f5 3c 83 e2 7f 3f
       0.14112 -0.9899925 0.0299955 0.99955004
000040 cf bd 41 bf 30 55 27 bf db cb 23 3d 94 cb 7f 3f
       -0.7568025 -0.6536436 0.039989334 0.9992001
000050 10 7c 75 bf 2c 3c 91 3e f4 b6 4c 3d 19 ae 7f 3f
       -0.9589243 0.2836622 0.049979165 0.99875027
000060 8c 0f 8f be b8 cd 75 3f d1 9c 75 3d 12 8a 7f 3f
       -0.2794155 0.96017027 0.059964005 0.99820054
000070 46 30 28 3f bd ff 40 3f 32 3e 8f 3d 81 5f 7f 3f
       0.6569866 0.75390226 0.06994285 0.997551
000080 95 46 7d 3f f6 fd 14 be 50 aa a3 3d 65 2e 7f 3f
       0.98935825 -0.14550003 0.07991469 0.9968017
000090 32 01 d3 3e d5 3f 69 bf 3e 12 b8 3d c2 f6 7e 3f
       0.4121185 -0.91113025 0.089878544 0.9959527
0000a0 f8 44 0b bf 64 cd 56 bf 76 75 cc 3d 98 b8 7e 3f
       -0.5440211 -0.8390715 0.099833414 0.9950042
0000b0 5c ff 7f bf 72 05 91 3b 72 d3 e0 3d e8 73 7e 3f
       -0.9999902 0.004425698 0.1097783 0.9939561
0000c0 d8 5c 09 bf d0 06 58 3f ac 2b f5 3d b5 28 7e 3f
       -0.53657293 0.84385395 0.119712204 0.99280864
0000d0 22 20 d7 3e 6f 4e 68 3f d0 be 04 3e 00 d7 7d 3f
       0.42016703 0.9074468 0.12963414 0.9915619
0000e0 72 98 7d 3f d7 04 0c 3e 64 e4 0e 3e cc 7e 7d 3f
       0.9906074 0.13673721 0.13954312 0.990216
0000f0 44 79 26 3f e8 7a 42 bf 4f 06 19 3e 1a 20 7d 3f
       0.65028787 -0.7596879 0.14943813 0.9887711
000100 10 68 93 be 2c 29 75 bf 50 24 23 3e ed ba 7c 3f
       -0.2879033 -0.9576595 0.15931821 0.98722726
000110 25 1e 76 bf 36 e2 8c be 23 3e 2d 3e 49 4f 7c 3f
       -0.96139747 -0.27516335 0.16918235 0.9855848
000120 b3 40 40 bf 84 0a 29 3f 87 53 37 3e 2e dd 7b 3f
       -0.75098723 0.6603167 0.17902957 0.9838437
000130 69 79 19 3e bf 1b 7d 3f 3a 64 41 3e a1 64 7b 3f
       0.1498772 0.9887046 0.1888589 0.9820042
000140 c8 b6 69 3f 22 f0 d0 3e f8 6f 4b 3e a5 e5 7a 3f
       0.9129453 0.40808207 0.19866931 0.9800666
000150 10 2f 56 3f fc 37 0c bf 83 76 55 3e 3c 60 7a 3f
       0.8366556 -0.54772925 0.2084599 0.9780309
000160 15 05 11 bc 6f fd 7f bf 96 77 5f 3e 6a d4 79 3f
       -0.008851309 -0.99996084 0.21822962 0.97589743
000170 e6 a1 58 bf bf 67 08 bf f0 72 69 3e 34 42 79 3f
       -0.8462204 -0.53283304 0.22797751 0.9736664
000180 fc d3 67 bf fe 2d d9 3e 51 68 73 3e 9b a9 78 3f
       -0.9055784 0.42417902 0.23770262 0.971338
000190 38 87 07 be 78 bf 7d 3f 77 57 7d 3e a5 0a 78 3f
       -0.13235176 0.99120283 0.24740396 0.9689124
0001a0 08 37 43 3f 81 9c 25 3f 10 a0 83 3e 56 65 77 3f
       0.76255846 0.6469193 0.25708055 0.96639
0001b0 0e d5 74 3f 38 93 95 be 05 91 88 3e b1 b9 76 3f
       0.95637596 -0.29213881 0.2667314 0.9637709
0001c0 2a b4 8a 3e 57 6d 76 bf 7d 7e 8d 3e bb 07 76 3f
       0.2709058 -0.9626059 0.27635565 0.96105546
0001d0 e9 e3 29 bf b3 80 3f bf 54 68 92 3e 79 4f 75 3f
       -0.6636339 -0.74805754 0.2859522 0.9582439
0001e0 a4 ef 7c bf 18 f4 1d 3e 6c 4e 97 3e ef 90 74 3f
       -0.9880316 0.15425146 0.2955202 0.9553365
0001f0 06 de ce be 8e 2c 6a 3f a5 30 9c 3e 22 cc 73 3f
       -0.40403765 0.91474235 0.30505863 0.95233357
000200 4d 2a 0d 3f a9 8f 55 3f de 0e a1 3e 18 01 73 3f
       0.5514267 0.83422333 0.31456655 0.94923544
000210 39 fa 7f 3f b7 86 59 bc f7 e8 a5 3e d5 2f 72 3f
       0.99991184 -0.013276747 0.324043 0.94604236
000220 f7 71 07 3f e7 3b 59 bf d2 be aa 3e 5f 58 71 3f
       0.5290827 -0.8485703 0.3334871 0.9427547
000230 c2 3a db be 5f 58 67 bf 4d 90 af 3e bb 7a 70 3f
       -0.42818266 -0.9036922 0.3428978 0.9393727
000240 38 e5 7d bf ea 08 03 be 49 5d b4 3e ef 96 6f 3f
       -0.99177885 -0.12796369 0.3522742 0.9358968
000250 ea be 24 bf 2d f2 43 3f a9 25 b9 3e 01 ad 6e 3f
       -0.6435381 0.76541406 0.36161545 0.93232733
000260 9f bd 97 3e b5 7f 74 3f 4a e9 bd 3e f7 bc 6d 3f
       0.29636857 0.95507365 0.37092048 0.9286646
000270 4b bb 76 3f 6c 85 88 3e 0e a8 c2 3e d7 c6 6c 3f
       0.96379536 0.26664293 0.3801884 0.92490906
000280 bc bf 3e 3f 74 bc 2a bf d7 61 c7 3e a7 ca 6b 3f
       0.74511313 -0.66693807 0.38941833 0.921061
000290 fb 6d 22 be 44 c2 7c bf 86 16 cc 3e 6e c8 6a 3f
       -0.15862267 -0.98733926 0.39860934 0.9171208
0002a0 28 a1 6a bf e0 ca cc be fa c5 d0 3e 32 c0 69 3f
       -0.91652155 -0.3999853 0.40776044 0.9130889
0002b0 30 ef 54 bf e8 1b 0e 3f 16 70 d5 3e fb b1 68 3f
       -0.8317747 0.5551133 0.41687077 0.90896577
0002c0 a1 03 91 3c bb f5 7f 3f bd 14 da 3e ce 9d 67 3f
       0.017701926 0.9998433 0.42593947 0.90475166
0002d0 d0 d4 59 3f 81 7b 06 3f cd b3 de 3e b4 83 66 3f
       0.8509035 0.525322 0.43496552 0.90044713
0002e0 9a db 66 3f 6e 46 dd be 2a 4d e3 3e b2 63 65 3f
       0.90178835 -0.43217796 0.4439481 0.8960525
0002f0 e8 13 fd 3d b2 09 7e bf b6 e0 e7 3e d2 3d 64 3f
       0.123573124 -0.99233544 0.45288628 0.8915683
000300 56 ac 44 bf 80 e0 23 bf 52 6e ec 3e 19 12 63 3f
       -0.76825464 -0.64014435 0.46177918 0.8869949
000310 22 29 74 bf 44 e7 99 3e e0 f5 f0 3e 91 e0 61 3f
       -0.95375264 0.30059254 0.47062588 0.88233286
000320 ff 55 86 be 04 08 77 3f 44 77 f5 3e 40 a9 60 3f
       -0.26237485 0.96496606 0.47942555 0.87758255
000330 24 94 2b 3f d1 fd 3d 3f 5e f2 f9 3e 2f 6c 5f 3f
       0.6702292 0.7421542 0.48817724 0.8727445
000340 a0 93 7c 3f 0e e7 26 be 12 67 fe 3e 66 29 5e 3f
       0.9866276 -0.16299078 0.4968801 0.8678192
000350 b4 b6 ca 3e 95 14 6b bf a2 6a 01 3f ed e0 5c 3f
       0.39592516 -0.9182828 0.50553334 0.8628071
000360 cd 0c 0f bf a6 4d 54 bf 6a 9e 03 3f cc 92 5b 3f
       -0.5587891 -0.8293098 0.51413596 0.8577087
000370 f4 ef 7f bf 2c 43 b5 3c d5 ce 05 3f 0c 3f 5a 3f
       -0.99975514 0.022126757 0.52268726 0.8525245
000380 5e 84 05 bf a2 6c 5a 3f d2 fb 07 3f b6 e5 58 3f
       -0.521551 0.8532201 0.5311862 0.8472551
000390 fd 50 df 3e ac 5d 66 3f 53 25 0a 3f d3 86 57 3f
       0.43616477 0.8998668 0.539632 0.841901
0003a0 e7 2c 7e 3f b7 14 f4 3d 4c 4b 0c 3f 6b 22 56 3f
       0.99287266 0.119180135 0.54802394 0.8364627
0003b0 43 01 23 3f 83 65 45 bf ad 6d 0e 3f 87 b8 54 3f
       0.636738 -0.7710802 0.556361 0.83094066
0003c0 23 10 9c be 56 d1 73 bf 68 8c 10 3f 32 49 53 3f
       -0.3048106 -0.95241296 0.5646424 0.8253356
0003d0 7f 53 77 bf e6 25 84 be 71 a7 12 3f 74 d4 51 3f
       -0.9661178 -0.25810164 0.57286745 0.819648
0003e0 f2 3a 3d bf f7 6a 2c 3f b8 be 14 3f 57 5a 50 3f
       -0.7391807 0.67350715 0.58103514 0.8138785
0003f0 4b 5f 2b 3e b8 63 7c 3f 31 d2 16 3f e4 da 4e 3f
       0.1673557 0.9858966 0.58914477 0.8080275

weight f4 [4, 4]
000000 20 42 b9 be 7f 94 07 bf 48 77 07 3d ca 2d f9 be
       -0.36183262 -0.5296096 0.03307274 -0.48667747
000010 08 a8 bf be 70 0e 05 3f ac e8 97 be a0 41 b0 3e
       -0.37432885 0.51975155 -0.29669702 0.34425068
000020 c0 38 14 3d cd 0e 63 be ca ff 34 be ac 9d de be
       0.036186934 -0.22173615 -0.17675701 -0.4347967
000030 ad 6f 0c 3f bc a8 bc be 49 ae 46 be c7 2f 06 bf
       0.54857904 -0.36847484 -0.19402422 -0.5241665

weight f4 [4, 4]
000000 ff 6e e9 be 97 6e fd 3e ae c4 49 be af 82 9b bf
       -0.45592496 0.49498436 -0.19703934 -1.2149256
000010 68 c7 a0 be dc 71 c0 be a7 4b d3 bd 05 25 c7 3f
       -0.31402135 -0.37586868 -0.10317164 1.5558172
000020 be 99 bb 3e a6 ff e9 3d e1 a2 fc 3e 53 a0 00 3d
       0.36640733 0.11425714 0.49343017 0.031402897
000030 ac 0e 67 3b 3c 9c b4 3e 29 d7 c5 be 70 fa 1a bf
       0.0035256548 0.35275447 -0.38640717 -0.6053839

weight f4 [4, 4]
000000 ed 24 e1 3e 8e ae 7c 3e c8 49 e8 3e 3a 0f 92 3e
       0.43973485 0.24675962 0.4536879 0.28527242
000010 ca 1a 06 bf 9b f3 91 3e e7 5b 25 3e e9 38 50 3e
       -0.52384627 0.2850617 0.16148339 0.2033421
000020 bc ab 42 be 9a ba b5 3d 69 66 33 3d d3 2a 51 3e
       -0.19010824 0.08873482 0.043798838 0.20426492
000030 6f 7d a0 3e c4 77 51 3e 1c c0 a3 3e 3c 44 ed 3e
       0.31345698 0.20455843 0.31982505 0.4634112

weight f4 [4, 4]
000000 9b 6f e8 3e b8 ae 5e be da b9 31 3e 50 e5 f6 3e
       0.45397648 -0.21746337 0.17356053 0.48221827
000010 5f 80 4e 3e dc 49 20 3e 73 2e 97 3e d0 4c 85 3d
       0.20166157 0.15653175 0.29527625 0.065087914
000020 f2 97 e3 3d 6b 57 8c 3e c4 30 d9 bb 39 99 6d 3d
       0.11112966 0.27410445 -0.006628128 0.058007453
000030 81 7b 0b be 88 05 c5 bd 31 f9 7b bd 4b 28 8a be
       -0.13621332 -0.096201956 -0.061516944 -0.26983866

bias f4 [4]
000000 43 d2 65 3e 54 ac c5 3d f7 70 b2 be c1 c4 91 be
       0.2244349 0.096520096 -0.3485181 -0.28470424

weight f4 [4, 4]
000000 8c ce c5 bd cc af ed be a8 31 e5 be 9d cf 15 bf
       -0.09658536 -0.46423185 -0.44764447 -0.5851992
000010 f1 69 17 be d4 38 1d 3e 5e c0 3e 3e d7 e6 49 3e
       -0.14786507 0.1535371 0.1862807 0.19716965
000020 30 9c d5 3e 8c f5 37 bd 86 d1 46 be 7c fb 13 bd
       0.41720724 -0.044911906 -0.19415864 -0.036128506
000030 5f 9c de 3c ab a3 06 3f 15 d7 e2 be 74 c4 0d bf
       0.027174173 0.5259349 -0.4430472 -0.5537789

bias f4 [4]
000000 17 38 3a be 1d 7a 0a bf 16 4a bf be da a3 af 3e
       -0.18185459 -0.5409258 -0.3736121 0.34304696

weight f4 [4, 4]
000000 8c 7c c7 3e 47 99 4b bc 3a 69 f5 bd ca 20 e2 3d
       0.3896221 -0.012426681 -0.11982961 0.1104141
000010 d5 2a c9 bc 5c 8f 0c 3e 27 45 16 be a1 d2 cf be
       -0.024556557 0.13726562 -0.14674817 -0.40590385
000020 da 67 03 bf f0 7f 7a bd 78 3a f8 3e 16 c3 d1 3e
       -0.5133034 -0.061157167 0.48482108 0.4096915
000030 dc e6 40 bc 23 c5 12 be 67 02 52 3b a8 3b 9a 3e
       -0.011773791 -0.14333014 0.003204489 0.3012364

bias f4 [4]
000000 9d 12 cd be 58 9d d0 be 14 b6 b8 3e 14 08 0c be
       -0.40053263 -0.40745044 0.36076415 -0.13674957

weight f4 [4]
000000 54 58 84 3f 31 16 7a 3f 8c 0d 8f 3f 45 2c 68 3f
       1.0339456 0.9769011 1.1176009 0.9069255

bias f4 [4]
000000 bb 08 c2 bd 05 4c 87 bd dd 86 14 3e 51 35 be 3d
       -0.094743215 -0.066062964 0.14504571 0.09287513

weight f4 [4]
000000 07 95 95 3f 4d 79 96 3f f4 60 90 3f c5 b9 80 3f
       1.1686105 1.1755768 1.1279588 1.0056692

bias f4 [4]
000000 7c 23 53 3d f8 95 16 bc 60 d9 11 bd 2b a9 d4 bc
       0.051547512 -0.009191029 -0.035607696 -0.025959572

weight f4 [2, 4]
000000 b9 7e f8 3d 9c 56 27 bf 3f 38 16 be 13 7e 47 be
       0.121335454 -0.6536653 -0.14669894 -0.19481687
000010 2b dd e5 be 1f 1c 53 3e 42 2e a7 3e e0 69 f2 3e
       -0.448953 0.20616196 0.3265248 0.473464

bias f4 [2]
000000 ce 9c 3c be 59 51 8f be
       -0.18419191 -0.2799175

weight f4 [32, 130]
000000 b3 38 da 3b 9b 54 51 bc 0e 52 0a bd 34 04 94 3c
       0.006659591 -0.012776519 -0.03376966 0.01806841
000010 2e 4b b6 bd 77 af 12 3e 5f d3 ce bd 33 21 d9 3d
       -0.08901058 0.14324747 -0.100989096 0.106020354
000020 88 b2 bf bc 52 10 25 bc 5a e1 b9 3d 8a 4e 07 be
       -0.02340056 -0.010074692 0.090761855 -0.13213554
000030 a3 b9 1a 3e 92 c0 31 3b 0d 48 40 3e 58 66 21 3d
       0.15109877 0.0027122837 0.18777485 0.039404243
000040 85 bc 15 3c cf 82 0f 3e 22 a9 07 bd 52 97 d3 3d
       0.009139185 0.14014743 -0.033120282 0.103315964
000050 8c e9 a4 bd 3a a5 c3 3d 81 96 c6 3d e3 aa 8a 3d
       -0.08052358 0.09552999 0.09696675 0.06770875
000060 c8 43 c3 3d bf 11 a7 be 8f 01 6c 3f a2 ff cc bd
       0.095344126 -0.32630727 0.9218988 -0.100096956
000070 c3 7e ef bd 08 48 c9 3c 31 03 59 bd 3b b5 f5 3d
       -0.116941 0.02457048 -0.05298156 0.119974576
000080 e8 18 00 bd a7 dd 73 3c 2a a5 ca 3d ce 91 19 3e
       -0.031273752 0.014884389 0.09894784 0.14997026
000090 fb 18 1b 3d 08 5e 27 3e b6 11 62 3d 9b 36 0e 3e
       0.03786562 0.16344464 0.05519267 0.13888018
0000a0 20 2c ad bd 44 e7 3c 3d e9 0b 26 bd e9 19 97 3d
       -0.08455682 0.04611899 -0.040538702 0.07377989
0000b0 bd 2d 00 3c e4 c3 de 3b 50 37 67 3e 5b 37 d7 bd
       0.007823405 0.0067982543 0.22579694 -0.10508605
0000c0 25 a1 22 bd b4 f7 01 be ce 19 2b be 73 c4 e5 3d
       -0.03970446 -0.12692147 -0.16709062 0.1121911
0000d0 65 ca 8a bd 63 20 23 3d 77 c4 e6 bc b2 c6 ea 3d
       -0.06776885 0.03982581 -0.028169854 0.114636794
0000e0 0d ac 01 be bf 4c 7c 3d e8 12 dc 3b e7 fc f9 bd
       -0.12663288 0.06159663 0.006716121 -0.122064404
0000f0 a4 8a 2a 3e 6d 8f 95 bd 43 4b 3a bc 07 7f e7 be
       0.1665445 -0.07302747 -0.011370483 -0.45214102
000100 ed 17 78 be c9 6a ff 3d db a1 8b bd 04 77 89 3d
       -0.24227877 0.124715395 -0.06817981 0.067121536
000110 75 67 e5 bd 81 ac 06 3e 56 5f fc 3c d6 a7 75 3d
       -0.112013735 0.13151743 0.030807178 0.059974514
000120 32 97 fa 3d 87 8c 03 3e df 94 20 bd 38 79 f0 3d
       0.122358695 0.12846576 -0.039204475 0.11741871
000130 c0 98 27 3d b7 42 00 bc 83 2a d9 bd e5 cd 75 3d
       0.040917158 -0.007828406 -0.106038116 0.06001081
000140 94 30 bb bd 68 76 12 bc 3f 27 ba bc d3 b0 e8 3d
       -0.09140125 -0.008939363 -0.022723792 0.113618515
000150 ae c0 b7 bc ec 43 dd bc 5d 8d e5 bd 5e 40 ee 3c
       -0.022430744 -0.027009927 -0.112086035 0.029083427
000160 3d 18 89 bd 91 4a c8 3d e4 d1 11 be d1 e6 01 3e
       -0.06694076 0.097798474 -0.14240223 0.12685706
000170 66 67 03 be 87 73 02 bd 21 03 0b be 11 01 34 bc
       -0.12832412 -0.031848457 -0.13575412 -0.010986582
000180 cd e2 ce bd 7f 67 fd bc 19 1c f0 bd 05 d4 b8 3d
       -0.101018526 -0.03093314 -0.11724109 0.090248145
000190 4a c8 8f bd 10 ec 3c 3d df 3f bd bd 37 bb a9 3d
       -0.07020624 0.046123564 -0.09240698 0.082876615
0001a0 c9 48 ac 3c 98 ec 92 3d 19 83 8c bd 10 cd ae 3d
       0.0210308 0.07174033 -0.068609424 0.08535206
0001b0 11 00 a2 bc 0a 57 86 3d da 38 52 3c ad da 1d 3e
       -0.019775422 0.0655957 0.012830937 0.1541545
0001c0 b8 a3 42 bd 1a b1 82 3e 23 44 26 bd 7d 38 be 3b
       -0.047519416 0.25525743 -0.040592324 0.005805074
0001d0 c1 56 59 bd 63 2f de 3c 51 6e 2f bd ce 56 93 bc
       -0.05306125 0.027122205 -0.042829815 -0.017985728
0001e0 0e bf 75 bd 52 30 c7 3d 46 0e 9a 3d 08 a2 92 bb
       -0.059996657 0.09726013 0.07522254 -0.004474882
0001f0 5f f2 12 bc ca 7c 62 3e 8e 51 04 bd 23 8f d6 3d
       -0.008968919 0.22117916 -0.03230434 0.1047652
000200 3c 14 17 3c 3d a7 c6 bc 67 7b 03 bc 8f 92 aa bd
       0.009221133 -0.024249667 -0.008025027 -0.08328735
000210 95 6b 02 3e d2 32 82 3d b1 6a c2 3d ac 36 92 3d
       0.12736352 0.063573495 0.09493006 0.07139334
000220 8d af 87 bb 3a 39 a0 3d 69 18 91 3d 1d 31 2e 3e
       -0.0041408003 0.07823415 0.07084734 0.17010923
000230 7f 62 63 3d 84 e5 b4 bd 3e 9b 93 bd 4d 5a 43 3f
       0.055513855 -0.08832839 -0.072073445 0.76309663
000240 42 51 a3 be 1d 94 67 bd 0f be 78 bc b3 70 17 bd
       -0.31897932 -0.056537736 -0.015182032 -0.036972713
000250 82 79 f7 3c 5d 47 54 3d cd e6 3e bd 57 ad 56 3e
       0.030209307 0.05182587 -0.046606828 0.20964561
000260 a2 71 15 be c5 9c 85 3d 2e 37 0a 3d 13 40 8a 3c
       -0.14594129 0.06524042 0.03374403 0.016876256
000270 db 1e bf be 5d 4d 0a 3d f3 3c 02 bd bb 47 3a bd
       -0.37328228 0.033765186 -0.031796407 -0.045478564
000280 7a c8 22 bd 0b 38 a2 3d 50 32 93 bd 2c 7c 5b 3a
       -0.03974197 0.079208456 -0.07187331 0.000837269
000290 a8 0a c2 be e3 ec 13 3e 4a d4 ed bd 9b 78 79 3d
       -0.37898755 0.14445834 -0.116127566 0.060906034
0002a0 3b 34 2f be df 99 4f 3d d5 f4 39 3c 89 9e ab 3d
       -0.17109768 0.050683852 0.011349876 0.083798476
0002b0 4f d9 2d 3d 7b 2d c9 3c 33 57 5c 3b ee 4c 3f bd
       0.04244357 0.02455782 0.003362131 -0.046704225
0002c0 d4 20 d3 bd ae 50 1f 3f 6b 38 ad bd 83 07 9c bd
       -0.10308996 0.6223248 -0.084580265 -0.0761862
0002d0 64 6c ae bd 48 2e d6 3e 7b d7 93 be 67 e3 1e bd
       -0.085167676 0.41832185 -0.28875336 -0.038791087
0002e0 b9 7e 16 3d 08 1a 48 3d c0 33 16 3d 7e 73 da bb
       0.036741946 0.04885295 0.036670446 -0.0066666
0002f0 1a e0 e8 bd eb d9 07 3e 83 84 f3 bc 78 69 57 3d
       -0.11370869 0.13266723 -0.029726272 0.052590817
000300 2e 68 b3 bc 44 7b 0a 3e cc 46 77 bf 00 4a 25 3e
       -0.021900263 0.13523585 -0.965924 0.1614151
000310 33 10 c8 3d 88 25 f4 ba 19 a9 ad bd 06 c0 3d bd
       0.09768715 -0.0018626908 -0.084795184 -0.046325706
000320 d8 86 26 3d 32 5a dc bc fe 0f 65 be c9 97 97 3d
       0.04065594 -0.026898477 -0.22369382 0.074019976
000330 a2 b2 18 be 68 16 27 3d 82 87 a5 be 6d 68 08 3e
       -0.14911893 0.040792853 -0.32329947 0.13321085
000340 bb 25 0f 3c 93 1d 0b 3d e9 3c 00 bc d5 48 d9 ba
       0.008737023 0.03396375 -0.007827022 -0.0016577492
000350 41 04 36 3c 51 5d d6 3c e3 1b d8 bd 15 1a 4a 3e
       0.011109413 0.026167544 -0.10552194 0.19736512
000360 f8 75 bf bd 4a fa f3 3d 85 31 89 bc 78 0e 0b 3e
       -0.09348673 0.11912973 -0.016747246 0.13579738
000370 19 2d e8 bd 04 ee 93 bd 67 a5 1f bd bc 43 bb bd
       -0.11336727 -0.07223132 -0.0389761 -0.09143779
000380 0b 20 99 bd 47 d4 86 bb 4d 56 b9 3c 2b dd 90 3d
       -0.07476815 -0.004114661 0.02262416 0.070734344
000390 6f 88 e7 bd e2 89 0c 3e 2e fc 12 be 32 5b 0b 3e
       -0.113053195 0.13724473 -0.14354011 0.13609007
0003a0 c2 9c de bc 2e b9 c2 3c 7b 4b 6c 3c 0e b2 8d 3d
       -0.027174357 0.023769941 0.014422293 0.06918727
0003b0 5f ba 61 bc 73 5b 30 bd 51 67 6a bd 88 b8 d0 3d
       -0.0137773445 -0.043055963 -0.057227436 0.101914465
0003c0 0a 8a 12 3e 92 04 ab 3d 66 a0 04 be 6f 86 f8 be
       0.1431047 0.08350481 -0.12951812 -0.48540065
0003d0 7b 69 87 bd 95 74 66 3d fc 3e 9c bd 2c e0 ea 3c
       -0.06611916 0.056263525 -0.07629201 0.028671347
0003e0 bd ef 86 3c 32 58 5d bd 86 63 1a bd 11 fc 83 bd
       0.016471738 -0.054039188 -0.03769257 -0.06444562
0003f0 ca f5 3c bc 95 48 40 be f8 fe 5d bc fe a0 c0 bd
       -0.01153321 -0.18777688 -0.013549559 -0.09405707

bias f4 [32]
000000 fc 70 ba bd 3c b4 e7 3b 84 b4 c0 3d 3e e7 16 bd
       -0.09103581 0.007071046 0.094094306 -0.036841623
000010 9a ab 99 bc 6c 26 ae 3d 65 1d db 3d f4 2a 93 bb
       -0.018758584 0.08503422 0.10698966 -0.0044912044
000020 f9 21 9c 3d c6 88 0c 3d 57 ef 8a bd 57 7a 24 bd
       0.07623667 0.034310125 -0.06783932 -0.040155735
000030 13 59 d3 3d 67 04 82 bd be 3a d9 3d 51 03 ff 3d
       0.10319724 -0.06348496 0.10606907 0.124518044
000040 38 c7 06 bd 3e 00 25 3d 24 13 87 3d 00 87 94 bd
       -0.032904834 0.040283434 0.06595448 -0.07252312
000050 40 d0 fc 3c a8 d1 57 3d 29 38 e5 bc 67 1b 81 bc
       0.03086102 0.05269018 -0.02798088 -0.015760137
000060 3a 37 f1 3d bd 9a 58 3c fd 9b 83 3d 53 7e 76 3d
       0.11778112 0.013220486 0.06426237 0.060179066
000070 a0 72 d3 3d 62 17 8e 3b 7f e7 b2 3d af 81 13 3c
       0.10324597 0.0043362835 0.087355606 0.009003087

weight f4 [8, 32]
000000 47 2a 46 3e 0c 67 32 bd 14 18 09 3e 27 2b 83 be
       0.19352065 -0.043555304 0.13388091 -0.2561886
000010 9f 9b 5b be 2b 63 23 be dc 84 1e 3e b8 45 ca 3d
       -0.21446083 -0.15955798 0.1548037 0.09876579
000020 3b 35 5b bd 51 17 83 3e b0 f4 c2 bd 35 3f aa 3e
       -0.05351756 0.25603727 -0.09519327 0.33251348
000030 32 f6 c5 3d 72 3d d0 3c 45 12 85 be 9f b0 88 3d
       0.09666099 0.025419924 -0.259905 0.06674313
000040 42 09 39 3e d5 41 58 be 97 67 55 3e bb d0 b3 3e
       0.18069938 -0.21118863 0.20840298 0.35120186
000050 5a 8d 39 3e 11 87 17 3e e5 8e 72 3e b3 4e c2 3d
       0.18120328 0.14797617 0.23687322 0.09487667
000060 33 50 87 3d 79 bd 5f 3e 94 d9 71 be ac 15 c8 3d
       0.06607094 0.21849622 -0.23618156 0.097697586
000070 9b 1d 5a 3e 63 21 dc bc 9c 74 3c be 02 59 06 3e
       0.21300356 -0.026871389 -0.18403858 0.13119891
000080 0a e7 55 be c7 be b7 3d 84 f4 33 bd f5 e3 a1 3d
       -0.20888916 0.08971935 -0.04393436 0.079048075
000090 82 b5 e2 bc a6 99 47 3e 82 45 17 3d 60 91 1c 3e
       -0.02767444 0.19492206 0.036931522 0.15289831
0000a0 a2 1a 97 3d 5e f5 42 3d e1 8f 77 bd 1e 3e 84 3b
       0.07378127 0.04759728 -0.060439948 0.0040357253
0000b0 1e 46 9f bd c4 c5 1b be 78 83 e0 3e c8 76 1f 3e
       -0.07777046 -0.1521216 0.43850303 0.15572655
0000c0 b1 d9 01 be 31 83 38 3e e8 42 2c 3d f8 34 51 3c
       -0.12680699 0.18018796 0.042055994 0.012768976
0000d0 7d 5d de 3b f0 58 20 be f6 d7 84 bd aa c0 16 be
       0.006786047 -0.15658927 -0.06486504 -0.14721933
0000e0 cc fb c2 3c 68 0a 4e be 8c 57 f7 3d b3 8a 9a 3d
       0.023801707 -0.20121157 0.12077245 0.07545986
0000f0 4d a1 bd bd 5b 46 83 3e 9f e5 a3 3e 2e 87 0d be
       -0.09259281 0.25639614 0.32011124 -0.13821098
000100 40 08 23 3d 56 e2 08 3f 10 89 44 3e 17 c7 0d 3a
       0.03980279 0.5347036 0.1919291 0.000540839
000110 59 71 0f bc e7 62 61 be 34 11 45 3e 3a 1f 5a 3e
       -0.0087550515 -0.22010385 0.19244844 0.21300974
000120 97 3b 80 be 17 50 70 bd 09 a7 95 bc 2f 12 f0 3d
       -0.25045463 -0.05867013 -0.018268125 0.11722218
000130 0d 63 a8 3e e5 f6 86 bd 4d 04 9b 3d b6 69 ff 3d
       0.3288807 -0.0659006 0.0756918 0.12471335
000140 93 f3 24 3e 37 6f e7 3c 32 92 6b 3d b1 9f df 3c
       0.16108541 0.028251274 0.05751247 0.027297826
000150 d7 87 20 3e cb 2e d3 bd a9 8d 93 bd b1 cd 73 3d
       0.15676819 -0.103116594 -0.07204754 0.059522334
000160 05 04 9f bb 28 66 5c 3e 7f 17 e4 3d 66 a4 f5 bd
       -0.004852774 0.21523345 0.11137294 -0.11994247
000170 79 2a f7 3d 8c 60 85 bd fc 9a 8e 3a ca b0 d1 bd
       0.12068648 -0.065125555 0.0010879929 -0.10238798
000180 f5 c2 c3 bd 39 0f 95 be a8 a0 9d bd 4d a7 b4 bd
       -0.095586695 -0.29113176 -0.076966584 -0.088209726
000190 d6 54 d5 3c b4 90 89 be b5 26 06 be a3 6a 3f be
       0.02604143 -0.26868212 -0.13100703 -0.18693022
0001a0 19 aa 45 be 08 28 17 3e c7 13 27 3d 61 80 ec bd
       -0.19303168 0.14761364 0.040790346 -0.11547924
0001b0 95 97 d3 bd cb 2f 46 3d 9e 75 11 be ad f5 87 3d
       -0.10331646 0.048385423 -0.14205024 0.06638656
0001c0 ea e3 4a be 13 c5 5f be 80 5f 08 be 24 20 cc 3c
       -0.19813505 -0.21852522 -0.1331768 0.02491767
0001d0 2f 1f b9 bd f7 f2 18 be 75 b8 1c be de 36 9b 3d
       -0.09039151 -0.14936434 -0.1530474 0.075788245
0001e0 15 28 2d bd 4f 9e 71 3d cd ec 36 bc 23 8a 46 be
       -0.042274553 0.058988865 -0.011164856 -0.19388632
0001f0 8e 6a 12 3e 91 53 71 be d8 73 8b be bf 99 00 3e
       0.1429846 -0.23567034 -0.2723682 0.1255865
000200 ae 14 9c be 71 b4 05 bf 36 57 55 be 87 01 93 3e
       -0.30484527 -0.52228457 -0.2083405 0.28712103
000210 86 d6 3a ba 33 f7 01 3e 14 62 22 be 51 10 10 3e
       -0.00071273034 0.12691955 -0.15857726 0.14068724
000220 0d ab 8a 3e dd 34 94 3d ae d6 8e be d0 8e 75 bd
       0.27083626 0.07236645 -0.27898163 -0.05995065
000230 00 31 6c be d9 bb 61 be ab 22 02 3e 0e 7f c8 3d
       -0.23065567 -0.22044314 0.12708537 0.09789859
000240 5c 53 cf 3d 40 35 40 bd ab c7 17 bc d0 84 cb bd
       0.101233214 -0.046925783 -0.009263913 -0.09937441
000250 25 b7 91 bd cf 21 20 be 83 a7 0e 3e a8 65 af 3d
       -0.0711501 -0.15637897 0.13931088 0.08564311
000260 e5 e9 ff 3d e8 25 62 bd 56 bf 19 3e 73 22 24 3e
       0.12495784 -0.05521193 0.15014395 0.16028766
000270 c3 11 83 3d 5c 71 52 3e 8e ee 0b 3e ee cc 85 be
       0.06399872 0.20551056 0.1366522 -0.2613291
000280 2c 42 20 be 97 e2 56 3f 12 cd 83 bc 5c b9 30 be
       -0.15650243 0.839395 -0.016088996 -0.17258209
000290 2e b2 c0 bd b3 3b 3c be d1 d6 53 3e eb c4 ac 3d
       -0.09408985 -0.18382148 0.20687415 0.084359966
0002a0 07 c9 6a 3d 45 83 f7 3c 6b ce 8d bd 9d 47 14 3d
       0.05732062 0.030213961 -0.06924137 0.03620111
0002b0 a7 86 8c 3d 2b 8b 47 be c7 af 5d 3d 8c 30 31 3e
       0.068616204 -0.19486682 0.054122712 0.17303675
0002c0 a9 45 53 3e 06 9f 7f be 41 34 2d 3e 8e 48 0d be
       0.20632042 -0.24963006 0.16914465 -0.13797209
0002d0 99 a9 98 3e 03 fb e4 bc 0a 3a aa bc 2a b7 82 3e
       0.29816893 -0.027951723 -0.020779628 0.25530368
0002e0 f9 85 21 bd 5a 5e cd 3c 34 ad 48 3e 89 49 8c 3d
       -0.039434407 0.025069404 0.19597322 0.06849963
0002f0 78 90 3e 3e d7 69 6f be 1c a0 9e bd e4 ef 49 3c
       0.18609798 -0.23380218 -0.07745382 0.012325261
000300 fb 06 14 3e a1 db e0 be 68 e9 3a 3e 5c 92 8d bc
       0.14455788 -0.43917564 0.182531 -0.017281704
000310 88 26 dd bb 01 a9 bf 3d a1 be da bd 28 da 04 3e
       -0.006748978 0.09358407 -0.10680891 0.12973845
000320 f3 d1 2e be d5 3c 6e 3e b1 59 b5 3c 91 92 bc 3d
       -0.17072277 0.23265393 0.022137495 0.09207643
000330 96 aa b6 be 67 a2 2e 3e 15 59 57 be 1f e1 ca 3d
       -0.35677022 0.17054139 -0.21030076 0.0990622
000340 79 3d 04 3e 39 62 c6 3d d6 70 30 3e 44 5c 1e 3e
       0.12914075 0.09686703 0.17230543 0.15464884
000350 ce e5 9b bd 77 f2 41 3e 9a f6 59 3d 43 4a e6 3d
       -0.07612191 0.18940149 0.053213693 0.11244633
000360 ce 67 b6 bd 93 7e 17 bd 8f 71 04 be 69 1d b7 bd
       -0.08906518 -0.036985945 -0.12933944 -0.089411564
000370 54 a2 8c 3b 26 cd 16 3e e6 87 19 be 37 2b cf 3c
       0.004291812 0.14726695 -0.14993247 0.025289161
000380 ae 43 95 3d 23 0a 38 3e 1a 08 84 3d be b9 d8 3d
       0.072882995 0.17972617 0.06446858 0.105823025
000390 ea 7b 8e bd 4f 73 52 3e d9 69 24 be ef f7 e8 bd
       -0.069572285 0.20551799 -0.16056003 -0.113754146
0003a0 d1 98 5d be 19 4b ea bd 91 8c 5a be db fb 11 be
       -0.21640326 -0.11440105 -0.21342684 -0.14256231
0003b0 20 a6 76 3d a2 1f 22 be 6e 71 68 bd 71 54 2f 3d
       0.060217023 -0.1583238 -0.0567488 0.04280514
0003c0 aa 5f 1c 3e 6e e4 41 3e f1 26 0f bd ef 74 81 bd
       0.15270868 0.18934795 -0.034949247 -0.063211314
0003d0 4e 66 15 be 8a 6c 5b 3e 4a 2b 63 3d 78 1b 51 be
       -0.14589807 0.21428123 0.055461206 -0.20420635
0003e0 5c 62 4b 3e 53 d5 17 bd a2 85 ac be 2b f5 f4 3d
       0.1986174 -0.037068676 -0.33695704 0.119608246
0003f0 7b 56 45 be 66 89 ad 3d 64 13 50 3e 72 50 5f be
       -0.19271271 0.08473472 0.20319897 -0.21808031

bias f4 [8]
000000 73 cd f9 bb 3c 9f 87 3e 60 83 c5 bd df e8 00 be
       -0.0076233684 0.26488674 -0.096441984 -0.12588833
000010 11 2e 36 3e 71 63 04 3e 0c a4 74 bd 68 3f 88 3d
       0.1779101 0.12928559 -0.05972676 0.06652719

weight f4 [4, 1]
000000 d0 ee 35 3f fa b9 25 3f 1f 8c ed be 7e 67 d4 3c
       0.71067524 0.647369 -0.46395966 0.025928255

bias f4 [4]
000000 b0 b9 f9 3e 7a 93 61 be 3e d8 2b bf cc 4d 8a 3e
       0.4877448 -0.22028914 -0.67126834 0.2701248

pe f4 [1, 8, 4]
000000 00 00 00 00 00 00 80 3f 00 00 00 00 00 00 80 3f
       0.0 1.0 0.0 1.0
000010 a4 6a 57 3f 41 51 0a 3f 57 d6 23 3c b9 fc 7f 3f
       0.84147096 0.54030234 0.009999833 0.99995
000020 b7 c7 68 3f 33 11 d5 be 3e d4 a3 3c e5 f2 7f 3f
       0.9092974 -0.41614684 0.019998666 0.9998
000030 c3 81 10 3e 26 70 7d bf 1f b9 f5 3c 83 e2 7f 3f
       0.14112 -0.9899925 0.0299955 0.99955004
000040 cf bd 41 bf 30 55 27 bf db cb 23 3d 94 cb 7f 3f
       -0.7568025 -0.6536436 0.039989334 0.9992001
000050 10 7c 75 bf 2c 3c 91 3e f4 b6 4c 3d 19 ae 7f 3f
       -0.9589243 0.2836622 0.049979165 0.99875027
000060 8c 0f 8f be b8 cd 75 3f d1 9c 75 3d 12 8a 7f 3f
       -0.2794155 0.96017027 0.059964005 0.99820054
000070 46 30 28 3f bd ff 40 3f 32 3e 8f 3d 81 5f 7f 3f
       0.6569866 0.75390226 0.06994285 0.997551

weight f4 [4, 4]
000000 bf 18 10 be 99 4a 02 3e 92 bd 47 bd 8a b0 55 be
       -0.1407194 0.12723769 -0.048764773 -0.20868126
000010 88 89 bd 3e b4 ff f9 ba 5c ba dc be ca 28 16 3e
       0.3701899 -0.0019073398 -0.4311093 0.14663997
000020 89 2a f7 3e 47 6e 07 3f 01 9a cb 3e 92 36 d5 3e
       0.4827464 0.52902645 0.39765933 0.41643196
000030 3c a9 1e be 6c 23 fa be 5b dc 87 bc 44 bc cc be
       -0.15494245 -0.4885515 -0.016584566 -0.39987385

weight f4 [4, 4]
000000 6f 9d bf be c8 b9 ed be 23 a2 a8 3e 0d 7c fd bb
       -0.374248 -0.46430802 0.329362 -0.0077357353
000010 df 76 fa bd 54 10 45 3e bf 8b 6b bd d5 92 18 bd
       -0.12229704 0.1924451 -0.05750632 -0.037249405
000020 3b a0 73 3d f0 a6 7d be 01 47 47 3e 5d 1c 78 3d
       0.05947898 -0.24770713 0.1946068 0.060573924
000030 f3 a2 0c 3e 9e 0a d0 3e 4b ab 67 be 32 0e 16 3b
       0.13734035 0.406331 -0.22623937 0.0022896645

weight f4 [4, 4]
000000 d8 22 f6 ba 0a 91 35 be 0e f8 bc be af f8 8e 3e
       -0.0018778695 -0.1773111 -0.36908 0.27924106
000010 e4 13 61 be b4 98 e1 3e a6 44 e8 be d5 8e 61 3e
       -0.21980244 0.44061816 -0.45364875 0.22027142
000020 6c 7d c0 bc c1 9c 2c be 48 46 da 3e a4 d0 8a 3d
       -0.023497306 -0.16856672 0.42631745 0.06778076
000030 c9 37 bc be 17 91 0c 3d 0f 0e 5e 3e f4 39 f7 be
       -0.3676131 0.034318056 0.2168505 -0.48286402

weight f4 [4, 4]
000000 97 c6 bd be de c9 05 bf 3a 22 de 3d d4 f9 9d be
       -0.37065575 -0.5226115 0.10846372 -0.30854666
000010 0b 69 19 be 32 f1 83 be 1d 06 ad bd 86 21 6a be
       -0.14981477 -0.25769955 -0.08448432 -0.2286435
000020 ec f7 cf 3e 26 af ce 3e 36 a7 ea be 83 04 13 bd
       0.40618837 0.40368003 -0.45830697 -0.035892975
000030 59 91 bc 3d 9e 53 e6 bd a6 90 da be 28 96 ad be
       0.0920741 -0.112464175 -0.42688483 -0.33903623

bias f4 [4]
000000 7c 76 4c be 82 e4 06 3e 4a b2 c9 3e 2a 10 1b 3e
       -0.19967073 0.13173106 0.39393836 0.15142885

weight f4 [4, 4]
000000 ac 38 86 bf 9a 61 79 bf 6a 68 0b 3f 75 95 f7 3e
       -1.0486045 -0.97414553 0.544562 0.48356214
000010 6a fd 15 be 99 b8 5a 3f cc 36 2f bf 34 70 11 3f
       -0.14647451 0.85437924 -0.6844299 0.56811833
000020 f6 83 ff bc e3 0b 28 3b ee 83 f0 bd 28 84 b7 be
       -0.031190854 0.002564185 -0.117439136 -0.35843015
000030 3a 26 2a be 87 88 2b 3d 4b 1b fe 3e d3 8e 20 bf
       -0.16616145 0.04187825 0.49630198 -0.6271793

bias f4 [4]
000000 ae 13 41 3e 92 d2 1c 3f 4f 60 7a be 5c 7e 0f bf
       0.18855163 0.61258805 -0.24450801 -0.56052184

weight f4 [4, 4]
000000 a2 1f c0 be ad 20 4e 3e cc 01 00 bf 17 9e 43 3e
       -0.37524134 0.20129652 -0.5000274 0.19103275
000010 f5 31 1b 3f e3 67 43 bf f1 24 a5 be c8 dd 1e bf
       0.60623103 -0.76330394 -0.32254747 -0.6205716
000020 9a 8d 0d 3f 94 2a 30 3e b5 ec b6 3e aa 99 f4 be
       0.5529419 0.17203742 0.35727468 -0.47773486
000030 ea c6 3d 3f c1 ae 65 3d 32 19 a8 bd 94 ba 4d be
       0.74131644 0.05607486 -0.082079306 -0.20090705

bias f4 [4]
000000 ce c0 0d 3f b0 bc cf 3d b2 3f 61 3e 3e 17 19 bf
       0.5537232 0.10143411 0.21996954 -0.5980109

weight f4 [4]
000000 53 20 3b 3f 43 d6 86 3f 76 1c 59 3f b8 67 88 3f
       0.730962 1.0534137 0.8480905 1.0656652

bias f4 [4]
000000 a2 3c 96 3d d3 9a 09 3e 0f 50 f1 3d d0 00 6d be
       0.073357835 0.13437967 0.11782848 -0.23144841

weight f4 [4]
000000 e7 8e 0d 40 b5 f8 07 40 36 d0 ea 3f 49 5c fa 3f
       2.211847 2.1245549 1.8344791 1.9559413

bias f4 [4]
000000 8d 40 9e be e7 aa a4 be 68 2d 57 3e 96 0f 9b 3e
       -0.30908623 -0.32161638 0.21013415 0.3028533

weight f4 [2, 4]
000000 3c 2a cd bf 2d 76 7e bf 07 67 c0 3e 64 da a9 3f
       -1.6028514 -0.9939907 0.37578604 1.3269773
000010 6c f6 81 bf 14 25 40 bf 67 a9 4d 3f 8a 43 55 3f
       -1.0153327 -0.75056577 0.8033661 0.8330618

bias f4 [2]
000000 6a 4a d1 3d d1 2e 04 be
       0.102192715 -0.12908484

weight f4 [8, 16]
000000 3a 9a 16 3f a3 c0 13 3f 99 1b 2b be 04 d2 0e bf
       0.5882908 0.57715815 -0.16709746 -0.5578921
000010 43 28 58 3e 20 be d9 3e 60 a2 99 3e ab 7a a1 3e
       0.21109109 0.42527866 0.30006695 0.315389
000020 a9 34 21 bf ab c2 dd be e8 04 a1 3e 8a 46 c6 3e
       -0.6297098 -0.43312582 0.31449056 0.38725692
000030 eb fc bb bc 78 34 23 3e 01 20 b4 bd 91 7f f8 3d
       -0.02294775 0.15937984 -0.08795167 0.12133706
000040 f1 d6 b2 3e 42 5c 00 3f 4a 04 0d bf ef f8 6c be
       0.34929612 0.50140774 -0.5508467 -0.23141836
000050 f0 9a af 3e b1 fd 1d 3e f8 08 39 3d d4 c4 dd 3e
       0.34297895 0.15428807 0.04517457 0.4331423
000060 9f ee a4 be 0d 33 de be 2a fa 8b be 62 f6 3c 3e
       -0.32213303 -0.43398324 -0.27339298 0.18453363
000070 73 72 50 3f 9c 44 24 3f e5 9e 8b 3e d2 1e 09 be
       0.81424636 0.6416719 0.27269664 -0.13390663
000080 34 08 b2 be 26 2f 04 bf 85 69 1e 3f 1c 9d c4 3e
       -0.34771883 -0.5163444 0.6187976 0.38401115
000090 d3 86 28 bf de 8a 61 be a3 1a 00 3d 4c fd 4d 3e
       -0.65830725 -0.2202563 0.031275403 0.20116156
0000a0 a8 b6 16 3f 14 e6 1a 3f 2b 42 38 be 6f 8e 93 be
       0.5887246 0.6050732 -0.17993991 -0.28819606
0000b0 9b 59 8b bd 57 99 b5 bd 22 90 bb 3e 27 2d 7a 3e
       -0.068042 -0.08867138 0.36633402 0.24431287
0000c0 5c 6e c1 3e f7 b4 14 3f 45 7c b4 be de 47 94 be
       0.3777951 0.5808863 -0.3525106 -0.2896108
0000d0 41 21 a5 3d 1d f4 f2 3d 28 ac 8c 3d 7f 28 00 3e
       0.08062983 0.11862967 0.06868774 0.12515448
0000e0 79 1d 38 3c 9e d7 80 be 38 1f ad 3d 30 dc 72 3d
       0.011237496 -0.25164503 0.0845322 0.05929202
0000f0 90 8c 4e 3f 56 5b 19 3f a3 5a 8b bf a6 64 05 bf
       0.8068323 0.5990499 -1.0887035 -0.521067
000100 ae 9c 3d be 52 dc d1 bc 0a 50 00 bf 55 32 c2 be
       -0.185168 -0.025617752 -0.5012213 -0.37929025
000110 d0 2a 3e 3f 85 b4 1a 3f 3d f1 4b 3e fe d7 33 be
       0.74284077 0.604317 0.19916244 -0.17562863
000120 d3 1a 8f be b3 56 17 bf 1e e5 0f 3f e6 d0 08 3f
       -0.27950153 -0.5911667 0.5620898 0.53443754
000130 b2 80 bd 3d 48 20 83 be 6f ee 06 be 40 02 97 bd
       0.09253062 -0.25610566 -0.13176893 -0.07373476
000140 a9 0d b4 3e 9b 52 42 3d 29 4d 15 3f c0 d6 d8 3e
       0.35166672 0.04744206 0.5832086 0.4235134
000150 86 17 ae be 13 b8 fc be 4e 26 97 3e 30 5d bc 3e
       -0.34002322 -0.49359187 0.29521412 0.36789846
000160 59 fd e0 3e 45 1d 04 3f e0 85 35 bf 11 d4 d6 be
       0.4394329 0.5160716 -0.709074 -0.4195867
000170 33 c9 17 3e d5 05 0d 3d da 1c 65 3e a0 6d 37 3e
       0.14822845 0.03442939 0.22374287 0.17912912
000180 be 39 a6 3d 51 3f 8e 3e 9c 7d 6a 3d b8 3c 83 be
       0.08116482 0.27782682 0.057248697 -0.25632262
000190 7a df 31 3e e3 fb 3f 3e d4 4a dc 3e 26 99 ee 3c
       0.17370406 0.18748431 0.4302584 0.029125761
0001a0 34 4f 91 3e 04 66 c3 3c 96 86 2d 3e ee 7a 9b 3e
       0.2838074 0.023852356 0.16945872 0.30367225
0001b0 d2 60 b3 3d a0 59 66 3e f4 e5 0a bf 02 8b 24 bf
       0.087587014 0.22495127 -0.5425713 -0.6427461
0001c0 10 89 60 be 5f 4d 80 be 41 2b 33 3f aa bd ec 3e
       -0.21927285 -0.2505903 0.69987875 0.46238452
0001d0 94 98 3d bf da db 0b bf 85 02 03 be a6 fa 33 be
       -0.7406094 -0.5463234 -0.1279393 -0.17576084
0001e0 44 b6 06 3f 60 ab 0d 3f d7 c0 a4 be f6 8c c0 be
       0.52621865 0.5533962 -0.32178375 -0.37607545
0001f0 61 dd d9 be 1a b3 83 be ed ba 2c be 70 41 a8 3e
       -0.4255171 -0.2572258 -0.16868182 0.32862425

bias f4 [8]
000000 0b 52 ba bc 17 38 a6 3e fa d9 88 bd 28 d7 b5 3e
       -0.0227442 0.32464668 -0.06682201 0.35515714
000010 f7 f3 d5 bd 56 44 63 3e ed 4f 44 3e ed db d3 3d
       -0.10446923 0.22194037 0.19171114 0.10344682

weight f4 [34, 4]
000000 b9 f2 5a 3d d7 ea 49 be 08 b0 6e be 08 05 c9 3d
       0.053454135 -0.1971849 -0.23309338 0.09815413
000010 92 37 12 40 65 e7 1d 3e 9d 34 70 3f 7f 04 1a 3e
       2.2846417 0.15420301 0.9383028 0.15040778
000020 81 e1 1b be 09 4d 2d 3f db 5b 7b 3f d1 75 92 bf
       -0.15222742 0.6769567 0.98187035 -1.1442205
000030 a1 3a a2 bf dd b4 e1 be cf 20 ea bc 6e bc eb be
       -1.2674142 -0.440833 -0.028580097 -0.46042198
000040 27 0e 9f bf 75 e6 3b bf b0 f7 26 3f 25 71 86 bf
       -1.2426194 -0.73398525 0.6522169 -1.0503279
000050 d9 29 89 be 49 9a c2 bf b7 08 6c bf 86 cd b1 bf
       -0.2678974 -1.5203334 -0.922008 -1.3890846
000060 8e a2 0e bf 48 76 b9 bf 53 ea f8 bf 90 41 2b bf
       -0.5571679 -1.4489222 -1.944651 -0.66896915
000070 6b 95 8b bf e4 68 62 bf d5 7e a4 bf d7 f0 6a bf
       -1.0904974 -0.884413 -1.2851206 -0.9177374
000080 cf 55 e3 3e f9 26 27 3e 43 f1 ad 3f 5d cd 10 3e
       0.44401404 0.1632346 1.3589252 0.1414084
000090 0a 06 6c 3f 3d 19 a5 be 27 80 55 bf 8d a2 13 c0
       0.92196715 -0.32245818 -0.8339867 -2.3067963
0000a0 77 00 90 3e 13 c9 2f bf ed ec a7 be 41 5a 7b 3f
       0.28125355 -0.6866619 -0.32797948 0.9818459
0000b0 75 64 0b 3e 20 0f 5b bd 98 c1 b6 bf 6f 70 96 3f
       0.1361254 -0.05348122 -1.427783 1.1753062
0000c0 90 53 0c c0 b0 72 b9 be 0d 20 79 be 32 1f 7f be
       -2.1926003 -0.36220312 -0.24328633 -0.24914244
0000d0 41 b9 cb 3e cc 5e 01 3f b4 ae 68 3f 78 ab ed 3e
       0.39789775 0.50535274 0.90891576 0.46419883
0000e0 fb ac 1c 3f da 0d 0d bf 04 4e cd 3e 64 aa 55 3f
       0.6120145 -0.5509926 0.40098584 0.8346312
0000f0 74 d6 cc be d7 52 ba 3f b3 dc 39 be 40 0f 23 3f
       -0.40007365 1.4556531 -0.18150596 0.63695145
000100 73 af 68 3f dd 19 39 3f 2d 04 a8 3c ad ce 9c bf
       0.90892714 0.7230509 0.020509804 -1.2250572
000110 35 0f b3 be 6d 34 a4 bf 5f b2 8d bf 66 f6 50 be
       -0.3497254 -1.2828499 -1.107006 -0.20406494
000120 d6 b7 9d 3f 17 1b b2 3e 0a ed c5 3e 22 0d d1 be
       1.2321727 0.34786293 0.3865741 -0.40830332
000130 c0 97 98 3f c9 87 f3 be 0e 01 01 3f bf b4 b1 3e
       1.192131 -0.47564533 0.50392234 0.3470821
000140 fb ec 5c 3f 02 65 83 be db 4d 8e bf a3 82 4e 3e
       0.86299103 -0.25663 -1.111751 0.20167021
000150 0d 0f 0b c0 8a 4e f9 be db d4 91 3f 33 ca 35 40
       -2.1727936 -0.48692733 1.1393083 2.8404663
000160 39 c8 08 40 af 9e d8 be 81 bd 35 3e 2f 08 6a 3e
       2.1372206 -0.42308566 0.17748071 0.22854684
000170 24 40 bb be ad 5c e5 bf 14 c5 97 3d 0a 0f 02 bf
       -0.36572373 -1.7918907 0.074106365 -0.508042
000180 80 fa 01 3f 09 d1 0c bf ab a4 2b be 5d 31 67 bf
       0.5077286 -0.5500646 -0.16762035 -0.903097
000190 ce 79 39 bf 96 fb b2 3e c4 1d ba 3f 29 fb 8f bf
       -0.72451484 0.3495757 1.4540334 -1.1248523
0001a0 32 a3 78 3f 95 50 8c be d6 de df 3f 24 db a2 be
       0.97124016 -0.2740523 1.7489879 -0.31807816
0001b0 51 30 4a 3f b0 e4 8a bf e1 19 88 3f 2c 9b 3b bf
       0.78979975 -1.085104 1.0632898 -0.7328365
0001c0 a9 5e b9 3f 14 72 8a 3e c4 f5 de be 32 3e 6e bf
       1.4482013 0.2704016 -0.4354688 -0.9306365
0001d0 cd 14 72 3f bc 01 99 bd b4 75 99 3f 29 ae 3e 40
       0.9456299 -0.07471034 1.1989045 2.97938
0001e0 a1 e9 36 bf 24 22 cb 3f 6a 46 d7 bf 02 f1 42 3f
       -0.7145024 1.5869794 -1.6818364 0.76149
0001f0 dd 17 90 be 40 3f 86 bf f2 0f a6 3f 45 49 94 3f
       -0.28143206 -1.0488052 1.2973616 1.158486
000200 0c 2b 90 3d d6 9e 8c be da ef 55 3c bd 92 d3 3e
       0.070394605 -0.27464932 0.013057673 0.4132289
000210 78 37 45 3f 66 9a 08 c0 3d cd 5e bd f1 31 64 3f
       0.77037764 -2.1344237 -0.05439495 0.89138705

weight f4 [24, 4]
000000 be 3a 05 be fe 32 bb be d2 d9 71 be 03 e4 57 3f
       -0.1301069 -0.3656234 -0.23618248 0.84332293
000010 21 56 50 bf 8c c2 fc 3e 89 a3 37 bf ad 10 39 bf
       -0.8138142 0.49367177 -0.7173391 -0.7229107
000020 b1 fd 35 3e 68 55 1c 3f c1 44 0b 3f 0e 8f 96 3f
       0.17772557 0.6106782 0.54401785 1.1762407
000030 56 26 29 bf 5a f5 6b 3f dd 8d ca be 6c d7 7d bf
       -0.6607412 0.9217125 -0.39561358 -0.9915683
000040 f4 7d a7 be 14 4a 61 3e 7a e6 62 3f a2 d7 90 3f
       -0.32713282 0.22000915 0.8863293 1.1315806
000050 1e ae 09 bf 50 53 bc 3e 40 fe 3a 3e d8 b0 e0 3d
       -0.53781307 0.36782312 0.18261051 0.1097123
000060 06 86 52 bf 62 23 77 bf 2c 02 89 bf 6c 07 26 3e
       -0.82235754 -0.96538365 -1.0703788 0.16213769
000070 41 d8 82 3f a9 22 ba 3f c3 1c cd 3f d5 63 05 3f
       1.0222245 1.4541827 1.6024402 0.52105457
000080 76 a1 dc 3e f9 66 75 bf 29 ce 44 3e d1 af e0 3e
       0.43091935 -0.9586025 0.19219269 0.43884137
000090 06 7e cd bf 0b 89 00 c0 a1 63 5f bf 23 4c be bf
       -1.6054084 -2.0083644 -0.87261397 -1.4866985
0000a0 c6 ff cd 3f 7e 7a 83 be fa 5a 73 bf f8 ab 38 3d
       1.6093681 -0.25679392 -0.95060694 0.045085877
0000b0 12 30 d7 bf ea 5a 66 bf bf ae 5f 3f 8a f6 3d bf
       -1.6811545 -0.89982474 0.87376016 -0.74204314
0000c0 f9 ee 42 3f c6 e0 04 be 57 ec 4a bf 18 c0 2f bf
       0.76145893 -0.1297637 -0.79266876 -0.68652487
0000d0 1d 68 3d bf 43 42 96 be d6 d5 1a 3f 13 4b 27 bf
       -0.7398699 -0.2934743 0.6048254 -0.6534893
0000e0 3a 59 b8 be 81 6f 73 be 4d 6f 0a 3f ca 69 b2 be
       -0.36005574 -0.23773004 0.5407608 -0.34846336
0000f0 08 df 8a 3e 55 9c 5b 3f d2 db 77 3f 04 33 9d be
       0.27123284 0.8578542 0.96819794 -0.30702984
000100 29 0c 91 3f 72 6c a5 bd f5 b7 4d 3d bf 5e 87 3d
       1.1331836 -0.08077325 0.050224263 0.06609868
000110 c7 37 02 bf 6e ad ef be d2 d0 3b 3f ac ad 22 bf
       -0.5086636 -0.46812004 0.7336551 -0.6354625
000120 6f fb 91 3f 0d 9b d6 3e 71 d1 0a 40 bd 10 d4 3f
       1.1404856 0.4191517 2.1690333 1.6567608
000130 fc 14 f6 3c d7 16 b6 3d 49 2c ad 3f 6b 2a 31 3d
       0.030039303 0.08891075 1.352914 0.043253344
000140 87 3c 2c 3f 90 a9 ce 3e 69 e6 44 3f b9 4d fe 3d
       0.6727986 0.4036374 0.7691408 0.12417168
000150 d5 56 19 bf 90 db 97 bf 00 b0 32 bf fb 9d cc bf
       -0.5989812 -1.186388 -0.69799805 -1.5985712
000160 d0 53 77 3d 75 22 c6 bf 32 3f 19 3f 1f 34 6b 3f
       0.060382664 -1.5479265 0.59862053 0.91876405
000170 53 ed ff 3e cb 66 8c bf c0 2f a1 be dc 79 7c 3f
       0.49985752 -1.096887 -0.31481743 0.9862344

weight f4 [4, 8]
000000 a9 31 d5 bc 1d db 16 3f 1e 73 b7 be 43 14 fe bd
       -0.026024656 0.5892809 -0.35830015 -0.12406208
000010 30 64 3c bc 04 69 50 3c 0f 0f 59 bc 5d 86 2f 3c
       -0.011498496 0.01272035 -0.013248219 0.010713187
000020 2a ce 4a 3f f9 0f 07 3f 00 44 94 3e 1b bc ca bd
       0.7922083 0.5275875 0.2895813 -0.098991595
000030 2d 82 05 3c 80 d3 27 bc d0 ed 0c 3c 7b 3a d1 bb
       0.008148712 -0.010243297 0.008601621 -0.0063851452
000040 78 05 9d 3d 43 22 99 be 15 02 0f 3e a2 36 3d bf
       0.07667059 -0.29908952 0.13965638 -0.7391149
000050 be 42 c8 3b 20 7b 79 bb 15 8a 01 3c 23 6c 04 bc
       0.006111472 -0.0038067773 0.0079064565 -0.008082422
000060 12 58 08 be d1 3b 9e 3e 56 db 81 be 09 f7 a2 be
       -0.13314846 0.3090501 -0.25362653 -0.31829098
000070 5d c8 6b 3d 19 e2 56 bd 2e 3e 71 3d 2d 64 81 bd
       0.05756413 -0.052461717 0.05889719 -0.06317935

bias f4 [4]
000000 1f 9b a4 be 45 68 9a 3e 39 54 aa be 45 bc 48 3e
       -0.32149598 0.30157676 -0.33267382 0.19603069

weight f4 [8, 1, 1]
000000 ba 43 99 bf b3 ef 6d 3f 74 62 13 bf 66 d7 13 3f
       -1.1973794 0.92943877 -0.575721 0.57750547
000010 b1 cf af be de d9 89 bf 39 3a da be 38 34 96 be
       -0.34338143 -1.0769613 -0.42622545 -0.29336715

bias f4 [8]
000000 45 ae 84 3c 79 95 d1 be d4 ca 8c 3f 11 0a 61 3f
       0.01619638 -0.4093435 1.0999398 0.87905985
000010 ed 4f d9 bd b5 b6 3b be 1f 91 53 bf e0 84 59 bf
       -0.10610948 -0.18331416 -0.8264331 -0.84968376

pe f4 [1, 1000, 4]
000000 00 00 00 00 00 00 80 3f 00 00 00 00 00 00 80 3f
       0.0 1.0 0.0 1.0
000010 a4 6a 57 3f 41 51 0a 3f 57 d6 23 3c b9 fc 7f 3f
       0.84147096 0.54030234 0.009999833 0.99995
000020 b7 c7 68 3f 33 11 d5 be 3e d4 a3 3c e5 f2 7f 3f
       0.9092974 -0.41614684 0.019998666 0.9998
000030 c3 81 10 3e 26 70 7d bf 1f b9 f5 3c 83 e2 7f 3f
       0.14112 -0.9899925 0.0299955 0.99955004
000040 cf bd 41 bf 30 55 27 bf db cb 23 3d 94 cb 7f 3f
       -0.7568025 -0.6536436 0.039989334 0.9992001
000050 10 7c 75 bf 2c 3c 91 3e f4 b6 4c 3d 19 ae 7f 3f
       -0.9589243 0.2836622 0.049979165 0.99875027
000060 8c 0f 8f be b8 cd 75 3f d1 9c 75 3d 12 8a 7f 3f
       -0.2794155 0.96017027 0.059964005 0.99820054
000070 46 30 28 3f bd ff 40 3f 32 3e 8f 3d 81 5f 7f 3f
       0.6569866 0.75390226 0.06994285 0.997551
000080 95 46 7d 3f f6 fd 14 be 50 aa a3 3d 65 2e 7f 3f
       0.98935825 -0.14550003 0.07991469 0.9968017
000090 32 01 d3 3e d5 3f 69 bf 3e 12 b8 3d c2 f6 7e 3f
       0.4121185 -0.91113025 0.089878544 0.9959527
0000a0 f8 44 0b bf 64 cd 56 bf 76 75 cc 3d 98 b8 7e 3f
       -0.5440211 -0.8390715 0.099833414 0.9950042
0000b0 5c ff 7f bf 72 05 91 3b 72 d3 e0 3d e8 73 7e 3f
       -0.9999902 0.004425698 0.1097783 0.9939561
0000c0 d8 5c 09 bf d0 06 58 3f ac 2b f5 3d b5 28 7e 3f
       -0.53657293 0.84385395 0.119712204 0.99280864
0000d0 22 20 d7 3e 6f 4e 68 3f d0 be 04 3e 00 d7 7d 3f
       0.42016703 0.9074468 0.12963414 0.9915619
0000e0 72 98 7d 3f d7 04 0c 3e 64 e4 0e 3e cc 7e 7d 3f
       0.9906074 0.13673721 0.13954312 0.990216
0000f0 44 79 26 3f e8 7a 42 bf 4f 06 19 3e 1a 20 7d 3f
       0.65028787 -0.7596879 0.14943813 0.9887711
000100 10 68 93 be 2c 29 75 bf 50 24 23 3e ed ba 7c 3f
       -0.2879033 -0.9576595 0.15931821 0.98722726
000110 25 1e 76 bf 36 e2 8c be 23 3e 2d 3e 49 4f 7c 3f
       -0.96139747 -0.27516335 0.16918235 0.9855848
000120 b3 40 40 bf 84 0a 29 3f 87 53 37 3e 2e dd 7b 3f
       -0.75098723 0.6603167 0.17902957 0.9838437
000130 69 79 19 3e bf 1b 7d 3f 3a 64 41 3e a1 64 7b 3f
       0.1498772 0.9887046 0.1888589 0.9820042
000140 c8 b6 69 3f 22 f0 d0 3e f8 6f 4b 3e a5 e5 7a 3f
       0.9129453 0.40808207 0.19866931 0.9800666
000150 10 2f 56 3f fc 37 0c bf 83 76 55 3e 3c 60 7a 3f
       0.8366556 -0.54772925 0.2084599 0.9780309
000160 15 05 11 bc 6f fd 7f bf 96 77 5f 3e 6a d4 79 3f
       -0.008851309 -0.99996084 0.21822962 0.97589743
000170 e6 a1 58 bf bf 67 08 bf f0 72 69 3e 34 42 79 3f
       -0.8462204 -0.53283304 0.22797751 0.9736664
000180 fc d3 67 bf fe 2d d9 3e 51 68 73 3e 9b a9 78 3f
       -0.9055784 0.42417902 0.23770262 0.971338
000190 38 87 07 be 78 bf 7d 3f 77 57 7d 3e a5 0a 78 3f
       -0.13235176 0.99120283 0.24740396 0.9689124
0001a0 08 37 43 3f 81 9c 25 3f 10 a0 83 3e 56 65 77 3f
       0.76255846 0.6469193 0.25708055 0.96639
0001b0 0e d5 74 3f 38 93 95 be 05 91 88 3e b1 b9 76 3f
       0.95637596 -0.29213881 0.2667314 0.9637709
0001c0 2a b4 8a 3e 57 6d 76 bf 7d 7e 8d 3e bb 07 76 3f
       0.2709058 -0.9626059 0.27635565 0.96105546
0001d0 e9 e3 29 bf b3 80 3f bf 54 68 92 3e 79 4f 75 3f
       -0.6636339 -0.74805754 0.2859522 0.9582439
0001e0 a4 ef 7c bf 18 f4 1d 3e 6c 4e 97 3e ef 90 74 3f
       -0.9880316 0.15425146 0.2955202 0.9553365
0001f0 06 de ce be 8e 2c 6a 3f a5 30 9c 3e 22 cc 73 3f
       -0.40403765 0.91474235 0.30505863 0.95233357
000200 4d 2a 0d 3f a9 8f 55 3f de 0e a1 3e 18 01 73 3f
       0.5514267 0.83422333 0.31456655 0.94923544
000210 39 fa 7f 3f b7 86 59 bc f7 e8 a5 3e d5 2f 72 3f
       0.99991184 -0.013276747 0.324043 0.94604236
000220 f7 71 07 3f e7 3b 59 bf d2 be aa 3e 5f 58 71 3f
       0.5290827 -0.8485703 0.3334871 0.9427547
000230 c2 3a db be 5f 58 67 bf 4d 90 af 3e bb 7a 70 3f
       -0.42818266 -0.9036922 0.3428978 0.9393727
000240 38 e5 7d bf ea 08 03 be 49 5d b4 3e ef 96 6f 3f
       -0.99177885 -0.12796369 0.3522742 0.9358968
000250 ea be 24 bf 2d f2 43 3f a9 25 b9 3e 01 ad 6e 3f
       -0.6435381 0.76541406 0.36161545 0.93232733
000260 9f bd 97 3e b5 7f 74 3f 4a e9 bd 3e f7 bc 6d 3f
       0.29636857 0.95507365 0.37092048 0.9286646
000270 4b bb 76 3f 6c 85 88 3e 0e a8 c2 3e d7 c6 6c 3f
       0.96379536 0.26664293 0.3801884 0.92490906
000280 bc bf 3e 3f 74 bc 2a bf d7 61 c7 3e a7 ca 6b 3f
       0.74511313 -0.66693807 0.38941833 0.921061
000290 fb 6d 22 be 44 c2 7c bf 86 16 cc 3e 6e c8 6a 3f
       -0.15862267 -0.98733926 0.39860934 0.9171208
0002a0 28 a1 6a bf e0 ca cc be fa c5 d0 3e 32 c0 69 3f
       -0.91652155 -0.3999853 0.40776044 0.9130889
0002b0 30 ef 54 bf e8 1b 0e 3f 16 70 d5 3e fb b1 68 3f
       -0.8317747 0.5551133 0.41687077 0.90896577
0002c0 a1 03 91 3c bb f5 7f 3f bd 14 da 3e ce 9d 67 3f
       0.017701926 0.9998433 0.42593947 0.90475166
0002d0 d0 d4 59 3f 81 7b 06 3f cd b3 de 3e b4 83 66 3f
       0.8509035 0.525322 0.43496552 0.90044713
0002e0 9a db 66 3f 6e 46 dd be 2a 4d e3 3e b2 63 65 3f
       0.90178835 -0.43217796 0.4439481 0.8960525
0002f0 e8 13 fd 3d b2 09 7e bf b6 e0 e7 3e d2 3d 64 3f
       0.123573124 -0.99233544 0.45288628 0.8915683
000300 56 ac 44 bf 80 e0 23 bf 52 6e ec 3e 19 12 63 3f
       -0.76825464 -0.64014435 0.46177918 0.8869949
000310 22 29 74 bf 44 e7 99 3e e0 f5 f0 3e 91 e0 61 3f
       -0.95375264 0.30059254 0.47062588 0.88233286
000320 ff 55 86 be 04 08 77 3f 44 77 f5 3e 40 a9 60 3f
       -0.26237485 0.96496606 0.47942555 0.87758255
000330 24 94 2b 3f d1 fd 3d 3f 5e f2 f9 3e 2f 6c 5f 3f
       0.6702292 0.7421542 0.48817724 0.8727445
000340 a0 93 7c 3f 0e e7 26 be 12 67 fe 3e 66 29 5e 3f
       0.9866276 -0.16299078 0.4968801 0.8678192
000350 b4 b6 ca 3e 95 14 6b bf a2 6a 01 3f ed e0 5c 3f
       0.39592516 -0.9182828 0.50553334 0.8628071
000360 cd 0c 0f bf a6 4d 54 bf 6a 9e 03 3f cc 92 5b 3f
       -0.5587891 -0.8293098 0.51413596 0.8577087
000370 f4 ef 7f bf 2c 43 b5 3c d5 ce 05 3f 0c 3f 5a 3f
       -0.99975514 0.022126757 0.52268726 0.8525245
000380 5e 84 05 bf a2 6c 5a 3f d2 fb 07 3f b6 e5 58 3f
       -0.521551 0.8532201 0.5311862 0.8472551
000390 fd 50 df 3e ac 5d 66 3f 53 25 0a 3f d3 86 57 3f
       0.43616477 0.8998668 0.539632 0.841901
0003a0 e7 2c 7e 3f b7 14 f4 3d 4c 4b 0c 3f 6b 22 56 3f
       0.99287266 0.119180135 0.54802394 0.8364627
0003b0 43 01 23 3f 83 65 45 bf ad 6d 0e 3f 87 b8 54 3f
       0.636738 -0.7710802 0.556361 0.83094066
0003c0 23 10 9c be 56 d1 73 bf 68 8c 10 3f 32 49 53 3f
       -0.3048106 -0.95241296 0.5646424 0.8253356
0003d0 7f 53 77 bf e6 25 84 be 71 a7 12 3f 74 d4 51 3f
       -0.9661178 -0.25810164 0.57286745 0.819648
0003e0 f2 3a 3d bf f7 6a 2c 3f b8 be 14 3f 57 5a 50 3f
       -0.7391807 0.67350715 0.58103514 0.8138785
0003f0 4b 5f 2b 3e b8 63 7c 3f 31 d2 16 3f e4 da 4e 3f
       0.1673557 0.9858966 0.58914477 0.8080275

weight f4 [4, 4]
000000 e0 8c c6 3e 19 19 44 3d c9 32 b3 3e 26 be 0b bd
       0.38779354 0.047875497 0.34999683 -0.034116887
000010 47 1b 4c be 91 7c 38 3e 03 16 6a 3c a8 6d 97 3e
       -0.1993228 0.18016268 0.014287475 0.2957585
000020 37 14 ea 3e 17 46 89 3e 91 fd 0b be 87 d0 7e be
       0.45718548 0.26811287 -0.13670947 -0.24884234
000030 c8 11 19 bf 4a 7c 96 3d b1 c7 36 3e 19 5d ce be
       -0.5979276 0.07347925 0.17849614 -0.40305403

weight f4 [4, 4]
000000 fd 38 bd be c9 f5 85 3e 0a 28 3e bd 91 2a ed be
       -0.3695754 0.26164082 -0.046424903 -0.46321538
000010 c1 ae fa 3e c2 aa f9 3d f6 d0 07 bf dc dc 9a 3e
       0.48961452 0.121907726 -0.53053224 0.30246627
000020 67 d3 b5 3e 2e 5a 42 3f 67 f7 93 bd b5 82 80 bd
       0.3551285 0.75918853 -0.072249226 -0.062749304
000030 ed 15 fa be 11 8f 72 bf 8f 49 bc be 40 80 c6 be
       -0.48844853 -0.9474955 -0.3677487 -0.38769722

weight f4 [4, 4]
000000 e6 71 d9 be 68 45 8c 3e bd ae cf 3e 0a 29 32 be
       -0.4246971 0.27396703 0.40563002 -0.17398468
000010 22 bc 16 3e aa 60 e8 3e 1d 98 91 bd 74 8a 94 3e
       0.14720204 0.4538625 -0.071090914 0.2901188
000020 bf 43 07 be 2e 17 8a bd de 5a eb be 5a 2c 62 bd
       -0.13209437 -0.067427024 -0.45967764 -0.05521808
000030 ae 83 5e be d3 0c 55 bd d8 5b b3 3e c1 d4 e4 3e
       -0.2172992 -0.052014183 0.3503101 0.44693568

weight f4 [4, 4]
000000 61 90 2a bf 9e fa ce be c5 b9 fd 3d 10 46 d2 3d
       -0.66626555 -0.4042558 0.12388948 0.102672696
000010 fc 29 2b bd af 01 a8 3d c8 c0 4a 3e d4 5d ca be
       -0.041788086 0.08203446 0.19800103 -0.3952471
000020 da 73 f4 3e fc c9 a6 be db c8 1a bf a9 9d 7a bd
       0.47744638 -0.32575977 -0.6046273 -0.061185513
000030 72 f1 a8 bc f9 50 98 bd 3e 01 1c bd e1 8e 1e 3e
       -0.020622943 -0.07437319 -0.038087122 0.15484191

bias f4 [4]
000000 77 df 01 be 97 e5 59 3e c1 8c e6 3e ea 1d e7 be
       -0.12682901 0.21278988 0.45029262 -0.4514001
