trained_models/net_1/Supervised_WAE_net_1.pt (torch, 244718 bytes, 174 tensors)

weight f4 [4, 1]
0	0xbf8e3011	-1.1108419
1	0x3f6b01cb	0.9179961
2	0x3fd10798	1.6330442
3	0xbf1814d3	-0.59406775

bias f4 [4]
0	0x3f1b8f05	0.60765105
1	0xbebdf45c	-0.37100494
2	0x3cc2b8ce	0.023769762
3	0xbd10b42a	-0.035328068

pe f4 [1, 65, 4]
0	0x00000000	0.0
1	0x3f800000	1.0
2	0x00000000	0.0
3	0x3f800000	1.0
4	0x3f576aa4	0.84147096
5	0x3f0a5141	0.54030234
6	0x3c23d657	0.009999833
7	0x3f7ffcb9	0.99995
8	0x3f68c7b7	0.9092974
9	0xbed51133	-0.41614684
10	0x3ca3d43e	0.019998666
11	0x3f7ff2e5	0.9998
12	0x3e1081c3	0.14112
13	0xbf7d7026	-0.9899925
14	0x3cf5b91f	0.0299955
15	0x3f7fe283	0.99955004
16	0xbf41bdcf	-0.7568025
17	0xbf275530	-0.6536436
18	0x3d23cbdb	0.039989334
19	0x3f7fcb94	0.9992001
20	0xbf757c10	-0.9589243
21	0x3e913c2c	0.2836622
22	0x3d4cb6f4	0.049979165
23	0x3f7fae19	0.99875027
24	0xbe8f0f8c	-0.2794155
25	0x3f75cdb8	0.96017027
26	0x3d759cd1	0.059964005
27	0x3f7f8a12	0.99820054
28	0x3f283046	0.6569866
29	0x3f40ffbd	0.75390226
30	0x3d8f3e32	0.06994285
31	0x3f7f5f81	0.997551
32	0x3f7d4695	0.98935825
33	0xbe14fdf6	-0.14550003
34	0x3da3aa50	0.07991469
35	0x3f7f2e65	0.9968017
36	0x3ed30132	0.4121185
37	0xbf693fd5	-0.91113025
38	0x3db8123e	0.089878544
39	0x3f7ef6c2	0.9959527
40	0xbf0b44f8	-0.5440211
41	0xbf56cd64	-0.8390715
42	0x3dcc7576	0.099833414
43	0x3f7eb898	0.9950042
44	0xbf7fff5c	-0.9999902
45	0x3b910572	0.004425698
46	0x3de0d372	0.1097783
47	0x3f7e73e8	0.9939561
48	0xbf095cd8	-0.53657293
49	0x3f5806d0	0.84385395
50	0x3df52bac	0.119712204
51	0x3f7e28b5	0.99280864
52	0x3ed72022	0.42016703
53	0x3f684e6f	0.9074468
54	0x3e04bed0	0.12963414
55	0x3f7dd700	0.9915619
56	0x3f7d9872	0.9906074
57	0x3e0c04d7	0.13673721
58	0x3e0ee464	0.13954312
59	0x3f7d7ecc	0.990216
60	0x3f267944	0.65028787
61	0xbf427ae8	-0.7596879
62	0x3e19064f	0.14943813
63	0x3f7d201a	0.9887711
64	0xbe936810	-0.2879033
65	0xbf75292c	-0.9576595
66	0x3e232450	0.15931821
67	0x3f7cbaed	0.98722726
68	0xbf761e25	-0.96139747
69	0xbe8ce236	-0.27516335
70	0x3e2d3e23	0.16918235
71	0x3f7c4f49	0.9855848
72	0xbf4040b3	-0.75098723
73	0x3f290a84	0.6603167
74	0x3e375387	0.17902957
75	0x3f7bdd2e	0.9838437
76	0x3e197969	0.1498772
77	0x3f7d1bbf	0.9887046
78	0x3e41643a	0.1888589
79	0x3f7b64a1	0.9820042
80	0x3f69b6c8	0.9129453
81	0x3ed0f022	0.40808207
82	0x3e4b6ff8	0.19866931
83	0x3f7ae5a5	0.9800666
84	0x3f562f10	0.8366556
85	0xbf0c37fc	-0.54772925
86	0x3e557683	0.2084599
87	0x3f7a603c	0.9780309
88	0xbc110515	-0.008851309
89	0xbf7ffd6f	-0.99996084
90	0x3e5f7796	0.21822962
91	0x3f79d46a	0.97589743
92	0xbf58a1e6	-0.8462204
93	0xbf0867bf	-0.53283304
94	0x3e6972f0	0.22797751
95	0x3f794234	0.9736664
96	0xbf67d3fc	-0.9055784
97	0x3ed92dfe	0.42417902
98	0x3e736851	0.23770262
99	0x3f78a99b	0.971338
100	0xbe078738	-0.13235176
101	0x3f7dbf78	0.99120283
102	0x3e7d5777	0.24740396
103	0x3f780aa5	0.9689124
104	0x3f433708	0.76255846
105	0x3f259c81	0.6469193
106	0x3e83a010	0.25708055
107	0x3f776556	0.96639
108	0x3f74d50e	0.95637596
109	0xbe959338	-0.29213881
110	0x3e889105	0.2667314
111	0x3f76b9b1	0.9637709
112	0x3e8ab42a	0.2709058
113	0xbf766d57	-0.9626059
114	0x3e8d7e7d	0.27635565
115	0x3f7607bb	0.96105546
116	0xbf29e3e9	-0.6636339
117	0xbf3f80b3	-0.74805754
118	0x3e926854	0.2859522
119	0x3f754f79	0.9582439
120	0xbf7cefa4	-0.9880316
121	0x3e1df418	0.15425146
122	0x3e974e6c	0.2955202
123	0x3f7490ef	0.9553365
124	0xbecede06	-0.40403765
125	0x3f6a2c8e	0.91474235
126	0x3e9c30a5	0.30505863
127	0x3f73cc22	0.95233357
128	0x3f0d2a4d	0.5514267
129	0x3f558fa9	0.83422333
130	0x3ea10ede	0.31456655
131	0x3f730118	0.94923544
132	0x3f7ffa39	0.99991184
133	0xbc5986b7	-0.013276747
134	0x3ea5e8f7	0.324043
135	0x3f722fd5	0.94604236
136	0x3f0771f7	0.5290827
137	0xbf593be7	-0.8485703
138	0x3eaabed2	0.3334871
139	0x3f71585f	0.9427547
140	0xbedb3ac2	-0.42818266
141	0xbf67585f	-0.9036922
142	0x3eaf904d	0.3428978
143	0x3f707abb	0.9393727
144	0xbf7de538	-0.99177885
145	0xbe0308ea	-0.12796369
146	0x3eb45d49	0.3522742
147	0x3f6f96ef	0.9358968
148	0xbf24beea	-0.6435381
149	0x3f43f22d	0.76541406
150	0x3eb925a9	0.36161545
151	0x3f6ead01	0.93232733
152	0x3e97bd9f	0.29636857
153	0x3f747fb5	0.95507365
154	0x3ebde94a	0.37092048
155	0x3f6dbcf7	0.9286646
156	0x3f76bb4b	0.96379536
157	0x3e88856c	0.26664293
158	0x3ec2a80e	0.3801884
159	0x3f6cc6d7	0.92490906
160	0x3f3ebfbc	0.74511313
161	0xbf2abc74	-0.66693807
162	0x3ec761d7	0.38941833
163	0x3f6bcaa7	0.921061
164	0xbe226dfb	-0.15862267
165	0xbf7cc244	-0.98733926
166	0x3ecc1686	0.39860934
167	0x3f6ac86e	0.9171208
168	0xbf6aa128	-0.91652155
169	0xbecccae0	-0.3999853
170	0x3ed0c5fa	0.40776044
171	0x3f69c032	0.9130889
172	0xbf54ef30	-0.8317747
173	0x3f0e1be8	0.5551133
174	0x3ed57016	0.41687077
175	0x3f68b1fb	0.90896577
176	0x3c9103a1	0.017701926
177	0x3f7ff5bb	0.9998433
178	0x3eda14bd	0.42593947
179	0x3f679dce	0.90475166
180	0x3f59d4d0	0.8509035
181	0x3f067b81	0.525322
182	0x3edeb3cd	0.43496552
183	0x3f6683b4	0.90044713
184	0x3f66db9a	0.90178835
185	0xbedd466e	-0.43217796
186	0x3ee34d2a	0.4439481
187	0x3f6563b2	0.8960525
188	0x3dfd13e8	0.123573124
189	0xbf7e09b2	-0.99233544
190	0x3ee7e0b6	0.45288628
191	0x3f643dd2	0.8915683
192	0xbf44ac56	-0.76825464
193	0xbf23e080	-0.64014435
194	0x3eec6e52	0.46177918
195	0x3f631219	0.8869949
196	0xbf742922	-0.95375264
197	0x3e99e744	0.30059254
198	0x3ef0f5e0	0.47062588
199	0x3f61e091	0.88233286
200	0xbe8655ff	-0.26237485
201	0x3f770804	0.96496606
202	0x3ef57744	0.47942555
203	0x3f60a940	0.87758255
204	0x3f2b9424	0.6702292
205	0x3f3dfdd1	0.7421542
206	0x3ef9f25e	0.48817724
207	0x3f5f6c2f	0.8727445
208	0x3f7c93a0	0.9866276
209	0xbe26e70e	-0.16299078
210	0x3efe6712	0.4968801
211	0x3f5e2966	0.8678192
212	0x3ecab6b4	0.39592516
213	0xbf6b1495	-0.9182828
214	0x3f016aa2	0.50553334
215	0x3f5ce0ed	0.8628071
216	0xbf0f0ccd	-0.5587891
217	0xbf544da6	-0.8293098
218	0x3f039e6a	0.51413596
219	0x3f5b92cc	0.8577087
220	0xbf7feff4	-0.99975514
221	0x3cb5432c	0.022126757
222	0x3f05ced5	0.52268726
223	0x3f5a3f0c	0.8525245
224	0xbf05845e	-0.521551
225	0x3f5a6ca2	0.8532201
226	0x3f07fbd2	0.5311862
227	0x3f58e5b6	0.8472551
228	0x3edf50fd	0.43616477
229	0x3f665dac	0.8998668
230	0x3f0a2553	0.539632
231	0x3f5786d3	0.841901
232	0x3f7e2ce7	0.99287266
233	0x3df414b7	0.119180135
234	0x3f0c4b4c	0.54802394
235	0x3f56226b	0.8364627
236	0x3f230143	0.636738
237	0xbf456583	-0.7710802
238	0x3f0e6dad	0.556361
239	0x3f54b887	0.83094066
240	0xbe9c1023	-0.3048106
241	0xbf73d156	-0.95241296
242	0x3f108c68	0.5646424
243	0x3f534932	0.8253356
244	0xbf77537f	-0.9661178
245	0xbe8425e6	-0.25810164
246	0x3f12a771	0.57286745
247	0x3f51d474	0.819648
248	0xbf3d3af2	-0.7391807
249	0x3f2c6af7	0.67350715
250	0x3f14beb8	0.58103514
251	0x3f505a57	0.8138785
252	0x3e2b5f4b	0.1673557
253	0x3f7c63b8	0.9858966
254	0x3f16d231	0.58914477
255	0x3f4edae4	0.8080275

weight f4 [4, 4]
0	0x3ec3738f	0.38174102
1	0xbed5f0f9	-0.4178541
2	0xbea41bc9	-0.32052448
3	0x3dde160e	0.1084405
4	0x3eea0398	0.45705867
5	0xbd52ba1d	-0.051447023
6	0xbcd2d6a8	-0.025737122
7	0xbd2bc270	-0.041933477
8	0xbef9e610	-0.48808336
9	0xbe5ea6d9	-0.21743335
10	0xbf19325c	-0.5984247
11	0x3e5c5ea6	0.2152048
12	0xbdb56723	-0.088575624
13	0xbeca7531	-0.39542535
14	0xbdfa9120	-0.12234712
15	0x3e9b89ee	0.3037867

weight f4 [4, 4]
0	0x3f0dc0ba	0.553722
1	0xbd07c1a2	-0.033143647
2	0x3eeb1824	0.45916855
3	0x3e09cad5	0.1345628
4	0x3ecff918	0.4061973
5	0x3de92faf	0.11386048
6	0x3e977411	0.2958074
7	0x3e2cce5a	0.16875592
8	0x3d8e9a61	0.06963039
9	0xbf243c89	-0.6415487
10	0x3e16478f	0.14675735
11	0xbde54d9d	-0.11196444
12	0x3d96a210	0.0735513
13	0xbe50e778	-0.20400798
14	0xbd8b7663	-0.0680969
15	0x3ec8018d	0.39063683

weight f4 [4, 4]
0	0xbe5da66e	-0.21645519
1	0x3e47f240	0.19526005
2	0xbea64d7f	-0.32481
3	0x3f059635	0.5218232
4	0x3e9d6d47	0.30747434
5	0xbe714b3c	-0.23563856
6	0x3e2836fa	0.16427222
7	0xbeeacf7f	-0.45861432
8	0x3deb8db2	0.115016356
9	0xbf09ac6b	-0.53778714
10	0xbef08ee1	-0.46984008
11	0x3ea41efd	0.32054892
12	0x3f4f7c44	0.8104899
13	0x3e096a31	0.13419415
14	0x3eb55e4a	0.354235
15	0xbf1bd5ae	-0.60872924

weight f4 [4, 4]
0	0xbe2c788e	-0.16842863
1	0x3e9762c9	0.29567555
2	0x3ecd4531	0.4009185
3	0x3ec3d90b	0.38251528
4	0xbd45601f	-0.04818737
5	0x3f11aec0	0.5690727
6	0xbe55176f	-0.2080972
7	0xbeda9572	-0.42692143
8	0x3e368e12	0.17827633
9	0xbdd8847d	-0.10572145
10	0xbea53040	-0.32263374
11	0x3d7ed223	0.06221212
12	0x3efbc576	0.49174088
13	0xbea74e60	-0.32676983
14	0x3d91c417	0.07117479
15	0xbe4d49c7	-0.20047675

bias f4 [4]
0	0x3e9f164f	0.31071708
1	0xbe978260	-0.29591656
2	0x3e25b2fc	0.16181558
3	0x3e9e398c	0.3090328

weight f4 [4, 4]
0	0xbf5b6202	-0.85696423
1	0x3eeff180	0.46863937
2	0x3e8e5440	0.27798653
3	0xbe0ea03a	-0.13928309
4	0xbe845ea6	-0.2585346
5	0xbd23d330	-0.039996326
6	0x3f0a041a	0.5391251
7	0xbf459b20	-0.77189827
8	0xbf2b088d	-0.6680992
9	0x3efbe706	0.49199694
10	0xbd5ce10c	-0.05392556
11	0x3e118c72	0.14213732
12	0xbeb9b369	-0.36269692
13	0xbe19c99d	-0.15018316
14	0xbe1c0b70	-0.15238738
15	0x3e6149c9	0.22000803

bias f4 [4]
0	0xbea2dfcc	-0.31811368
1	0x3e52f8b8	0.20602691
2	0xbb314732	-0.0027050492
3	0xbe4cb103	-0.199894

weight f4 [4, 4]
0	0x3f28ea57	0.65982574
1	0x3d1b8bf4	0.037975267
2	0x3f507b85	0.81438476
3	0x3ec7849c	0.3896836
4	0xbe81c79d	-0.25347605
5	0x3f177bd5	0.5917333
6	0xbf140419	-0.5781875
7	0xbec86c66	-0.391452
8	0x3e6e7c9b	0.2328972
9	0x3e5d8427	0.21632443
10	0x3dc304fa	0.095224336
11	0xbe9e6a43	-0.30940446
12	0x3d386f33	0.045027923
13	0xbe29678a	-0.16543403
14	0x3dc8ea37	0.09810298
15	0x3ddc2cf5	0.107507624

bias f4 [4]
0	0x3e71d036	0.23614582
1	0x3f0173a2	0.50567067
2	0x3ea5da22	0.32392985
3	0xbe983896	-0.29730672

weight f4 [4]
0	0x3f331c00	0.699646
1	0x3f3c50a2	0.73560536
2	0x3fb07169	1.378461
3	0x3f97cbfd	1.1859127

bias f4 [4]
0	0xbd42a0af	-0.04751652
1	0x3e120407	0.14259349
2	0xbdb3b391	-0.08774484
3	0x3d74a71f	0.05972969

weight f4 [4]
0	0x3ec4f654	0.38469183
1	0x3eb55d9d	0.35422984
2	0x3f6c5220	0.9231281
3	0x3f5ae2bf	0.8550224

bias f4 [4]
0	0x3ea43d83	0.3207818
1	0x3ea7e73c	0.32793605
2	0xbf8e8ed7	-1.1137341
3	0xbe552a54	-0.20816928

weight f4 [32, 260]
0	0xbe85fb0a	-0.2616809
1	0xbed09cb2	-0.4074455
2	0xbe4bf524	-0.19917732
3	0x3d40b2a8	0.04704538
4	0x3be72111	0.0070535024
5	0xbee1c7a0	-0.44097614
6	0x3b54807c	0.0032425215
7	0x3e61086b	0.21975867
8	0x3d3c7f7e	0.046020024
9	0xbd9eaba0	-0.077475786
10	0xbef447fc	-0.4771117
11	0x3e1e77e3	0.1547542
12	0xbed42a27	-0.4143841
13	0x3d93e5b6	0.07221548
14	0x3eafff7f	0.34374616
15	0xbc086870	-0.008325681
16	0xbe0e3bad	-0.13889952
17	0x3d5866f2	0.05283255
18	0x3c02fda0	0.007995039
19	0xbce61222	-0.028084818
20	0xbdb57ed0	-0.08862078
21	0xbd59fe05	-0.053220768
22	0x3c20733f	0.009793102
23	0x3e046d80	0.12932396
24	0xbdb8d284	-0.09024528
25	0xbd9ccd2b	-0.0765632
26	0xbe16a943	-0.14713006
27	0xbbf663a2	-0.0075192014
28	0xbed4eeb8	-0.41588378
29	0x3e44f801	0.19235231
30	0x3f032778	0.512321
31	0xbdaec89f	-0.08534359
32	0x3c7c0783	0.01538265
33	0x3d2e7461	0.042591456
34	0x3e077ec4	0.13231951
35	0xbdad2cc5	-0.08455805
36	0x3e8071d8	0.25086856
37	0xbdc596d8	-0.09647912
38	0xbf0a2870	-0.5396795
39	0x3e319f0a	0.17345825
40	0xbd48c44e	-0.049015336
41	0x3db69077	0.08914273
42	0x3e70c65e	0.23513171
43	0xbdf5e147	-0.12005859
44	0x3dd8fc32	0.105949774
45	0x3e4c6775	0.1996134
46	0x3e4af121	0.19818546
47	0xbd93484e	-0.071915254
48	0xbd4c99cb	-0.049951356
49	0x3ec2a65a	0.3801754
50	0x3f65041e	0.8945941
51	0xbee75b0b	-0.45186648
52	0xbf4ffb6b	-0.8124301
53	0xbf2faf29	-0.6862665
54	0x3ee5be28	0.4487164
55	0x3d8b10b2	0.06790294
56	0x3c154f23	0.009113106
57	0xbe70fa39	-0.23532952
58	0x3deebec9	0.11657483
59	0xbb223ffe	-0.002475738
60	0xbf3280f6	-0.6972803
61	0xbabdb7b8	-0.0014474308
62	0x3f6eb441	0.93243796
63	0x3e0fd690	0.14046693
64	0x3ed8b4ba	0.42325383
65	0xbe281b88	-0.16416752
66	0xbeb4bd50	-0.35300684
67	0x3e3f38fa	0.18674079
68	0xbda0400c	-0.07824716
69	0xbdbccb56	-0.09218471
70	0xbcaf5cef	-0.021406619
71	0x3c80eb5d	0.01573723
72	0xbb8d89d2	-0.004319408
73	0xbe51f8d9	-0.20505084
74	0xbdbb93c1	-0.09159041
75	0x3e8e360c	0.2777561
76	0xbc34546d	-0.011006457
77	0x3e874ac6	0.26424235
78	0x3eba1cf1	0.36350206
79	0xbe6a0d47	-0.22856627
80	0x3d24e58d	0.04025798
81	0xbf97b8a6	-1.1853225
82	0x3e708c60	0.23491049
83	0x3f51622a	0.8179041
84	0xbdbc32f1	-0.09189404
85	0xbebb4fe6	-0.36584395
86	0x3f1d8289	0.61527306
87	0x3ec5fbf2	0.38668782
88	0xbdc76f8f	-0.09738075
89	0x3ded1c94	0.115777165
90	0x3e1a84e2	0.15089753
91	0xbd2e52ea	-0.04255954
92	0x3e12d7e5	0.1434017
93	0xbd90334f	-0.07041036
94	0xbe62734c	-0.22114295
95	0x3e2edeeb	0.17077224
96	0x3e517668	0.20455325
97	0xbef18e84	-0.47179043
98	0xbf5b9769	-0.8577791
99	0x3f0c3045	0.54761153
100	0xbf5c017e	-0.85939777
101	0xbf3bf9e3	-0.7342817
102	0xbc874e05	-0.016516695
103	0x3f806ec8	1.0033808
104	0xbf9c398b	-1.2205061
105	0x3e5b7024	0.21429497
106	0x3f41dc4c	0.7572677
107	0xbe0a4a4f	-0.13504909
108	0xbe2a90b1	-0.16656758
109	0xbe1a6958	-0.15079248
110	0x3f30e2ca	0.6909605
111	0xbe3bc5ff	-0.18337248
112	0x3ea7d6a8	0.32780957
113	0x3d66d7ce	0.05635815
114	0xbf1930d8	-0.59840155
115	0x3d18d6c5	0.037314195
116	0x3e252521	0.16127445
117	0x3e29e3f6	0.16590866
118	0x3d9f4804	0.07777408
119	0xbdd504d6	-0.10401313
120	0x3dbf408e	0.09338485
121	0x3e660dcd	0.22466202
122	0xbdeb6e70	-0.11495674
123	0xbca2dfbe	-0.01988208
124	0xbce6be26	-0.028166842
125	0x3d25c7a9	0.040473614
126	0xbda3d895	-0.08000294
127	0x3e288643	0.16457467
128	0x3f2ffe23	0.68747157
129	0x3f7921a7	0.97316974
130	0xbe20c239	-0.1569909
131	0xbeeadab5	-0.45869985
132	0x3e1e7f83	0.1547833
133	0x3eca4af7	0.3951032
134	0xbf5b1e9b	-0.85593575
135	0xbe584b7d	-0.21122546
136	0x3e256b5a	0.16154233
137	0x3d0bb7eb	0.034110945
138	0xbcc349be	-0.023838874
139	0x3bbd16cb	0.0057705394
140	0xbcc27337	-0.02373658
141	0x3d75942a	0.059955753
142	0x3d5e5484	0.05427982
143	0xbd94356e	-0.072367534
144	0x3c5960c5	0.013267701
145	0x3e379412	0.17927578
146	0x3dbff6c4	0.09373239
147	0xbde9b871	-0.114121325
148	0x3d285c59	0.041103695
149	0x3da16a82	0.07881643
150	0x3db5c2ab	0.088750206
151	0xbe7506d7	-0.2392839
152	0x3c537fa1	0.012908847
153	0xbbe86ce0	-0.007093057
154	0xbc2a8055	-0.010406573
155	0xbe38696f	-0.1800897
156	0xbdbd7427	-0.0925067
157	0x3b115410	0.002217535
158	0x3db75ef0	0.08953655
159	0xbdb08e14	-0.08620849
160	0xbd142639	-0.036169264
161	0xbe0d2621	-0.13784076
162	0x3c1b5f9b	0.009483243
163	0xbdee5933	-0.11638107
164	0x3e23ea15	0.16007264
165	0xbd80b321	-0.06284166
166	0x3d4d5f5c	0.05013977
167	0xbd29d698	-0.04146442
168	0xbb85a25b	-0.004078192
169	0xbc9d7978	-0.01922296
170	0x3cc86c93	0.024465835
171	0xbd9ffb38	-0.07811588
172	0xbc78742b	-0.015164415
173	0x3daee2f2	0.0853938
174	0x3ce68c7c	0.02814316
175	0xbe683b29	-0.22678818
176	0xbaa19f76	-0.0012330848
177	0xbc3f6955	-0.011682828
178	0xbc0cb600	-0.008588314
179	0xbd919f52	-0.07110466
180	0x3e7223e5	0.23646505
181	0x3ce11b7b	0.027478924
182	0xbcaa651c	-0.020800166
183	0x3c36f52e	0.011166854
184	0x3db75bcc	0.08953056
185	0xbe055c1f	-0.13023423
186	0xbb9a2692	-0.004704305
187	0x3bd2958a	0.006426518
188	0x3e725ecc	0.23668975
189	0xbe205ff4	-0.15661603
190	0xbd26ff83	-0.04077102
191	0x3d8e8517	0.069589786
192	0x39f1284d	0.00045997128
193	0xbd4c91d2	-0.049943753
194	0xbd3eaabd	-0.046549547
195	0xbc5bb2cc	-0.013409328
196	0x3bc15ef7	0.0059012133
197	0x3dc20e19	0.09475345
198	0xbcdfc999	-0.027317809
199	0xbe8cb72c	-0.274835
200	0x3d9e877f	0.077406876
201	0x3dc93ee7	0.09826451
202	0x3d85daea	0.06535895
203	0xbd59b7ea	-0.05315391
204	0x3ea67ff8	0.32519507
205	0x3e791827	0.2432562
206	0xbd231fe8	-0.03982535
207	0xbc9d7297	-0.01921968
208	0x3ce07f26	0.02740438
209	0x3c074d2b	0.008258144
210	0x3cc763bb	0.024339547
211	0xbc627895	-0.013822694
212	0x3cfb75ff	0.030695913
213	0xbb9f66db	-0.0048645562
214	0xbc83d114	-0.016090907
215	0xbd698523	-0.057011735
216	0xbd40c3ba	-0.04706166
217	0x3cab0374	0.02087567
218	0x3da83564	0.082133085
219	0xbe43fa7f	-0.19138525
220	0x3d1719ba	0.03688977
221	0x3db5fdbb	0.08886286
222	0xbc9f7e6c	-0.019469462
223	0xbdaadf29	-0.08343346
224	0xbc7f603c	-0.015586909
225	0x3b09e114	0.0021038698
226	0x3d261a5d	0.040552486
227	0xbdd07725	-0.10178975
228	0xbd1bce47	-0.03803852
229	0x3d8e628b	0.06952389
230	0x3b8e1335	0.0043357858
231	0xbd71a53d	-0.058995474
232	0x3d94afe2	0.072601095
233	0xbddff831	-0.10936011
234	0xbd45a612	-0.04825408
235	0x3d85cf54	0.06533685
236	0x3d06bc01	0.03289414
237	0xbe286439	-0.16444482
238	0x3d43eef0	0.04783529
239	0x3d84d694	0.0648624
240	0x3dd68023	0.10473659
241	0xbe02d04b	-0.1277477
242	0x3c227e16	0.009917757
243	0x3d2db351	0.042407338
244	0xbd8f7318	-0.07004374
245	0xbc8f2b55	-0.017476717
246	0x3c4b8d6e	0.012423856
247	0x3bf0f73d	0.007353692
248	0xbcc18858	-0.023624584
249	0xbb9c7b44	-0.0047754366
250	0xbd311c7e	-0.043240063
251	0xbcb1c121	-0.021698536
252	0xbd3b5ac7	-0.04574087
253	0x3d1733ff	0.03691482
254	0x3d05a08a	0.032623805
255	0x3da2a9fc	0.07942578

bias f4 [32]
0	0x3d2898f3	0.04116149
1	0x3db2470f	0.087049596
2	0x3dd2aa5c	0.102864
3	0x3daeb067	0.0852974
4	0x3e0a842c	0.13526982
5	0xbd92f5bc	-0.07175776
6	0x3c6430cf	0.0139276525
7	0xbbd6601e	-0.00654222
8	0x3d01d1ae	0.031694107
9	0xbc29908f	-0.010349407
10	0x3cebd804	0.028789528
11	0x3db0e1aa	0.08636792
12	0x3c8dddeb	0.017317733
13	0x3de7e94e	0.11323796
14	0xbe6c7b8d	-0.23094006
15	0x3d59f207	0.05320933
16	0xbc464a07	-0.01210261
17	0xbda735b8	-0.08164543
18	0x3e3036d1	0.17208411
19	0x3d3a14dd	0.045430053
20	0x3b146227	0.0022641511
21	0xbe28e4c3	-0.16493516
22	0x3dd50a09	0.10402305
23	0x3d760dfa	0.060071923
24	0xbe0a1415	-0.13484223
25	0x3d08a26b	0.03335802
26	0x3daaf5ea	0.08347686
27	0xbbdff6ac	-0.0068348255
28	0xbe3b1362	-0.18269113
29	0x3e2faac9	0.17154993
30	0x3e1d3242	0.15351203
31	0x3d984142	0.07434322

weight f4 [8, 32]
0	0x3c2d6089	0.010582098
1	0xbe19f32e	-0.15034172
2	0x3bdcb791	0.00673575
3	0x3dd7128f	0.10501587
4	0xbec0c055	-0.37646738
5	0xbc791536	-0.015202811
6	0xbd9c7aa1	-0.07640577
7	0xbba2e53f	-0.004971176
8	0xbd221a30	-0.039575756
9	0x3d8ee7ae	0.06977783
10	0xbe27205b	-0.16320936
11	0x3e4c2afe	0.19938275
12	0x3db70b12	0.08937658
13	0xbd6e2d41	-0.058148626
14	0x3d6a19b8	0.057153434
15	0x3d0059b2	0.03133554
16	0xbd8b6611	-0.06806577
17	0xbf028366	-0.5098175
18	0x3a9cdb66	0.0011967241
19	0x3e03a0fb	0.12854378
20	0xbdaa49da	-0.08314867
21	0xbe763c3c	-0.24046415
22	0xbe11c8f3	-0.14236812
23	0xbc5efc1f	-0.013609915
24	0xbe3cfd3a	-0.18455973
25	0x3e207284	0.15668684
26	0x3e5e655a	0.2171835
27	0xbde5cd7c	-0.11220834
28	0x3e731b20	0.23740816
29	0x3e624889	0.22097982
30	0x3e523942	0.20529655
31	0xbe0205d5	-0.12697537
32	0x3e78b64e	0.24288294
33	0x3e94f114	0.29090178
34	0xbf64c6ee	-0.8936604
35	0x3e503adc	0.20334953
36	0x3e01f447	0.1269084
37	0xbe8f98eb	-0.28046355
38	0xbd8e2513	-0.06940665
39	0x3cead650	0.028666645
40	0xbe29cb91	-0.1658156
41	0xbcd894bb	-0.026438108
42	0x3e9b55a5	0.3033878
43	0x3d905996	0.07048337
44	0x3d9bbf43	0.0760484
45	0x3f0ff21a	0.5622879
46	0xbe241408	-0.16023266
47	0x3eff9033	0.49914703
48	0xbf18ecf6	-0.59736574
49	0xbf4d42d6	-0.8018011
50	0x3e7d7456	0.2475141
51	0x3e975c5f	0.2956266
52	0x3d635e74	0.05551
53	0xbd987f18	-0.07446116
54	0x3d0db16b	0.034593027
55	0x3e9bfb03	0.30464944
56	0xbe78f0bb	-0.24310581
57	0xbda126cf	-0.0786873
58	0xbe9e71ca	-0.3094619
59	0x3ea16fc9	0.31530598
60	0xbe8870c2	-0.26648527
61	0x3e2c276a	0.1681191
62	0x3e8cf0f0	0.2752757
63	0x3ea2be2e	0.3178572
64	0x3e519f52	0.20470932
65	0xbdef89b4	-0.11696187
66	0xbeb2f249	-0.34950474
67	0xbe2a4c5c	-0.16630691
68	0x3ead90a0	0.33899403
69	0xba4228a1	-0.0007406567
70	0x3ec416c7	0.38298628
71	0xbd066d0c	-0.03281884
72	0x3ea445f4	0.3208462
73	0x3e5b2603	0.21401219
74	0x3dee1357	0.116247825
75	0x3e4103ef	0.18849157
76	0xbe5b608d	-0.2142355
77	0xbd45e9bb	-0.048318606
78	0x3d8135dd	0.06309102
79	0xbe40a8d7	-0.18814407
80	0xbc7c5a14	-0.015402336
81	0x3ea2eb5a	0.31820184
82	0x3e941c78	0.2892797
83	0xbdd75f06	-0.10516171
84	0x3e0d5252	0.13800934
85	0xbe5568c8	-0.20840752
86	0x3ebfd9b4	0.37470782
87	0x3db16440	0.08661699
88	0xbde01eb6	-0.10943358
89	0xbcf1157c	-0.02942919
90	0x3f273d19	0.653276
91	0xbe5f5c65	-0.2181259
92	0xbebf2b3a	-0.37337667
93	0xbc620778	-0.013795726
94	0x3ccb1bf0	0.024793595
95	0x3e9b3fb8	0.3032205
96	0x3dab382f	0.083603255
97	0x3ecc611a	0.39917833
98	0xbef815e1	-0.48454192
99	0xbdfe3960	-0.12413287
100	0x3d1395c4	0.0360315
101	0xbf3ad37d	-0.72978956
102	0x3ea34849	0.31891087
103	0xbe8c44ee	-0.2739634
104	0xbe37cd6e	-0.17949459
105	0x3f22e1b3	0.6362564
106	0x3ecddf62	0.4020949
107	0x3eedf576	0.46476334
108	0xbe5069a6	-0.20352802
109	0xbe7a9e24	-0.24474388
110	0xbe0e16f6	-0.13875946
111	0xbf3f5050	-0.7473192
112	0x3de7149b	0.11283227
113	0x3c27d103	0.010242703
114	0x3e4d4b13	0.2004817
115	0x3f17abbd	0.59246427
116	0xbdac110e	-0.084016904
117	0x3e15cf9b	0.14629976
118	0xbe484c69	-0.19560398
119	0xbeb3fa6e	-0.35152
120	0xbeff9caa	-0.49924213
121	0xbef31d6d	-0.47483388
122	0x3d91cfbf	0.071197025
123	0x3e9913eb	0.2989801
124	0x3e4054df	0.18782376
125	0x3bc5b8c3	0.006033988
126	0xbe174d74	-0.1477564
127	0x3e97bfee	0.29638618
128	0x3f6750d7	0.90357727
129	0xbe860735	-0.26177374
130	0xbf8da363	-1.1065487
131	0xbe6faa91	-0.2340491
132	0x3d8ac5d7	0.06776016
133	0x3e870b2b	0.26375708
134	0x3eab3ad5	0.33443323
135	0xbe7f544b	-0.24934499
136	0x3ce4099c	0.027836613
137	0x3ecc2dd4	0.39878714
138	0x3dd4ff46	0.10400252
139	0x3d2bed29	0.04197422
140	0xbe8b0388	-0.27151132
141	0x3db29dd5	0.0872151
142	0xbe1f9a65	-0.1558624
143	0x3d53afc9	0.051681314
144	0xbd94c3bb	-0.07263895
145	0xbe2e14dc	-0.17000145
146	0x3e816f43	0.25280198
147	0xbe098298	-0.13428724
148	0x3d955b47	0.072928004
149	0xbd59c372	-0.053164907
150	0x3e888d8d	0.26670495
151	0x3cc695df	0.024241386
152	0xbe7cca79	-0.24686612
153	0x3ed4aeb4	0.41539538
154	0x3da07816	0.078354046
155	0x3c4d73e6	0.012539839
156	0xbf7d850a	-0.99031126
157	0xc010011f	-2.2500684
158	0xbe33316b	-0.1749932
159	0x3d918b97	0.07106703
160	0xbd1748db	-0.036934715
161	0x3e384890	0.1799643
162	0xbe12f2cd	-0.14350434
163	0x3e9a1703	0.30095682
164	0x3e38fb80	0.1806469
165	0xbd51a240	-0.051180124
166	0xbc58532d	-0.013203424
167	0x3dc23cb2	0.09484233
168	0x3e0f3ecb	0.13988797
169	0xbe552126	-0.20813426
170	0x3e4058ba	0.18783846
171	0x3dd710ce	0.10501252
172	0x3f1b0fc4	0.6057093
173	0x3ecd12b4	0.40053332
174	0xbd43be17	-0.047788706
175	0x3f4f3825	0.80945045
176	0x3dea9678	0.11454481
177	0xbe1d97bc	-0.15389913
178	0x3e13d207	0.14435588
179	0x3e98d094	0.29846632
180	0x3dad39f7	0.084583215
181	0x3ccadb1b	0.02476268
182	0x3c643bbc	0.013930257
183	0x3e046d56	0.12932333
184	0xbcf1db07	-0.029523386
185	0xbeb96c30	-0.36215353
186	0xbd3c395c	-0.04595314
187	0xbcdd1bfa	-0.02699088
188	0xbe957f3d	-0.29198638
189	0x3e40e348	0.18836701
190	0x3e320d66	0.17387924
191	0x3e4d7659	0.20064677
192	0x3c3f873b	0.011689956
193	0x3dd33374	0.10312548
194	0x3c318815	0.010835667
195	0x3dea9bbc	0.11455485
196	0x3e9a746e	0.30166954
197	0xbc499b42	-0.012305083
198	0x3d17c095	0.037048895
199	0x3cd49837	0.025951488
200	0x3e3b4c79	0.18290891
201	0xbd9025b4	-0.07038441
202	0xba1b2536	-0.00059183256
203	0x3de3dd34	0.111261755
204	0x3d05f448	0.032703668
205	0x3bd7dee0	0.006587848
206	0xbe82d83e	-0.25555605
207	0xbc99294c	-0.01869645
208	0xbd26bdab	-0.040708225
209	0x3b181e0d	0.002321127
210	0x3e2e6011	0.17028834
211	0x3d73fb6d	0.05956595
212	0x3d4fc7fc	0.05072783
213	0xbe1c7f1d	-0.15282865
214	0x3e1019e5	0.14072378
215	0x3d9d5c23	0.07683589
216	0xbe0618be	-0.13095376
217	0x3ca1b307	0.019738687
218	0x3e700a52	0.23441437
219	0x3d3ad246	0.04561069
220	0x3c08cd19	0.00834968
221	0x3cab8058	0.020935223
222	0x3c9d7bb4	0.019224025
223	0x3e575994	0.21030265
224	0xbeb82d72	-0.35972172
225	0x3eb03342	0.34414107
226	0x3f44794d	0.7674759
227	0x3eba2ab7	0.36360714
228	0xbe2e307f	-0.17010687
229	0xbf1c5043	-0.6105997
230	0x3e520b04	0.20512015
231	0xbe756ea5	-0.23967989
232	0xbd11d28c	-0.035601184
233	0xbccacd5c	-0.024756126
234	0x3ed4974c	0.4152168
235	0x3ed2f592	0.4120298
236	0x3bbdedb0	0.005796157
237	0x3e3c028d	0.18360348
238	0xbef239f6	-0.47309846
239	0x3d9c888e	0.07643233
240	0x3d254614	0.040350035
241	0xbc8cb683	-0.017176872
242	0x3ebfe1e5	0.3747703
243	0xbe2f5363	-0.17121653
244	0xbd856aad	-0.065144874
245	0xbe706cd0	-0.23479009
246	0x3e001560	0.12508154
247	0xbeb2d356	-0.34926862
248	0xbef2c31f	-0.4741449
249	0xbedd9e35	-0.43284765
250	0x3b98c85a	0.0046625556
251	0x3dc9fedb	0.09863063
252	0xbf1fcd34	-0.6242249
253	0xbd5da036	-0.054107867
254	0x3ecb5b48	0.3971808
255	0xbd9ce202	-0.07660295

bias f4 [8]
0	0x3d7ba369	0.061435137
1	0x3e9c636b	0.305446
2	0x3d74f4a4	0.05980362
3	0x3d0d3a42	0.034479387
4	0xbd4c8af6	-0.04993721
5	0xbdf162d8	-0.11786431
6	0x3e36c4e1	0.17848541
7	0x3e5b8b58	0.21439874

weight f4 [4, 1]
0	0xbf626eb7	-0.8845019
1	0xbe405868	-0.18783724
2	0xbe6dc98a	-0.23221412
3	0x3f2d4bbf	0.67693704

bias f4 [4]
0	0x3f49b856	0.787969
1	0x3d510881	0.0510335
2	0xbf92b73a	-1.1462166
3	0xbf3c0c0d	-0.7345589

pe f4 [1, 8, 4]
0	0x00000000	0.0
1	0x3f800000	1.0
2	0x00000000	0.0
3	0x3f800000	1.0
4	0x3f576aa4	0.84147096
5	0x3f0a5141	0.54030234
6	0x3c23d657	0.009999833
7	0x3f7ffcb9	0.99995
8	0x3f68c7b7	0.9092974
9	0xbed51133	-0.41614684
10	0x3ca3d43e	0.019998666
11	0x3f7ff2e5	0.9998
12	0x3e1081c3	0.14112
13	0xbf7d7026	-0.9899925
14	0x3cf5b91f	0.0299955
15	0x3f7fe283	0.99955004
16	0xbf41bdcf	-0.7568025
17	0xbf275530	-0.6536436
18	0x3d23cbdb	0.039989334
19	0x3f7fcb94	0.9992001
20	0xbf757c10	-0.9589243
21	0x3e913c2c	0.2836622
22	0x3d4cb6f4	0.049979165
23	0x3f7fae19	0.99875027
24	0xbe8f0f8c	-0.2794155
25	0x3f75cdb8	0.96017027
26	0x3d759cd1	0.059964005
27	0x3f7f8a12	0.99820054
28	0x3f283046	0.6569866
29	0x3f40ffbd	0.75390226
30	0x3d8f3e32	0.06994285
31	0x3f7f5f81	0.997551

weight f4 [4, 4]
0	0xbe56a4a8	-0.20961249
1	0xbe0a86d6	-0.13527998
2	0x3e9587bf	0.2920513
3	0xbe7a77a3	-0.244597
4	0x3e2da46e	0.16957256
5	0xbe893d8e	-0.26804775
6	0xbcdab0b5	-0.026695589
7	0x3edf3d50	0.43601465
8	0xbc885513	-0.016642129
9	0x3b3d377d	0.0028872185
10	0x3c5d37c2	0.013502063
11	0xba89350a	-0.0010468077
12	0xbe85deab	-0.26146445
13	0x3e68c221	0.22730304
14	0xbed3c489	-0.41360882
15	0xbeba352f	-0.363687

weight f4 [4, 4]
0	0x3d1d8619	0.038457964
1	0xbee8a473	-0.45437965
2	0xbf1548c6	-0.5831417
3	0xbde46c52	-0.11153473
4	0x3e0ef5c7	0.13960944
5	0x3e98d26a	0.29848033
6	0xbf161543	-0.5862619
7	0xbe500078	-0.20312679
8	0x3ea165c0	0.31522942
9	0xbe728656	-0.23684058
10	0x3eee3efc	0.46532428
11	0x3ef088f5	0.4697949
12	0xbea61cf7	-0.32443973
13	0xbe98e42d	-0.29861584
14	0xbeea4131	-0.45752862
15	0xbe2c05ff	-0.16799162

weight f4 [4, 4]
0	0xbea0ca17	-0.31404182
1	0xbd895cd9	-0.067071624
2	0xbdcbeaf7	-0.09956925
3	0xbea3fab5	-0.32027212
4	0x38af27b0	8.352043e-05
5	0x3f1c6827	0.61096424
6	0xbf357f57	-0.7089743
7	0x3e27587a	0.16342345
8	0xbe389655	-0.18026097
9	0xbd6ec256	-0.058290802
10	0xbe4f08e5	-0.20218237
11	0xbea15f4b	-0.31518015
12	0x3e3d3d9e	0.18480536
13	0x3982e846	0.0002496859
14	0xbeb1558b	-0.34635577
15	0xbeeb6a35	-0.45979467

weight f4 [4, 4]
0	0x3dcb10da	0.099153236
1	0x3f0ebebe	0.557598
2	0xbdc793a5	-0.09744958
3	0x3e5abdcf	0.21361469
4	0x3e619d71	0.22032715
5	0xbe084951	-0.13309218
6	0xbdc7c4d1	-0.097543366
7	0x3f0b4830	0.54407024
8	0x3e5a73d6	0.2133325
9	0xbeb1bb0d	-0.3471302
10	0xbdc82731	-0.097731
11	0xbccbb0a8	-0.02486451
12	0x3e7c7c97	0.24656902
13	0xbe8914d8	-0.26773715
14	0xbdccf10b	-0.10006913
15	0xbcd83d1a	-0.026396323

bias f4 [4]
0	0x3f2edf54	0.6830952
1	0xbeb936d4	-0.36174643
2	0xbd106987	-0.03525689
3	0xbdb88e94	-0.090115696

weight f4 [4, 4]
0	0x3eb8c486	0.36087435
1	0xbe9c7850	-0.3056054
2	0xbf13e58c	-0.57772136
3	0x3eb0d990	0.34540987
4	0x3eeba990	0.46027803
5	0xbd21e104	-0.039521232
6	0x3f2598a1	0.6468602
7	0xbe8e2abd	-0.27766982
8	0x3f0ef349	0.55839974
9	0x3e5364ab	0.2064387
10	0x3ecea075	0.40356794
11	0xbf933900	-1.150177
12	0xbd9f7043	-0.07785084
13	0xbc8094d5	-0.015695969
14	0x3f310799	0.6915222
15	0xbdd0256c	-0.10163388

bias f4 [4]
0	0xbe1db401	-0.15400697
1	0x3ee8df3c	0.45482814
2	0x3e18593b	0.14877789
3	0xbeddc5fd	-0.43315116

weight f4 [4, 4]
0	0x3f08b04f	0.53394026
1	0xbded1264	-0.11575773
2	0xbe80425e	-0.25050634
3	0xbde01638	-0.10941738
4	0xbe8220c2	-0.25415617
5	0x3f018243	0.5058939
6	0x3f005966	0.5013641
7	0xbef92587	-0.48661444
8	0xbe68145a	-0.22664014
9	0x3ea35b2c	0.31905496
10	0x3f1c7511	0.6111613
11	0xbe91d8b2	-0.28485638
12	0x3e620dea	0.2207562
13	0xbeab7703	-0.33489236
14	0x3e3974c5	0.1811095
15	0x3e44b38d	0.19209118

bias f4 [4]
0	0x3e7428ce	0.23843691
1	0x3ee5c46d	0.44876423
2	0xbe94ab86	-0.29037112
3	0xbf4428c4	-0.76624703

weight f4 [4]
0	0x3fb06a85	1.3782507
1	0x3f70bf2b	0.940417
2	0x3f78f465	0.97247916
3	0x3f3786f3	0.7169029

bias f4 [4]
0	0xbd98b96a	-0.0745724
1	0x3da792e9	0.08182318
2	0x3dfeb731	0.12437285
3	0xbef224c7	-0.47293684

weight f4 [4]
0	0x3f8e809b	1.1132997
1	0x3f7c27c7	0.98498195
2	0x3f74c5bc	0.9561422
3	0x3f67213b	0.9028508

bias f4 [4]
0	0x3e0d6a2c	0.13810033
1	0x3cbc2b2d	0.022969807
2	0x3dc8fcd0	0.09813845
3	0xbea194e2	-0.315589

weight f4 [4, 4]
0	0x3e1da0bd	0.15393348
1	0xbe8b6d23	-0.27231702
2	0xbf545ea7	-0.8295693
3	0x3f01671c	0.5054796
4	0x3eaf17be	0.341978
5	0x3eba423f	0.36378667
6	0xbe0e0618	-0.13869512
7	0xbbd47ee0	-0.0064848512
8	0xbe0c4f56	-0.1370214
9	0xbdff551c	-0.12467405
10	0x3f642430	0.8911772
11	0xbf281c55	-0.6566823
12	0x3e0e494c	0.13895148
13	0x3f527eac	0.82224536
14	0xbca4a9ed	-0.020100558
15	0xbeb083cf	-0.34475562

weight f4 [4, 4]
0	0xbd242e69	-0.040083323
1	0xbd17b443	-0.037037145
2	0x3fe6aa4c	1.802072
3	0xbe93a009	-0.28833035
4	0xbec34422	-0.3813792
5	0xbe38eb1c	-0.18058437
6	0x3e71fea3	0.23632292
7	0x3e7309cd	0.23734207
8	0x3c9d1458	0.01917474
9	0xbdcc4fb2	-0.09976138
10	0xbfcf0dc7	-1.617608
11	0x3e61ab85	0.22038086
12	0xbebfb93c	-0.3744601
13	0x3f410e99	0.754129
14	0xbf47df5c	-0.78075194
15	0xbea63e9e	-0.32469648

weight f4 [4, 4]
0	0xbe967709	-0.29387692
1	0x3eacf07e	0.3377723
2	0xbd9355ee	-0.07194124
3	0xbe977859	-0.29584005
4	0x3a49995f	0.00076903956
5	0xbf288103	-0.65821856
6	0xbecc6014	-0.39917052
7	0x3f00b417	0.50274795
8	0x3e1b6762	0.15176156
9	0xbe55ace3	-0.20866732
10	0x3d535c6f	0.051601823
11	0xbdeabc4e	-0.114616975
12	0xbf4d4c7c	-0.8019483
13	0x3edd996d	0.43281117
14	0xbdde12fc	-0.10843465
15	0xbd9f2f13	-0.077726506

weight f4 [4, 4]
0	0xbddc9862	-0.10771252
1	0x3dd982dc	0.106206626
2	0x3e2a0f66	0.16607437
3	0x3e4b7d72	0.19872072
4	0xbf0be68e	-0.54648674
5	0x3f0ae2f5	0.5425256
6	0xb999213c	-0.00029207196
7	0xbdb93ad2	-0.09044422
8	0xbee518df	-0.44745538
9	0x3d2c44e5	0.04205789
10	0x3e3a9845	0.18222149
11	0xbeb82adf	-0.35970208
12	0xbe39c501	-0.18141557
13	0xbeb4b4de	-0.3529424
14	0x3e78355b	0.24239103
15	0xbe992916	-0.2991416

bias f4 [4]
0	0xbec9678c	-0.39336812
1	0x3ed59e9d	0.41722575
2	0x3e4c29d6	0.19937834
3	0xbf029200	-0.5100403

weight f4 [4, 4]
0	0xbef05098	-0.46936488
1	0x3e1a9f90	0.15099931
2	0xbf5d883c	-0.86536
3	0x3f59d33d	0.8508795
4	0x3e449d9e	0.19200751
5	0x3f40a781	0.7525559
6	0xbf579ff4	-0.84228444
7	0xbe991afc	-0.299034
8	0x3f5cdbd0	0.8627291
9	0xbfc6453b	-1.5489877
10	0xc02945f8	-2.6448956
11	0x3f5781e9	0.841826
12	0xbeae919e	-0.34095472
13	0x3f036804	0.5133059
14	0x3f2e7461	0.6814633
15	0xbf7025ed	-0.9380787

bias f4 [4]
0	0x3e3157ea	0.17318693
1	0xbece7247	-0.40321562
2	0x3f55e5c3	0.83553714
3	0x3eb97178	0.36219382

weight f4 [4, 4]
0	0xbfd7ffab	-1.6874899
1	0x3f70cb9d	0.9406069
2	0x3eb342db	0.35011944
3	0x3ea8e3c9	0.32986286
4	0x3f7a2093	0.97705954
5	0xbf6272d5	-0.8845647
6	0xbcc10e82	-0.023566488
7	0xbf9ec8de	-1.240505
8	0xbf30374c	-0.68834376
9	0xbe410b51	-0.18851973
10	0xbfba336b	-1.4546942
11	0x3d790aed	0.060801435
12	0x3f66c529	0.9014459
13	0x3ea46988	0.32111764
14	0xc05a9fb6	-3.415998
15	0xbeddd086	-0.43323153

bias f4 [4]
0	0xbf09ffff	-0.53906244
1	0x3e2e4a15	0.17020448
2	0x3e70851c	0.23488277
3	0x3f235413	0.6380016

weight f4 [4]
0	0x3f8668d6	1.0500743
1	0x3f8983a0	1.0743294
2	0x3f68bc18	0.9091201
3	0x3f64fb93	0.8944637

bias f4 [4]
0	0xbf23f44b	-0.64044636
1	0x3de042ce	0.10950242
2	0x3e844b47	0.25838682
3	0xbede5390	-0.43423128

weight f4 [4]
0	0x3f25b74d	0.6473282
1	0x3fc5faeb	1.5467199
2	0x401b4992	2.4263654
3	0x3fa952f4	1.322844

bias f4 [4]
0	0x3e3a950e	0.18220922
1	0xbedd5a10	-0.43232775
2	0x3ce1be00	0.02755642
3	0x3cfe388a	0.03103282

weight f4 [8, 32]
0	0x3ec34079	0.38135126
1	0xbdede27e	-0.116154656
2	0x3d9052c7	0.070470385
3	0xbe0d5c42	-0.13804725
4	0xbf985078	-1.1899557
5	0xbeec6a72	-0.4617496
6	0x3e547c08	0.20750439
7	0x3f2a876b	0.6661288
8	0x3d3b7994	0.045770243
9	0x3f164bc7	0.5870938
10	0x3f6f2a30	0.9342375
11	0xbf957419	-1.1676055
12	0x3f1152ee	0.56767166
13	0x3f327873	0.6971504
14	0x3e33f7e4	0.17575032
15	0xbe989806	-0.29803485
16	0x3eefdbb4	0.46847308
17	0x3e9ba62f	0.30400226
18	0x3ea84005	0.32861343
19	0xbf51e1d0	-0.8198519
20	0x3f020e0b	0.5080268
21	0xbfb93d6b	-1.4471868
22	0xbedd2b9c	-0.43197334
23	0x3eb83e3a	0.35984975
24	0xbe8c8636	-0.27446145
25	0xbe674b21	-0.22587253
26	0x3f520cff	0.8205108
27	0x3f23056f	0.63680166
28	0x3e5d92d1	0.21638037
29	0xbe80ac69	-0.2513154
30	0xbe958b0c	-0.29207647
31	0x3e9f9a78	0.31172538
32	0x3e132b8d	0.14372082
33	0xbed22101	-0.41040805
34	0x3e9c7536	0.30558175
35	0xbda19d9a	-0.07891388
36	0xbd349c38	-0.044094294
37	0xbcc34c51	-0.023840101
38	0x3d0f8463	0.035038363
39	0xbd021747	-0.03176048
40	0xbde7833c	-0.11304328
41	0xbd54003d	-0.05175804
42	0x3db5f221	0.08884073
43	0xbdb6dc21	-0.08928705
44	0x3d0f72cb	0.035021584
45	0x3cc51e68	0.02406235
46	0x3a9a2149	0.0011759187
47	0xbc988e2c	-0.01862248
48	0x3dbf1333	0.09329834
49	0x3d48148b	0.048847716
50	0x3dde776d	0.108626224
51	0x3d2400a7	0.040039685
52	0x3e77ca74	0.24198323
53	0xbd8ba95d	-0.06819413
54	0xbdb98e3c	-0.09060332
55	0xbd66b65b	-0.05632625
56	0xbe984378	-0.29738975
57	0x3d76da4f	0.06026679
58	0x3ecdf65c	0.4022702
59	0x3e3719bd	0.17880912
60	0xbdfc66d4	-0.123243004
61	0xbda30af6	-0.07961075
62	0xbd9c61d9	-0.076358505
63	0xbcf43c40	-0.029813886
64	0xbe54b3bb	-0.20771687
65	0x3d507402	0.050891884
66	0x3f05b7d2	0.5223361
67	0x3e0bc8c6	0.13650808
68	0xbc0b8e99	-0.008517885
69	0xbda5a89d	-0.08088801
70	0xbcf798f1	-0.030224295
71	0x3d3e4912	0.046456404
72	0xbbb1a8f2	-0.005421751
73	0x3d6fa219	0.058504198
74	0x3c9a16f3	0.018809771
75	0x3c31f025	0.010860478
76	0x3efcf807	0.4940798
77	0xbf58b9af	-0.8465833
78	0x3e500568	0.20314562
79	0xbe980b93	-0.2969633
80	0xbd10805c	-0.035278663
81	0xbc3c137f	-0.011479258
82	0xbd8ba488	-0.06818491
83	0xbbc36d3f	-0.005963951
84	0xbd5c78a9	-0.053826008
85	0xbe493807	-0.19650279
86	0x3d39fb3d	0.045405615
87	0xbe64eb79	-0.2235545
88	0x3e84c2fe	0.25930017
89	0xbda3d5c0	-0.07999754
90	0xbdbb073d	-0.0913224
91	0xbe112da4	-0.14177567
92	0x3ed8ab3d	0.42318144
93	0xbe5dddb0	-0.21666598
94	0xbfa31675	-1.2741228
95	0x3e9a744e	0.30166858
96	0x3d47656c	0.048680708
97	0xbd533b25	-0.051570076
98	0x3e522dea	0.20525327
99	0x3e357e73	0.17724018
100	0x3d4e6b94	0.050395563
101	0x3d4bb619	0.04973421
102	0x3d84dba7	0.06487208
103	0x3c622124	0.013801847
104	0xbdba0c69	-0.09084398
105	0xbbb91567	-0.0056483033
106	0x3cdd0992	0.026982103
107	0x3ab4edea	0.0013803814
108	0x3ce96da0	0.028494656
109	0xbe9fb3ed	-0.3119196
110	0xbcf01b72	-0.029309962
111	0x3e132517	0.14369617
112	0x3de00a92	0.10939516
113	0x3da4934b	0.080359064
114	0x3dd8da1c	0.10588476
115	0x3d6e3ace	0.05816155
116	0x3d5dde61	0.054167155
117	0x3eae97ba	0.34100133
118	0x3e4b5cbc	0.19859594
119	0xbdd5772e	-0.10423122
120	0x3cc017e2	0.023448888
121	0xbd5c91ef	-0.05385011
122	0xbd8f50ff	-0.06997871
123	0xbda386ec	-0.07984719
124	0xbe3d2124	-0.18469673
125	0xbe4e50d5	-0.20148022
126	0xbead9c9d	-0.3390855
127	0x3ef7a376	0.48366898
128	0xbca27616	-0.019831698
129	0x3da8c5d1	0.082408555
130	0xbf3b8f62	-0.7326566
131	0xbc4ec840	-0.0126209855
132	0x3def4304	0.11682704
133	0x3ea4e055	0.32202402
134	0x3f5ec848	0.87024355
135	0xbfaf27b3	-1.368399
136	0xbf3ed267	-0.745398
137	0xbee9bbb7	-0.45651028
138	0x3dbe54a7	0.0929349
139	0x3fb10165	1.382855
140	0x3cb26ea3	0.021781271
141	0x3eb89f98	0.3605926
142	0x3ea2a076	0.31763047
143	0xbec00731	-0.37505487
144	0xbf060766	-0.5235504
145	0x3eebe194	0.4607054
146	0x3f3b4b77	0.73162025
147	0x3bc0d84d	0.00588516
148	0x3cd92060	0.026504695
149	0x3faace5f	1.334423
150	0xbf29bae4	-0.663008
151	0xbea7f2a9	-0.32802323
152	0xbd72410e	-0.059144072
153	0xbd2cb82d	-0.04216783
154	0xbf8ba10f	-1.0908526
155	0x3eb23abd	0.3481044
156	0xbc8e3c19	-0.017362641
157	0xbe070bab	-0.13188045
158	0xbe17d779	-0.1482829
159	0xbda47a45	-0.080311336
160	0x3ddcc474	0.10779658
161	0xbdfd3926	-0.12364416
162	0xbecb9463	-0.39761648
163	0x3d9d6cbd	0.07686756
164	0xbdf9af7a	-0.121916726
165	0x3cebbaad	0.028775537
166	0x3f3ae553	0.7300617
167	0xbedfa82b	-0.4368299
168	0xbf0c9d10	-0.5492716
169	0x3decae5d	0.11556695
170	0x3f08c7af	0.53429693
171	0x3e8ec01a	0.27880937
172	0x3e352214	0.17688781
173	0xbf022182	-0.5083238
174	0xbf2c0fea	-0.6721178
175	0x3ed155f8	0.408859
176	0xbd940902	-0.072282806
177	0x3eb87e7b	0.36033997
178	0x3f5edf2f	0.870593
179	0xbea1195c	-0.3146466
180	0x3e9dbda9	0.30808762
181	0x3ebb234e	0.36550373
182	0xbf3d9707	-0.74058574
183	0xbebd2cee	-0.3694834
184	0xbe672964	-0.22574383
185	0xbe3b866d	-0.18312998
186	0xbeccf015	-0.40026918
187	0x3f0ff351	0.56230646
188	0xbdff21c0	-0.12457609
189	0x3d7214e5	0.059101958
190	0x3d54ad75	0.051923234
191	0x3e49f9ca	0.19724193
192	0x3e818dbf	0.25303456
193	0xbee47e3b	-0.44627556
194	0xbeaa5328	-0.33266568
195	0x3e99c150	0.30030298
196	0x3f6039b4	0.8758805
197	0xbf34355f	-0.7039394
198	0xbe92e374	-0.28689158
199	0x3b495f78	0.003072707
200	0xbf38fe13	-0.72262686
201	0x3f83d8d1	1.0300542
202	0x3d54c082	0.051941402
203	0x3e8726c8	0.26396775
204	0x3e458714	0.1928981
205	0x3ea9bee5	0.33153453
206	0x3d59bd06	0.053158782
207	0xbd9077b9	-0.07054085
208	0xbef18ad8	-0.47176242
209	0xbf623d5a	-0.88374865
210	0x3f3a3dd1	0.72750574
211	0x3e91b310	0.28456926
212	0x3ebe5205	0.3717195
213	0xbe213a3c	-0.15744871
214	0x3e92815b	0.28614315
215	0xbf09b9ba	-0.5379902
216	0xbe0515fd	-0.12996669
217	0xbe198a91	-0.14994265
218	0xbfd9d361	-1.7017633
219	0x3f161d0f	0.5863809
220	0xbbf767b6	-0.007550205
221	0x3eb3b72b	0.35100684
222	0x3e009fba	0.12560931
223	0xbe1e27fc	-0.1544494
224	0x3e99b567	0.30021212
225	0xbd37ab30	-0.04484099
226	0xbe169566	-0.14705428
227	0x3c9feba6	0.019521546
228	0x3d572b45	0.0525315
229	0x3f0ad8db	0.54237145
230	0xbe9e6da8	-0.30943036
231	0xbe7f05bb	-0.2490453
232	0x3d134cea	0.035962023
233	0x3d4e3217	0.05034074
234	0xbe835cc4	-0.25656712
235	0x3df13e34	0.117794424
236	0x3f0324e6	0.5122818
237	0x3e0dee21	0.1386037
238	0xbe6762fc	-0.22596353
239	0xbe74b1cf	-0.23895954
240	0xbe8a0d1c	-0.26963127
241	0xbf10ee23	-0.5661337
242	0x3f355ffa	0.70849574
243	0x3ecc9242	0.39955336
244	0x3e1baf63	0.15203623
245	0xbe2865d6	-0.16445097
246	0xbfae2de2	-1.3607752
247	0x3ebc0b78	0.367275
248	0xbed43db5	-0.4145333
249	0x3f17857b	0.5918805
250	0xbe201c40	-0.15635777
251	0xbe254173	-0.16138248
252	0x3eef86eb	0.46782622
253	0xbf68ece1	-0.9098645
254	0xbefb6a01	-0.49104312
255	0x3f31b4ec	0.6941669

bias f4 [8]
0	0x3df99f92	0.12188639
1	0xbdfb3827	-0.122665696
2	0x3d83318d	0.064059354
3	0x3d6fb366	0.058520697
4	0xbe665f99	-0.22497405
5	0x3ddc9cfa	0.107721284
6	0xbd2c09d6	-0.042001568
7	0xbd3b34af	-0.04570454

weight f4 [34, 4]
0	0xbdcdc54f	-0.10047399
1	0x3e1f4b41	0.15556051
2	0x3c807b35	0.01568375
3	0x3da9984e	0.08281003
4	0xbf246bd0	-0.6422701
5	0x3f91d3d8	1.1392775
6	0x3e3a3f8e	0.18188307
7	0x3d7d648b	0.061863463
8	0xbe8babbf	-0.2727947
9	0x3fdea722	1.7394755
10	0xbe47a199	-0.19495238
11	0x3ee2acaa	0.44272357
12	0xbe6046f2	-0.21902063
13	0x402f01ce	2.7344851
14	0xbf73b301	-0.95195013
15	0xbf595956	-0.8490194
16	0xbfd83258	-1.6890364
17	0xbfabec3a	-1.3431466
18	0xbf4d8492	-0.8028041
19	0x40028874	2.0395784
20	0xbdc838dc	-0.0977647
21	0x3f98053a	1.1876595
22	0x3e947bff	0.29000852
23	0xbe9cd0c4	-0.30628026
24	0x3c56a4e1	0.013100834
25	0x3f110c9e	0.5665988
26	0x3f31bd4c	0.6942947
27	0xbecb6fb6	-0.39733666
28	0x3d97b33d	0.07407234
29	0xbe12895a	-0.14310208
30	0x3f83443b	1.0255197
31	0xbe944e00	-0.2896576
32	0xbee95cf4	-0.4557873
33	0xbf28dd95	-0.6596311
34	0x3fb751cb	1.4321836
35	0xbeebd88f	-0.4606366
36	0xc01d9c77	-2.4626749
37	0xbf7990fb	-0.9748685
38	0x3e97a761	0.29619887
39	0xbed36c9c	-0.412938
40	0xbe87e7b0	-0.2654395
41	0x3fae7908	1.3630686
42	0xbe7c0ec3	-0.24615006
43	0xbf2383dc	-0.63873076
44	0xbe97942d	-0.29605237
45	0xbfa230f1	-1.2671186
46	0x3f8b8c80	1.0902252
47	0x401213fb	2.2824695
48	0xbdcf202f	-0.101135604
49	0xc0366711	-2.8500407
50	0xc04a506e	-3.161159
51	0x3f3a6d33	0.72822875
52	0xbeaac8f5	-0.33356443
53	0x3f133385	0.5750049
54	0xbf34eb84	-0.7067187
55	0x3ecf76bb	0.40520272
56	0xbf8e7bec	-1.1131568
57	0x3f9f7a98	1.2459288
58	0xbf2a5b50	-0.6654558
59	0xbee3d532	-0.44498593
60	0x3eca9225	0.39564624
61	0xbf9d9efb	-1.2314142
62	0xbf12193f	-0.5706977
63	0xbeb99f72	-0.3625446
64	0xbf6a99f4	-0.91641164
65	0x3d06ccee	0.03291028
66	0x3f992141	1.1963273
67	0xbd059d65	-0.032620806
68	0xbe8ec9dc	-0.2788838
69	0x3daa3183	0.08310225
70	0x3dec0065	0.11523513
71	0xbf498907	-0.7872471
72	0x3e255417	0.16145359
73	0xbf6c9468	-0.9241395
74	0x3f617d50	0.88081837
75	0x3e78f284	0.24311262
76	0xbeb5bdb5	-0.35496297
77	0xbea8fe3a	-0.3300646
78	0x3f449708	0.76792955
79	0x3ed11f4d	0.40844193
80	0x3e55736c	0.20844811
81	0x3f9c66d9	1.2218887
82	0x3f68e180	0.90969086
83	0x3eb7353e	0.35782808
84	0x3e69ec68	0.22844088
85	0x3ffb5b4e	1.9637239
86	0x3f63e110	0.89015293
87	0xc0369896	-2.853063
88	0x3ee125ad	0.43974057
89	0x3ed3f366	0.41396636
90	0xbf3ec67c	-0.74521613
91	0xc00d17b5	-2.204572
92	0xbf1c1e7c	-0.60984015
93	0xbf3f6de9	-0.74777085
94	0xbb982920	-0.0046435744
95	0x3f45be81	0.7724381
96	0xbf0c2382	-0.5474168
97	0x3e8be9fc	0.27326953
98	0x3ec44da5	0.38340488
99	0xbdab9a4c	-0.08379039
100	0x3f612e0c	0.87960887
101	0x3f402b2a	0.75065863
102	0xbe934dd3	-0.28770313
103	0x3ee4013b	0.4453219
104	0xbf133662	-0.57504857
105	0xbec398bc	-0.38202465
106	0x3f3baac5	0.7330745
107	0xbf476c43	-0.7789957
108	0xbf7a969a	-0.9788605
109	0x3f2dbfc3	0.6787073
110	0x3f4e3ec3	0.80564517
111	0xbf9749ef	-1.1819438
112	0xbed9a743	-0.42510423
113	0xbe240355	-0.16016896
114	0xbe67ca1f	-0.22635697
115	0x3fe74439	1.8067695
116	0x3eacdf21	0.33763984
117	0xbcadd011	-0.021217378
118	0xbfc61b7a	-1.5477135
119	0xbf9542f1	-1.1661054
120	0x401b369d	2.4252083
121	0x3fae3708	1.3610544
122	0xbf172e63	-0.59055156
123	0x3e70f3a6	0.23530445
124	0x3fbde07b	1.4834131
125	0x3ff8aade	1.9427145
126	0x3fe9a706	1.8254097
127	0xbfb47a85	-1.409989
128	0x3f33fdf0	0.7030935
129	0x4008cf85	2.137666
130	0x401155d0	2.2708626
131	0xbead3bd6	-0.33834714
132	0x3fa3724f	1.2769259
133	0x4012bc5d	2.2927468
134	0x3f073fbb	0.5283162
135	0x3fcbff1c	1.5937228

weight f4 [24, 4]
0	0x3c36eba8	0.011164583
1	0x3dae4a72	0.08510293
2	0xbcf91e31	-0.030409904
3	0x3dc40964	0.095721036
4	0xba9d2673	-0.0011989608
5	0x3e118dcd	0.14214249
6	0x3cbdefde	0.023185667
7	0x3d72286d	0.059120584
8	0xbbf43ac5	-0.007453295
9	0x3e2c3c0d	0.16819783
10	0x3cbca919	0.02302985
11	0xbbe2fd31	-0.0069271554
12	0xbc2b209d	-0.010444787
13	0x3e2a5f8a	0.16638008
14	0x3c85d2a2	0.01633579
15	0xbd07fc8c	-0.03319983
16	0x38d1fa40	0.00010012509
17	0x3e28dcd3	0.16490488
18	0x3c98c56a	0.018648822
19	0xbd680905	-0.056649227
20	0x3be4d681	0.0069835787
21	0x3e25775f	0.16158818
22	0x3c83a2fe	0.016068932
23	0xbd6de5c8	-0.058080465
24	0xba75d826	-0.0009378217
25	0x3df4e91e	0.11958526
26	0x3c48c901	0.012254954
27	0x3db34284	0.08752921
28	0xbc2de6de	-0.010614125
29	0xbdc2b5a5	-0.09507302
30	0x3cc3b6f3	0.023890948
31	0xbc71da6b	-0.014761548
32	0xbbc2fdff	-0.005950689
33	0xbdddd713	-0.10832038
34	0x3bafe843	0.005368264
35	0xbbd4ea92	-0.0064976895
36	0xbbfb66c7	-0.007672164
37	0xbddadb51	-0.106863625
38	0x3cc0dbde	0.02354234
39	0xbc414ecc	-0.011798572
40	0x3c4b320b	0.012402068
41	0xbde1a2aa	-0.11017354
42	0x3cdf1abb	0.027234426
43	0xbac1a28d	-0.0014773175
44	0xbbc563f8	-0.00602388
45	0xbdd8d2c9	-0.10587079
46	0x3d0bfa29	0.03417412
47	0xbb8e83f8	-0.004349228
48	0x3b9c2360	0.004764959
49	0xbdc6b37e	-0.09702204
50	0x3d0cb205	0.03434946
51	0xbc552b5a	-0.013010824
52	0x3bfa887f	0.007645666
53	0xbdbd0353	-0.0922915
54	0x3ce28e09	0.027655618
55	0xbca2fcf1	-0.019896002
56	0xb95c41c4	-0.00021005335
57	0xbdc0c6e0	-0.094129324
58	0x3cb1b3c7	0.02169217
59	0xbc37f572	-0.011227952
60	0xbb99b4bf	-0.004690736
61	0xbdba9d2b	-0.09112009
62	0x3cbdb1fd	0.02315616
63	0xbca607d1	-0.020267399
64	0x3c8abd49	0.016935961
65	0xbd72c468	-0.05926934
66	0xbb8a0c42	-0.004212887
67	0xbb8e64ee	-0.004345528
68	0x3b96c6f1	0.0046013524
69	0xbd405256	-0.04695352
70	0xbd3df335	-0.04637452
71	0xbc0329df	-0.008005588
72	0x3b0facc6	0.002192305
73	0xbd108fb6	-0.035293303
74	0xbd51dcae	-0.051235847
75	0x3c4ec01f	0.012619047
76	0x3ab9a2e8	0.001416293
77	0xbd0d5a97	-0.03451022
78	0xbd25c04e	-0.0404666
79	0x3c068e86	0.008212691
80	0x382f5e06	4.1810817e-05
81	0xbd91bbdf	-0.07115912
82	0x3bea4cbf	0.007150262
83	0xbca42b9c	-0.020040326
84	0x3b6f75e9	0.0036538786
85	0xbd7163c3	-0.05893303
86	0xbcd26c19	-0.02568631
87	0x3bc1251f	0.0058943178
88	0xbb5e1fea	-0.0033893534
89	0xbc7022d8	-0.014656745
90	0xbdca0a72	-0.098652735
91	0x3ba93de7	0.00516485
92	0xbb9c5052	-0.004770317
93	0x3d350324	0.04419245
94	0xbdc44d13	-0.09585013
95	0x3d1e59db	0.03865991

weight f4 [4, 8]
0	0x3e2f9cdd	0.17149682
1	0x3e322002	0.17395023
2	0x3f4a961d	0.79135305
3	0x3e81bbdb	0.25338635
4	0x3b4746e3	0.0030407242
5	0xbddd34cb	-0.10801085
6	0xbcbd6386	-0.023118746
7	0x3cadca50	0.021214634
8	0xbf2a56e4	-0.66538835
9	0xbed27d1a	-0.4111107
10	0x3d5ca726	0.053870343
11	0xbda6f638	-0.08152431
12	0xbb531406	-0.003220798
13	0xbe048257	-0.12940346
14	0x3ce032fa	0.027368058
15	0x3b9a8d85	0.0047165775
16	0xbf47b22b	-0.7800624
17	0xbf2f4421	-0.6846333
18	0xbf176b41	-0.5914803
19	0x3eab79cc	0.3349136
20	0x3ae19731	0.0017211196
21	0xbde09cec	-0.109674305
22	0xbc165915	-0.009176512
23	0x3cfe677d	0.031055206
24	0xbefa47bd	-0.48882857
25	0xbe472193	-0.19446401
26	0x3efdf2ad	0.4959921
27	0xbe9f4474	-0.31106913
28	0x3b555409	0.003255131
29	0xbe529fbc	-0.20568746
30	0x3c0368d0	0.008020595
31	0xbc37df31	-0.011222647

bias f4 [4]
0	0x3e3353fb	0.17512505
1	0xbdc75df6	-0.097347185
2	0xbe4d298a	-0.20035377
3	0xbd3c4c2b	-0.045971077

weight f4 [8, 1, 1]
0	0xbf0f247f	-0.55915064
1	0x3f844123	1.0332378
2	0xbf5221a2	-0.8208257
3	0x3ef85a54	0.48506415
4	0xbf3ca695	-0.73691684
5	0xbeeba3ab	-0.46023306
6	0x3f6c9f86	0.92430913
7	0xbeccae9e	-0.39976972

bias f4 [8]
0	0xbe71067e	-0.23537633
1	0x3ef3a52d	0.47586957
2	0x3eaa0a6a	0.3321107
3	0xbefb0919	-0.49030378
4	0x3f9a3486	1.2047279
5	0x3f40b19d	0.75271016
6	0xbf02a44f	-0.51031965
7	0x3f48a817	0.78381485
