trained_models/net_1/Supervised_WAE_net_1.pt (torch, 244718 bytes, 174 tensors)

weight f4 [4, 1]
0	0xbf54b5b8	-0.8308978
1	0x3e830418	0.2558906
2	0x3f124fc2	0.5715295
3	0xbe0cf6e0	-0.1376605

bias f4 [4]
0	0x3eb31c58	0.34982562
1	0xbe46c500	-0.19411087
2	0x3d827070	0.06369102
3	0xbe1aa7f8	-0.15103137

pe f4 [1, 65, 4]
0	0x00000000	0.0
1	0x3f800000	1.0
2	0x00000000	0.0
3	0x3f800000	1.0
4	0x3f576aa4	0.84147096
5	0x3f0a5141	0.54030234
6	0x3c23d657	0.009999833
7	0x3f7ffcb9	0.99995
8	0x3f68c7b7	0.9092974
9	0xbed51133	-0.41614684
10	0x3ca3d43e	0.019998666
11	0x3f7ff2e5	0.9998
12	0x3e1081c3	0.14112
13	0xbf7d7026	-0.9899925
14	0x3cf5b91f	0.0299955
15	0x3f7fe283	0.99955004
16	0xbf41bdcf	-0.7568025
17	0xbf275530	-0.6536436
18	0x3d23cbdb	0.039989334
19	0x3f7fcb94	0.9992001
20	0xbf757c10	-0.9589243
21	0x3e913c2c	0.2836622
22	0x3d4cb6f4	0.049979165
23	0x3f7fae19	0.99875027
24	0xbe8f0f8c	-0.2794155
25	0x3f75cdb8	0.96017027
26	0x3d759cd1	0.059964005
27	0x3f7f8a12	0.99820054
28	0x3f283046	0.6569866
29	0x3f40ffbd	0.75390226
30	0x3d8f3e32	0.06994285
31	0x3f7f5f81	0.997551
32	0x3f7d4695	0.98935825
33	0xbe14fdf6	-0.14550003
34	0x3da3aa50	0.07991469
35	0x3f7f2e65	0.9968017
36	0x3ed30132	0.4121185
37	0xbf693fd5	-0.91113025
38	0x3db8123e	0.089878544
39	0x3f7ef6c2	0.9959527
40	0xbf0b44f8	-0.5440211
41	0xbf56cd64	-0.8390715
42	0x3dcc7576	0.099833414
43	0x3f7eb898	0.9950042
44	0xbf7fff5c	-0.9999902
45	0x3b910572	0.004425698
46	0x3de0d372	0.1097783
47	0x3f7e73e8	0.9939561
48	0xbf095cd8	-0.53657293
49	0x3f5806d0	0.84385395
50	0x3df52bac	0.119712204
51	0x3f7e28b5	0.99280864
52	0x3ed72022	0.42016703
53	0x3f684e6f	0.9074468
54	0x3e04bed0	0.12963414
55	0x3f7dd700	0.9915619
56	0x3f7d9872	0.9906074
57	0x3e0c04d7	0.13673721
58	0x3e0ee464	0.13954312
59	0x3f7d7ecc	0.990216
60	0x3f267944	0.65028787
61	0xbf427ae8	-0.7596879
62	0x3e19064f	0.14943813
63	0x3f7d201a	0.9887711
64	0xbe936810	-0.2879033
65	0xbf75292c	-0.9576595
66	0x3e232450	0.15931821
67	0x3f7cbaed	0.98722726
68	0xbf761e25	-0.96139747
69	0xbe8ce236	-0.27516335
70	0x3e2d3e23	0.16918235
71	0x3f7c4f49	0.9855848
72	0xbf4040b3	-0.75098723
73	0x3f290a84	0.6603167
74	0x3e375387	0.17902957
75	0x3f7bdd2e	0.9838437
76	0x3e197969	0.1498772
77	0x3f7d1bbf	0.9887046
78	0x3e41643a	0.1888589
79	0x3f7b64a1	0.9820042
80	0x3f69b6c8	0.9129453
81	0x3ed0f022	0.40808207
82	0x3e4b6ff8	0.19866931
83	0x3f7ae5a5	0.9800666
84	0x3f562f10	0.8366556
85	0xbf0c37fc	-0.54772925
86	0x3e557683	0.2084599
87	0x3f7a603c	0.9780309
88	0xbc110515	-0.008851309
89	0xbf7ffd6f	-0.99996084
90	0x3e5f7796	0.21822962
91	0x3f79d46a	0.97589743
92	0xbf58a1e6	-0.8462204
93	0xbf0867bf	-0.53283304
94	0x3e6972f0	0.22797751
95	0x3f794234	0.9736664
96	0xbf67d3fc	-0.9055784
97	0x3ed92dfe	0.42417902
98	0x3e736851	0.23770262
99	0x3f78a99b	0.971338
100	0xbe078738	-0.13235176
101	0x3f7dbf78	0.99120283
102	0x3e7d5777	0.24740396
103	0x3f780aa5	0.9689124
104	0x3f433708	0.76255846
105	0x3f259c81	0.6469193
106	0x3e83a010	0.25708055
107	0x3f776556	0.96639
108	0x3f74d50e	0.95637596
109	0xbe959338	-0.29213881
110	0x3e889105	0.2667314
111	0x3f76b9b1	0.9637709
112	0x3e8ab42a	0.2709058
113	0xbf766d57	-0.9626059
114	0x3e8d7e7d	0.27635565
115	0x3f7607bb	0.96105546
116	0xbf29e3e9	-0.6636339
117	0xbf3f80b3	-0.74805754
118	0x3e926854	0.2859522
119	0x3f754f79	0.9582439
120	0xbf7cefa4	-0.9880316
121	0x3e1df418	0.15425146
122	0x3e974e6c	0.2955202
123	0x3f7490ef	0.9553365
124	0xbecede06	-0.40403765
125	0x3f6a2c8e	0.91474235
126	0x3e9c30a5	0.30505863
127	0x3f73cc22	0.95233357
128	0x3f0d2a4d	0.5514267
129	0x3f558fa9	0.83422333
130	0x3ea10ede	0.31456655
131	0x3f730118	0.94923544
132	0x3f7ffa39	0.99991184
133	0xbc5986b7	-0.013276747
134	0x3ea5e8f7	0.324043
135	0x3f722fd5	0.94604236
136	0x3f0771f7	0.5290827
137	0xbf593be7	-0.8485703
138	0x3eaabed2	0.3334871
139	0x3f71585f	0.9427547
140	0xbedb3ac2	-0.42818266
141	0xbf67585f	-0.9036922
142	0x3eaf904d	0.3428978
143	0x3f707abb	0.9393727
144	0xbf7de538	-0.99177885
145	0xbe0308ea	-0.12796369
146	0x3eb45d49	0.3522742
147	0x3f6f96ef	0.9358968
148	0xbf24beea	-0.6435381
149	0x3f43f22d	0.76541406
150	0x3eb925a9	0.36161545
151	0x3f6ead01	0.93232733
152	0x3e97bd9f	0.29636857
153	0x3f747fb5	0.95507365
154	0x3ebde94a	0.37092048
155	0x3f6dbcf7	0.9286646
156	0x3f76bb4b	0.96379536
157	0x3e88856c	0.26664293
158	0x3ec2a80e	0.3801884
159	0x3f6cc6d7	0.92490906
160	0x3f3ebfbc	0.74511313
161	0xbf2abc74	-0.66693807
162	0x3ec761d7	0.38941833
163	0x3f6bcaa7	0.921061
164	0xbe226dfb	-0.15862267
165	0xbf7cc244	-0.98733926
166	0x3ecc1686	0.39860934
167	0x3f6ac86e	0.9171208
168	0xbf6aa128	-0.91652155
169	0xbecccae0	-0.3999853
170	0x3ed0c5fa	0.40776044
171	0x3f69c032	0.9130889
172	0xbf54ef30	-0.8317747
173	0x3f0e1be8	0.5551133
174	0x3ed57016	0.41687077
175	0x3f68b1fb	0.90896577
176	0x3c9103a1	0.017701926
177	0x3f7ff5bb	0.9998433
178	0x3eda14bd	0.42593947
179	0x3f679dce	0.90475166
180	0x3f59d4d0	0.8509035
181	0x3f067b81	0.525322
182	0x3edeb3cd	0.43496552
183	0x3f6683b4	0.90044713
184	0x3f66db9a	0.90178835
185	0xbedd466e	-0.43217796
186	0x3ee34d2a	0.4439481
187	0x3f6563b2	0.8960525
188	0x3dfd13e8	0.123573124
189	0xbf7e09b2	-0.99233544
190	0x3ee7e0b6	0.45288628
191	0x3f643dd2	0.8915683
192	0xbf44ac56	-0.76825464
193	0xbf23e080	-0.64014435
194	0x3eec6e52	0.46177918
195	0x3f631219	0.8869949
196	0xbf742922	-0.95375264
197	0x3e99e744	0.30059254
198	0x3ef0f5e0	0.47062588
199	0x3f61e091	0.88233286
200	0xbe8655ff	-0.26237485
201	0x3f770804	0.96496606
202	0x3ef57744	0.47942555
203	0x3f60a940	0.87758255
204	0x3f2b9424	0.6702292
205	0x3f3dfdd1	0.7421542
206	0x3ef9f25e	0.48817724
207	0x3f5f6c2f	0.8727445
208	0x3f7c93a0	0.9866276
209	0xbe26e70e	-0.16299078
210	0x3efe6712	0.4968801
211	0x3f5e2966	0.8678192
212	0x3ecab6b4	0.39592516
213	0xbf6b1495	-0.9182828
214	0x3f016aa2	0.50553334
215	0x3f5ce0ed	0.8628071
216	0xbf0f0ccd	-0.5587891
217	0xbf544da6	-0.8293098
218	0x3f039e6a	0.51413596
219	0x3f5b92cc	0.8577087
220	0xbf7feff4	-0.99975514
221	0x3cb5432c	0.022126757
222	0x3f05ced5	0.52268726
223	0x3f5a3f0c	0.8525245
224	0xbf05845e	-0.521551
225	0x3f5a6ca2	0.8532201
226	0x3f07fbd2	0.5311862
227	0x3f58e5b6	0.8472551
228	0x3edf50fd	0.43616477
229	0x3f665dac	0.8998668
230	0x3f0a2553	0.539632
231	0x3f5786d3	0.841901
232	0x3f7e2ce7	0.99287266
233	0x3df414b7	0.119180135
234	0x3f0c4b4c	0.54802394
235	0x3f56226b	0.8364627
236	0x3f230143	0.636738
237	0xbf456583	-0.7710802
238	0x3f0e6dad	0.556361
239	0x3f54b887	0.83094066
240	0xbe9c1023	-0.3048106
241	0xbf73d156	-0.95241296
242	0x3f108c68	0.5646424
243	0x3f534932	0.8253356
244	0xbf77537f	-0.9661178
245	0xbe8425e6	-0.25810164
246	0x3f12a771	0.57286745
247	0x3f51d474	0.819648
248	0xbf3d3af2	-0.7391807
249	0x3f2c6af7	0.67350715
250	0x3f14beb8	0.58103514
251	0x3f505a57	0.8138785
252	0x3e2b5f4b	0.1673557
253	0x3f7c63b8	0.9858966
254	0x3f16d231	0.58914477
255	0x3f4edae4	0.8080275

weight f4 [4, 4]
0	0x3e0fa230	0.14026713
1	0xbed19376	-0.40932816
2	0xbddb69f8	-0.10713571
3	0x3db8dc68	0.09026414
4	0x3ea66878	0.32501578
5	0x3d0876c0	0.033316374
6	0x3e6a5948	0.2288562
7	0x3c528980	0.012850165
8	0xbef98a8a	-0.4873851
9	0xbddfec08	-0.10933691
10	0xbea79f94	-0.32738936
11	0x3e32e908	0.17471707
12	0x3c4c4600	0.012467861
13	0xbed488aa	-0.41510516
14	0x3e33d814	0.17562896
15	0x3eb53fc0	0.354002

weight f4 [4, 4]
0	0x3eb3277a	0.34991056
1	0x3e0182d0	0.12647557
2	0x3d2efc50	0.042721093
3	0x3ece1608	0.40251184
4	0x3eff31fe	0.4984283
5	0x3d9405b0	0.07227647
6	0x3dc2d1d8	0.09512681
7	0x3e1d12cc	0.15339202
8	0xbe4fe400	-0.20301819
9	0xbee2a594	-0.4426695
10	0x3e17fedc	0.14843315
11	0xbe052518	-0.13002431
12	0x3ed2440a	0.41067535
13	0xbeb9d2c0	-0.36293602
14	0xbe4be920	-0.19913149
15	0x3ef29622	0.47380167

weight f4 [4, 4]
0	0xbe5b5fb8	-0.21423233
1	0x3e9ffc1e	0.31247038
2	0xbeb9ed3c	-0.36313808
3	0x3ef9d3c4	0.48794377
4	0x3ead1106	0.3380205
5	0xbea50960	-0.32233715
6	0x3e54a504	0.20766073
7	0xbed70674	-0.4199711
8	0x3ec28ad0	0.3799653
9	0xbee8d8f8	-0.45478034
10	0xbefeb116	-0.4974448
11	0x3e931d06	0.2873308
12	0x3e3ca834	0.1842354
13	0x3e569fa0	0.2095933
14	0x3efdc4c4	0.49564183
15	0xbeed2f6a	-0.46325237

weight f4 [4, 4]
0	0xbecbba8a	-0.39790756
1	0x3ecf9df0	0.40550184
2	0x3ec86592	0.39139992
3	0x3da9b838	0.0828709
4	0xbd9f2d20	-0.07772279
5	0x3efa7a6e	0.4892153
6	0xbe904b38	-0.28182387
7	0xbee16d1c	-0.44028556
8	0x3ec064fa	0.3757704
9	0xbe746464	-0.23866421
10	0xbeb8fb64	-0.36129296
11	0x3e0e6e90	0.13909364
12	0x3eec6564	0.46171105
13	0xbe372dac	-0.17888516
14	0x3e535bb8	0.20640457
15	0xbe43ad60	-0.19109106

bias f4 [4]
0	0x3eb4cbe2	0.353118
1	0xbe31e014	-0.17370635
2	0x3e2a71f8	0.16645038
3	0x3e28f1fc	0.1649856

weight f4 [4, 4]
0	0xbefe26ac	-0.4963888
1	0x3d2149c0	0.039376974
2	0x3d46e8d0	0.04856187
3	0xbe421008	-0.18951428
4	0xbe019f88	-0.12658513
5	0xbdae5bf0	-0.085136294
6	0x3ecceea2	0.40025812
7	0xbee17998	-0.4403808
8	0xbe821268	-0.25404668
9	0xbdcf5fd8	-0.101257026
10	0xbd994410	-0.07483685
11	0xbd737920	-0.059441686
12	0xbe5f7d64	-0.21825176
13	0xbedd8176	-0.43262833
14	0x3ce7db60	0.028302848
15	0x3e355b30	0.17710567

bias f4 [4]
0	0xbeb8d7b0	-0.36102057
1	0x3e7cf9b8	0.24704635
2	0xbe4732e4	-0.19453007
3	0xbd9d3d28	-0.0767768

weight f4 [4, 4]
0	0x3e5e9ef8	0.2174033
1	0x3e83e510	0.25760698
2	0x3ee2a4d2	0.44266373
3	0x3edb0cb8	0.4278314
4	0x3def5f50	0.11688101
5	0x3ec52948	0.38508058
6	0xbdb2a000	-0.08721924
7	0xbe587e00	-0.21141815
8	0x3e076670	0.1322267
9	0x3e632254	0.22181064
10	0xbdb48578	-0.0881452
11	0xbebafffa	-0.3652342
12	0xbe353f38	-0.17699897
13	0xbe85ed24	-0.26157486
14	0xbd96e038	-0.07366985
15	0x3df716c8	0.12064892

bias f4 [4]
0	0x3e798774	0.24368078
1	0x3ead295c	0.33820617
2	0x3ed8fe22	0.42381388
3	0xbe565820	-0.20932055

weight f4 [4]
0	0x3f800000	1.0
1	0x3f800000	1.0
2	0x3f800000	1.0
3	0x3f800000	1.0

bias f4 [4]
0	0x00000000	0.0
1	0x00000000	0.0
2	0x00000000	0.0
3	0x00000000	0.0

weight f4 [4]
0	0x3f800000	1.0
1	0x3f800000	1.0
2	0x3f800000	1.0
3	0x3f800000	1.0

bias f4 [4]
0	0x00000000	0.0
1	0x00000000	0.0
2	0x00000000	0.0
3	0x00000000	0.0

weight f4 [32, 260]
0	0xbd1803e8	-0.0371131
1	0x3c3398d3	0.010961729
2	0xbcb68e5d	-0.022284681
3	0xbcfb973d	-0.030711764
4	0x3cf2bcd0	0.029631048
5	0xbd77ee02	-0.060529716
6	0x3d1f0c13	0.038829874
7	0x3c80d6fa	0.015727509
8	0x3ca197b1	0.019725652
9	0xbce681a6	-0.028137993
10	0x3d778d76	0.060437642
11	0xbca1976e	-0.019725528
12	0x3c92e9d8	0.017933771
13	0x3c70e835	0.0147038
14	0xbd4886b6	-0.048956595
15	0x3cbad918	0.022808596
16	0xbd39171f	-0.045188066
17	0x3cb0a26d	0.021561826
18	0xbd01e141	-0.03170896
19	0xbd73d257	-0.059526768
20	0x3c0bea11	0.0085396925
21	0xbcc470a0	-0.023979485
22	0x3b650d8b	0.00349507
23	0x3d756a64	0.059915915
24	0xbd292a92	-0.041300364
25	0xbd54a341	-0.051913504
26	0xbd677fc2	-0.056518324
27	0xbcbd8233	-0.023133373
28	0xbd32247c	-0.043491825
29	0x3cfc5952	0.03080431
30	0x3c00107d	0.007816431
31	0x3cca08af	0.024662344
32	0x3d41ace8	0.047284037
33	0x3c750445	0.014954631
34	0xbc7d289d	-0.0154515775
35	0xbd1ae53d	-0.037816275
36	0x3d20dbbc	0.039272055
37	0xbca155dc	-0.019694261
38	0x3d2b0462	0.041752227
39	0x3d2f1160	0.04274118
40	0x3d5158ef	0.051110204
41	0x3cf2ddf6	0.029646855
42	0xbcaf063f	-0.021365283
43	0xbd131845	-0.035911817
44	0x3c81b6d0	0.015834242
45	0xbd35d530	-0.044392765
46	0xbcd82572	-0.026385043
47	0xbd4c368e	-0.049856715
48	0xba10498b	-0.0005504123
49	0xbc3636bc	-0.011121448
50	0xbcee31dd	-0.029076511
51	0x3ccc0009	0.02490236
52	0xbcb082b5	-0.021546701
53	0xbd413453	-0.04716904
54	0xbd1b730e	-0.03795152
55	0xbd73332a	-0.059374966
56	0xbcc96f6d	-0.024589265
57	0xbcdb6364	-0.026780792
58	0x3c7ae59e	0.015313534
59	0xbd1d4845	-0.038399
60	0xbc9bf0eb	-0.019035777
61	0x3c2c9816	0.010534307
62	0x3d27abc7	0.040935304
63	0x3d6d9203	0.058000576
64	0xbd7688f7	-0.060189214
65	0xbcf9ace1	-0.030477943
66	0x3d7a05a1	0.061040524
67	0x3c0f01e8	0.008728482
68	0x3c3a260d	0.011361611
69	0x3b540d8a	0.0032356703
70	0x3c97d484	0.018533953
71	0xbd7c2d38	-0.06156656
72	0xbc339d5a	-0.0109628085
73	0x3ca4d5e7	0.020121528
74	0x3d693348	0.05693367
75	0xbba5d3b2	-0.0050606364
76	0x3d1697bb	0.036765795
77	0x3d0430c3	0.032273065
78	0x3d05f871	0.032707635
79	0x3d282633	0.041052055
80	0x3d548e3d	0.05189346
81	0xbbf843b5	-0.0075764307
82	0x3d6db011	0.058029238
83	0xbd574cd9	-0.052563522
84	0x3c307232	0.010769414
85	0x3ce46cc8	0.027883902
86	0xbcff6b9b	-0.03117924
87	0x3b753895	0.0037417759
88	0x3c402913	0.011728543
89	0x3a153e2c	0.0005693163
90	0x3cda1dc9	0.02662553
91	0x3c6fc1a0	0.014633566
92	0x3b7311fe	0.0037089582
93	0xbd6965a2	-0.05698169
94	0xbcf9dbf0	-0.030500382
95	0x3d605b5e	0.054774635
96	0x3d235ec8	0.039885312
97	0x3c7b3ff2	0.01533507
98	0xbd019b35	-0.031642158
99	0x3c46aa06	0.012125498
100	0x3d5c84f2	0.053837724
101	0x3d3240be	0.043518774
102	0xbce9d7f4	-0.028545357
103	0x3d29637d	0.041354645
104	0x3cdefb54	0.027219452
105	0x3a869129	0.001026665
106	0x3d04dd51	0.032437626
107	0x3d1b1b4d	0.037867833
108	0x3d413f70	0.04717964
109	0xbd28b11a	-0.041184522
110	0x3d490f4e	0.04908686
111	0x3ae965c3	0.0017806817
112	0xbc3d9779	-0.011571758
113	0x3d11d457	0.035602894
114	0xbd33160d	-0.0437222
115	0xbc7cab9e	-0.015421776
116	0x3d4bed08	0.049786597
117	0xbd297ebd	-0.041380633
118	0xbd1554a5	-0.036457676
119	0x3bff5928	0.0077926107
120	0x3d59eccb	0.05320434
121	0xbbcc5d4b	-0.0062367073
122	0xbc2b3a6f	-0.010450943
123	0xbd18edef	-0.037336286
124	0xbd21162b	-0.03932778
125	0xbcd31540	-0.025766969
126	0xbd31fa88	-0.043451816
127	0x3cc6b80e	0.024257686
128	0x3bbc534f	0.005747236
129	0x3d402729	0.046912346
130	0xbc151535	-0.009099294
131	0x3c903df2	0.017607663
132	0x3d58ba4d	0.052912045
133	0xbc89fe41	-0.01684487
134	0xbd56de56	-0.05245813
135	0x3c9dbb3e	0.019254323
136	0x3acbedb9	0.0015558518
137	0x3d45363b	0.04814742
138	0xbd5a4913	-0.053292345
139	0x3cb9ee78	0.022696719
140	0xbd0d19dc	-0.03444849
141	0x3cf10ba7	0.029424502
142	0x3b032c0c	0.0020015268
143	0x3ccd58f5	0.025066832
144	0x3ce0adb6	0.027426582
145	0x3d33bf1a	0.04388342
146	0x3d1641f0	0.036683977
147	0x3d764b72	0.060130544
148	0xbd249fc7	-0.040191438
149	0x3c596ff7	0.013271323
150	0x3d2dbe9d	0.04241811
151	0x3d063934	0.032769397
152	0xbd196108	-0.03744605
153	0xbd669b8c	-0.056300685
154	0xbd7d882f	-0.061897453
155	0x3d50655b	0.05087791
156	0xbc164900	-0.009172678
157	0xbc702de9	-0.014659383
158	0x3c98f98c	0.01867368
159	0x3d421176	0.047379933
160	0xbce4b9ce	-0.02792063
161	0xbcf933bf	-0.030420182
162	0xbce72738	-0.028216943
163	0xbd64d457	-0.055866566
164	0x3d69ed28	0.057110935
165	0x3c782bad	0.015147132
166	0x3cdfde53	0.027327692
167	0xbd287ef2	-0.04113669
168	0x3c358c5f	0.01108083
169	0xbd6996eb	-0.057028692
170	0xbb916575	-0.0044371434
171	0xbc8e025d	-0.017335111
172	0xbd2389f6	-0.03992649
173	0x3d55a4de	0.052159183
174	0xba9c6ddb	-0.0011934595
175	0x38eac051	0.00011193811
176	0xbcadd4f7	-0.021219714
177	0xbd2c92c7	-0.042132165
178	0xbcd2028b	-0.025635978
179	0x3d09e7ac	0.033668205
180	0x3bf9d790	0.007624574
181	0x3cadf619	0.021235513
182	0xbd3b8e79	-0.04579017
183	0x3d559c81	0.052151207
184	0x3cef7003	0.029228216
185	0x3ca3798d	0.01995542
186	0xbcebd457	-0.028787775
187	0xbc4b0656	-0.012391647
188	0x3c8e844a	0.017397065
189	0xbca3e1b6	-0.020005088
190	0xbd4ed591	-0.05049664
191	0xbb75265a	-0.0037406893
192	0x3b85a61d	0.00407864
193	0x3b9ed89a	0.0048475983
194	0xbd7a6846	-0.0611346
195	0xbd1d4da9	-0.03840414
196	0xbb027b4c	-0.0019909916
197	0x3bcea74b	0.006306564
198	0xbd6de3e8	-0.058078676
199	0x3c3c85ab	0.011506478
200	0x3cc00f3a	0.02344476
201	0x3d42ca00	0.047555923
202	0x3d6cb3f2	0.057788797
203	0x3d49b12e	0.049241237
204	0x3cbba85b	0.022907427
205	0x3cc351e8	0.023842767
206	0xbd056e2c	-0.03257577
207	0x3d720a51	0.05909187
208	0xbd0221fa	-0.031770684
209	0x3c86e1e8	0.016465142
210	0x3ba622c4	0.0050700624
211	0x3bfd9f58	0.0077399425
212	0xbd529a3d	-0.051416624
213	0x3c1d105f	0.009586423
214	0xbd2fb08b	-0.042892974
215	0xbb8df977	-0.004332717
216	0xbd0f863e	-0.035040133
217	0xbd4cc74c	-0.04999475
218	0x3d3f7523	0.04674257
219	0xbcdb6b8c	-0.02678468
220	0x3d49b4e8	0.04924479
221	0x3d0553a5	0.032550473
222	0xbd1d8232	-0.038454242
223	0x3d15f1ce	0.036607556
224	0xbd2c9ef4	-0.042143777
225	0xbd0012a1	-0.031267766
226	0x3d042c32	0.03226871
227	0xbd35affc	-0.044357285
228	0xbd6c07e0	-0.057624698
229	0x3d4eec8b	0.050518554
230	0x3b596bb8	0.0033175778
231	0xbd1dbf1d	-0.038512338
232	0xbb8a6fd3	-0.0042247563
233	0xbce7289d	-0.028217608
234	0xbd7a91ef	-0.06117433
235	0x3d43e076	0.047821485
236	0x3d5dfea9	0.05419794
237	0x3b760047	0.0037536786
238	0x3d094764	0.03351535
239	0xbbcb3180	-0.006200969
240	0x3bb85c55	0.005626241
241	0xbc9bb972	-0.019009326
242	0x3c207c66	0.009795284
243	0xbc074cdb	-0.00825807
244	0xbd4fb31c	-0.05070792
245	0x3c5cc993	0.013475793
246	0x3c3b8cc2	0.0114471335
247	0xbcf1ab90	-0.029500753
248	0x3cf5f85b	0.030025652
249	0x3c406df2	0.011744963
250	0xbd2cfa49	-0.042230878
251	0xbd4fc3d0	-0.05072385
252	0x3d0923e2	0.033481486
253	0x3d5f5d0d	0.0545321
254	0x3d0374d3	0.032093834
255	0x3d7074c7	0.058705118

bias f4 [32]
0	0x3cd5971d	0.026073033
1	0xbd2abbbf	-0.041682955
2	0x3d2a1213	0.041521143
3	0xbd24b4c9	-0.040211473
4	0x3caac6a1	0.020846667
5	0x3d40075c	0.04688202
6	0x3c34330f	0.010998501
7	0x3af7d6fe	0.0018908677
8	0x3cb6dbf7	0.022321684
9	0x3c19f14f	0.009395911
10	0xbd246f3a	-0.040145136
11	0xbd0514a5	-0.03249039
12	0xbc22bfcb	-0.009933422
13	0x3c1aff15	0.00946023
14	0xbd10a078	-0.035309285
15	0x3d1ea856	0.038734756
16	0x3d5d9caa	0.054104485
17	0xbd3079d8	-0.04308495
18	0x3cca7b5f	0.024717031
19	0xbc3d150d	-0.011540663
20	0xbca78952	-0.020451222
21	0xbca4d3a8	-0.020120457
22	0x3ce70f54	0.028205551
23	0x3d2606f7	0.040533986
24	0x3d2e5699	0.042563055
25	0x3cc466fc	0.023974888
26	0x3d28c59e	0.041204087
27	0x3c9f58a3	0.019451445
28	0xbcae2923	-0.02125985
29	0x3c161498	0.009160183
30	0x3d2d842e	0.042362384
31	0xbcf5a07e	-0.029983755

weight f4 [8, 32]
0	0x3d60b31d	0.054858316
1	0xbdb825a3	-0.08991554
2	0xbe1c0ac8	-0.15238488
3	0x3d7983ce	0.060916714
4	0xbe32b94a	-0.17453495
5	0x3c4efe3a	0.0126338545
6	0x3e2f1e69	0.17101444
7	0x3ccd9578	0.025095686
8	0xbe25ff57	-0.16210686
9	0x3d9d5a5f	0.076832525
10	0xbe1e6b8e	-0.15470716
11	0x3e052370	0.130018
12	0xbdfa35e5	-0.12217311
13	0xbe337b36	-0.1752747
14	0x3e1d97f0	0.15389991
15	0xbe1b213b	-0.15149395
16	0xbe29d746	-0.16586027
17	0xbe0785b2	-0.13234594
18	0xbcf942d1	-0.030427368
19	0x3e097705	0.13424309
20	0xbe187fb5	-0.14892466
21	0x3daee4eb	0.085397564
22	0xbd3e3622	-0.046438344
23	0x3d60bcd0	0.054867566
24	0xbe04b334	-0.12958986
25	0xbc661ed5	-0.014045437
26	0x3d045193	0.032304358
27	0x3ca5b164	0.020226188
28	0x3df6303a	0.12020917
29	0x3d8f9a64	0.070118695
30	0x3d4588c3	0.04822613
31	0x3d89d227	0.067295365
32	0x3c079a59	0.008276545
33	0xbd5c0793	-0.05371816
34	0xbe1f491e	-0.15555236
35	0x3ca70966	0.020390224
36	0xbe1144fd	-0.14186473
37	0x3dd469fe	0.10371779
38	0x3c90fe82	0.017699484
39	0xbd906889	-0.070511885
40	0x3db66ecd	0.08907852
41	0x3dce6576	0.10077946
42	0x3da82219	0.082096286
43	0xbdbf38ae	-0.09336983
44	0xbc8b2c81	-0.016988995
45	0x3dd92539	0.10602803
46	0x3d602a93	0.054728102
47	0x3c119427	0.00888542
48	0xbdaa5423	-0.08316829
49	0xbe16cb92	-0.14726093
50	0x3dee5b5c	0.11638519
51	0xbd9faf17	-0.077970676
52	0xbcdf0411	-0.027223619
53	0x3dcc6198	0.09979552
54	0xbc4ba3b6	-0.012429168
55	0xbce1df15	-0.027572194
56	0xbcc220d5	-0.023697296
57	0xbe2fc0d4	-0.17163402
58	0xbe12ab90	-0.14323258
59	0x3e075b8f	0.1321852
60	0x3deb6806	0.1149445
61	0x3e01a17e	0.1265926
62	0x3b2cd625	0.0026372757
63	0x3da9b12c	0.08285746
64	0xbd437976	-0.047723256
65	0xbda26f31	-0.07931364
66	0xbd76c743	-0.060248625
67	0xbe238ee1	-0.15972473
68	0x3d6af133	0.05735893
69	0xbe29c54c	-0.16579169
70	0x3c6d5544	0.014485661
71	0xbe185e98	-0.14879835
72	0x3d6c45e4	0.05768384
73	0x3d9ee6de	0.07758878
74	0x3e191288	0.14948475
75	0x3d468af8	0.048472375
76	0xbe1deaae	-0.15421554
77	0xbb87a32f	-0.004139326
78	0xbe2e7d30	-0.17039943
79	0xbc94e815	-0.018177072
80	0xbd25ded2	-0.0404957
81	0x3dc33936	0.095323965
82	0x3e1d036a	0.15333334
83	0xbdd8fcc8	-0.10595089
84	0x3cc8a07b	0.024490586
85	0xbd185c6e	-0.037197523
86	0x3e2783e9	0.16358913
87	0xbd5f642a	-0.054538883
88	0xbe1a0053	-0.15039186
89	0xbda184dd	-0.0788667
90	0x3e0c6866	0.137117
91	0xbdb961e7	-0.090518765
92	0xbdf02648	-0.117260516
93	0xbbfbd019	-0.0076847193
94	0xbe196e3c	-0.14983457
95	0x3e14d140	0.14532948
96	0xbe018b20	-0.12650728
97	0x3e1b41a6	0.15161762
98	0xbcb086cc	-0.021548651
99	0x3dcc7405	0.099830665
100	0xbd9bdef7	-0.076108865
101	0xbde13fa1	-0.109984644
102	0xbd1bc20a	-0.038026847
103	0xbc9c31bd	-0.019066686
104	0xbe060ed5	-0.13091595
105	0x3df87dfa	0.12133403
106	0x3e0a3bf4	0.13499433
107	0x3e122425	0.142716
108	0x3d7cfd97	0.06176528
109	0xbe3470a1	-0.1762109
110	0x3da276cb	0.07932814
111	0xbc226548	-0.009911843
112	0xbc9f00b1	-0.01940951
113	0xbdd04f05	-0.10171322
114	0x3d174875	0.036934335
115	0x3e18cca2	0.14921811
116	0xbe305e88	-0.17223561
117	0x3e30eebc	0.1727857
118	0xbe3283fd	-0.17433162
119	0xbda8db78	-0.08244985
120	0xbe32a9b0	-0.17447543
121	0xbcd5e555	-0.02611033
122	0xbcf31992	-0.029675279
123	0xbcd8a197	-0.02644424
124	0x3d24beeb	0.040221136
125	0x3d744163	0.05963267
126	0xbd671fde	-0.056426875
127	0x3de73470	0.112892985
128	0x3de5c146	0.112185046
129	0xbe08fa77	-0.13376795
130	0xbd80f8ba	-0.06297441
131	0xbe2e2042	-0.17004493
132	0x3be365a0	0.006939605
133	0xbb4bb84e	-0.0031085196
134	0x3dc0ed6b	0.09420284
135	0xbd1435ea	-0.03618423
136	0xbe283124	-0.16424996
137	0x3dce8cfb	0.10085484
138	0xbda5facc	-0.08104476
139	0xbb2ef0f6	-0.0026693917
140	0xbe2e27ba	-0.17007342
141	0xbd0b2377	-0.03396937
142	0x3e2ef345	0.17084987
143	0xbe0f283d	-0.13980193
144	0xbe323e1d	-0.17406507
145	0xbe19a99d	-0.15006109
146	0x3d5b1679	0.05348823
147	0xbc248c79	-0.010043257
148	0xbd78fb28	-0.060786396
149	0x3d510533	0.05103035
150	0x3bb8be4e	0.0056379205
151	0xbc79c62a	-0.015245
152	0xbd7ee945	-0.062234182
153	0x3ca8365c	0.020533733
154	0xbd806e90	-0.06271088
155	0xbdd64fc6	-0.10464434
156	0xbc9c4eb0	-0.01908049
157	0xbe14ae64	-0.1451965
158	0xbe2c1a11	-0.16806819
159	0xbd98dc79	-0.07463927
160	0xbdbe7c3a	-0.09301038
161	0x3d7fb78c	0.062430903
162	0xbdbff6e5	-0.09373263
163	0x3d542f31	0.051802818
164	0x3e1f65c2	0.15566161
165	0x3dfcd4da	0.12345286
166	0x3d99315b	0.07480117
167	0x3cf3746f	0.029718606
168	0x3e019f6a	0.12658468
169	0xbdb86be5	-0.09004954
170	0x3e0dfbb9	0.13865556
171	0x3e201649	0.15633501
172	0x3ce69dc2	0.028151397
173	0x3e0b94b9	0.13630952
174	0x3d3864db	0.04501806
175	0x3dd2c987	0.102923445
176	0xbe1aaa9c	-0.15104145
177	0xbe0b6c07	-0.13615428
178	0x3d25c251	0.040468518
179	0x3d22735c	0.039660797
180	0x3e1f8600	0.1557846
181	0x3e1905ff	0.14943694
182	0xbda6ae83	-0.08138754
183	0xbc18fee9	-0.009338119
184	0x3bb339af	0.005469523
185	0xbdae5ac4	-0.08513406
186	0xbd9ff025	-0.07809476
187	0x3e2c0b2c	0.16801137
188	0xbe0550e1	-0.13019134
189	0xbdc6dbb0	-0.09709871
190	0x3dd0c7b1	0.10194338
191	0x3e0b9e49	0.136346
192	0xbdf947b6	-0.12171881
193	0x3d40bfb9	0.04705784
194	0xbdc38997	-0.095477276
195	0x3cda5a78	0.026654467
196	0x3e348593	0.1762908
197	0xbde6194c	-0.11235294
198	0xbe0fa10e	-0.14026281
199	0x3dc0c887	0.094132476
200	0xbd8d414f	-0.06897222
201	0xbe1dc01b	-0.15405314
202	0xbd9c7bb5	-0.07640783
203	0x3db9dedc	0.0907571
204	0x3d51837c	0.051150784
205	0xbd1c77b8	-0.03820011
206	0xbe20fa88	-0.1572057
207	0xbe2e4f10	-0.17022347
208	0xbd8f01e4	-0.069827825
209	0xbe0cb7fe	-0.13742062
210	0x3dae0436	0.08496897
211	0x3de190d6	0.110139534
212	0x3e1e22fa	0.1544303
213	0xbd5eac4c	-0.054363534
214	0x3d4a79e9	0.04943267
215	0xba4dce86	-0.0007850904
216	0xbe008b10	-0.12553048
217	0x3dd24bf9	0.10268397
218	0x3d372f1f	0.044722673
219	0x3d645994	0.05574949
220	0xbcdb3141	-0.026756885
221	0xbe0b53d0	-0.1360619
222	0xbd8854b9	-0.066567846
223	0x3ddb87a1	0.107192285
224	0xbd223d93	-0.039609503
225	0x3d9fb9eb	0.07799133
226	0xbdbedfaa	-0.09320004
227	0x3d0c0aef	0.034190115
228	0xbe0f32a6	-0.13984165
229	0xbe318307	-0.17335139
230	0xbbbddafc	-0.0057939272
231	0xbd4b69aa	-0.049661316
232	0xbe20cda3	-0.15703444
233	0xbdcc1797	-0.09965437
234	0x3d9dda09	0.077076025
235	0x3dee18b7	0.11625808
236	0xbe099f80	-0.1343975
237	0xbda90d99	-0.08254547
238	0xbe1b888c	-0.15188807
239	0xbe31e18b	-0.17371194
240	0x3e0af296	0.13569102
241	0xbdd1e3dc	-0.10248539
242	0x3db64ea9	0.08901722
243	0xbc6a22f7	-0.014290563
244	0xbe23d79d	-0.16000219
245	0xbdc90144	-0.098146945
246	0xbd865f9e	-0.06561206
247	0xbdb6cc75	-0.08925716
248	0xbe246328	-0.1605345
249	0xbddfba58	-0.10924214
250	0xbdb73270	-0.08945167
251	0x3e065267	0.13117371
252	0xbdf2b54e	-0.118509874
253	0x3dae7bbc	0.08519694
254	0x3dabc4ba	0.08387132
255	0xbdd3454e	-0.10315953

bias f4 [8]
0	0x3d86f3c7	0.065894656
1	0xbe08e68b	-0.13369195
2	0xbd969d43	-0.07354214
3	0xbd43bdfc	-0.047788605
4	0xbd9288ca	-0.07154997
5	0xbe2f5b3a	-0.17124644
6	0xbd31ebdd	-0.043437827
7	0x3cfcab2b	0.030843338

weight f4 [4, 1]
0	0xbf460186	-0.77346075
1	0xbe7d2038	-0.24719322
2	0xbece1d94	-0.4025694
3	0x3f50d5da	0.8157631

bias f4 [4]
0	0x3e82e694	0.25566542
1	0xbe310078	-0.17285335
2	0xbf6fc462	-0.9365903
3	0xbeaf0f88	-0.34191537

pe f4 [1, 8, 4]
0	0x00000000	0.0
1	0x3f800000	1.0
2	0x00000000	0.0
3	0x3f800000	1.0
4	0x3f576aa4	0.84147096
5	0x3f0a5141	0.54030234
6	0x3c23d657	0.009999833
7	0x3f7ffcb9	0.99995
8	0x3f68c7b7	0.9092974
9	0xbed51133	-0.41614684
10	0x3ca3d43e	0.019998666
11	0x3f7ff2e5	0.9998
12	0x3e1081c3	0.14112
13	0xbf7d7026	-0.9899925
14	0x3cf5b91f	0.0299955
15	0x3f7fe283	0.99955004
16	0xbf41bdcf	-0.7568025
17	0xbf275530	-0.6536436
18	0x3d23cbdb	0.039989334
19	0x3f7fcb94	0.9992001
20	0xbf757c10	-0.9589243
21	0x3e913c2c	0.2836622
22	0x3d4cb6f4	0.049979165
23	0x3f7fae19	0.99875027
24	0xbe8f0f8c	-0.2794155
25	0x3f75cdb8	0.96017027
26	0x3d759cd1	0.059964005
27	0x3f7f8a12	0.99820054
28	0x3f283046	0.6569866
29	0x3f40ffbd	0.75390226
30	0x3d8f3e32	0.06994285
31	0x3f7f5f81	0.997551

weight f4 [4, 4]
0	0xbefc18e6	-0.49237746
1	0xbe1d353c	-0.15352339
2	0x3dc43d80	0.09582043
3	0xbe29aef8	-0.16570652
4	0x3dbd39e0	0.092395544
5	0xbef3cbb4	-0.4761635
6	0xbc5b5240	-0.013386309
7	0x3ee8b876	0.45453233
8	0xbea3557a	-0.3190115
9	0x3dc9c448	0.09851891
10	0xbe977e7a	-0.2958868
11	0x3ee4c32a	0.44680148
12	0xbe2f93c4	-0.17146212
13	0x3e691118	0.22760427
14	0xbe90142c	-0.2814039
15	0xbc193580	-0.009351134

weight f4 [4, 4]
0	0x3ed35200	0.412735
1	0xbe0428c4	-0.12906176
2	0xbea34334	-0.3188721
3	0xbeb29896	-0.3488204
4	0x3ed777a0	0.42083454
5	0x3ebf6d76	0.373882
6	0xbebd15ae	-0.36930603
7	0xbee7100a	-0.45129424
8	0x3eadaa78	0.3391912
9	0xbe4ac84c	-0.1980297
10	0x3efdf930	0.49604177
11	0x3ee814dc	0.45328414
12	0xbe2a8048	-0.16650498
13	0xbe5e7c10	-0.21727014
14	0xbe8fdcce	-0.28098148
15	0xbea870fe	-0.32898706

weight f4 [4, 4]
0	0xbe8e5798	-0.27801204
1	0x3c989980	0.018627882
2	0xbe3377a4	-0.17526108
3	0xbe94c354	-0.29055274
4	0xbdfcb280	-0.12338734
5	0x3eaeaa16	0.3411414
6	0xbef6a4d6	-0.48172635
7	0x3d6ce790	0.057838023
8	0xbe812cee	-0.2522959
9	0x3e6daa3c	0.2320947
10	0xbde0b8d8	-0.10972756
11	0xbec8b852	-0.39203125
12	0x3d826f90	0.06368935
13	0xbcdf6920	-0.027271807
14	0xbe7b8240	-0.24561405
15	0xbed82fc8	-0.42223954

weight f4 [4, 4]
0	0x3df4ca30	0.11952627
1	0x3ea31cfe	0.31858057
2	0xbda22bd0	-0.07918513
3	0x3eace5ee	0.33769172
4	0x3ec019a2	0.37519556
5	0xbd841168	-0.064486325
6	0x3d2fbb70	0.042903364
7	0x3eba670e	0.3640675
8	0x3e3b2e04	0.18279272
9	0xbec2fd18	-0.3808372
10	0xbd18ee30	-0.03733653
11	0x3dea60b0	0.11444223
12	0x3ef06312	0.46950585
13	0xbdf85c58	-0.12126988
14	0xbead256a	-0.33817607
15	0xbdda3598	-0.106547534

bias f4 [4]
0	0x3e5e7350	0.21723676
1	0xbeb14720	-0.34624577
2	0x3d868f48	0.065702975
3	0x3e247874	0.16061574

weight f4 [4, 4]
0	0x3eb6a79c	0.3567475
1	0xbee21abe	-0.44161028
2	0xbe5e8014	-0.21728545
3	0x3e3967a8	0.18105948
4	0x3e2c6fb4	0.16839486
5	0x3e28c698	0.16482008
6	0x3ef4377c	0.4769858
7	0x3d897728	0.067121804
8	0x3edfbe9a	0.43700105
9	0x3ebe0d6c	0.37119615
10	0xbeafc6ac	-0.34331262
11	0x3d79ffd0	0.061034977
12	0x3dab8a88	0.08376032
13	0xbdb96cc0	-0.090539455
14	0x3dd06b90	0.10176766
15	0xbc8ab520	-0.01693207

bias f4 [4]
0	0xbce020a0	-0.027359307
1	0x3e9b5ed4	0.30345786
2	0x3e4b0c38	0.1982888
3	0xbe045634	-0.12923509

weight f4 [4, 4]
0	0x3e32eabc	0.17472357
1	0xbddd54d0	-0.10807192
2	0xbec0afea	-0.37634212
3	0xbe7162d4	-0.23572856
4	0xbec5b01a	-0.38610917
5	0x3eb40ef6	0.35167664
6	0x3ef527e8	0.4788201
7	0xbef3d3a2	-0.476224
8	0xbe379d10	-0.17931008
9	0x3e95b262	0.29237658
10	0x3eba66c2	0.36406523
11	0xbe4905ec	-0.19631165
12	0x3e84e3c0	0.2595501
13	0xbeae197c	-0.34003818
14	0x3ee583c4	0.44827092
15	0xbe078d7c	-0.13237566

bias f4 [4]
0	0x3e951a5a	0.29121667
1	0x3ec6e8f2	0.38849598
2	0xbebf4ea2	-0.3736468
3	0xbed5b794	-0.41741621

weight f4 [4]
0	0x3f800000	1.0
1	0x3f800000	1.0
2	0x3f800000	1.0
3	0x3f800000	1.0

bias f4 [4]
0	0x00000000	0.0
1	0x00000000	0.0
2	0x00000000	0.0
3	0x00000000	0.0

weight f4 [4]
0	0x3f800000	1.0
1	0x3f800000	1.0
2	0x3f800000	1.0
3	0x3f800000	1.0

bias f4 [4]
0	0x00000000	0.0
1	0x00000000	0.0
2	0x00000000	0.0
3	0x00000000	0.0

weight f4 [4, 4]
0	0xbde95f70	-0.113951564
1	0xbea0fe46	-0.31443995
2	0xbe438350	-0.1909306
3	0x3ec5befa	0.38622266
4	0x3e5e1450	0.21687436
5	0xbc4a0d00	-0.012332201
6	0x3dd63fe0	0.10461402
7	0x3d98c7e0	0.07459998
8	0xbe6c36a4	-0.23067719
9	0x3e3f67c4	0.18691927
10	0x3e5ee358	0.21766412
11	0xbe80ebea	-0.25179988
12	0x3e5370f8	0.20648563
13	0xbdad5d28	-0.08465034
14	0x3bf45c80	0.007457316
15	0xbe2dd620	-0.16976213

weight f4 [4, 4]
0	0x3e007728	0.12545455
1	0x3e11d530	0.14241481
2	0x3e8cc2ba	0.27492315
3	0xbebc4052	-0.36767823
4	0xbd41a230	-0.047273815
5	0xbe4f728c	-0.2025854
6	0xbda8fd58	-0.082514465
7	0x3eec63c0	0.46169853
8	0x3e2e125c	0.16999191
9	0xbe3bc9dc	-0.18338722
10	0xbe328218	-0.1743244
11	0xbd6d2610	-0.057897627
12	0xbee0bd6c	-0.43894517
13	0x3efcacec	0.4935068
14	0x3e0132fc	0.12617105
15	0xbe854538	-0.26029372

weight f4 [4, 4]
0	0xbe7fcbf4	-0.24980146
1	0x3e07599c	0.13217777
2	0xbe146374	-0.14491063
3	0xbd9743f0	-0.07386005
4	0xbd79e200	-0.061006546
5	0xbe95ebce	-0.29281467
6	0xbecba990	-0.39777803
7	0x3ee1e0b8	0.4411676
8	0xbd84f070	-0.06491172
9	0xbea35130	-0.3189788
10	0x3e8de7b2	0.27715832
11	0xbe44b654	-0.19210178
12	0xbedc3fea	-0.43017513
13	0x3e9c85d6	0.3057086
14	0xbe9d82e2	-0.30763918
15	0x3e2196e8	0.15780222

weight f4 [4, 4]
0	0xbd522f50	-0.051314652
1	0x3e8b5af0	0.27217817
2	0x3dc97548	0.09836823
3	0x3b765d00	0.0037592053
4	0xbec9ee64	-0.3943969
5	0x3e97b886	0.29632968
6	0x3dabaab8	0.083821714
7	0xbdc33550	-0.09531653
8	0xbeda3110	-0.42615557
9	0x3d89f830	0.06736791
10	0x3e2d549c	0.16926807
11	0xbecddf12	-0.40209252
12	0xbe5de670	-0.21669936
13	0xbebb4808	-0.36578393
14	0x3e959922	0.29218394
15	0xbdc0d3b0	-0.09415376

bias f4 [4]
0	0xbeae8878	-0.34088492
1	0x3e8b02be	0.2715053
2	0x3da3ee58	0.08004445
3	0xbe6f0cfc	-0.23344797

weight f4 [4, 4]
0	0xbe8a9e74	-0.27074015
1	0x3e212594	0.15736991
2	0xbe18ed5c	-0.14934295
3	0x3cf2afa0	0.02962476
4	0x3dfd0998	0.123553455
5	0x3edb1e4a	0.42796546
6	0xbcec1700	-0.028819561
7	0xbe76c368	-0.24097979
8	0x3e7e4d98	0.24834287
9	0xbee11220	-0.4395914
10	0xbeb049ac	-0.34431207
11	0x3eae284a	0.34015113
12	0xbed86efe	-0.4227218
13	0x3eae655e	0.34061712
14	0xbedba36e	-0.42898124
15	0xbeb419e0	-0.3517599

bias f4 [4]
0	0xbe931dd6	-0.287337
1	0xbea50a74	-0.32234538
2	0x3e082a34	0.13297349
3	0x3ea5ab46	0.32357234

weight f4 [4, 4]
0	0xbec8f040	-0.39245796
1	0x3ec4b8ba	0.38422185
2	0xbd8fafe0	-0.07015967
3	0x3effc88e	0.499577
4	0xbe88e610	-0.26738024
5	0xbe8d345e	-0.27579015
6	0xbdaf88b8	-0.08570999
7	0xbeba44fc	-0.36380756
8	0xbe852936	-0.26008004
9	0x3e1a6d40	0.15080738
10	0xbe435950	-0.19077039
11	0xbdbdfee0	-0.09277129
12	0x3ed7f834	0.4218155
13	0x3e8d7978	0.27631736
14	0xbea73106	-0.3265459
15	0xbecfe4c0	-0.4060421

bias f4 [4]
0	0xbd7f61d0	-0.06234914
1	0xbbf50480	-0.007477343
2	0x3e1a6604	0.15077978
3	0x3eed8e6e	0.46397728

weight f4 [4]
0	0x3f800000	1.0
1	0x3f800000	1.0
2	0x3f800000	1.0
3	0x3f800000	1.0

bias f4 [4]
0	0x00000000	0.0
1	0x00000000	0.0
2	0x00000000	0.0
3	0x00000000	0.0

weight f4 [4]
0	0x3f800000	1.0
1	0x3f800000	1.0
2	0x3f800000	1.0
3	0x3f800000	1.0

bias f4 [4]
0	0x00000000	0.0
1	0x00000000	0.0
2	0x00000000	0.0
3	0x00000000	0.0

weight f4 [8, 32]
0	0x3d30aa87	0.043131378
1	0xbdfdd32e	-0.12393795
2	0x3dfa4708	0.122205794
3	0x3d1c06b2	0.038092323
4	0xbdd2ae3a	-0.10287137
5	0xbe2772ad	-0.16352339
6	0x3c4816ba	0.01221245
7	0xbdb7140e	-0.08939372
8	0xbdbd22a1	-0.092351206
9	0xbe2553b9	-0.16145219
10	0x3e2795ad	0.1636569
11	0x3e0b2d42	0.13591483
12	0x3d1ed857	0.038780537
13	0x3e2ae86a	0.16690221
14	0xbc0c32e2	-0.008557053
15	0x3d893680	0.06699848
16	0x3d4631b2	0.048387237
17	0x3dcb6985	0.09932236
18	0x3d72a3c0	0.059238195
19	0xbe2ec496	-0.17067179
20	0x3e2fdb8b	0.17173593
21	0xbe226f2e	-0.15862724
22	0x3e0c4bc8	0.13700783
23	0xbe0d4906	-0.13797387
24	0x3d0aeec3	0.033919107
25	0xbe11d57b	-0.14241593
26	0x3e238acb	0.15970914
27	0x3e0449b4	0.1291874
28	0x3db6f5a3	0.0893357
29	0x3d37c8f1	0.044869367
30	0xbdcf0f47	-0.10110336
31	0xbd15b097	-0.036545362
32	0x3cd041f3	0.025422072
33	0xbc86cd32	-0.016455267
34	0x3e2f26f6	0.17104706
35	0xbd561da8	-0.052274376
36	0xbca78f92	-0.020454202
37	0xbd126361	-0.035739306
38	0x3d917b1d	0.0710356
39	0xbc82658a	-0.015917558
40	0xbde71f6f	-0.11285292
41	0x3c62eb35	0.013850023
42	0xbe239789	-0.15975775
43	0xbdd94bdc	-0.10610172
44	0x3d93bd05	0.07213787
45	0xbe331f69	-0.17492451
46	0x3d7f11b5	0.062272746
47	0xbcf18ffa	-0.029487599
48	0xbd97dea1	-0.0741551
49	0x3e0ebdfc	0.13939661
50	0x3de4bcc8	0.1116882
51	0x3e1091d3	0.14118128
52	0x3e306424	0.172257
53	0x3d19bb2d	0.03753202
54	0x3db92b1a	0.09041424
55	0xbe2040be	-0.15649697
56	0xbde397aa	-0.11112912
57	0x3d19283b	0.037391882
58	0x3ddff49b	0.10935327
59	0xbd180821	-0.037117127
60	0xbe178096	-0.14795145
61	0xbd96108f	-0.07327377
62	0xbd4f966f	-0.050680574
63	0xbc4c7203	-0.012478354
64	0x3d151463	0.036396395
65	0x3db0332b	0.086035095
66	0xbdf010cb	-0.11721953
67	0x3df16500	0.11786842
68	0x3e0a73c7	0.13520728
69	0xbdc1d8e6	-0.09465198
70	0x3dd3e393	0.10346141
71	0xbc80e0a1	-0.015732111
72	0x3d84aaec	0.06477913
73	0x3d9dc8ec	0.077043384
74	0x3db46e18	0.08810061
75	0xbe0ea5d8	-0.13930452
76	0xbcc1af4d	-0.02364316
77	0xbcdb069b	-0.026736548
78	0xbdac6acc	-0.084188074
79	0xbd77aa1c	-0.060464963
80	0x3dc9bed3	0.0985085
81	0xbcd5d36f	-0.026101796
82	0x3d5fead3	0.054667305
83	0xbe24e527	-0.1610304
84	0xbdb30397	-0.08740919
85	0x3d9831f8	0.07431406
86	0x3d86c2c2	0.06580116
87	0xbd8a53da	-0.06754275
88	0x3dc8f188	0.098116934
89	0x3dc22d30	0.09481275
90	0xbcf7d0bc	-0.0302509
91	0xbdcfa712	-0.10139288
92	0xbe07200d	-0.1319582
93	0x3df0fabf	0.11766576
94	0xbe2210f8	-0.15826786
95	0xbe1e22b0	-0.1544292
96	0x3d27ce1b	0.040968042
97	0x3dae71bf	0.08517789
98	0x3e01fbe4	0.12693745
99	0x3dc258d1	0.09489597
100	0xbd311dc9	-0.043241296
101	0x3e167396	0.1469253
102	0xbd1cac28	-0.03825012
103	0x3dfc5198	0.1232025
104	0xbd27fefc	-0.041014656
105	0xbbcc1df4	-0.0062291566
106	0x3d8a5d7a	0.067561105
107	0x3cbe7fd4	0.023254313
108	0xbda3c73c	-0.07996985
109	0x3e06b366	0.13154373
110	0xbd60fe3e	-0.054929964
111	0x3dd8b77f	0.10581874
112	0x3e1f1606	0.15535745
113	0x3e302386	0.17201051
114	0x3d94345e	0.07236551
115	0xbd826381	-0.06366635
116	0x3cdc5fce	0.026901152
117	0x3e0c1a73	0.13681965
118	0x3ded9523	0.11600711
119	0x3d2bd7d4	0.041953877
120	0x3d6c8823	0.057747018
121	0xbe18965d	-0.14901109
122	0x3be2a70f	0.0069168876
123	0xbd8c6043	-0.06854298
124	0x3c699a95	0.014258047
125	0xbd007a1f	-0.031366464
126	0x3be3c7bd	0.006951301
127	0x3dea1c2f	0.11431157
128	0xbcb4bbc3	-0.022062188
129	0xbc7cd576	-0.015431752
130	0x3e174848	0.14773667
131	0xbe3495b1	-0.17635228
132	0xbd59b228	-0.05314842
133	0xbe212f44	-0.15740687
134	0x3ce63439	0.028101074
135	0xbe14b772	-0.14523104
136	0xbdf27857	-0.11839359
137	0xbcf10c0f	-0.029424695
138	0xbe04bec9	-0.12963404
139	0x3c16b1fa	0.009197706
140	0xb8910b97	-6.9162976e-05
141	0x3cf3ba43	0.029751902
142	0x3c1c3573	0.009534228
143	0xbdd52522	-0.10407473
144	0xbe29e5aa	-0.16591516
145	0x3d41ebc2	0.047343977
146	0x3de63ef6	0.112424776
147	0xbc761989	-0.0150207365
148	0xbdb920ea	-0.09039481
149	0x3d4133cc	0.047168538
150	0x3cbad377	0.022805912
151	0x3d58edbc	0.052961096
152	0xbd9f2f04	-0.077726394
153	0x3e1d36d1	0.15352942
154	0xbdb2c092	-0.08728136
155	0x3d6899ed	0.05678742
156	0xbc35146b	-0.011052231
157	0x3d40ff95	0.047118742
158	0xbd9a0e4e	-0.0752226
159	0x3c2e9bc1	0.010657252
160	0xbe19f734	-0.15035707
161	0xbc95769c	-0.018245034
162	0x3de51ce5	0.11187152
163	0x3ce755ea	0.02823921
164	0x3d430ceb	0.04761974
165	0x3e1f0f99	0.15533294
166	0x3e33460f	0.17507194
167	0xbdf51494	-0.119668156
168	0xbe266384	-0.162489
169	0x3df75005	0.120758094
170	0xbe1f5a02	-0.15561679
171	0xbdbee9f9	-0.093219705
172	0x3c1ca00c	0.0095596425
173	0xbdf6742d	-0.120338775
174	0xbca64c12	-0.020299945
175	0x3c98bfb6	0.018646102
176	0x3d92855d	0.07154343
177	0x3e1127a2	0.14175275
178	0x3e24c7ef	0.16091894
179	0xbe294936	-0.16531834
180	0xbb4e9265	-0.0031520363
181	0xbe18b3b6	-0.14912304
182	0x3d686db5	0.05674525
183	0xbde35431	-0.111000426
184	0x3d3217f2	0.043479867
185	0xbdf10d46	-0.1177011
186	0xbdc45825	-0.09587125
187	0x3d0ffd47	0.035153653
188	0x3e0df306	0.13862237
189	0x3e0866b7	0.13320433
190	0xbd458f15	-0.048232157
191	0xbdab98d5	-0.0837876
192	0x3dda3fdb	0.10656711
193	0x3d8f1b1a	0.06987591
194	0xbe0c7978	-0.13718212
195	0x3e2a3674	0.16622335
196	0x3d570abd	0.052500475
197	0x3d2341e6	0.039857768
198	0xbde4cb00	-0.11171532
199	0xbdf63c61	-0.12023235
200	0xbde0d475	-0.10978023
201	0xbcb254ef	-0.021769015
202	0x3ddb926d	0.10721288
203	0x3cc75b36	0.024335485
204	0xbdf6329a	-0.1202137
205	0xbd08031c	-0.03320609
206	0xbb86e90a	-0.004117136
207	0x3e081c90	0.13292146
208	0xbe2ff001	-0.17181398
209	0xbd6f1762	-0.05837191
210	0x3db7b973	0.089709185
211	0xbe156524	-0.14589363
212	0x3dd4f24c	0.10397777
213	0xbd901cca	-0.07036741
214	0x3d0fb04a	0.03508023
215	0x3d20a41d	0.03921901
216	0xbd53fd62	-0.051755317
217	0xbe33b081	-0.175478
218	0x3cd2a7e5	0.025714824
219	0x3e0ae6ce	0.13564608
220	0x3e119c69	0.14219822
221	0x3e2ce9b6	0.16886029
222	0x3c8a4109	0.016876714
223	0x3d0c8af6	0.03431221
224	0x3e141742	0.14461997
225	0x3d65104c	0.055923745
226	0xbe0e6fd4	-0.13909847
227	0x3e32a362	0.17445138
228	0xbd82997a	-0.063769296
229	0xbc804c89	-0.015661495
230	0xbd855c8a	-0.06511791
231	0x3d090cb7	0.03345939
232	0x3db7dd80	0.08977795
233	0x3d356814	0.04428871
234	0xbd6e4631	-0.05817241
235	0x3e108f00	0.1411705
236	0x3c26ac80	0.010172963
237	0x3d2d9d27	0.0423862
238	0x3db400b1	0.087891944
239	0x3db3c8c9	0.08778531
240	0xbde2d28f	-0.11075317
241	0x3db215ed	0.08695588
242	0x3cd69ad6	0.026196878
243	0x3d6be5e1	0.057592276
244	0xbc3a47e6	-0.011369681
245	0xbe098ec6	-0.1343337
246	0xbd374cc7	-0.044750955
247	0xbe28a2ca	-0.16468349
248	0xbe0d7aa6	-0.13816318
249	0xbdd3c7e9	-0.10340864
250	0x3dd69c49	0.10479028
251	0x3d3b9ff3	0.045806836
252	0x3e2c3e2e	0.16820595
253	0xbe2a6c6d	-0.16642924
254	0xbd4aa768	-0.049476057
255	0x3da2e608	0.07954031

bias f4 [8]
0	0xbe0aec1b	-0.1356663
1	0xbdb8fab5	-0.090321936
2	0x3e23ddd2	0.16002586
3	0xbc9da49e	-0.019243535
4	0xbda7ed79	-0.08199591
5	0x3e2898c5	0.16464527
6	0x3e2e81c6	0.17041692
7	0xbe2691e1	-0.16266586

weight f4 [34, 4]
0	0xbfa705a1	-1.3048593
1	0x40006aa2	2.0065084
2	0x3e52b073	0.20575123
3	0x3f89ecd6	1.0775402
4	0xbf9b2ad2	-1.2122443
5	0x3f884326	1.0645492
6	0xbd80e9ab	-0.06294569
7	0xbfc9a48c	-1.5753341
8	0x3eda4547	0.4263098
9	0x40094662	2.1449208
10	0x3e47c8f2	0.19510248
11	0x3f88f615	1.0700098
12	0xbf8c011d	-1.093784
13	0x400d57f3	2.208493
14	0xbfa24bc2	-1.267937
15	0xbf72e07d	-0.9487379
16	0xbfeba3b7	-1.8409337
17	0xbf3cee86	-0.7380146
18	0x3ec8d0ef	0.39221904
19	0x3f921364	1.1412168
20	0x3eb74171	0.35792115
21	0x3fb18ac8	1.3870478
22	0x3e552e6d	0.20818491
23	0x3e873a58	0.264117
24	0xbf4c3f4d	-0.7978409
25	0x3d9971e4	0.07492426
26	0x3f57ac53	0.8424732
27	0xbe8e430d	-0.2778553
28	0xbd523552	-0.05132038
29	0xbf1bf397	-0.60918564
30	0x3f7336fd	0.9500578
31	0xbe461805	-0.193451
32	0x3f22f680	0.6365738
33	0x3d17000b	0.036865275
34	0x3ffd1703	1.9772648
35	0xbef05713	-0.46941432
36	0xbf9fc236	-1.2481143
37	0xbf29f77d	-0.6639326
38	0x3ed69175	0.4190785
39	0x3f7e658d	0.99373704
40	0xbf18a993	-0.5963375
41	0x3fac47b7	1.3459386
42	0xbf2e6290	-0.68119144
43	0xbf047520	-0.5174122
44	0x3e9b1539	0.3028963
45	0x3e4cdb3e	0.2000551
46	0x3f7e0c04	0.99237084
47	0x3fc8b308	1.5679636
48	0xbf7ab1ec	-0.9792774
49	0xc00d2288	-2.2052326
50	0xbfdd36c3	-1.7282337
51	0xbe36ea1f	-0.17862748
52	0xbede6e2c	-0.4344343
53	0x3eb88118	0.3603599
54	0xbd00cbd7	-0.031444397
55	0x3e9ec278	0.31007743
56	0xbf08d7fc	-0.53454566
57	0x4018f9ce	2.3902469
58	0x3dc76ba5	0.097373284
59	0xbfa3bed9	-1.2792617
60	0xbbab185b	-0.0052214093
61	0xbf9b53be	-1.2134931
62	0xbf74d22b	-0.9563319
63	0xbf15f7ab	-0.58581036
64	0xbf899a6d	-1.0750252
65	0xbdfd10d9	-0.12356729
66	0x3f5cf496	0.8631071
67	0xbcae772a	-0.021297056
68	0x3ba143e4	0.0049214233
69	0x3ebdd8ac	0.3707937
70	0x3f174f38	0.59105253
71	0xbf8ff2bc	-1.1245952
72	0x3ea30ba9	0.31844833
73	0xbeb78fa4	-0.35851777
74	0x3f3f324c	0.7468612
75	0xbfc73790	-1.5563831
76	0xbed26982	-0.4109612
77	0xbdf2d389	-0.118567534
78	0x3f2989de	0.66225994
79	0xbf2c8001	-0.6738282
80	0xbf200917	-0.6251387
81	0x3f549f32	0.8305541
82	0x3f2a7912	0.6659099
83	0x3f61a944	0.88148904
84	0xbe4d8a2e	-0.20072243
85	0x3f4fef5c	0.8122461
86	0x3f2f9453	0.685857
87	0xbfa930c8	-1.3218012
88	0x3d4d8145	0.05017211
89	0x3e27f1d8	0.1640085
90	0xbf225edc	-0.63425994
91	0xc027de30	-2.6229362
92	0xbf8133d0	-1.0093937
93	0xbf94ce48	-1.1625452
94	0xbdf0412f	-0.11731183
95	0x3f50ee0e	0.8161324
96	0xbed83db3	-0.42234573
97	0xbe86dd82	-0.26340872
98	0x3f87721e	1.0581701
99	0x3f754e0f	0.9582223
100	0x3f18d430	0.5969877
101	0x3f0da559	0.55330426
102	0xbf2ed400	-0.68292236
103	0x3ecb883b	0.39752373
104	0xbeaa1697	-0.3322036
105	0xbecd489c	-0.4009446
106	0x3f24b61a	0.64340365
107	0xbe3d496b	-0.18485038
108	0xbf4557f3	-0.77087325
109	0x3f143c58	0.5790458
110	0x3e085c4c	0.13316458
111	0xbe03ad22	-0.12859014
112	0x3e347ac6	0.1762496
113	0x3f07efad	0.5310009
114	0xbe76e71a	-0.24111596
115	0x3ff0d87d	1.8816067
116	0x3ea33c2f	0.31881854
117	0xbe905b0e	-0.2819447
118	0xbf6fa132	-0.9360534
119	0xbeafc89c	-0.3433274
120	0x3fc1e8ea	1.5149205
121	0x3f37fa00	0.71865845
122	0xbf40cae4	-0.75309587
123	0x3eb44916	0.3521201
124	0xbef1d0ee	-0.47229713
125	0x3e60409d	0.21899648
126	0x4006901c	2.1025457
127	0xc0040b9e	-2.063209
128	0xbf2c53c4	-0.67315316
129	0x3fd83b15	1.689303
130	0x3f91c7b7	1.1389073
131	0xbf4c2119	-0.79738003
132	0x3e2425c1	0.16030027
133	0x3feb05a6	1.8361099
134	0x3f0cf401	0.5505982
135	0x3fe36d59	1.7767745

weight f4 [24, 4]
0	0x3f705487	0.9387898
1	0x3e6df8bf	0.2323942
2	0xbf29304d	-0.66089326
3	0x3e95cf9f	0.29259965
4	0x3f6bf038	0.9216342
5	0xbf1f820d	-0.62307817
6	0xbf19f991	-0.60146433
7	0x3dd0e4e0	0.101999044
8	0x3fc96ab9	1.5735694
9	0x3e494ed1	0.19658972
10	0xbfa69fdf	-1.3017539
11	0x3f2cb2ef	0.6746053
12	0x3ef181cf	0.4716935
13	0x3ef306ab	0.47466025
14	0xbfd433cc	-1.6578307
15	0xbea75771	-0.326839
16	0xbf034116	-0.5127119
17	0xbeabf17a	-0.3358267
18	0x3f5733b2	0.84063256
19	0xbfcb0ced	-1.586332
20	0xbf34948c	-0.70539165
21	0x3e792d35	0.24333651
22	0x3f75a3d1	0.9595309
23	0xbfa3021a	-1.2735016
24	0xbfb38923	-1.4026226
25	0x3f5cf1fc	0.8630674
26	0xbe179e6a	-0.14806524
27	0x3f492175	0.78566676
28	0xbe850c2c	-0.2598585
29	0x3e3ab23b	0.18232052
30	0xbf09c141	-0.5381051
31	0xbe7651b7	-0.24054609
32	0x3ede4f63	0.43419942
33	0xbe41cea3	-0.18926482
34	0xbf8fe7d5	-1.1242625
35	0x3fea95c8	1.832696
36	0x3c00cc7f	0.007861256
37	0x3e83884b	0.2568992
38	0x3f816d46	1.0111473
39	0xbd0e95ba	-0.03481076
40	0xbd8443d6	-0.06458251
41	0x3f3a5234	0.7278168
42	0xbf1412e7	-0.5784134
43	0x3f30a834	0.6900666
44	0x3facd232	1.3501647
45	0x3f9d99fe	1.231262
46	0x3f05441b	0.52057046
47	0xbf1e8e24	-0.6193564
48	0x3f28c2c2	0.65922177
49	0x3e0e35d3	0.1388772
50	0x400507d6	2.0786033
51	0xbf886354	-1.0655313
52	0xbec2057b	-0.37894806
53	0x3c41d16a	0.011829713
54	0x3eb30cac	0.34970605
55	0xbe5e479b	-0.21707003
56	0x3f57a21d	0.8423174
57	0x3d917738	0.07102817
58	0x40298d38	2.6492443
59	0x3f33ba6e	0.70206344
60	0x3e3870da	0.180118
61	0xbfbebd7f	-1.490158
62	0xbea2713e	-0.31727022
63	0x3dfd44ee	0.12366663
64	0xbfeac40e	-1.8341081
65	0xbf095c3f	-0.5365638
66	0xbf767025	-0.9626487
67	0xbf65a731	-0.8970824
68	0x3ffe4735	1.9865481
69	0x3fadb168	1.3569765
70	0xbf3cf070	-0.7380438
71	0xbfa573d2	-1.292597
72	0xbf37994d	-0.71718293
73	0xbf9704c9	-1.1798335
74	0xbecaabce	-0.39584202
75	0xbf44be8a	-0.7685324
76	0x3dbb9348	0.09158951
77	0x4019f536	2.4055915
78	0xbed599b0	-0.41718817
79	0x3e5506ad	0.20803328
80	0x3f4e5be0	0.8060894
81	0xbd672fe6	-0.056442164
82	0xbfc4405d	-1.5332142
83	0xbff38076	-1.9023578
84	0x3f851554	1.0397134
85	0x3f01a246	0.50638235
86	0x3f727aff	0.9471893
87	0x3f129832	0.5726348
88	0x3fa070a0	1.253437
89	0xbe3a3536	-0.18184361
90	0x3f219ee5	0.6313308
91	0xbe7b19e4	-0.24521595
92	0x3ea5bf6b	0.32372603
93	0xbec1a4e9	-0.3782113
94	0x3ffa607f	1.9560698
95	0x3faf9690	1.3717823

weight f4 [4, 8]
0	0x3e52c5d6	0.20583281
1	0x3e110dd8	0.14165437
2	0x3e66da4b	0.2254421
3	0x3e471170	0.19440246
4	0xbe7cc84a	-0.24685779
5	0x3e6f794c	0.23386115
6	0xbe57c003	-0.2106934
7	0x3e1ef418	0.15522802
8	0xbe761a7f	-0.24033545
9	0xbea10eb7	-0.3145654
10	0xbe6e6b9f	-0.23283242
11	0xbe637438	-0.22212303
12	0x3da20ba8	0.079123795
13	0xbe219efc	-0.15783304
14	0xbe981d69	-0.29709938
15	0x3d679a05	0.05654337
16	0xbea48312	-0.3213125
17	0xbeafafa2	-0.34313685
18	0xbe31bfe9	-0.17358364
19	0xbe2c3821	-0.16818286
20	0xbd87f3aa	-0.06638272
21	0xbe6935a7	-0.22774373
22	0xbd5f059d	-0.054448713
23	0xbdc0fc78	-0.094231546
24	0xbe4f54e4	-0.20247227
25	0xbe303295	-0.17206796
26	0x3e5f5628	0.2181021
27	0xbe7dc616	-0.24782595
28	0x3e757e7d	0.23974033
29	0x3d1f0d3e	0.038830988
30	0x3e3af335	0.18256839
31	0xbea28bc6	-0.31747264

bias f4 [4]
0	0x3e92cebc	0.2867335
1	0xbd8db7dc	-0.06919834
2	0xbd0f8d7d	-0.035047043
3	0xbd8745a0	-0.06605077

weight f4 [8, 1, 1]
0	0xbef7eaec	-0.4842142
1	0x3f7bd510	0.9837198
2	0xbf3ac7b2	-0.7296096
3	0x3e69fb10	0.22849679
4	0xbe8ef75c	-0.27923095
5	0xbecde7e0	-0.4021597
6	0x3ed8c2f8	0.4233625
7	0xbe8a85c4	-0.2705518

bias f4 [8]
0	0xbd90fc90	-0.070794225
1	0x3e8ec948	0.2788794
2	0x3e4670a0	0.193789
3	0xbe6ac138	-0.2292527
4	0x3f18ae2c	0.59640765
5	0x3e8f5078	0.2799108
6	0xbdbaaa90	-0.091145635
7	0x3e10ccc0	0.14140606
